models/checkpoints/news_lstm/news_lstm_v2.pt (torch, 117114 bytes, 37 tensors)

sentiment_branch.bn.weight f4 [11]
00000000: 0670 883f 9f61 853f d7d4 813f 7db4 813f
00000010: 85ff 8a3f 891b 843f 5459 853f 9b19 843f
00000020: 4b95 813f e73e 833f 20c5 863f
1.0659187 1.0420417 1.0143079 1.0133206 1.0859228 1.0320903 1.0417886 1.0320314
1.0123686 1.0253571 1.0528908

sentiment_branch.bn.bias f4 [11]
00000000: 683f 9fba c057 273c 77b5 80bb f180 803b
00000010: 3cce 43bb 76ad 6d3b 247c 113c a2d6 4ebc
00000020: b537 a5bc 5f76 1ebb f7ca b33a
-0.0012149634 0.010213792 -0.0039278823 0.003921621 -0.0029877564 0.003626672 0.008879695 -0.012624415
-0.020168165 -0.0024179441 0.0013717104

sentiment_branch.bn.running_mean f4 [11]
00000000: 18bc 0b3b c0a5 893b 120b bdbb 273b ecbb
00000010: 137c 6bba 96ae a03b ebcb c33b 2595 f73b
00000020: fb8c 8e3a dc2f 8dbb fb51 2a3c
0.002132183 0.004200667 -0.005769142 -0.0072092 -0.0008983027 0.0049036248 0.0059752367 0.007555621
0.0010875756 -0.004308684 0.010395522

sentiment_branch.bn.running_var f4 [11]
00000000: 3a66 843f 403e 7b3f c922 7d3f 4138 813f
00000010: 7bb1 843f 553b 783f f3ed 6c3f c673 6b3f
00000020: e791 773f 28c0 593f 5fd9 5b3f
1.0343697 0.9814186 0.988812 1.0095292 1.0366663 0.96965533 0.9255058 0.9197353
0.96707004 0.8505883 0.85878557

sentiment_branch.lstm_layers.0.weight_ih_l0 f4 [192, 11]
00000000: 8eff a5bc 6bbc f83d 62be 11be 40d4 13be
00000010: be06 15be 79b8 0abe 2dcc aebb e94b db3d
00000020: 879f 873d f3c6 103d cac4 8bbd 8566 4b3e
00000030: 88ca e83d 2351 77bd d063 01be d055 f7bd
00000040: 9566 353e c571 203d 11bf c53d b84a c03d
00000050: a61c 063e 283e 01be a677 db3d 6476 12be
00000060: 50f6 853d f5fc c73d fdbd 023e 152d 8c3d
00000070: d1c6 bc3d 0fe0 5f3d f59f bf3d d475 3d3d
00000080: 37c5 62bd a8ca 5dbb 5c95 aa3b a841 ecbd
00000090: 324e aabd edc3 c2bc d218 97bb 63fa 0ebd
000000a0: 59ea b7bc 5db9 bd3d cfcd 133e debf 133d
000000b0: 0adb a13d d2ff 323c c5c1 c53c 7372 d2bc
000000c0: 694d 313b 23fe 1a3e df2c d83d 6a91 bb3d
000000d0: 47b3 22be 15a8 163e 2812 0a3e 4473 32bc
000000e0: 9e0a 2c3d 272f 1f3e 87b4 89bd 71c3 62bd
000000f0: dc69 4bbe 52c3 4cbd 971f 16bd 8d97 9fbd
00000100: e871 cd3c 18d4 2a3d b65b 263e bb11 333e
00000110: 97c5 b73b 06dd 843d ac96 07bc 88f1 2b3e
00000120: 2856 f43d 6acd d33d 7784 093e befe bb3d
00000130: 4cb4 85ba 334e c4ba 8c6d de3d 1c7d 0b3c
00000140: ceb0 663d 7579 cdbd e9f5 083e 8522 8fbc
00000150: 9e76 2fbd f5f0 c9bd 0719 a83d 2172 213c
00000160: 5459 e5bd 1a8e 7f3d 28db 02bd 562f 843d
00000170: 454f acbd f931 e43c f16e 80bd bf02 9fbd
00000180: 1d9d b1bd 45b2 203d 1611 afbd a2f4 833d
00000190: 7c06 03be 74fd 10be 41d7 fbbc b4c9 e9bd
000001a0: 1dd0 0fbe de5b cb3d fb92 853d 9d8c 63bd
000001b0: 6885 9fbd 7f4a 1a3e d641 09bd 84ba c83c
000001c0: 4f18 733d 8f1d 863d 6a04 5a3d 7f83 d3bd
000001d0: 6fdf a2bd 34e3 c8bd 3221 8b3d dc29 4a3c
000001e0: 731b 8f3b bbbe d1bd e434 12be 29a6 febd
000001f0: b114 28be 8ca4 603b 66ab 0d3d ac10 133d
00000200: 566f 85bd c2d5 adbd 333f 16be 6b3c 803d
00000210: ca9c ccbc 4223 09be 72db 85bd cb3e 703d
00000220: 6507 cb3d 847a b63d d47d b03a 98a7 f7bd
00000230: 69ba 883d 701e fc3d 3757 04be 60de bcbc
00000240: 99ab 40bb 1639 8fbd bc61 04be 1b88 55bd
00000250: 4f7a 69bd 7089 81bd 49ab 01be 2262 f03a
00000260: 5a58 1cbe a16d ed3d 06c5 a03d d688 3fbd
00000270: 30f9 47be 6982 c13d 0423 0dbe cf6f 2cbe
00000280: 0995 94bd ac2a edbd 1d93 3dbe a84f 4fbe
00000290: eefe d73c 2f56 b9bd 9ca4 9bbd 496a 443d
000002a0: 17ad 18be 04a2 f03d ec13 083e 9be8 c5bd
000002b0: 37a5 38bd 780d 9abc d191 2cbd c97b ad3d
000002c0: 6e66 4c3e 0286 123c 8218 4bbd 3eb8 fabd
000002d0: 454b 613e 390e 1b3e e71a 703e 867b 0c3c
000002e0: e550 dc3d c8cb 20be 74de 9e3c bc36 233e
000002f0: 6f88 0d3e d5e3 ddbd 792a dcbd e527 533e
00000300: c336 713e 682b fb3d f30b cb3d 0ba1 103e
00000310: 4aac a7bc 166f 953c ce43 483d 7234 f13c
00000320: 41b5 173e 7027 ebbc 7dc9 1d3e 4847 d5bd
00000330: bd6d b8bb 6574 fb3c c25c e13b 20ae 0c3d
00000340: c8ce f4bd dcad 133d 2f9e 1f3c 9fb8 8e3b
00000350: 0e48 a33d 94bf 363e edee a23b c888 153e
00000360: ecc7 553b 7001 d53d 9be7 00bc 7e32 66bc
00000370: c407 973c fa55 e3bd 56ea 0fbc 7e0a 2f3d
00000380: 06c1 c53c 30d7 9c3d dab6 0abe 080e 1a3e
00000390: 061d bebc 265a 1ebe 9f3a 1bbe 9a5e ed3d
000003a0: 6172 05be e759 a8bd b84d 563d 9261 6c3d
000003b0: 9f7b de3d 28a9 1b3e db12 b03d 163b 44bb
000003c0: b5d4 0ebe 7d78 8bbd 39cf 8f3d f0f8 b8bd
000003d0: b3e0 64bd c0a0 5d3d 3f87 10bb cf3e efbd
000003e0: f209 dc3d fcea fa3d 298d babd 53e5 c23d
000003f0: 95f9 a13d 8a2d f83d 1f2c 643d 4b82 97bd
-0.02026346 0.12145313 -0.14232782 -0.14436436 -0.14553353 -0.13546933 -0.0053343982 0.10707838
0.06622224 0.035345983 -0.06824644 0.19863327 0.11366755 -0.060380112 -0.12635732 -0.12076914
0.17714913 0.039171 0.09655584 0.093892515 0.13096866 -0.12621367 0.107161805 -0.14302975
0.06541121 0.097650446 0.12767787 0.06844536 0.09217609 0.05465704 0.09356681 0.046254948
-0.05536386 -0.0033842716 0.0052057933 -0.115359604 -0.08315696 -0.023775065 -0.004611113 -0.034906756
-0.022450613 0.09263871 0.14433978 0.03607165 0.079031065 0.01092525 0.024140248 -0.02568934
0.0027054197 0.15136008 0.105554335 0.09158595 -0.15888701 0.14712556 0.13483489 -0.010891739
0.042002313 0.15545331 -0.06723886 -0.05536217 -0.19864601 -0.04999096 -0.03665122 -0.07792578
0.025078729 0.041706175 0.16245922 0.17487232 0.0056082713 0.064874694 -0.008275669 0.16791356
0.119304955 0.10341914 0.13429438 0.091794476 -0.0010200827 -0.0014976918 0.10860738 0.008513715
0.056320958 -0.10032932 0.13375057 -0.017472515 -0.04283773 -0.09860412 0.082078986 0.009853871
-0.111986786 0.062391378 -0.031947285 0.06454341 -0.08413557 0.02785586 -0.062711604 -0.07764196
-0.08672545 0.03923251 -0.08548181 0.064431444 -0.12795442 -0.14159185 -0.03074229 -0.11415425
-0.14044233 0.09929632 0.06522175 -0.05555402 -0.07789117 0.1506748 -0.03351005 0.024503
0.059349354 0.065486066 0.053226866 -0.10327815 -0.07952773 -0.098089606 0.06793441 0.012339082
0.004367286 -0.10241457 -0.14277989 -0.12434036 -0.16414143 0.0034277765 0.034587286 0.03590457
-0.06515376 -0.08488037 -0.14672546 0.06261524 -0.024977107 -0.13392356 -0.065359965 0.058653634
0.0991352 0.08910087 0.0013465234 -0.12092513 0.0667618 0.12310493 -0.12923895 -0.023055255
-0.0029399155 -0.0699331 -0.12927908 -0.052131753 -0.05700141 -0.06325042 -0.12662996 0.0018339793
-0.15268078 0.11593176 0.07850079 -0.046761356 -0.19528651 0.09448702 -0.13782889 -0.16839527
-0.07254989 -0.11580405 -0.1851315 -0.2024523 0.026366677 -0.09049641 -0.07599756 0.047952924
-0.14909779 0.11749652 0.1328885 -0.096635066 -0.045079436 -0.01880525 -0.04213125 0.08470876
0.19960949 0.008943083 -0.04958392 -0.12242173 0.2200137 0.15142144 0.23447762 0.008574372
0.10757617 -0.15702736 0.019393183 0.15938848 0.13821577 -0.10834471 -0.107502885 0.20620687
0.23556046 0.122641385 0.099143885 0.14123933 -0.020467896 0.018241446 0.04889279 0.029443953
0.14815237 -0.028705329 0.15408893 -0.104139864 -0.005628316 0.03069515 0.0068775127 0.034345746
-0.11953503 0.036054477 0.009742304 0.0043555046 0.07972728 0.17846519 0.00497233 0.14602959
0.0032620383 0.10400665 -0.007867719 -0.014050124 0.01843632 -0.11100383 -0.008783897 0.042734616
0.024139892 0.07658231 -0.13546315 0.15044415 -0.023207199 -0.15464076 -0.15159081 0.115903094
-0.13031913 -0.082202725 0.052320212 0.057710238 0.108634226 0.15201247 0.085973464 -0.0029942445
-0.13948329 -0.06810091 0.070219465 -0.09031856 -0.055878352 0.05410838 -0.002205327 -0.11681902
0.107440844 0.12251851 -0.091089554 0.095163964 0.07908932 0.12118061 0.05570614 -0.07397898

sentiment_branch.lstm_layers.0.weight_hh_l0 f4 [192, 48]
00000000: 1f63 06bd e7ad 97bd eb7a 8f3b 3dcc 033e
00000010: d477 023d 80f4 193e 76a5 5ebe 320f fd3d
00000020: 2026 ad3c 050a df3b 9ade f3bd d506 9abd
00000030: a238 8e3d a179 a1bd f239 0c3e 60de a4bd
00000040: 1c74 923d 87ab d0bd 7d03 763d 1a0d 18bc
00000050: bc80 08bd e9e8 523d 2b9d 0abd fb1a 34bd
00000060: c669 863d 87f2 f0bc 89f3 2abd 1489 84bd
00000070: e6c0 3a3d 4173 9b3d 2cda 163e 173c 7cbd
00000080: 3214 b13d 41f9 963b ff8e 9d3c 8e98 743d
00000090: 3a5e 393e 543d 18bd 235c 8ebc 3b72 573d
000000a0: 68e4 13be 7170 643e 84b9 053e 8b77 a2bc
000000b0: dae5 9f3c 2fd9 4c3c 377f c4bd 9482 483e
000000c0: 1dbb 093e 718e 5bbc 6706 7f3d 1ced 77bd
000000d0: 3250 193b f747 083e f3a4 023e 4a7b edbc
000000e0: 94dc bc3d eb65 99bc 8d39 143d 2b02 523c
000000f0: 855c 123d f8bf 8cbd 131f 0abe 3154 08be
00000100: d35d 7ebd ec7c aa3d 1b93 a43d a059 09be
00000110: 483b e0bd 268c 61bd d853 c3bc ffcd 13be
00000120: 8232 023e 1f83 5ebd d2e1 34bd f52f 683d
00000130: 353b 0e3e bb16 f53c e541 e8bd 29ae f6bc
00000140: d7bf 12be 35ac 03be 9165 af3c 5f05 063e
00000150: 2af4 cfbd bce8 aa3d 1bdb eabd 0908 a6bd
00000160: 6d85 f6bd 9d56 69bd bdad 9bbd 884c d53b
00000170: d47b 50bd b2d4 e23d 40c7 0b3e 59b7 c9bd
00000180: 39c7 af3d 6c3b be3d 2728 003d af16 94bd
00000190: 31c9 133d deb3 b43d 888a 043e dc8f 5d39
000001a0: 0567 cd3c c8fd 293d 57de 953c 516d 50bd
000001b0: 8942 f9bd 3371 023e fdca d33c 2f84 29bc
000001c0: 7c6c 093e 2de1 a03d 508f f03a 950f 90bd
000001d0: 3b7b 283d d3cd 9fbd 41de 0e3e e46d 083e
000001e0: 42e8 733d 02e3 c3bd 1b99 bbbd c8b1 9a3b
000001f0: 2798 2b3c 7c7b 733b 9eeb 01be 93f2 0e3e
00000200: 2383 04bd 1705 a9bd 7e33 7bbc d8c4 47bd
00000210: a010 1f3c 44ab 0bbd 7351 0abe de17 cdbd
00000220: b8ea 863d 1349 d23d 7535 143e f8ed c9bd
00000230: f58b ea3d deff 8ebc 76de 3c3d 4889 af3d
00000240: 177b 6ebd cfe8 e93d d051 c7bd 9340 133e
00000250: 67c2 c3bc a5c3 fb3d 6cf0 fabd be60 17bc
00000260: 928c 6fbd 5b0f 35bd 6777 ad3d a11c 7d3c
00000270: 4d9e 4abd 4424 25bd d753 67bd f4e4 073e
00000280: f211 653d 417d bdbb 5202 5dbb d432 e6bc
00000290: 4849 153e 0d3f 10be 8623 f8bd f14c debc
000002a0: df25 2a3e be0a 12be 7bae f73d 14d3 4c3d
000002b0: 6671 c03b 82e3 9a3d 283f c0bd 1e12 31bc
000002c0: 8e6a ea3d f51e 223e 56b8 eb3d 0fdb 73bd
000002d0: a7f0 bfbd 4763 ce3d cccc a4bc b94f f1bd
000002e0: e660 523d 6917 06bd 0c75 143e 42f0 023e
000002f0: 50cc 6abd 4e2d 8bbd 6de6 563d 4629 c6bd
00000300: 1c91 f83d 7ca9 943c d019 cb3d 0cba c33d
00000310: 99a2 0b3e 2eff a9bd 8251 41be 557b 843d
00000320: 157c d3bd 4672 02bd cf44 d13d 1b4a c5bd
00000330: 4d9f 683d 49ae 1d3e 629b 8abd b851 6dbd
00000340: 1c26 c4bd 6685 1d3e 57e2 bf3d 0219 24bd
00000350: 7b19 62bd c9cb f2bc 7f70 8a3d 7ae8 553d
00000360: b08e eabd 6a81 c6bd 9fdf c13c ca13 353e
00000370: 455f 5bbd 92f5 87bd 33e6 d93d e8ae 073e
00000380: 41f2 c8bd b677 143d 987d 883c bc34 5a3d
00000390: aa40 bd3a 3edb 5f3d d4f8 f03d 25b7 473d
000003a0: 5e04 babd 1354 c23d e76b 473e a0e9 e2bd
000003b0: 5d7b 43bd 1601 2dbe aad2 86bd c5b7 bf3d
000003c0: 1c4e 013e ef6a 0cbd cdc4 c8bd 671c 42bd
000003d0: 8774 febd 7661 8bbd dc82 f83d f742 dabd
000003e0: a585 293a 416d b2bd c8ef f73b 79f4 113e
000003f0: b063 21bd 8405 b8bd 0d74 863d f204 8b3d
-0.032809373 -0.07406216 0.0043786666 0.1287088 0.03185256 0.15034676 -0.21742806 0.12356414
0.021136343 0.0068066143 -0.11907692 -0.07520834 0.069443956 -0.07884527 0.1369398 -0.08050227
0.07151052 -0.10188966 0.06006192 -0.009280467 -0.033325896 0.05149165 -0.033841293 -0.043971043
0.065631434 -0.029412521 -0.04173616 -0.06471458 0.04559412 0.07590342 0.14731663 -0.061580744
0.0864643 0.00460735 0.019233225 0.0597158 0.18102351 -0.037167862 -0.017377919 0.052599173
-0.14442599 0.22308518 0.1305905 -0.019832393 0.019518781 0.0125029525 -0.09594577 0.19581062
0.13450284 -0.01340066 0.062261965 -0.06052886 0.0023393747 0.13308702 0.12758236 -0.028989453
0.092217594 -0.018725356 0.036187697 0.0128179 0.035732765 -0.06872553 -0.13488416 -0.13313366
-0.062101196 0.08324608 0.08035871 -0.13413095 -0.10948807 -0.055065297 -0.02384369 -0.1443405
0.1271458 -0.054324266 -0.04416067 0.05668636 0.13889773 0.029918065 -0.113406934 -0.030112343
-0.14330994 -0.1285866 0.021410735 0.13087986 -0.101539925 0.08345172 -0.11467572 -0.08107001
-0.12037168 -0.056967366 -0.07601497 0.0065093674 -0.05089934 0.11075725 0.13650227 -0.09849424
0.085829206 0.092886776 0.031288292 -0.07230889 0.036080543 0.088233694 0.1294347 0.00021129794
0.025073538 0.04150179 0.018294496 -0.050885502 -0.12170894 0.12738495 0.025853628 -0.010346456
0.1342029 0.07855449 0.0018353257 -0.07034222 0.041133147 -0.0780293 0.1395197 0.1332317
0.05954767 -0.09564783 -0.09160062 0.0047209 0.010473288 0.003715246 -0.12687537 0.13959722
-0.032351624 -0.08252924 -0.015332101 -0.04877171 0.009708554 -0.03409888 -0.13507633 -0.10014318
0.06587738 0.10267844 0.14473517 -0.09859842 0.11452476 -0.017455991 0.046110593 0.08571106
-0.058222856 0.11421358 -0.09732401 0.14380102 -0.02389641 0.122931756 -0.12252888 -0.009239374
-0.058483668 -0.044204097 0.0847004 0.01544872 -0.049467374 -0.04031779 -0.05647644 0.13270932
0.055925317 -0.0057827537 -0.0033723307 -0.028100409 0.14578736 -0.14086552 -0.121161506 -0.027136298
0.16616009 -0.1426191 0.120938264 0.050005987 0.005872893 0.07562925 -0.09387046 -0.010807542
0.11446105 0.15832122 0.11509769 -0.059535082 -0.09372073 0.100775294 -0.020117186 -0.11782784
0.05136194 -0.03273717 0.14497775 0.12786964 -0.057323754 -0.067957506 0.052465845 -0.09675841
0.121370524 0.018147223 0.09917033 0.0955697 0.13636245 -0.08300625 -0.18878749 0.06468836
-0.10326401 -0.03184726 0.10218202 -0.09633275 0.056792546 0.15398516 -0.06767918 -0.05793926
-0.09577581 0.15382919 0.09369343 -0.04006291 -0.05520008 -0.029638188 0.06759738 0.05222366
-0.11452997 -0.096926525 0.023666201 0.1768333 -0.053557653 -0.06638636 0.1063961 0.13250315
-0.09811831 0.036246978 0.01666145 0.053272948 0.0014438827 0.054652445 0.1176621 0.048758645
-0.09082864 0.09488692 0.19474755 -0.11079717 -0.04772507 -0.16894946 -0.0658315 0.09361223
0.12627453 -0.034281667 -0.09803162 -0.047390368 -0.124245696 -0.068056986 0.121343344 -0.10657304
0.0006466753 -0.08712245 0.007566426 0.14253415 -0.03940171 -0.08985427 0.06565104 0.067880526

sentiment_branch.lstm_layers.0.bias_ih_l0 f4 [192]
00000000: 9119 16bc 2088 f8bb a6d8 fbbc aadc c1bd
00000010: 129a febc 3172 8bbc 4b72 58bd 7709 ebbd
00000020: b519 013e 6021 6e3d 37a2 7f3d d328 35bd
00000030: c831 d3bb d67c 693c bc23 ebbb 48d2 96bd
00000040: fdcd 123e 522f 77bd 0850 ed3d 1980 9b3d
00000050: fbc1 57bb 7f49 00be 2583 9cbd e1f9 7d3d
00000060: 0355 6dbc 9823 14bd dd27 293c 8366 093e
00000070: d052 7e3d b7e7 13be 38a0 b03c acd8 233e
00000080: 7a97 223d 86af 15be 7bfa f13c c1e3 9f3d
00000090: 469b 853c f5ca 263c a8ad 2b3d f22b 013d
000000a0: 9fd6 72bc f35c e33c d59b c5bc bd14 473d
000000b0: af81 03bd 3cf8 60bb 5a2a 803c 6c5f 0abe
000000c0: f807 48bd 8cd0 78bd e16e dbbc a185 edbc
000000d0: 7ef6 bdbc 9123 04be 4ad1 c9bd 00c5 9abd
000000e0: 3bc8 0d3e 522e fd3c ff5a 4c3d 2b85 ec3d
000000f0: 974d c2bd 7e8a e03d a572 c93d 7e76 15be
00000100: c37e 13bd 7a44 593d b3ef f83c eede 2ebd
00000110: 25ec 9e3d 4792 ac3c 3795 9dbd ab65 ac3d
00000120: 6938 253e 51a3 cdbc e025 f83c 621f f5bc
00000130: cd98 113d 02ab 573d a3f9 60bd 6f0c 3a3e
00000140: 67e8 abbd 9350 743d f66c fdbd cf86 80bc
00000150: 2978 ae3c 705e c23c e01e cabd f7e3 74bd
00000160: cf56 9bbd 0b6e ff3d 1951 823d e682 e83d
00000170: 75d4 a2bc 7eaa 393e c8f2 b2bb 49ed e73c
00000180: 334f c3bd e500 90bd 1b07 973c 0cd9 80bd
00000190: f4b9 123d 20b6 973b edb4 06bd 22eb 1a3e
000001a0: 7183 21bd 67db aebd 4e26 f0bd d5b8 54bd
000001b0: e30e 02bd 42e9 b0bd be34 1cbd cd29 303c
000001c0: c652 c33c 9812 943d 1f35 d2bd e1fb 00bd
000001d0: 6b8d babd bd5a fcbd ff7c fabd 1a1a a13d
000001e0: 70ca 1e3d 2659 c93d 1532 c23d cbbb efbb
000001f0: c5d6 933d f75f 243d 883e bebc 691f 70ba
00000200: 1f43 783d 0693 e4bd 14f3 993d 7a09 e33d
00000210: ce82 1e3e c9da 553d aa81 c3bd 6025 c53d
00000220: 0ba7 423d 5774 023e 2eb9 173d 6f8f 5b3d
00000230: 6fef b13d f91b 16bd 8f60 983d ff0a c23d
00000240: ab2f 8dbd 8d11 e5bd a353 d83c b390 d6bc
00000250: 801c 29bd 739b c6bd 1134 ddbd ab05 ac3d
00000260: 3f9e 1ebd 32c5 68bc 4ed8 e73d cea6 00bd
00000270: 736d 3f3d c733 d43a d188 b13c f397 c5bd
00000280: 3d75 aa3d f158 803c d13c fdbd 6912 5dbd
00000290: 72d4 0cbe adfa 80bd 6574 ad39 412d c63d
000002a0: 2653 e5bc bd71 77bd ae0d a2bc 1927 103e
000002b0: a12d 483d 3e07 163e 7fc5 48bd 5a39 3c3e
000002c0: 2639 04bd 6d25 d53d 4f2a 0ebd f9f6 133e
000002d0: 1c62 57bd 4b2f 46bd a8ad 033d 18b8 0abe
000002e0: ca48 223d 9794 883d 68a0 593d 0081 b1bb
000002f0: f127 cb3c 041b 0c3d 50a6 d2bd d0b3 493d
-0.009161369 -0.0075845867 -0.030742954 -0.094659165 -0.031079326 -0.017022224 -0.052843373 -0.11476415
0.12607463 0.058137298 0.06241056 -0.044228386 -0.0064451434 0.014250955 -0.0071758907 -0.07364327
0.14336391 -0.060347863 0.115875304 0.07592792 -0.0032922018 -0.12528037 -0.07642201 0.06200588
-0.0144856 -0.036166757 0.010324446 0.13418011 0.062090695 -0.14443861 0.021560773 0.16000623
0.03969524 -0.14617738 0.029538384 0.078071125 0.016309392 0.010180225 0.04191366 0.03153605
-0.0148216775 0.027754283 -0.024122158 0.048603762 -0.032106098 -0.0034327647 0.015645195 -0.13512963
-0.048835725 -0.06074576 -0.02678627 -0.028994383 -0.023188826 -0.12904193 -0.09854372 -0.07557106
0.13845913 0.030905876 0.04989147 0.11548837 -0.09487455 0.10963915 0.0983632 -0.14595982
-0.03600956 0.05304382 0.030387735 -0.04269307 0.07759885 0.021065844 -0.07694476 0.08417829
0.161348 -0.02510229 0.030291498 -0.029922191 0.035546113 0.05265332 -0.054925572 0.18168806
-0.083939366 0.059647154 -0.12374298 -0.015689282 0.021297531 0.023726672 -0.0986917 -0.059787717
-0.07584917 0.12472161 0.063631244 0.11353092 -0.019876698 0.18131444 -0.0054610707 0.028311389
-0.095365904 -0.070314206 0.018436005 -0.062913984 0.03582187 0.0046298653 -0.032887388 0.15128759
-0.039431993 -0.085379414 -0.11726056 -0.051934082 -0.03175248 -0.086382404 -0.038136236 0.010752154
0.02384318 0.07230109 -0.10264038 -0.03149021 -0.091090046 -0.123219945 -0.12230872 0.078663066
0.03876728 0.09831457 0.09482209 -0.007316088 0.072186984 0.04013058 -0.023223177 -0.0009159954
0.060610887 -0.11160855 0.075170666 0.11085792 0.15479586 0.052210603 -0.09546216 0.09626269
0.047522586 0.12739693 0.037041835 0.053603586 0.086882465 -0.03664777 0.07440292 0.094747536
-0.068938576 -0.11184988 0.026407069 -0.026192045 -0.041286945 -0.09697618 -0.108009465 0.083995186
-0.038725134 -0.014207171 0.11320554 -0.031409077 0.04673524 0.0016189747 0.021671684 -0.09648123
0.08323143 0.01566741 -0.123651154 -0.053972635 -0.13752916 -0.062978126 0.00033083852 0.096766
-0.02799375 -0.060411204 -0.019781914 0.14077415 0.04887164 0.146512 -0.049016472 0.18381253
-0.032281063 0.10407529 -0.034708317 0.14449681 -0.0525838 -0.048384946 0.032148033 -0.13546789
0.0396202 0.06668966 0.05313149 -0.0054169893 0.024799319 0.03420545 -0.10285628 0.04924375

sentiment_branch.lstm_layers.0.bias_hh_l0 f4 [192]
00000000: 634c 4bbd 2b24 b9bd 9859 07bd 983b b9bd
00000010: 2950 d9bd f2dc 8e3a 58fb 88bd 4fe6 343d
00000020: 9eb5 00be 1331 07bd 0d53 bd3d e0f6 6ebc
00000030: ebe0 20bd b4c3 9c3d 81b1 183c 930e 673c
00000040: 14c4 78bd b86a f43d b7ee 89bd 46ca fdbc
00000050: cb26 b9bd 1c6c 083e d2d6 753d 9025 83bd
00000060: c8fc 7b3d 1cd9 0fbe 1581 283c e8b7 ee3d
00000070: 2c0b ccbd 81ec 623d 3583 aebd bf14 2dbc
00000080: 746f 963d 32d0 54bd 0e56 6a3d 17ef 23bd
00000090: f6b3 293d 39ad 71bd b4ec f63c 38ca 553c
000000a0: 5493 693c 566d c3bd 3168 643d 217e c63c
000000b0: ac0f e7bd 1f4b debc c291 8f3c f286 193d
000000c0: d9e1 e6bd 7e15 43bd d736 02be 65d9 fb3d
000000d0: fbe9 063e f425 bd3c 2bf8 8fbd 4e90 a43d
000000e0: 65a1 b9bd a9e9 43bd fd27 d6bd 3c09 333d
000000f0: 5cb6 e6bd 9389 843d b6b5 013e 9359 8fbd
00000100: 449b ac3d a101 1fbd 2d93 473d d7b1 da3c
00000110: 4dea efbc 2556 cbbd 3c04 ebbd 765d b93c
00000120: 28ec 343e a749 9d3c 217b adbd 793e b03d
00000130: 137c 5f3c 35f5 e13d 2cdd 163e 4915 f63d
00000140: 0808 a2bd 5a4b 8cbb ce2d 2f3a 1b7c 533c
00000150: a1f0 843d f7e8 0b3e 0fd1 833d a0cf 103e
00000160: 3971 be3d ea67 ed3d af21 7a3d dfa0 243d
00000170: 8f69 8dbc 24ec 603d 9d49 033e 5821 913d
00000180: 0a1b cf3d f432 d5bd 98c5 9dbd 36b9 9cbd
00000190: 88b2 d13c dacf d63c e9de cabd ebc1 063e
000001a0: 0152 3abd 2fa0 c6bd a46b 0e3e e492 e3bd
000001b0: e03a 5b3c 0584 653d 0be4 ce3d 208d be3d
000001c0: ee44 6dbc c228 acbd 15da c5bd d6f7 2cbd
000001d0: 13e1 173d 838a f23c 0104 e03c e927 f9bd
000001e0: 109a 1dbe 3a67 37bd b588 c73c d467 92bc
000001f0: e0d6 b4bd e319 e83d 4b3d a43d 1892 03bc
00000200: fd1e b2bc 9efe 9b3d 2dc7 38bb ed2f 1c3e
00000210: ed9e af3d fa8e 8a3b d4b1 913d 3950 a83c
00000220: 7bda 95bd 0de2 a6bd 27dd acbd d1f8 193d
00000230: ac19 113d 3b59 1bbd b680 04be 04ee a7bd
00000240: 46fd c73d 7e6d a73d dd1f 373d b859 a9bd
00000250: 28c4 c8bb 20c3 beb7 97e0 e3bd 5f1b 6fbd
00000260: dfe9 80bd dc37 0fbe ecee 03be 3213 033e
00000270: 4594 d93c 3b50 9e3b dc4f 34bb f781 65bb
00000280: 8488 df3d 476c 6c3c 9793 2f3d 90a1 62bc
00000290: 00dc d7bd df45 e23d aed0 8e3d 0f40 8f3c
000002a0: d03d 69bd 9cbd 9fbc f75e 983d 140e 5f3c
000002b0: 8cd1 0e3e 7293 f8bd 48c5 14bc 5486 94bd
000002c0: 27e0 a33d 25f7 1d3c c662 9a3c 67de 193d
000002d0: 73c1 dfbd 1c28 b13d f92c 0fbe 3ded ccbd
000002e0: 7fa5 48bd 6fd5 7a3d 1a13 93bd b3a4 5c3d
000002f0: 8bf0 f63d aa1a 283e a952 053d 75b6 9c3d
-0.049633395 -0.090401016 -0.033044428 -0.0904457 -0.106109925 0.0010899587 -0.06688565 0.044164952
-0.12569281 -0.033005785 0.09244356 -0.014585227 -0.039277 0.07654515 0.009319664 0.014102596
-0.06073387 0.119344175 -0.06734984 -0.03098024 -0.09040602 0.1332249 0.06001932 -0.06403649
0.061520368 -0.14047664 0.010284682 0.11656171 -0.09963068 0.05540133 -0.085211195 -0.010564028
0.07345477 -0.051956363 0.057210974 -0.040022936 0.04143139 -0.05900309 0.030142166 0.013048701
0.014256317 -0.095423386 0.055763427 0.024230065 -0.11282286 -0.02713543 0.017525557 0.03748221
-0.11273546 -0.04762792 -0.12716232 0.12297324 0.13175194 0.023089387 -0.07029756 0.080353364
-0.09063987 -0.047830258 -0.10456846 0.04370998 -0.11265251 0.06471553 0.12666973 -0.06999507
0.08428052 -0.038819913 0.048724342 0.026696129 -0.029286528 -0.0992854 -0.11475417 0.022627573
0.17668211 0.01920016 -0.084707506 0.08605666 0.013640421 0.11033098 0.14732808 0.120157786
-0.07911688 -0.0042814435 0.00066825456 0.012908007 0.06491209 0.13663088 0.06436359 0.14141703
0.09298939 0.11592086 0.06106728 0.04019248 -0.017262248 0.0549127 0.1282105 0.07086438
0.10112579 -0.10410109 -0.07703704 -0.07652514 0.025597826 0.026222158 -0.09905798 0.13159911
-0.04548836 -0.09698521 0.13908249 -0.111120015 0.013380736 0.056034107 0.101020895 0.09304261
-0.014481766 -0.084062114 -0.096607365 -0.042228542 0.037079882 0.029607063 0.02734566 -0.121658154
-0.15390801 -0.04477618 0.02435718 -0.017871775 -0.08830047 0.113330625 0.08019503 -0.008030437
-0.021743292 0.07616924 -0.002819489 0.15252657 0.085752346 0.00422847 0.07113996 0.020546066
-0.073170625 -0.081485845 -0.08440619 0.037590805 0.035424873 -0.037926894 -0.12939724 -0.08199695
0.09765105 0.08175181 0.04470812 -0.082690656 -0.0061268993 -2.2740627e-05 -0.111268215 -0.058375712
-0.06294607 -0.13986152 -0.1288411 0.12800291 0.026559958 0.0048313416 -0.002751342 -0.0035020092
0.1091471 0.014430112 0.042865362 -0.013832465 -0.105400085 0.11048483 0.06973396 0.0174866
-0.056943715 -0.019499592 0.07439988 0.013614196 0.13947123 -0.12137498 -0.009080239 -0.072521836
0.08001738 0.009641443 0.018845927 0.037565615 -0.109255694 0.086502284 -0.13982 -0.10006187
-0.048985954 0.061238702 -0.07181378 0.053868007 0.12057599 0.16416422 0.032549534 0.076519884

sentiment_branch.lstm_layers.1.weight_ih_l0 f4 [96, 48]
00000000: 8be1 163e a581 ab3c 9929 68bd 06b6 f5bc
00000010: 2d77 56bd 22bb 9abd 1b41 16be 618a f3bc
00000020: 10f7 2b3d abe2 ecbd b971 263e 74e1 44be
00000030: 99d9 0abe 0fc9 49be c8d1 5d3e 6abd a33d
00000040: df2b 41be 1532 c3bd 0be0 fbbd c23d 0cbe
00000050: 8aff 9cbb e7ed 23be 8766 56be c4f8 113e
00000060: 2b3d a63c 336f 0fbe ef05 51be da0f 46be
00000070: a708 793c ebbb 093d 7e06 24be 1e4d 75bc
00000080: 6bc7 94bd f853 0abe 784b efbd a95b 38be
00000090: a601 3f3e 3f1e b53c 1dfe bc3c 4b7b 42be
000000a0: 3393 373e a443 123e 9b4f 49be 8223 3ebd
000000b0: 41c4 c9bd 4d46 013e 956d 01bc fd22 47be
000000c0: ced8 1fbe 4bda b33d 5014 c83b ce3b 28be
000000d0: 8236 06be ffe2 3abd 0871 fdbd 61c7 563d
000000e0: 7d5b f13d c35c 1cbd 7730 aa3d ac49 e5b9
000000f0: a5d6 f2bd 59bb 943c 58de 813d 982a 423e
00000100: 0ed1 863d a24f 2f3c 3dc6 5b3d 9192 de3d
00000110: 4887 f63d 1260 413d 1d6d 2dbe eba1 343c
00000120: b666 473e ee8d f23d 4e73 bcbd 963e f83d
00000130: 88ae 083e 4d83 f0bd 4817 08be e728 483e
00000140: 88b7 d5bb 7122 9abc a34c 893d 43da cb3d
00000150: 83c1 733c 6a90 333e 5f75 13bd b26a a5bc
00000160: 1a83 e9bd ecd1 4f3e 5410 2abe 913e f13d
00000170: dbe0 0d3e bf13 8abd 91fc 49be 4b0b 6dbd
00000180: cd19 6d3d f84e 4e3e b1d1 383e 41af 313d
00000190: b2e1 263e e42c 4e3d 9593 1b3e 5652 89bd
000001a0: dc1b 74bd a8bc d93b ce92 b43d a00a 1fbe
000001b0: d1ae 853d c46f 3cbe 20cf 293e 4216 dcbc
000001c0: a34f dfbd 60a0 cc3c dddf dbbd 5ccd 7f3d
000001d0: 37c7 cd3d f41e 4e3e e3f6 09be f6d2 9bbd
000001e0: 52b6 6dbe 06e0 69bc 8c41 a93d fcc4 2abe
000001f0: 1f76 1dbe 9a87 21be 2669 043e 8b8f d9bc
00000200: d830 033e 8a4a 4d3e eaf3 09be 13b7 453d
00000210: b096 42bc 3ef6 643c 7793 4ebe 69bd 5e3d
00000220: 8d03 06be 7109 d6bd 56e7 b73d 095d d5bc
00000230: 2667 35be 02a8 72bb cc7d f6bd 8a8b 313e
00000240: a43f f2bd 0bdc 2c3e 55b7 583e c1ab 5e3d
00000250: da0c cbbd 5e49 133e 67e1 0ebe 9114 48be
00000260: 0c79 d93d 6ea9 21bd 756e 0fbe e585 483e
00000270: 0edf 8e3c 0435 003e fcba 333e 6ecc f03d
00000280: 217b 133d 38c7 593e 6a8a ed3d 7545 293e
00000290: ec0c 363e 549b 35bd b47c 0dbd e353 23bc
000002a0: 902e 0b3a 237f 063e e80b b5bd 5f4a 103e
000002b0: ffe7 1cbe 705a 61bd b166 9d3d 61c1 4ebe
000002c0: 4ed7 f1bd 7bbe 1b3e 9783 1b3d ca6e a93d
000002d0: cf90 69be 59fe e6bd f651 a7bc dfa2 803d
000002e0: b07e 3b3e 3f85 0dbe 8384 6d3e 6599 dd3d
000002f0: 65e4 773d 1658 083e a7b8 41bc 9d4b bbbd
00000300: 7bf6 6cbe 0a76 c5bc e8f9 113e 1a75 403c
00000310: 939f bdbd 803b 9c3c 450d b1bd 4511 23bd
00000320: 1fc4 45be 431e ac3d 515b 81bd 861f 113e
00000330: 721f d23d cec5 c93d ae94 513e e12e 02be
00000340: 0993 803d ccc4 3c3d 0772 fdbd 9728 0b3d
00000350: 7ba4 0a3e 1a09 033e 49bf 36bd e68b 243d
00000360: 433b 8ebd 420d 643e 844e abbd 9079 ef3d
00000370: a9b6 223e f0ac bf3d e01c f33d 672a d13d
00000380: 00ae a33c cc52 5bbe 8aef 21be 0d92 843d
00000390: fc79 9bbc e049 26bd 9d1d 443c 6bd5 8d3d
000003a0: c625 9ebd 1797 23be a440 a63c 9474 efbb
000003b0: dbf3 53be 961e 07bd f791 b7bd bc9c 683e
000003c0: 1248 28be a6a8 593e 7f2a 7bbd 8209 933d
000003d0: 0912 8b3d c286 b43c 67d2 37bd 9d0b f63d
000003e0: f91f 3b3d 8914 27be 1df9 5e3e f683 2bbd
000003f0: bbff ab3d 4a8d 633d 5fac ebbd 0f17 a43d
0.14734475 0.020935843 -0.056680296 -0.029994022 -0.05235975 -0.07555224 -0.14673273 -0.02972907
0.041983664 -0.11566671 0.16254319 -0.19226629 -0.1355957 -0.19705604 0.21662056 0.07995112
-0.18864392 -0.09531037 -0.12298592 -0.13695434 -0.004791205 -0.16008721 -0.20937549 0.14255053
0.020292839 -0.14007263 -0.2041242 -0.19341984 0.015199817 0.03362648 -0.16018102 -0.014971999
-0.072645985 -0.13508594 -0.116843164 -0.18003716 0.18652973 0.022109149 0.02307039 -0.18992345
0.17927246 0.14283615 -0.19659273 -0.04642058 -0.098518856 0.12624474 -0.007899662 -0.1944694
-0.15610048 0.087818705 0.006105937 -0.16429064 -0.1310673 -0.045626637 -0.123750746 0.052436236
0.11785028 -0.038174402 0.08310025 -0.00043733174 -0.118573464 0.01815574 0.06341237 0.1896156
0.06582843 0.010700138 0.05365585 0.10867799 0.120375216 0.04721076 -0.16936155 0.011024932
0.19472775 0.11843477 -0.0920168 0.12121312 0.13347828 -0.11743794 -0.13290131 0.19546853
-0.006522123 -0.018815251 0.067040704 0.099537395 0.01487768 0.17535558 -0.036000606 -0.020192478
-0.11401959 0.20294923 -0.16607791 0.11779512 0.13855307 -0.067420475 -0.19725253 -0.057872098
0.057885934 0.20147312 0.18048741 0.043380026 0.16297033 0.05033578 0.15193017 -0.067051575
-0.05959688 0.006644804 0.08817063 -0.15531397 0.06527484 -0.1840201 0.16582918 -0.026866082
-0.109038614 0.024978817 -0.10736058 0.062451705 0.10047763 0.20128995 -0.13473086 -0.07608597
-0.23214081 -0.014274603 0.08264455 -0.16676706 -0.15377091 -0.15774384 0.12930736 -0.026557704
0.12811601 0.20047966 -0.13471952 0.048270296 -0.011876747 0.013974724 -0.20173441 0.054379854
-0.13087292 -0.104510196 0.08979671 -0.02604534 -0.1771513 -0.003702641 -0.120357126 0.17338386
-0.11828545 0.16880815 0.21163686 0.054363016 -0.099145606 0.14383456 -0.13953172 -0.19539095
0.10618791 -0.03946822 -0.1400698 0.19582327 0.017440345 0.12520224 0.17551798 0.11757742
0.036006097 0.21267402 0.11598666 0.16530402 0.17778367 -0.044337586 -0.034542754 -0.009968731
0.00053093676 0.13134436 -0.088401616 0.1409087 -0.15322874 -0.05501789 0.076856025 -0.20190956
-0.11808644 0.15209381 0.03796729 0.082730845 -0.22809146 -0.11278982 -0.020424824 0.06281065
0.18310046 -0.1382036 0.2319508 0.10820273 0.06052055 0.13314852 -0.01182381 -0.091452815
-0.231409 -0.024104137 0.14255488 0.011746669 -0.09258952 0.01907134 -0.08645109 -0.03981139
-0.19313096 0.084042095 -0.06316245 0.14172181 0.10259904 0.098521814 0.20466873 -0.12713195
0.06278045 0.046086118 -0.123752646 0.033974256 0.13539307 0.1279644 -0.044616017 0.04017248
-0.06944897 0.22270682 -0.08364585 0.11693108 0.15889992 0.09359157 0.11870742 0.10213166
0.01998043 -0.21418303 -0.15814033 0.064731695 -0.018979065 -0.040597796 0.011969951 0.06925472
-0.077220485 -0.15975605 0.020294495 -0.0073075984 -0.20698492 -0.032988153 -0.089633875 0.2271604
-0.16433743 0.2125574 -0.061319824 0.07179548 0.06790549 0.022036914 -0.04487839 0.12013934
0.04568479 -0.16316427 0.21774717 -0.041873895 0.08398386 0.055554666 -0.115074866 0.080122106

sentiment_branch.lstm_layers.1.weight_hh_l0 f4 [96, 24]
00000000: 99a9 29bd 53ea b7bd db70 813d 9787 c1bd
00000010: f349 bd3d 0137 8bbd cfcf 923d bb2c ca3d
00000020: 7119 c6bc a156 9d3d 2e64 bbbc b2f5 4cbb
00000030: 8acd 03be a138 92bb f451 183e 76ea ed3a
00000040: 4d14 b7bd ebae 28bd 57af 19be c11e 293e
00000050: 2c2b efbd 9d6d bfbd 681a 86bd 8525 f03c
00000060: 3410 d63d c7f7 f9bd 2766 06be 9676 673d
00000070: 4c2b 863c e47c 763c d7a7 1abc 2b7e bebd
00000080: ee71 3dbe 3b4d 32bb 09ca 843c 78b6 113c
00000090: e464 2fbe 949c fcbd be3c e53b 0bd0 36be
000000a0: 8f98 9f3a 8744 acbd 09a0 0f3e 6937 3d3e
000000b0: 91a3 49be 72be 2dbe aa75 153d e8fb 413e
000000c0: 4b1a 4b3d ea2b d9bd 4da3 57be 401b 40be
000000d0: 90ad b23d 3843 ffbd e86e b7bd b412 a83d
000000e0: 8f10 023e 9de1 62be 8a9f a9bd 951b 31be
000000f0: 9848 373d 3c4d 533b 12f2 8a3d 62da 393e
00000100: 867f 1a3e 4f72 c63d 8c57 023c 4588 303e
00000110: a327 ba3c 8b37 80bd e7be 42be 1f0b 60bd
00000120: 0b2c fe3d 27fa 11be c52e 07be e0eb 96bd
00000130: 469a 27be bf18 81bd a15c 42be d708 c43d
00000140: 99f4 c83d f9eb 3c3d d256 82bd 8247 523d
00000150: 3dc1 a2bd bea7 fe3d f149 8dbd 7e29 34be
00000160: 534e d33d 22d4 14be aa27 2a3d 7a0f 1a3e
00000170: bd2c 313e a46d b53d 9750 1f3e bc4c c1bd
00000180: 37bc f53d 6351 4ebe 6521 3b3e 639e cbbd
00000190: f025 8d3d e6dc 5c3e 4550 3a3d c3f2 033e
000001a0: a45d 143b 9f0f e23a ca82 13be 5b04 483e
000001b0: 0a1e 38bd 74b7 eebc 5e3c bc3d db67 f6bd
000001c0: 7ea1 d03d 9168 0fbe 9d87 10be cd3e d63d
000001d0: f04f 4ebe 1186 a6bd 45a5 2f3e 6903 3c3e
000001e0: cd67 273c ef26 a03d 87a4 c93d 20ef cd3d
000001f0: c59f b73c 1945 dabd b169 913c 4e38 653e
00000200: c58e 7c3e 4b9e 1cbe 1fe6 223e 7ba1 f5bd
00000210: 09d7 c53d 7449 77bd f653 06be 39c7 47be
00000220: 4b7c 6dbe d4d5 1f3d e415 4dbe 8fb6 e73d
00000230: aa55 d0bd bbd0 53be 8e36 ddbd 4bf4 ea3d
00000240: f53c 393e 5c6b 40be b8c0 c83d af0c a53d
00000250: afef 10be 42aa 593e 6e7a 6bbd 061a 0cbe
00000260: 4cfa 743d 93f1 e7bb b084 353e ca83 c03d
00000270: b715 51be 2943 37bd 681a dc3c 9462 1ebe
00000280: 2aa6 23be 94b1 c4bd d507 b6bd 1dd6 95bd
00000290: cd9a 93bd 018e 08be 5118 a43d 8c67 4fbc
000002a0: 2870 3e3e 3790 e33d e057 033e cdee d0b9
000002b0: d134 2abe 56a0 f43d 46c3 65bc a9f4 f53d
000002c0: 6503 a13d e542 21be 649a b6bd 7aaf 12be
000002d0: 396d 0f3e be21 e13d 09bd 603d d912 99bd
000002e0: aeb2 aebc fbec 9f3d 309c 903c 8b7b 2bbe
000002f0: e4ad 843d 383f 693d db89 12be 6295 27bc
00000300: 5fa9 573e adca da3c 0ca5 12be 200a babd
00000310: dabb fa3d d0b8 b9bd 5a3e febd 0f71 cd3d
00000320: 3efc 383e 57ec b33b 1094 043e 024d c1bd
00000330: 5bcb c43d 3e42 bbbd d7b4 23be 4198 1fbe
00000340: f2f8 9cbd e21c 48bd 25e4 9abd ee7e 0a3e
00000350: 4e7f 2bbe b8bf 03be f0b6 bf3d c0d1 2abe
00000360: 7352 993d dc75 1bbb 4b21 fbbd 9ea1 613d
00000370: 5ed0 783d 6226 3bbd fdda 0cbe 52a2 eebd
00000380: 5cd1 e2bd a263 69bd 629f 7f3d 1847 63be
00000390: 55e2 4abe f3aa 90bd 6151 0e3d 26c2 a7bd
000003a0: 3d19 8abc b5be 69bd 8250 2e3c d128 4c3e
000003b0: 0e05 54bc 1c97 b0bd 65e3 03be 0a01 4a3e
000003c0: d2f5 b23d e481 673d d6cd cdbd bdfc 84bb
000003d0: 0959 a3bd c949 a53d 44a8 18be c68c 11be
000003e0: a4b5 dabc 564a 39be a9a7 32bc 806a 8f3c
000003f0: 96a2 07be 1eb2 6b3d 0eb6 00bc c0c3 0a3d
-0.041421507 -0.08980241 0.063203536 -0.0944969 0.0924262 -0.067976005 0.071685426 0.09871813
-0.024182053 0.07682539 -0.022874918 -0.0031274376 -0.12871376 -0.004462317 0.14875013 0.001815154
-0.08939419 -0.04118244 -0.15008293 0.16515638 -0.11678156 -0.09347079 -0.06548005 0.029314766
0.10452309 -0.12205463 -0.13124906 0.056509577 0.016378067 0.015044425 -0.00943943 -0.093014084
-0.18500492 -0.0027206677 0.01620962 0.008893602 -0.1712833 -0.123345524 0.0069957664 -0.178528
0.0012176203 -0.08411508 0.14025892 0.18478169 -0.19691302 -0.1696718 0.036489166 0.18943751
0.04958562 -0.10604079 -0.21058388 -0.18760395 0.08724511 -0.12463993 -0.089567006 0.08206692
0.12701629 -0.22156377 -0.08282383 -0.17295678 0.044746965 0.003224208 0.067844525 0.18149713
0.15087709 0.096897714 0.007955443 0.17239483 0.022723978 -0.06260594 -0.19018136 -0.054698106
0.12410744 -0.14255582 -0.13201435 -0.07369208 -0.16367444 -0.06303548 -0.18980648 0.095719986
0.09812278 0.04612348 -0.06364216 0.051337726 -0.079470135 0.12434338 -0.06898869 -0.17593953
0.103176735 -0.14534047 0.041541733 0.15044966 0.17302223 0.08858803 0.15558086 -0.09438464
0.1199879 -0.20148234 0.18274458 -0.09942319 0.06892002 0.21568641 0.045486707 0.12885575
0.0022638822 0.0017247087 -0.14405361 0.19532911 -0.044950522 -0.029140212 0.091912016 -0.120315276
0.10187052 -0.14004733 -0.14114232 0.10461197 -0.20147681 -0.0813104 0.17152889 0.18360676
0.010217619 0.07819926 0.09845834 0.10055375 0.022415051 -0.106577106 0.017750593 0.2238476
0.24663837 -0.15294759 0.15908097 -0.119936906 0.09660155 -0.060372785 -0.13117966 -0.19509591
-0.23191945 0.03902228 -0.20027882 0.11314117 -0.10172589 -0.20685093 -0.10801421 0.114723764
0.1808966 -0.18790954 0.09802383 0.0805906 -0.14153932 0.21256354 -0.057489805 -0.13681802
0.059809014 -0.0070783584 0.17726398 0.09400137 -0.2041844 -0.044741783 0.02686806 -0.15467292
-0.15981355 -0.09604183 -0.088882126 -0.073162295 -0.0720726 -0.1333542 0.080124505 -0.012658965
0.18597472 0.11111491 0.1282649 -0.00039850772 -0.1662171 0.11944644 -0.014023608 0.12009556
0.078619756 -0.15748174 -0.089161664 -0.14324751 0.14006509 0.10992764 0.054867778 -0.07474298
-0.021325435 0.07808872 0.017652601 -0.16746347 0.064784795 0.056945056 -0.143104 -0.010228487
0.21060704 0.026707971 -0.14320773 -0.090839624 0.12242861 -0.09068453 -0.12414236 0.1003133
0.18064973 0.0054908204 0.12947106 -0.09438516 0.096090995 -0.09143494 -0.15986954 -0.15585424
-0.0766467 -0.04885567 -0.07563046 0.13524982 -0.16747782 -0.12866104 0.093610644 -0.16681576
0.07486429 -0.0023721373 -0.122622095 0.05508577 0.06074559 -0.0456909 -0.13755412 -0.11652054
-0.110750884 -0.056979783 0.06240786 -0.22195089 -0.19812901 -0.07063856 0.034745578 -0.08191328
-0.016857738 -0.057066638 0.010639312 0.19937445 -0.012940658 -0.08622572 -0.12879713 0.19726959
0.08738293 0.056520358 -0.10049026 -0.004058449 -0.079759665 0.08070714 -0.14907938 -0.14213857
-0.026697941 -0.18094763 -0.010904231 0.017506838 -0.13245615 0.057542913 -0.007855905 0.033878088

sentiment_branch.lstm_layers.1.bias_ih_l0 f4 [96]
00000000: f6bd 94bc ba64 863d feff 5cbe ec36 59be
00000010: bde0 a03c 72a5 233e 4137 5bbd d78b 59bd
00000020: 3c57 4a3e 8fc3 dfbd ef86 643d ac06 54bd
00000030: c357 6cbb 4c7b 473e c4f4 a83c 52fa 27be
00000040: f847 75bd cfd8 ea3d 1b99 443c 4f5f 2fbe
00000050: b634 063d 4d55 4a3e 6ef2 cf3d 69fc 32be
00000060: 6624 f53d 5b3d 35bc 974d 423d 11f8 89bd
00000070: 01ee d93d 1bf4 f8bc c73b 23bb 5746 d0bd
00000080: ab91 e1bd e12f 7c3d 14ba 013e a492 db3c
00000090: dcb0 4dbd db33 08be dc28 5abd 1235 e5bd
000000a0: 6365 063e f6c2 19ba 088f 0abe 11cb 2d3e
000000b0: fb0a b1bd 40d3 09be 2317 3abe 5b92 5c3d
000000c0: bcaf 0a3e 3db2 01be f158 f33d 80b8 aa3d
000000d0: 6e57 bbbd f063 0cbe 6f03 20be e35c 873d
000000e0: 193d c1bd ee59 43be 762d 10bd 2961 8b3d
000000f0: 08fe be3b 5c7d 563d 6554 a7bd bdba d03d
00000100: b929 d7bd 1b42 78bd 084b 163b 9f15 833d
00000110: b8d9 36be 257a b63d a85e 5ebc f70a 953d
00000120: e4ee 20be f301 60bd 2c8c 073e bc50 ec3d
00000130: 92f5 183e 6c0f 4fbe c34d e8bd 4518 40be
00000140: 5bdd c83d 5321 d5bc 275b 25be bcdd 0b3e
00000150: 108b 0a3e 4581 33bd 5d94 17bd 953b 3abd
00000160: e88c 4f3e 3cc3 543d 71dd 093e 5288 c13d
00000170: d8ed 563b 9f0e 1abe 0d41 12be 3fb5 01be
-0.018156987 0.06562181 -0.21582028 -0.21212357 0.019638414 0.15981081 -0.05351949 -0.053111877
0.1975984 -0.10925972 0.055792745 -0.051764175 -0.0036063052 0.19480628 0.020624526 -0.16404083
-0.059883088 0.11467134 0.011999394 -0.17126201 0.032765113 0.19759102 0.10153662 -0.174791
0.11969833 -0.011061992 0.047437277 -0.06736768 0.10641099 -0.030389836 -0.0024907456 -0.10169666
-0.11014112 0.0615691 0.1266864 0.026803322 -0.050217494 -0.13301031 -0.053261623 -0.11191763
0.13124613 -0.0005865538 -0.13531125 0.16971995 -0.086446725 -0.13459492 -0.18172888 0.053850513
0.135436 -0.12665649 0.118821986 0.08335972 -0.09147535 -0.13709998 -0.1562631 0.066095136
-0.094354816 -0.19077274 -0.035199605 0.06805641 0.0058286227 0.052365646 -0.08170394 0.101918675
-0.10506005 -0.060609918 0.0022932906 0.06400608 -0.1785649 0.08910016 -0.0135723725 0.07277482
-0.1571613 -0.05468936 0.13237065 0.11538836 0.14937428 -0.20220727 -0.11342957 -0.18759258
0.09807845 -0.026016867 -0.16148053 0.13658804 0.1352961 -0.043824453 -0.037006725 -0.045466978
0.20268595 0.051944003 0.1346338 0.09449829 0.0032795575 -0.1504464 -0.14282627 -0.12666796

sentiment_branch.lstm_layers.1.bias_hh_l0 f4 [96]
00000000: c7fb c0bd 4df3 cd3d bd7c 943b dc8c 833c
00000010: 355a 7c3e 70af 06be 6f0d 123e c637 38bd
00000020: 8721 6abd 46c0 b8bd a39b 64bd a502 c3bb
00000030: d985 b1bc e704 b1bd dbe1 47bd 6df9 5ebd
00000040: 4a54 20be 18e4 48be 7c5f c8bd 58ac b5bc
00000050: 6e7d 1abe fee0 093e d7d0 3d3e e357 74bd
00000060: c9c8 403e 8295 1d3e 08e7 093e fe7d b13c
00000070: 71a6 74bd 7297 82bd be99 423e bd36 023e
00000080: 1640 213e e326 04be 282a f2bd 72d6 d33d
00000090: 4add 2e3e e253 89bd 61e5 b1bc 1ae4 99bd
000000a0: 969b 14bc 7f08 6cbd 8205 87bd 79c9 343d
000000b0: bef9 17be c182 88bd ac21 acbd b1b7 1c3e
000000c0: a67d 263e d492 51bd 78c1 53bd 33ca 37bd
000000d0: 9f10 ddbc 1174 983c 0dfd a93d 53d2 32be
000000e0: 785a 2ebc c934 423e d0f7 483e 28f7 60bd
000000f0: a175 f63d be03 3cbe 10be 19bc 2360 d6bd
00000100: 1a3d 353e 5972 e93d c4e8 1d3e f44f b83d
00000110: 1cb6 803c 1e26 a63c dd01 f33d 0490 16be
00000120: 595a 003c b06d cd3d c42e 2cbe 075c 133d
00000130: 40d4 9e3d e2dd 21be 7b06 77bd 9316 053e
00000140: 3bc9 333e f469 50be cf41 453e cdcc 9ebd
00000150: 12b6 a4bd b9c5 bdbd ce2b d4bd ab41 833d
00000160: d996 14be 354e 373d 0fe2 103e 5b51 2e3e
00000170: 57fb 4f3d f957 493e 1876 0abe b616 173d
-0.09423023 0.100561716 0.0045314715 0.016058378 0.24643786 -0.13152862 0.14262937 -0.044975065
-0.05716088 -0.09021048 -0.05581249 -0.005951243 -0.021670269 -0.08643513 -0.048799377 -0.05443709
-0.15657154 -0.19618261 -0.09783837 -0.022176906 -0.1508691 0.13464734 0.18536697 -0.059654128
0.18826593 0.15389064 0.13467038 0.021666523 -0.059729043 -0.06376542 0.1900396 0.12716193
0.15747103 -0.12905459 -0.11824447 0.103436366 0.17076603 -0.067054525 -0.021715822 -0.0751421
-0.009070298 -0.05762529 -0.065928474 0.04413745 -0.14841363 -0.06665564 -0.0840486 0.15304448
0.16258869 -0.051165417 -0.051698178 -0.044870567 -0.026985465 0.018610032 0.08300219 -0.17463045
-0.010641687 0.18965448 0.19625783 -0.054923207 0.12034155 -0.18360803 -0.009383693 -0.104675554
0.1769909 0.11398763 0.15420824 0.08999625 0.015711837 0.020281848 0.1186559 -0.14703375
0.007834041 0.10030687 -0.16814715 0.035976436 0.07755327 -0.15807298 -0.060308915 0.12996893
0.17557232 -0.20352918 0.19263385 -0.077539064 -0.0804254 -0.09266228 -0.103599176 0.064090095
-0.14510669 0.04475232 0.14148735 0.17023222 0.050776806 0.19662465 -0.13521612 0.036886893

sentiment_branch.attn.in_proj_weight f4 [72, 24]
00000000: dc49 a2bd 1ddd 31be 34e4 1b3e 881f b03c
00000010: 55e5 c9bd 3485 463e d595 b0bc cd48 58bd
00000020: 1d8d ccbd 991f 7d3b e02f 3a3e d38d 88be
00000030: a8ab 963d bc8b 8a3e 3dfa a63d e9e1 123c
00000040: 63be dc3c 9042 4abe 60b8 adbd 533c 5dbe
00000050: 77ae 593e 5e82 5bbe b595 fd3d e7d9 cabd
00000060: 63e1 4abe 6a73 4e3e 7a13 ca3d c57f a3bd
00000070: 2ea5 133e 188a 0f3e 0e76 ecbd fd77 b1bd
00000080: 290c 773d cda3 93bd 3567 cbbd ffaa 963d
00000090: 1417 29be ae11 fd3d 60f6 213e 4971 543e
000000a0: 61a5 db3d 53c2 7f3d b26e ff3d 00da 5b3e
000000b0: 7985 7a3d a3a4 a0bc 1019 e93d d6b7 503e
000000c0: 605e ffbc 6a06 ac3d 1780 553d 0192 793e
000000d0: 242a 423d 9d97 cf3d 401c 313e 299b 59bd
000000e0: 2410 563e 5d14 8bbd 0e1f 5bbe 1ea4 813e
000000f0: 3aab e43d b4cb 1abe 73ec e4bd a39b 65bd
00000100: 5dff 16be 17c8 85bd 833f 3e3e 07e3 52bd
00000110: f2cd e53d 2524 463e 0aa3 2ebd c4e1 e03c
00000120: 98aa 6abe 9434 42be 3b7a 3fbd 2d89 85bd
00000130: d98b 12bd 15b8 9b3d a45a 13be c3b1 97bd
00000140: f051 5ebe fc06 54be 2289 62be a867 21be
00000150: 6549 06be b023 db3b e2d4 873e a1b7 e9bd
00000160: 7220 033e ac05 903d a1f7 99be 67c2 123e
00000170: 6c9e 24be efc1 02bc 21fb 8cbe d76b 5ebe
00000180: ed94 b6bb ccf5 babd 3b1a 65bd 34ba 0f3e
00000190: 03b5 033e 2147 073e 85fa d13d 3088 033e
000001a0: 4bcc 3dbc df73 24bd b508 a33d 98f7 5dbd
000001b0: 25aa 043e 6ed2 05be ae6c e53d 9e26 4c3d
000001c0: 985f 36bd f636 5abe 98a4 453e ff1a d2bd
000001d0: b49a aabd a65a 9dbd 3c71 9ebb d705 fdbd
000001e0: f25c b2bd 239f 0b3e 6198 2c3e 0ac7 84be
000001f0: 9958 22be e8bb 0dbd 00a5 1a3d 416d 183d
00000200: 05ac bd3d 5439 61be 1200 aabd b1cb fd3c
00000210: 9ec2 06be 02f0 afbd b1d3 d03c 1efd 6e3e
00000220: ad3e 3b3e e15a 933e 2a6f 623e 4f00 5c3e
00000230: e4f0 84bc 3cfb a63c 3b87 39be 56c6 463e
00000240: bbb4 bbbd 3424 91bd f048 5f3e aafe c7bd
00000250: 56ed 68bc 8696 53bd b267 ddbc 7dee 8a3c
00000260: 6987 edbd 6f47 d63d be26 003e 1013 cabc
00000270: aea8 643e 297d 173e 1ef9 993c be6a 5bbe
00000280: d9c9 a63d 4ca2 29bd 5655 843d dc24 703d
00000290: 65f9 c13d a9df cabd 3e07 31be aa02 e93c
000002a0: 06a4 4a3e 4812 8ebc 0744 8d3e 14c9 83bc
000002b0: e753 d9bd 3702 02bd aac7 fdbc e13f 0bbe
000002c0: 7a97 04be c52b 163e 5c39 16be 4f8d e33d
000002d0: 5e71 b23d 3145 603d a20c a9bd 7958 b3bd
000002e0: 288b 743e 2e6c 783e 0207 4b3e 9a9a d43d
000002f0: 2c7e 5ebd 0841 283d 8d52 b5bd 41fe 77bc
00000300: a8e1 6bba f64b 583e 39a3 6b3d eb39 dd3d
00000310: 1aa1 29be 1853 f9bd 15ac 0abe 485b 39bd
00000320: f338 88bd 25f8 3d3d f8c7 20be 2539 b3bd
00000330: 8f9f 783e 38bd 27be e612 663e c783 bdbd
00000340: af53 76be e622 45be 3912 783e 71ce 103e
00000350: a276 d6bd 9742 c93d c432 7a3d bfeb 7bbc
00000360: 3b9e be3d 9e53 103e 9613 30bd af4d 1b3e
00000370: 5a01 463e a30d 363e 815c b5bd e57b ecbb
00000380: ee7a 2b3d 318c 133e c67a 493e a7dc af3c
00000390: 2430 40be 8c47 babd 2ab8 673e 688e 543d
000003a0: 0a9f 00be 59be 09be 3ef4 e73a 74a7 4fbe
000003b0: f713 09bd a3d6 4abe dfdb 8dbc ca7e a8bd
000003c0: 76d2 923d c4bf 3dbb 487f 2cbe 8ede 983d
000003d0: 972c ee3d 462f 2cbd 2282 1e3d fb12 f33d
000003e0: 8a3c f3ba 49a3 21be 9e6e 263d 9c27 393c
000003f0: e44f 39be 9bed 2f3e af44 313e adfb d53c
-0.07924244 -0.17369504 0.15223771 0.02149941 -0.09858195 0.1938675 -0.02155582 -0.052803803
-0.09987853 0.003862357 0.18182325 -0.26670703 0.073569596 0.27059734 0.08153198 0.008964994
0.026946252 -0.19751954 -0.08482432 -0.21605043 0.2125796 -0.2143645 0.1238207 -0.09904843
-0.1981254 0.20161214 0.09866996 -0.079833545 0.1441848 0.14017522 -0.11545955 -0.08665464
0.06031433 -0.07208977 -0.099317946 0.07356834 -0.1651271 0.12356888 0.15816641 0.2074634
0.10724903 0.06244118 0.12472285 0.21469879 0.061162446 -0.019609755 0.113817334 0.20382628
-0.031172931 0.08399661 0.05212411 0.24372102 0.04740347 0.1013634 0.17295933 -0.053126488
0.20904595 -0.06790993 -0.21398565 0.25320524 0.111654714 -0.15116769 -0.111779116 -0.05605663
-0.14745851 -0.06532305 0.18578915 -0.05148604 0.112209216 0.19349726 -0.042635955 0.027451403
-0.22916639 -0.1896537 -0.046747427 -0.06520305 -0.0357779 0.0760347 -0.14390045 -0.07406952
-0.21710944 -0.2070579 -0.22122625 -0.15762198 -0.13113935 0.006687604 0.26529604 -0.114119776
0.12805346 0.07032332 -0.30071738 0.14331971 -0.16076058 -0.007980808 -0.27535346 -0.21720825
-0.0055719526 -0.09128913 -0.05593322 0.14035875 0.12862019 0.13210727 0.10252861 0.1284492
-0.011584352 -0.040149566 0.07960645 -0.054191202 0.1295553 -0.13068554 0.1120237 0.049841516
-0.04452476 -0.21310028 0.19301069 -0.10259055 -0.083302885 -0.076833054 -0.004835276 -0.123546295
-0.08709134 0.13634925 0.16855003 -0.25933105 -0.1585411 -0.03460303 0.037755013 0.037213568
0.09261326 -0.21994525 -0.08300795 0.030980917 -0.13160178 -0.085907 0.025491567 0.23338744
0.18285628 0.28780273 0.22112718 0.21484493 -0.016228147 0.02038347 -0.18117993 0.19411597
-0.09165331 -0.07086983 0.21805167 -0.0976537 -0.014216742 -0.051657222 -0.027026985 0.016959423
-0.11598093 0.104628436 0.12514779 -0.024667293 0.22329971 0.14793839 0.018795546 -0.21427438
0.08143968 -0.041414544 0.06461589 0.0586289 0.09471396 -0.09905941 -0.17287919 0.028443653
0.19789132 -0.017342702 0.27590963 -0.016087092 -0.10611706 -0.031740393 -0.030978996 -0.13598587
-0.12948409 0.14665134 -0.14670318 0.11110937 0.08713029 0.054753486 -0.08254363 -0.08757109
0.23881209 0.24260017 0.19826892 0.103810504 -0.054319546 0.041077644 -0.08853636 -0.015136302
-0.0008998164 0.21122727 0.057528708 0.108020626 -0.16565362 -0.12174052 -0.13542207 -0.04525307
-0.06651487 0.046379227 -0.15701282 -0.08751134 0.24279617 -0.16380775 0.22468147 -0.0925365
-0.2405536 -0.19251594 0.24225701 0.14141251 -0.10471846 0.09827154 0.06108357 -0.0153760305
0.09307524 0.14094397 -0.04298743 0.15166353 0.19336453 0.1777864 -0.08855534 -0.007216918
0.04186528 0.14408948 0.1967574 0.02146752 -0.18768364 -0.09095678 0.22628847 0.05189362
-0.12560669 -0.13451518 0.0017696691 -0.20278722 -0.033466306 -0.1980844 -0.017316757 -0.08227308
0.071690485 -0.0028953413 -0.16845429 0.07464324 0.116295986 -0.04203727 0.038698323 0.118688546
-0.0018557471 -0.15784945 0.040632837 0.0113009475 -0.18096882 0.17180483 0.17311357 0.026120985

sentiment_branch.attn.in_proj_bias f4 [72]
00000000: 52fd bcbc 7c9d bcbc ccb3 d0bc be8f ffbc
00000010: 0609 eb3b a755 3b3d 0874 b13c d490 083d
00000020: 881e e83a 3e2e 39bd 3ee8 2bbd 6e2a 7dbb
00000030: 608c d93b ee14 d6bb f787 eb3c 5481 a83d
00000040: 59bf 8dbb e8aa f13b 2a89 1fbc 0a40 bf3b
00000050: 73de b33c cc3c 4a3a b88b bfbc 7f40 04bd
00000060: 73ce 2134 0f00 7ab5 22dc 1b34 b313 54b5
00000070: ea35 7f33 010a 6534 5e5f 38b4 46a8 dfb6
00000080: 10f0 64b5 dc3e 7fb5 9355 b034 a755 a434
00000090: 0a5d 27b5 53d5 2d32 b42b 1db5 5ae3 57b6
000000a0: 9e4e db36 02f6 43b4 fd5b a435 e04f a4b4
000000b0: a2d3 f834 8927 5335 25af 34b6 4b89 1f35
000000c0: 34a6 963a 3d9d 803b 9996 4dba edc5 a3bc
000000d0: 46a8 933b 6ce2 793b 43f7 d0bb d949 21bc
000000e0: 7d41 5f3c a9c5 89bc 3b8c 7bbb de65 a83a
000000f0: f5c3 243b ece7 333c fdc4 02bb 6ba7 33bc
00000100: ad8f d3bc 2ec6 82bc a726 e33b ff77 013a
00000110: 86f4 e0bb 1ee6 39bc d16a 663b 2834 403c
-0.023070011 -0.023024313 -0.025476359 -0.031196471 0.0071727065 0.04573598 0.021661773 0.033341244
0.0017709294 -0.045210116 -0.04196953 -0.0038630026 0.0066390485 -0.0065332567 0.028751357 0.082277924
-0.004325789 0.00737511 -0.009737292 0.0058364915 0.021956658 0.0007714748 -0.023382053 -0.03228807
1.5069399e-07 -9.313234e-07 1.4515584e-07 -7.900482e-07 5.942085e-08 2.1330926e-07 -1.717103e-07 -6.6655075e-06
-8.5285956e-07 -9.5086375e-07 3.2844818e-07 3.06097e-07 -6.234774e-07 1.011843e-08 -5.8550654e-07 -3.2169833e-06
6.535861e-06 -1.8250287e-07 1.2245724e-06 -3.0605497e-07 4.6347583e-07 7.8661157e-07 -2.6924038e-06 5.9431903e-07
0.0011493624 0.0039249943 -0.000784257 -0.01999184 0.0045061437 0.0038129343 -0.006377132 -0.009844267
0.0136264535 -0.016817885 -0.0038383144 0.0012847742 0.0025141214 0.010980587 -0.001995384 -0.0109652085
-0.025825346 -0.01596364 0.006932098 0.000493884 -0.006865087 -0.011346368 0.0035158882 0.011731185
