models/checkpoints/news_lstm/news_lstm_v5.pt (torch, 113894 bytes, 29 tensors)

sentiment_branch.lstm_layers.0.weight_ih_l0 f4 [192, 11]
00000000: 6ba5 90be 46e5 81be 2fd1 b0bd 85cc f43d
00000010: a48a d93d a9f8 9bbe 3ffb bdbd 7223 aabc
00000020: fbf3 26be 4a39 023e 2738 00bd 89f4 b3bd
00000030: 1c0b e3bd 5473 8ebd c480 bb3d 9f80 113c
00000040: dd21 87be 4414 163e 328f 353d 9244 46bd
00000050: a98f 0d3e f19b cebc 6c47 b0be 7ecf 44be
00000060: 5caa 43bd 998d 653d 32a5 523e 216b 97be
00000070: fa2e 29be da26 4dbc 5ddd 02be 4dd4 093e
00000080: fbbc b13d 8c85 3b3d 1a39 b7bd 4cea 9e3d
00000090: 448c 093e 94b2 83bc 0741 ca3d 0cfb 0abd
000000a0: 22de aa3c 1ab8 b03d e209 fe3d 62d2 61bd
000000b0: a1b4 2e3d 9ac5 6a3e 4378 1fbc 294a a03e
000000c0: b1e9 a63e eef9 303e 99ec d53b b927 a23d
000000d0: 4012 333e 658e 603e c348 5e3d 3212 9e3c
000000e0: be11 823d a524 603d 2668 113e e1e1 463e
000000f0: 7290 463e 13f1 4b3e 8f3c de3d eee9 f23d
00000100: e417 63bc 1585 023e f202 53bd 4443 113e
00000110: e6a4 513e c62e e43d d496 f13d 361c f83d
00000120: 2c0e f83b c7ab d5bc 042f 913e 625a fe3c
00000130: f387 aabd ea18 6ebe b67f fb3d fda8 14be
00000140: 7498 82be 1400 05be 6663 79be dcf9 03be
00000150: 109b e6bd 3630 47bd 1fd4 a2be 0a5c 763e
00000160: ad7e 253e 2bbe fabc acb0 303d 986b 2ebe
00000170: 9f93 353e 5d07 d53d 1550 073e 2679 153c
00000180: 1abb 5c3d a6ba bc3b 1bc2 883e ecb6 2b3e
00000190: d10e 23be 0896 723d 414f 4cbe 93e5 04be
000001a0: 25ec e53b 857f 073e 45c8 673e b716 bb3d
000001b0: 459e 2dbe f7e7 ac3d e259 a6be 879c dbbd
000001c0: 4fdd cdbd c4bb 88be 0909 9dbe 9325 52be
000001d0: 3aa8 37be 6a2f 7bbe aea3 213d ea4b 80be
000001e0: 6cad f0bc 75bc ec3d b0a3 993e 5e39 51be
000001f0: a0ee f3bd c96d 93bc 424a 333e 305d c8bc
00000200: 2ec7 123e 439d c43d 04ab a2bd f8a9 583e
00000210: 3d18 333c ad8f 723d 1445 bb3c df81 01be
00000220: 3530 813e f50c 013e 6c00 d9bc b8e1 0abe
00000230: bb15 7f3e eb66 0e3c 9b46 4bbd 8cfd ee3d
00000240: 4b36 ca3c ae73 37bd c510 05be 1c0e 6a3e
00000250: 1558 773d 57c9 f73d 5930 1b3e 8257 b6bc
00000260: c578 acbd edda 573e 0c04 ac3d 3c92 95bd
00000270: 61f6 e23c a691 26be 7890 30be f8cc 2f3c
00000280: 796b 303e 3aab bd3b 945b d5bc 6bc9 513e
00000290: c8f7 853d 4e75 9cbd 04ea ee3c f9d6 89bd
000002a0: abe2 6bbd 2294 16be fdee bbba e858 07bd
000002b0: 2541 24be c522 2ebd b6f4 063e c169 3fbe
000002c0: 9ed1 4e3e 4a5a c63c 3657 e5bd e3d4 ddbd
000002d0: 7f24 7c3e 9401 d33d 88a2 613d aa13 14bd
000002e0: 84e5 d1bc ea58 b73d e728 e3bd 3c98 8ebd
000002f0: ac21 b7bd ebab 8e3d 4d4f 063e 4624 69bc
00000300: 39b7 26be 598e 7abe 6da0 f0bd 240e d63d
00000310: bf51 dcbc afa4 013e 61b1 cabd 4962 d23d
00000320: 80fb f7bd 4350 35be 81e8 0ebe 1f45 3c3d
00000330: cb55 013e 9e0e b3bd 5bd8 813d 0ccf f1bd
00000340: 6f62 333d 51bb 2e3e 3eb1 2abe 2fcc 283c
00000350: 8976 503d 4835 23be 24fb 2d3e d0b8 063e
00000360: 9c22 9339 81ad 37bc f853 833d 87d9 efbd
00000370: a796 5b3e 30cf 5abd 762c 68bd 22ca 2d3e
00000380: b126 2d3e 0151 b93d e8a6 b5bd b58f bfbd
00000390: 4db0 44bd 6ab0 e93d 5b8f 123d 357f 53be
000003a0: 909b 133e 7c1c 48be 6fef 6cbe 732e 77bd
000003b0: aa94 383d 3f7e e9bd eb5e 72be feef a03c
000003c0: 7167 c5bd aeb1 863e 7dba 8c3d ad35 dd3d
000003d0: e6b7 4dbe a9ca c33d 1950 913d 904f 863d
000003e0: d8a6 b4bd 3f69 bdbd 282e 443d 1884 89bb
000003f0: c333 24bc cd9b 2bbd 146f 4cbd 878f 043e
-0.28251204 -0.25370234 -0.086336486 0.119530715 0.10622147 -0.3046315 -0.09276437 -0.020768855
-0.16304009 0.12717167 -0.03130355 -0.08786876 -0.11086103 -0.06955591 0.091554195 0.008880763
-0.26393023 0.14656168 0.044326015 -0.048405237 0.13824333 -0.025220843 -0.3442949 -0.19219777
-0.04776989 0.05604324 0.2057083 -0.2957392 -0.16521826 -0.01252147 -0.12779756 0.13459893
0.08678623 0.045781657 -0.08946438 0.07759532 0.13432413 -0.016076364 0.09875684 -0.033930823
0.020857874 0.086288646 0.12404229 -0.055132277 0.04265273 0.22926942 -0.0097332625 0.3130658
0.32600167 0.1728284 0.006528449 0.07917733 0.1748743 0.21929319 0.05426861 0.019295786
0.0635104 0.054722447 0.14199886 0.19422103 0.19391039 0.19916181 0.108513944 0.11861025
-0.013860676 0.1274608 -0.05151648 0.14185816 0.2047306 0.11141734 0.11796346 0.12114756
0.007570049 -0.026082886 0.28356183 0.031048957 -0.083267115 -0.23251691 0.12280218 -0.14517589
-0.25506938 -0.12988311 -0.24354324 -0.12888283 -0.112600446 -0.048629962 -0.3180246 0.24058548
0.16161604 -0.030608257 0.043137237 -0.17033231 0.17732094 0.10401795 0.13214143 0.009123122
0.05388937 0.005759555 0.2671059 0.16768998 -0.15923621 0.059225112 -0.19952108 -0.129782
0.007016676 0.13232239 0.2263499 0.09135192 -0.16954906 0.08442681 -0.3249045 -0.107232146
-0.10051977 -0.26705754 -0.30670956 -0.20522146 -0.17935267 -0.24529806 0.039462738 -0.25057918
-0.029379569 0.11559383 0.30007696 -0.2043204 -0.119107485 -0.017996686 0.17508796 -0.024458498
0.14333794 0.09600308 -0.07942775 0.21158588 0.010931072 0.05921905 0.022860087 -0.12647198
0.25232092 0.12602599 -0.026489459 -0.13562667 0.24910633 0.00869153 -0.04962788 0.11669454
0.024684092 -0.044788055 -0.12994678 0.22856945 0.060386736 0.120989494 0.15155162 -0.022258524
-0.084214725 0.21079607 0.083992094 -0.073032826 0.027705373 -0.16266498 -0.1724261 0.010730021
0.17228498 0.005788234 -0.026044644 0.20486991 0.06541401 -0.076395616 0.029164322 -0.06730456
-0.057589214 -0.14704946 -0.0014338192 -0.033043772 -0.16040476 -0.042513628 0.13179287 -0.18692686
0.2019715 0.024212975 -0.11198275 -0.108316205 0.24623297 0.103030354 0.055086643 -0.036151566
-0.025622137 0.08952506 -0.11091786 -0.0696263 -0.08941969 0.069663845 0.13116188 -0.01422984
-0.16280831 -0.24468364 -0.11749349 0.10451916 -0.026894448 0.12660478 -0.098971136 0.10272653
-0.12108517 -0.17706399 -0.1395588 0.045964357 0.12630384 -0.087430224 0.06340095 -0.11807069
0.043795045 0.17063643 -0.16669175 0.010302587 0.050894294 -0.15938294 0.16990334 0.13156438
0.0002806381 -0.0112108 0.064125 -0.11711412 0.21444188 -0.053420246 -0.056683026 0.16971639
0.16909291 0.090486534 -0.088697255 -0.09353582 -0.048019696 0.114106014 0.035781246 -0.20653994
0.14414811 -0.19542116 -0.23138212 -0.06034703 0.045063652 -0.11401033 -0.23669021 0.019645687
-0.096388705 0.26307434 0.06871507 0.108012535 -0.20089683 0.09560139 0.070953555 0.06558144
-0.088208854 -0.0924859 0.04789558 -0.004196655 -0.010022107 -0.04189663 -0.04991062 0.12945376

sentiment_branch.lstm_layers.0.weight_hh_l0 f4 [192, 48]
00000000: c425 46bd b199 053e f62f c33d 1dff 8abd
00000010: 3da2 ef3c 86d2 0bbd b214 3cbd f7a9 fa3c
00000020: 37da 0dbe 0f06 803d f82f a1bd b7f0 953d
00000030: 5fd8 d5bc bd03 b5bc 41f5 583d c67b e83c
00000040: cce1 a7bd a1a9 8c3e 1ebb f8bd 062c 55bd
00000050: 6ebb 493e bb8c b03c 5751 863c e1d6 db3c
00000060: b686 d6bc 5880 413e 9b10 26be 81c1 073e
00000070: 9183 dbbd 5b48 c8bd 5170 97bb 1a7c 7cbd
00000080: ef48 c83d 8218 4ebe 4256 373c f281 103e
00000090: 0cef 53bd 2b8f 543c 9e01 4abd f783 1fbe
000000a0: 661e 1e3e 436a 11bd 001e 553e a6d4 793d
000000b0: dc9e 393d b78d 9a3d 9da7 ea3c 88d4 0fbe
000000c0: 6d1b 43be 5c29 0cbd b757 63be 4d62 883e
000000d0: b773 8fbc d376 7bbd 1ffb 843d cf48 c6bd
000000e0: a563 5f3d 3b9f c63b 6560 cf3d 2259 9ebd
000000f0: 95bc e9bc 34ef 80bb bc6e 013e bdca 7abc
00000100: fd6b 813e 4a92 2a3e 1924 38bd 4395 7f3e
00000110: b306 313e 3cfa 49bd 6955 0f3c a2a3 5cbd
00000120: 3fa1 d23d 95e3 b13d e710 b5bc 8a3d 763d
00000130: 88cb 37bc 09a9 97bd c5c5 f9bc 808a c6bd
00000140: 026a 353e e87d aa3d 4157 d5bd 89e2 50bc
00000150: 3075 10be adb4 193e 96c2 803d cf35 f2bd
00000160: 1a0d 443d 58b9 13be 8a68 08be b2d6 253e
00000170: 508d e4bd b65c 063c 6e5f 093e d2e1 b4bc
00000180: a3b5 85bd 2af5 043e 667f 8ebe f827 c83d
00000190: b653 11be b5f4 8a3e 4d15 87bd 44c4 033e
000001a0: 78b7 03be cd7c af3d 4631 98bd bed3 8cbc
000001b0: 8cdf 3b3d 07a8 333d 6f27 3d3d 73b3 73be
000001c0: 5f95 5ebd f88f d5bd 14fa 6a3d 4310 043b
000001d0: f7a3 7e3e 4667 b23c 40f1 f43d 70c6 1b3e
000001e0: 22a3 3abe 1bec 25be c0aa da3d d9c8 15be
000001f0: befb 813d b448 1f3e 2c85 5e3e 20ee 5fbe
00000200: 38b7 833c 84e2 9ebe 2942 163d 39c0 cbbd
00000210: 2f4b ac3d fe63 00be 36fe 833e ab10 d3bd
00000220: e414 dcbd 052a 423e bd7f 4dbd 544b dcba
00000230: 5ae0 6fbd 3115 803d eb2b 423e bdee f5bd
00000240: 0b31 2d3d 7533 57be 152c 21be 0a7d 933e
00000250: af05 e3bd be7f 08be efa4 f9bd 0f59 283e
00000260: 49bc f43d cc7e 893d 9572 813d 9576 6abe
00000270: 822c 543d 1580 a7bc fccd 153e 1f14 aa3d
00000280: 7945 5d3c 8a86 16be ed84 57be a3c3 713d
00000290: 7223 143d 26ed 91bd 830a dfbd c612 463c
000002a0: 43bd a43d 55b7 6bbd cc25 0f3e e4b3 8bbd
000002b0: f364 b4bc 1b40 27be 7fae 633e e74f 0ebe
000002c0: d032 7d3d e127 053e 6781 22bd 4a0d 1d3d
000002d0: 4aba 2e3e b877 273e 3151 e03d ae3d 3abd
000002e0: 141a b23d 7a24 5ebd cdc1 a63d f6a0 203e
000002f0: 90d7 083e 4f85 a53c 52a8 9fbd 6ed4 2fbc
00000300: ec3f 4e3e 90c8 60bd 74d4 db3d 809f 8a3d
00000310: f58d 2fbd 0302 6b3e 995e 863d 03b5 3f3d
00000320: 396b 0ebd ced9 3ebe 6be3 0c3d f0e3 c1bd
00000330: 2af2 edbd 32b7 0cbc dd0d aebc e7d2 d7bc
00000340: 48ae 943c 3fb9 f23c aee9 1fbe 6463 833d
00000350: 7a5e d43d 19b7 89be bc1b 67bd 5bdf 8bbe
00000360: f4c7 77bd 0dd8 1e3d dbea b33d 2323 6bbd
00000370: 6d29 943c ee7f f63d bdca 023c 9d67 64be
00000380: 46f8 7f3d 766c d93d 7a16 423e a09c 873d
00000390: db83 d43d 6b03 313e 8a72 02be a340 13bd
000003a0: 1948 0fbe 9c87 693c e458 c7bd 54d0 513d
000003b0: bca5 a23a 6b9d 763d 825e c4bc 3424 45bd
000003c0: 1d33 50bd 8d83 a73d e253 ab3d 1146 02be
000003d0: cc65 243e e3dd 43be cb1d e03d 820d 833e
000003e0: 6dd1 00bc 4f11 203c 0e8d 573d 26d4 aabe
000003f0: e2e3 b1bc ef36 9abd cd80 643e 1865 053e
-0.04837586 0.1304691 0.09530632 -0.0678694 0.029252166 -0.034136318 -0.045918174 0.030598624
-0.13852774 0.062511556 -0.078704774 0.07321303 -0.02610415 -0.02209651 0.052968267 0.028379332
-0.08197364 0.27473167 -0.12145065 -0.052043937 0.19700405 0.02155148 0.016396208 0.02683586
-0.026187282 0.18896616 -0.16217272 0.1325741 -0.10718454 -0.09779426 -0.0046215435 -0.06164179
0.09779536 -0.20126536 0.011189999 0.1411207 -0.051741645 0.012973587 -0.04931795 -0.15577684
0.15441284 -0.03550173 0.20812225 0.060993813 0.045317516 0.07546561 0.028644377 -0.14045918
-0.19053431 -0.03421913 -0.2220143 0.26637498 -0.017511232 -0.061392616 0.0649321 -0.09681856
0.054538388 0.006061462 0.10125808 -0.077318445 -0.028532306 -0.0039347652 0.12639898 -0.015307126
0.252777 0.16657367 -0.0449563 0.24959283 0.17287712 -0.049310908 0.008748391 -0.05386699
0.102846615 0.08685986 -0.022102786 0.060117282 -0.011217959 -0.07405288 -0.030489812 -0.096943855
0.1771622 0.08324796 -0.10417033 -0.012749323 -0.14107203 0.15010329 0.06287114 -0.118266694
0.047864057 -0.14426172 -0.13321128 0.16195181 -0.11159766 0.008200815 0.1341531 -0.022080336
-0.06528785 0.12984148 -0.27831572 0.097732484 -0.1419209 0.27139822 -0.0659586 0.12867838
-0.12862957 0.08568726 -0.07431273 -0.01719081 0.045867488 0.043861415 0.046180185 -0.23798923
-0.05434167 -0.104278505 0.0573674 0.0020151294 0.24867235 0.02177776 0.11960077 0.15212417
-0.18226293 -0.16203348 0.10677099 -0.14627399 0.06346844 0.15555078 0.21730489 -0.21868181
0.016078576 -0.31032193 0.03668419 -0.09948773 0.08412778 -0.12538144 0.25779885 -0.103059135
-0.10746172 0.18961342 -0.05017065 -0.0016807117 -0.058563568 0.06254042 0.18962066 -0.12008426
0.0422831 -0.21015723 -0.15739472 0.28806335 -0.110850684 -0.1332998 -0.12189662 0.16440223
0.11949975 0.06713638 0.06320683 -0.22896798 0.05180026 -0.020446816 0.14629358 0.08304619
0.013505333 -0.1469976 -0.21046801 0.059024464 0.036166616 -0.071253106 -0.10890677 0.012089437
0.08043911 -0.057547886 0.13979262 -0.06821421 -0.022020793 -0.16333048 0.22234534 -0.13897668
0.061816037 0.13003494 -0.03967419 0.03834275 0.17063251 0.16354263 0.10952986 -0.04546898
0.0869638 -0.054234006 0.08142433 0.15686402 0.1336348 0.020205168 -0.077957764 -0.0107317995
0.20141572 -0.05487877 0.107338816 0.067687035 -0.04285999 0.22949986 0.06561012 0.046803486
-0.034770224 -0.18637773 0.03439657 -0.09467304 -0.11618455 -0.008588599 -0.021246845 -0.026345683
0.01814951 0.029629348 -0.15616485 0.06415442 0.103695825 -0.26897505 -0.056422934 -0.27318844
-0.060493425 0.03878026 0.087850295 -0.057406556 0.01808616 0.120361194 0.007982907 -0.2230515
0.06249263 0.106163904 0.18953887 0.06621671 0.10376712 0.1728646 -0.12739006 -0.035950314
-0.13992347 0.014253523 -0.097337514 0.051224068 0.0012409012 0.06020872 -0.023970846 -0.04813023
-0.050829995 0.08179388 0.08365609 -0.1272204 0.16054457 -0.19127612 0.109431826 0.25596243
-0.007862431 0.009769752 0.052624755 -0.3336498 -0.021715108 -0.07530009 0.22314759 0.13026845

sentiment_branch.lstm_layers.0.bias_ih_l0 f4 [192]
00000000: 068f 69bb e19c d23c 764a 15be 9d33 75bc
00000010: 8576 b73d 6f1f a5bd 94d6 113d c23d 5a3e
00000020: 93f4 92bd f8eb 9cbd 0a33 8ebd 4848 e73c
00000030: f0da 953d bc26 dfbd 0c45 023e 4bac 98be
00000040: 4a82 863d c5b5 a03d 7449 1dbd 1d42 52bd
00000050: 1558 2abe fd5d 303e f7b9 e7bd d5f2 073d
00000060: bf3d fc3d 1812 713d ef60 273e 3d28 50be
00000070: 56ad 7cbd a2a1 ea3c 01c6 e0bd 4045 de3d
00000080: 8e58 58be fe3b 25be e3b9 243e 1c36 0d3d
00000090: b649 0d3d 0000 9ebd e794 29bd df66 d03a
000000a0: bdbb 733c cc64 3d3c 8126 d9bd cf62 adbd
000000b0: e233 213e 8435 bfbd fba9 44bd ab86 bcbd
000000c0: 53c6 eb3d ab2b 2cbe 84a6 c5bc d08a fb3d
000000d0: a72c 0d3e dfe9 043c c284 7dbe 757f 5a3e
000000e0: 9399 2bbe 9268 67be cc83 6b3c bbf7 753d
000000f0: 949b 70be e08e 0ebe 2c09 773c 2ff5 8abe
00000100: 8280 c6bd f0b5 203d a44b 913d 72db a33c
00000110: 0441 8fbe a235 6cbd 1362 003d f5de 2dbe
00000120: 0f18 d9bd 701e 5dbe bbb3 96bb c639 a3bd
00000130: 9b49 8fbd 09ce 373e 4a7f 03be 300f 353e
00000140: 6595 5abe 508e 2bbe 3b57 603e 528d 053d
00000150: eda9 32be b92e 8bbe a9fe 603e ce77 acbc
00000160: 3eea e03c 1dbe 98bd ef1c 18be 57a6 b13d
00000170: 2a70 58bc 63ec 2ebd 985f f93c b7b5 0ebd
00000180: a5c1 8f3c 3ed8 c0bc 3305 4cbd 86eb 0d3d
00000190: 8615 c83c cf00 6d3d 4301 4ebd 6e55 9bbd
000001a0: 2a9b e7bd 06fe 1bbd f0b9 d83d f6bd b83d
000001b0: 743c b4bd 6f70 8e3d e3a0 023d f89a 7abc
000001c0: c8b6 7ebd a3fd ef3c 2ac5 0ebd e7fd 8b3d
000001d0: 64a8 94bd 6722 dcbd f45b 5e3d 2472 58ba
000001e0: b832 e5bd 0549 4abd edf5 63bd 5b83 9dbd
000001f0: 24bc 01bd c97b 553d 4470 55bd 2575 24be
00000200: 860d 0e3e bbe8 ab3d 4c16 8d3c 9237 ffbd
00000210: 453c 963d b0f9 ba3c fd5f b8bc 05bd d73c
00000220: 4767 7ebd 431f f9bd f7bf ac3d 1896 ddbd
00000230: ce12 893d f9bb 013e 31ec 9fbd fe10 a8bb
00000240: bb80 0abe 6b2f 92bd af82 29bd d070 2cbd
00000250: 3eb9 01bc 0e5a 933d ffae 36bd 526d 2f3e
00000260: 388a 4d3d 41b8 63be 2aeb b4bd 0923 b13d
00000270: cc78 ca3d 741a 153e 6ef2 383d fd16 46be
00000280: 0a71 4dbe 5399 243d 5942 9c3d ec4c 0ebe
00000290: 4a0e 68be 44c2 093e dbcf 503c 7e8d ed3d
000002a0: a10b 89bd 1603 acbd df31 223e 9ee3 08be
000002b0: 5db3 d73b 8231 01bc d07b 5bbe bb07 253e
000002c0: 127c a5bd fd8c 9cbd 15fe 0f3e 79c6 b0bd
000002d0: de99 9dbd 71e6 08be 608c 2e3e e79d a2bd
000002e0: 4b3e acbc 2fe2 53be 1cc4 4fbd b098 52bd
000002f0: 547d 1d3e af06 bc3d 3882 2fbc 267f 84be
-0.0035638227 0.025709571 -0.14579186 -0.014965919 0.08958153 -0.08062636 0.03560503 0.21312621
-0.07175555 -0.07662195 -0.06943329 0.028232709 0.0731715 -0.1089606 0.12721652 -0.2981895
0.065678194 0.0784717 -0.03840013 -0.05133258 -0.16635163 0.17223354 -0.11314767 0.033190567
0.12316465 0.058855146 0.16345571 -0.2032785 -0.061688744 0.028641526 -0.10975266 0.10853052
-0.21127531 -0.16136166 0.16086535 0.03447543 0.034494124 -0.07714844 -0.04140177 0.0015899799
0.014876303 0.011559676 -0.10603047 -0.08466112 0.15742448 -0.09336379 -0.04801367 -0.092053734
0.11512437 -0.16813533 -0.024127252 0.12282336 0.13786565 0.0081124 -0.24757674 0.21337683
-0.16757803 -0.22598484 0.014374685 0.060050707 -0.23496848 -0.1392169 0.01507787 -0.27140185
-0.0969248 0.03923601 0.070945054 0.0200021 -0.2797929 -0.057668336 0.03134353 -0.16979583
-0.10600292 -0.21593642 -0.0045990623 -0.07970004 -0.06996461 0.1794969 -0.12841526 0.17681575
-0.21346052 -0.16753507 0.21908276 0.032605477 -0.17447634 -0.27184084 0.21972145 -0.021053221
0.027455445 -0.07458136 -0.14854787 0.08674305 -0.013210336 -0.042705905 0.03044109 -0.034841266
0.017548392 -0.023540612 -0.049809646 0.03464844 0.024424326 0.0578621 -0.050294172 -0.07584654
-0.11308892 -0.038084053 0.1058234 0.09020607 -0.08800593 0.06955039 0.031891715 -0.0152957365
-0.062186033 0.029295748 -0.034856 0.068355374 -0.072586805 -0.10748749 0.054286912 -0.00082567544
-0.111913145 -0.049386043 -0.055654455 -0.0769107 -0.031673566 0.052120004 -0.052109018 -0.16060312
0.13872346 0.08393999 0.017222546 -0.12461771 0.07335714 0.022824138 -0.022506708 0.026335249
-0.06211021 -0.12164166 0.08435052 -0.10819644 0.0669304 0.12669362 -0.07808722 -0.0051289788
-0.1352567 -0.071379505 -0.041384395 -0.042099774 -0.0079177 0.07194911 -0.044600483 0.17131546
0.050180644 -0.22238256 -0.088339165 0.086492606 0.098863214 0.14560872 0.045153074 -0.19344707
-0.20062652 0.040185284 0.07629842 -0.13896531 -0.22661701 0.13453013 0.012744869 0.11599253
-0.06691671 -0.08399026 0.15839337 -0.13368079 0.006582661 -0.007885339 -0.2143395 0.1611623
-0.08080305 -0.07644079 0.14061768 -0.08631606 -0.076953635 -0.13369156 0.17045736 -0.07940274
-0.021025797 -0.20691751 -0.050724134 -0.051415145 0.1537984 0.09180962 -0.010712199 -0.25878257

sentiment_branch.lstm_layers.0.bias_hh_l0 f4 [192]
00000000: fc08 b6bd c0b5 e7bd a064 49bd 44a9 133e
00000010: 992c c6bc a321 21be 6dcb 3d3d 6888 093d
00000020: 4213 47be f021 a7be 77a7 e5bd 9346 2f3e
00000030: 3d8b 303d 4eb8 ffbd 0525 8b3c 90ea 1ebe
00000040: 4b18 48be 49af c43c 517b cfbd 3a75 d9bd
00000050: 05cf 0bbd 8c18 123e fff5 55bd 811f 37bd
00000060: a087 fc3d ccc0 0c3b 9ef2 523e 8d46 01be
00000070: c39a 493e ddd7 c83d 38c6 31be 5700 b93d
00000080: 3c05 abbe 5b55 a7bd 99eb a03e 9521 02bd
00000090: a516 db3d 39c4 1dbe 3c7d 0d3d 0213 65be
000000a0: 7d08 60bd e547 d3bd e743 0c3d a23c 0fbd
000000b0: 0329 1c3e aedb 853c 6feb f1bd 37bb 89be
000000c0: d0fe 273d 516b a93d e249 74bc 0ebe bd3d
000000d0: a986 97bc 6610 723d 733c 3ebd f303 4f3e
000000e0: 5e97 b6bd 9abe 5dbd 3cd0 dabd f856 fc3d
000000f0: b2b3 70be 82db 0b3e a73f 043e 0d9b e8bd
00000100: d2bf e9bd 1518 04bd ba59 943d 885b 443e
00000110: 6e11 78bd 09b7 74bc 2919 93bd 92fa aabd
00000120: e3a6 933d 72f5 1d3b 9bfd c13c 6396 cbbd
00000130: d7c2 3f3e 7984 2cbd dc47 33be c09c 0f3e
00000140: b745 9cbe 4bdc 1cbd ebd9 8a3e 8f39 26bd
00000150: 9534 abbd 9673 0e3c db59 e03d da80 fabd
00000160: c942 89bd 471d 92bd e1b9 5c3d a5d5 c5bd
00000170: 6aa9 e2bc 42a7 18be 7904 e2bd 8ae5 84be
00000180: b7ad 073e d85a a4bc ef0d 633d 9980 adbc
00000190: a3a5 a2bd 6c82 2b3c 816b 81bd 3397 f33d
000001a0: d4d6 35bc 7e16 b4bd cf60 ab3d 7a0c 61bd
000001b0: 057b afbd 9ab1 403d 99da a8bd 9250 f43d
000001c0: 5f7e 5b3d 3fca 81bd 8f39 d2bd f1ac 65bd
000001d0: f38d 70bd 067f bdbd e4d4 89bd b9f0 07bd
000001e0: c7cc 233e e0d3 153e 946a 08bd dcc4 323d
000001f0: 7be3 9bbc 4ac8 5d3c 97f4 803d 3700 fbbd
00000200: 6cc8 a9bd f6c4 013e 3f44 5bbc aafa 483d
00000210: a4ec 3cbd e0bd 583d a770 2d3d 282a b6bd
00000220: 5308 f6bd d1f5 9abb eb0a 10bd 9e44 973d
00000230: 74e1 c9bc ad27 e8bc 14b7 9f3b f25c b7bc
00000240: 3b6d 81bc c3dd 0dbe 780a debd 8337 8b3d
00000250: 4e46 f13c a1ab 10be 5de5 55be 3147 ed3d
00000260: 8173 c8bd ff8a 00be 3880 10bd cf45 7fbc
00000270: c379 a4bd 76ff 8f3c 939a 4dbc b03c 9ebe
00000280: 0a33 6cbd 9990 a73d a93d 223d c49e c4bd
00000290: bb38 57bd ebb7 2bbd 0e9b 6abe 9034 2dbd
000002a0: e39a 723d 0550 e4bc df2b ac3c b73d 33be
000002b0: d85c 14bc 03f0 653e aa1e 95bd 68de 843b
000002c0: 4ddf f8bc c2a0 28ba 32b4 933e 5d5a 98bd
000002d0: 73ca 9f3d 4d4f c0bd fa3b d83d 4073 4ebe
000002e0: 23f8 8b3d 386a e03b 7873 51be b363 ce3d
000002f0: 0959 d0bd 4d94 37bd 9b56 96bd d0ff 13be
-0.088884324 -0.11313963 -0.04916823 0.14420038 -0.024191188 -0.15735488 0.04633658 0.033577353
-0.1944094 -0.3264308 -0.11213582 0.17116766 0.043101538 -0.12486325 0.016985426 -0.15519166
-0.19540517 0.024009364 -0.101309426 -0.10618062 -0.034132976 0.14267176 -0.052236553 -0.04470778
0.12330556 0.002147722 0.20600364 -0.12624569 0.19687943 0.09806798 -0.1736077 0.09033268
-0.3340243 -0.08170577 0.31429747 -0.031770308 0.106976785 -0.15406884 0.03454326 -0.22370532
-0.054695595 -0.10316447 0.034244444 -0.034969933 0.1525002 0.016340103 -0.118124835 -0.26900646
0.041014493 0.08272422 -0.014910193 0.09264766 -0.018496828 0.05909767 -0.046444368 0.2021635
-0.0891559 -0.05413685 -0.10684249 0.123212755 -0.23506048 0.13657954 0.12914906 -0.113576986
-0.1141354 -0.03224953 0.072436765 0.19175541 -0.060563497 -0.014936217 -0.07182533 -0.08348574
0.072095655 0.0024102596 0.023680499 -0.09940793 0.18726669 -0.042118523 -0.17507881 0.14024639
-0.30521938 -0.038296025 0.27119383 -0.040582236 -0.083596386 0.00869455 0.109546386 -0.12231608
-0.067021914 -0.071344905 0.053888205 -0.0965989 -0.027668674 -0.14907554 -0.11036009 -0.25956374
0.1324986 -0.020062849 0.05543321 -0.021179484 -0.07941749 0.010468107 -0.06319333 0.11894073
-0.011098582 -0.087933525 0.08368074 -0.05494354 -0.08568386 0.047044374 -0.08244819 0.1192943
0.053587314 -0.063374035 -0.10264885 -0.056073133 -0.058729123 -0.092527434 -0.06730059 -0.033188555
0.15996085 0.14631605 -0.033304766 0.04364477 -0.01902937 0.013536522 0.06296652 -0.122559
-0.082901806 0.12672791 -0.01338297 0.049067177 -0.046124116 0.052915454 0.04234376 -0.088947594
-0.120133065 -0.0047290106 -0.035166662 0.073861346 -0.024643637 -0.028339231 0.0048741195 -0.022383187
-0.015799155 -0.13854127 -0.108418405 0.067976974 0.02945247 -0.14127971 -0.20888276 0.11585844
-0.097876556 -0.12553023 -0.03527853 -0.0155806085 -0.08031037 0.017577868 -0.01254906 -0.30905676
-0.057665862 0.08181877 0.039609585 -0.09600595 -0.052544337 -0.041923445 -0.22910711 -0.042286456
0.059229743 -0.027870188 0.021017013 -0.17504011 -0.009055339 0.22454838 -0.07281239 0.004054833
-0.030379916 -0.0006432646 0.28848416 -0.074391104 0.07802286 -0.093901254 0.105583146 -0.20161152
0.06834438 0.0068485998 -0.20454204 0.1007761 -0.10173232 -0.044819165 -0.073407374 -0.14453053

sentiment_branch.lstm_layers.1.weight_ih_l0 f4 [96, 48]
00000000: b23e 55be 2335 423d 845f 7fbd 7264 fdbd
00000010: 3d4b 213e e065 3a3e 21b8 183e 9096 40be
00000020: ea44 4fbe 205a 42bd e2a9 e13d 5818 99bd
00000030: 5a8a 093e f240 0a3e 0a8d 693e c64e 6fbe
00000040: 7c47 803c 68f8 e5bd 7a04 103d ae41 18be
00000050: 9485 0c3e 6c96 243d 6e7e 923e 8b6d 9f3d
00000060: 5a18 18be f3cc afbd 0ba3 2b3d fb2a c13d
00000070: 0239 f73d 0436 c93c 0814 573d 2372 c3bd
00000080: b4e9 033b e729 3e3e 00f1 3ebe 85f6 a43d
00000090: ab22 7ebe 1fea 11be 86b4 093e 6c17 46be
000000a0: 1eec 453e d99f 143d b8fb a9bc 7a8f 073e
000000b0: efc0 673d fb8a 063e 9585 aabd d7a3 c63d
000000c0: 3227 91bb 8cd1 07be e4ca 1fbe eea9 28bc
000000d0: e926 2a3c fcca 153e 8500 41be 25c3 693d
000000e0: c10e a6bd 14bc b1bd 766c 2cbd c480 353e
000000f0: fca2 023e 8049 233e eee5 06be 4787 25be
00000100: 83a4 833c b0d1 05bd 7c7a 053e 3aa5 16be
00000110: 4409 babc 4205 75bd ee12 2f3e c79c d6bd
00000120: ee46 f73d 3684 8e3d 619f 3e3e 92f7 573d
00000130: fc31 34bd d969 663d 0bf8 b7bd 4865 95bd
00000140: df06 05be 19d7 61be cc86 7fbe df45 1f3d
00000150: 8675 8bbd b378 00be e9bb 723e 1aff bd3d
00000160: 1a47 32bd 3983 bcbd 66ca a0bd e44b 02be
00000170: 2b33 2abc e1ba 183e aba6 d6bd ff97 64be
00000180: 0c4d 043d 4366 773e 9999 1bbe 1b12 f1bd
00000190: 853c 673c ecc1 273e a713 993c a3a7 a8be
000001a0: 9e93 3a3e 3109 d2bd e297 52be fed6 45bd
000001b0: 25a5 febd 46e1 85bb a00f 8dbe 2c85 453e
000001c0: 60f8 ce3c 2add febb 2f42 e4bd 80c1 ecbd
000001d0: 257d 13bc 7a5f ecbd 662c 693e 62c8 1a3e
000001e0: 5ab1 3abe 46c0 93be 73a3 a0bd f1a9 313e
000001f0: d9c5 3cbe ca2c 38be b7ad 7c3d 542a cc3c
00000200: 1158 d43d 554c 86be 5300 4ebe ea21 9f3d
00000210: e955 783d 864b 1abd a828 173e 71d1 b23d
00000220: 6b6c 083e 2619 12be 132e 2b3e 7029 7cba
00000230: 35af a8bd 1f1c 0cbd edb2 173e fba8 8c3d
00000240: d151 70bd 986d 4c3e de3c 11be 57cf 5abc
00000250: 8aa1 5ebe acc5 503e 3bf5 123e 097c 26be
00000260: cc9c 8bbe aff7 213e 0b93 8cbd 2b7f 6f3c
00000270: aaba c7bd 1041 af3e fdcf a03d 8dfb 12be
00000280: c32e 183e 32fd 2b3e 242d bfbc c8e0 88bd
00000290: 932a d7bd 16a6 74b9 34bd 1d3e 0c55 a6bc
000002a0: 4cbd ab3d dbac 513e 283c e73d 21fe 23be
000002b0: 218b 85bc c18c c03d dd6c 73be ec9d 06be
000002c0: 9b47 a43b ff76 27be 0f4a ce3d bf22 403e
000002d0: 49aa 81bd a02b 6cbe 3c54 fcbc 9351 98bc
000002e0: 65ee 91bd 8f38 90be be59 933e e24f 2ebe
000002f0: c4cd 953b 6dbd 5c3e dbf8 873d 678f 1e3c
00000300: ab1e 1a3e d99b 143e 87f5 74bd eb53 63be
00000310: c18f 6fbd 6823 6d3e 6f1e 1a3e e594 353e
00000320: 139c 063e 04a6 303e 2985 3c3e 4c12 66bd
00000330: 385a 6f3d 846f 7fbe 598c 90bd ba71 123d
00000340: 39e3 7c3d 9935 ed3d f9af 473e 251a a2be
00000350: 7731 2b3e b19b 7fba 9888 d1bc 82d1 2f3e
00000360: cc01 133e 7636 9dbe 1900 6dbe 1e50 2cbd
00000370: 4040 02be 0d37 603d b90c 84bd f9a7 173e
00000380: ace8 3abe d20e 25be 1388 3f3e a61d c53c
00000390: 6c8e a1bd 979e 1fbd cc7f 13bd 3824 983e
000003a0: 8996 d43d b8ea bbbd 2c91 22be 2432 c6bd
000003b0: cce6 db3c 0d6a 38be 7ad5 c0bd 247e 183c
000003c0: 1ec2 f03c a580 efbd ace9 4fbc 0869 c33d
000003d0: 33e5 f43d 6a45 eb3c 42fe 91be 843a a03e
000003e0: 0370 6fbd 56c3 47be 7e1b 3b3d eb37 283e
000003f0: c872 b93d 644c 7bbb 9006 23bd afab 65bc
-0.20824698 0.047413956 -0.06234695 -0.12372674 0.15751357 0.18202925 0.1491399 -0.18807435
-0.20241132 -0.04744923 0.11018731 -0.07475346 0.13431683 0.13501337 0.22807708 -0.23369893
0.015659086 -0.1122902 0.03516052 -0.14868805 0.13722831 0.040182516 0.28612083 0.077845655
-0.1485304 -0.08584013 0.041903537 0.09432026 0.1207142 0.02456189 0.052509338 -0.09543254
0.0020128312 0.18570672 -0.18646622 0.08054832 -0.24817912 -0.14249466 0.1344777 -0.19344872
0.19328353 0.036285255 -0.020749912 0.13238326 0.05658048 0.13138954 -0.0832626 0.09699219
-0.0044297213 -0.1326353 -0.1560474 -0.010294421 0.0103852535 0.14628214 -0.18847854 0.05707087
-0.08108283 -0.08678451 -0.042095624 0.17724901 0.12757486 0.15946007 -0.13173649 -0.16164885
0.016069656 -0.032670677 0.13035005 -0.14711466 -0.022709496 -0.059819467 0.17097065 -0.10479122
0.12074076 0.06958811 0.18615486 0.052726336 -0.04399298 0.056253288 -0.08982857 -0.072947085
-0.12990902 -0.2205471 -0.24953765 0.038884994 -0.06809525 -0.12546043 0.23704495 0.092771724
-0.04352484 -0.09204716 -0.078511044 -0.12724262 -0.010388176 0.14915039 -0.10481008 -0.22323607
0.03230004 0.24160103 -0.15195312 -0.117710315 0.01411355 0.16382569 0.018686129 -0.32940397
0.18220374 -0.10255659 -0.20565751 -0.048300736 -0.124338426 -0.0040856926 -0.27550983 0.19289082
0.025264919 -0.0077778297 -0.11145436 -0.11560345 -0.009002005 -0.11541648 0.22770843 0.15115502
-0.18231717 -0.2885763 -0.078436755 0.17349984 -0.18434848 -0.17985836 0.061689105 0.024922527
0.1036836 -0.26230112 -0.20117311 0.077701405 0.060628805 -0.03766968 0.14761603 0.08731354
0.13322608 -0.14267406 0.16716795 -0.0009619212 -0.08236543 -0.034206506 0.14814349 0.06868168
-0.058671776 0.19963682 -0.14183375 -0.013355098 -0.2174131 0.20387906 0.1435136 -0.16258253
-0.27268064 0.1581714 -0.06863984 0.014617722 -0.097524 0.34229326 0.078521706 -0.14353772
0.14861588 0.16795805 -0.023336954 -0.066834986 -0.10506167 -0.00023331525 0.15404207 -0.020304225
0.08385715 0.20476095 0.11290771 -0.16014911 -0.016301693 0.09401847 -0.23771997 -0.1314618
0.005013419 -0.16353987 0.10072719 0.18763255 -0.063313074 -0.23063517 -0.030801885 -0.018593585
-0.07125548 -0.2816815 0.28779405 -0.1702266 0.0045716483 0.21556635 0.06639262 0.0096777445
0.15050761 0.14512576 -0.059804466 -0.22199981 -0.058486704 0.23158038 0.15050672 0.1773258
0.13145475 0.1725083 0.18410172 -0.056169793 0.05843565 -0.24944884 -0.07058019 0.03575299
0.061740134 0.115824886 0.19500722 -0.31660572 0.16718088 -0.0009750678 -0.025577828 0.17169765
0.14356154 -0.30705613 -0.23144569 -0.042068593 -0.12719822 0.05474 -0.06447739 0.1481017
-0.1825282 -0.16118935 0.18704252 0.024061989 -0.07888493 -0.038969602 -0.03601055 0.29715133
0.10380275 -0.091756284 -0.15875691 -0.09677532 0.026843451 -0.18009205 -0.094157174 0.009307418
0.029389437 -0.11694459 -0.012689989 0.095415175 0.11957779 0.028719623 -0.28514296 0.31294644
-0.058456432 -0.19508108 0.045680515 0.16427581 0.09055096 -0.0038345093 -0.03980118 -0.014017983

sentiment_branch.lstm_layers.1.weight_hh_l0 f4 [96, 24]
00000000: 3f79 55be e6ba ba3b fc4a 85bb 77c2 cf3c
00000010: 49ec 0bbd 2123 ce3c f149 a13d ca5a 03bb
00000020: 2a6a febd 69bb 99bd dfb0 7f3d a36b ecbd
00000030: 3abe 2dbe 4e00 ddbd e8a5 eebd 62c4 0c3e
00000040: 2ccd 803d 3a6e c03d 90e1 33be 3d91 00be
00000050: 85d0 723d 554a 783d c0d6 04be d0a7 cbbd
00000060: a675 3e3e 930d 703d 77a5 6ebe db9b 843d
00000070: 2cb1 853e 3ffc 893d 3ba2 d5bc ad59 c73d
00000080: deaf 333c a815 b9bd daee 763d bbb1 92bd
00000090: 03bd 19be 9a0f 00be ad57 3d3d a4a3 b3bd
000000a0: 6ba0 503c ba21 183e 4630 0ebe 0490 9bbd
000000b0: 7921 2b3c f563 ae3c 1c06 1bbd bcf9 043e
000000c0: f83b 343c b47c b5bd a9a3 63be 9b08 26bd
000000d0: 7872 0e3e 10c9 c3bd e7ec 5c3e 3174 95bd
000000e0: 77d2 6c3d 1b04 0cbd f080 9c3d 289f 823d
000000f0: cd12 093e 22ed 583d c532 a13d 49d8 4dbd
00000100: c5f5 263c f4e0 5d3e c5fd 4a3e dbeb 823c
00000110: 0cc0 2e3e d2b6 24be 9f02 a2bd a0dc f8bc
00000120: 30fd b63d 4729 a8bc 1772 11be 6872 823e
00000130: 1f05 173e f790 1abe ce18 473d 4920 c7bc
00000140: 4ea0 513e 03cb d33d 3f67 1cbe c694 b4bd
00000150: 69b1 1b3e 26ba 15be f455 c0bd 08d1 0c3e
00000160: 9a21 49be b08b 943d d4ea c5bd 529e dcbc
00000170: bb5a aabd d194 653c f6f1 43bd 2a1f 86bd
00000180: a8aa 18be cff1 b9bd 57a0 0b3c d71f 24be
00000190: d82d 30be 58d8 74bd afde 14be a4e9 e13d
000001a0: 7ca9 c8bc 7759 4fbe 8919 d1bd e681 d7bc
000001b0: d223 27be fbe6 673c b112 083e 9b01 58be
000001c0: 76da ccbd b568 8ebd f0f9 71bd 3a3a 383e
000001d0: d651 563d b498 cbbd f568 e0bc d69e 1b3e
000001e0: c5a7 fbbd f0f9 833d 4ff1 263d b828 ef3c
000001f0: f184 32bd 4e99 01be 826b a13d 0be8 97bd
00000200: 5917 2dbe 5996 0a3d 0008 823e bf27 653d
00000210: 1b78 8f3e 5a17 09be 01fc a53b 2dae a6bd
00000220: 5ebf f6bc 5dc2 083e e816 893d 5b2e a4bd
00000230: 5f29 28be 6002 a5bc ecb9 eebc 22c7 9abc
00000240: a31e 10be ee86 6cbd b83b 113e a513 d0bd
00000250: e7b5 8c3e bf80 8ebd 47ca 03be 8a11 2bbe
00000260: 033e ba3c 692d 81be 859e ca3d 2c4b b5bd
00000270: 3614 a13d b392 033e 0ec6 8b3d 31a0 403e
00000280: b0a8 9b3d 3fe5 633e 553b 0f3e fc76 083d
00000290: 91b4 0e3e 6188 383c b0a7 fcbd 1ab8 5b3d
000002a0: 8b07 a63d b2ed 2dbd a453 0ebe 489b 313e
000002b0: 97c1 3cbd 195c d8bd a153 05be 14e2 5cbd
000002c0: baca babd 567d 223d 2871 1c3e 1f2e 8bbd
000002d0: fa35 283d c4e7 a43d c680 d63d caf1 26be
000002e0: ecad 373e bb38 48be 17e6 58bd 423e 473c
000002f0: 3a6e c13d 7252 063e 6ff1 473d b1d0 f33d
00000300: e00e a13d 5125 28bd 33e2 81bd 227c 48be
00000310: 4af8 0ebe 1441 273e 462a 14bd 870d 673e
00000320: 0ff7 6fbd 3305 733e 7f13 fbbd 3dde 26be
00000330: 73ec 5c3c 9842 b2bd 931c 35be e51a adbd
00000340: 9642 b8bd 4e05 0cbe bd79 4ebe 4fa4 82be
00000350: df85 203e 9566 8dbc 66bb 3f3e 6d64 a53d
00000360: 3b74 5b3d f55a c13d f221 2bbe 411a 2dbe
00000370: 271e 273e 68f8 7b3c 6e85 31bd 306f acbd
00000380: cbaa 293e c0a9 44bd a59d e03d cbd8 0cbe
00000390: 009d d0bd 59bf 4f3e e37e 2a3e e13b 0e3e
000003a0: 5401 da3d 4983 83bd d0e8 27bd 72b3 c7bb
000003b0: 9d31 ee3d eabf 0cbe 2eef c0bd 5086 54be
000003c0: 30e0 dabd 8be2 2b3e 00be debd 3364 acbc
000003d0: 3b61 3b3e db55 4b3e bc15 c1bd 3327 88be
000003e0: 7ea4 c13d 18a5 66be 95a6 5fbe ee49 dd3d
000003f0: b2f4 3abe f8bf 4bbe 8c27 5bbd cf0e fa3d
-0.20847033 0.0056985496 -0.0040677767 0.025361283 -0.034160886 0.025163235 0.07875431 -0.0020043128
-0.12422593 -0.07506449 0.062424537 -0.115439676 -0.16967097 -0.10791074 -0.11652738 0.13746789
0.062891334 0.09396024 -0.17566514 -0.12555404 0.05928089 0.060617764 -0.12972546 -0.09944117
0.18599567 0.058606695 -0.23305307 0.064750396 0.26111734 0.06737565 -0.026078334 0.09733901
0.010967223 -0.09037334 0.06028638 -0.07162806 -0.15013508 -0.12505952 0.046226192 -0.08771446
0.012733559 0.14856616 -0.13885602 -0.07595828 0.010444992 0.021287898 -0.037847623 0.12985891
0.011000626 -0.08861676 -0.222304 -0.04053555 0.13910854 -0.09559834 0.21574746 -0.072975524
0.057817902 -0.034183603 0.076417804 0.06378013 0.13386078 0.052960522 0.07871012 -0.050255094
0.010190432 0.21667844 0.19823368 0.015981605 0.17065448 -0.16085365 -0.07910656 -0.03037864
0.089350104 -0.020527495 -0.14203678 0.2547791 0.14748047 -0.15094362 0.04860764 -0.024307387
0.20471308 0.10341456 -0.1527376 -0.08817439 0.15204395 -0.14621791 -0.09391394 0.13751614
-0.19641724 0.07253206 -0.096639305 -0.026930962 -0.08318087 0.014012531 -0.047838174 -0.06548913
-0.1490885 -0.090793245 0.008522115 -0.16027771 -0.17204988 -0.059776634 -0.14538072 0.110308915
-0.024494879 -0.20248972 -0.102099486 -0.026307058 -0.16322258 0.014154191 0.1328838 -0.21094362
-0.100026056 -0.06953565 -0.05907625 0.17990962 0.05232414 -0.09941235 -0.027393797 0.1519731
-0.12287859 0.06444156 0.040757474 0.02919422 -0.043583814 -0.12656137 0.078818336 -0.074173056
-0.16903438 0.03383479 0.2539673 0.055946108 0.2802132 -0.13387814 0.0050654416 -0.0813869
-0.030120548 0.13355394 0.06693822 -0.08016654 -0.16422032 -0.020142734 -0.029141389 -0.018893782
-0.14074187 -0.057745866 0.14182937 -0.10159997 0.2748253 -0.0695815 -0.12870131 -0.1670591
0.022734648 -0.25229958 0.098935165 -0.088522285 0.07865183 0.1284893 0.06824885 0.18811108
0.07600534 0.22255419 0.13987477 0.033316597 0.13936068 0.011262984 -0.12336671 0.05364237
0.081069075 -0.042463012 -0.13899094 0.17344391 -0.04608306 -0.10564441 -0.13020183 -0.053926542
-0.09120698 0.03967031 0.1527754 -0.06795906 0.0410671 0.08052018 0.1047378 -0.16303173
0.1793744 -0.19552891 -0.052953806 0.0121608395 0.09444852 0.13117388 0.048814233 0.11905039
0.07864165 -0.041051213 -0.06341972 -0.19578603 -0.13961902 0.16333419 -0.036173128 0.22563754
-0.058585223 0.23732452 -0.12259578 -0.16295715 0.013484108 -0.08704108 -0.17686681 -0.08452395
-0.08997075 -0.13673899 -0.20163627 -0.25515983 0.15676068 -0.017260829 0.1872383 0.08075795
0.053577643 0.09441177 -0.16712168 -0.16904546 0.16320096 0.015379049 -0.04334014 -0.08419645
0.16569059 -0.04801345 0.10967568 -0.13754575 -0.101861954 0.20287837 0.16649966 0.1389003
0.106447846 -0.06421525 -0.04099351 -0.0060943896 0.11630557 -0.13745084 -0.0942062 -0.20754361
-0.106872916 0.16785638 -0.108760834 -0.021043872 0.18298809 0.1985697 -0.09427974 -0.26592407
0.094552025 -0.22523916 -0.2184089 0.108051166 -0.18257406 -0.19897449 -0.05350451 0.12209856

sentiment_branch.lstm_layers.1.bias_ih_l0 f4 [96]
00000000: 9319 75bd e485 c23d f9e1 eabd c83b ee3d
00000010: 313a e23d cfe0 4fbc f341 133e 269e 673d
00000020: d835 673e 814c 8bbe ab87 1bbe 06e1 093d
00000030: 8571 a33d 2aa6 85be 6652 0abe b665 003e
00000040: 1784 483e 49b2 643e d3cb 7ebd 3935 e03d
00000050: 062d c8bd 2331 a73d b3ca 1d3d 7c9b 00be
00000060: d2ab 16be 0960 5e3d 3fb4 72bc 5fa0 cabd
00000070: 3929 a83b 0aff d0bc 2398 67be 62bb 103e
00000080: 79f1 a13d 7b9d 15be 176f 83be 6b95 463e
00000090: 7197 bbbd 6305 7b3c 663b 98bd 5f49 de3c
000000a0: 0ba7 f6bd 8b11 97bd 21ab 9dbe dd59 3e3e
000000b0: 7fb8 26be ea74 b13d 52f6 ee3d ff1d 03be
000000c0: 6b97 e93d b52b d33d cf19 123d 3ebe 8e3d
000000d0: 59d7 86bd 6f70 8cbd 8ae9 423d 0a54 303e
000000e0: 1232 94be e552 7d3c e1f4 4ebd 4377 d13d
000000f0: ea21 1ebe 6985 d0bd 2a87 c4bd 6e52 c5bd
00000100: 9764 4d3e 9712 fdbd c85f 11be 4295 34be
00000110: abb5 673e ef04 a6bd 9263 da3c 39ff 4d3e
00000120: 1feb c53c ba35 76bd d473 123c a2c9 46be
00000130: 81b6 9f3d 0595 843d 5bcb ae3d bbec 2e3e
00000140: 556a 413e 2335 f8bd f2d3 403b e3e6 5c3e
00000150: c00d d23d 07e1 5fbe 56fd 223d 223f 09be
00000160: 31e5 56bb 36c9 423d f2a4 1abe 658b 723e
00000170: 5484 b1bd 3241 b2bd 53e6 f4bd d4b6 223e
-0.059838843 0.09498194 -0.11468882 0.11632496 0.110462554 -0.012687876 0.14380626 0.056547306
0.22579134 -0.27206805 -0.15188472 0.033661865 0.079806365 -0.26103336 -0.13507995 0.125388
0.19581638 0.22333635 -0.0622061 0.109476514 -0.097742125 0.08163669 0.038523387 -0.12559313
-0.14713982 0.054290805 -0.014813482 -0.098938696 0.0051318672 -0.025512237 -0.2261663 0.14133981
0.079073854 -0.14610855 -0.25670692 0.19392936 -0.091597445 0.0153211085 -0.07433204 0.027134595
-0.1204358 -0.07376393 -0.30794623 0.18588968 -0.16281317 0.08664878 0.116680756 -0.12804411
0.11405834 0.10311071 0.035669144 0.069698796 -0.06584043 -0.068573825 0.047586 0.17219558
-0.2894445 0.015461658 -0.050526503 0.102278255 -0.15442625 -0.10181696 -0.09596093 -0.09634863
0.20057903 -0.12357061 -0.14196694 -0.17635062 0.22627895 -0.0810641 0.026658807 0.20116891
0.024159966 -0.06010983 0.008938748 -0.19412854 0.07798482 0.06473736 0.08534881 0.17082493
0.18888219 -0.1211951 0.0029423204 0.21572451 0.10256529 -0.21863185 0.03979238 -0.1340299
-0.0032790417 0.04755517 -0.15101984 0.23685987 -0.08667818 -0.08703841 -0.11957993 0.15890056

sentiment_branch.lstm_layers.1.bias_hh_l0 f4 [96]
00000000: bf4d 8a3d 0692 603d 5b01 a93d 7ce8 613d
00000010: fb09 d83b 9521 e8bd 492a 19bd 1602 7ebd
00000020: 9e97 623e 2d44 9a3d b6c9 963d 9f2a 7b3d
00000030: 6391 d93c f8f2 5d3c 4ae2 3ebd 45f5 a13d
00000040: 0c7c 593d 46b0 d63d 296e e9bd 7efa 693e
00000050: d8b5 9abd 2629 2c3e 84ee 14be 1e4b 53bd
00000060: 44fd f43a 72f8 7dbe 32af 30be 5bae b8bd
00000070: 3dc5 19be 4171 593e dcac 3bbe f3e5 8abd
00000080: 40b9 113e fe84 b1bc dca0 cbba b61f 553d
00000090: 6e38 8bbe ec4f 94bd 1f0c 63bd 88c6 48be
000000a0: 6d67 09be 76b6 fb3d c76b 27be 0d1e 443e
000000b0: 54dd eabd 28bb f5bc 7af0 5bbe e33b 2e3e
000000c0: a949 c33d 20bb d6bd b03f 2c3e 6198 45be
000000d0: 037b fbbd 0ca7 be3d 71b8 5abc 458b 1bbe
000000e0: ec43 8dbe 4ea8 2e3e 89a2 c23d c451 6abe
000000f0: 42a1 403e d617 abbc 454a 41be 74ff e33c
00000100: 7ccb fcbd 6d1c 533d bf3a b0bd 2c08 c4bd
00000110: dcf9 ddbd 0804 02be 6e64 193e c698 613d
00000120: 0959 223d f9ee 0bbe a48a de3d c0cf 4f3d
00000130: 9521 b23d 6a9d 883d fdca 243d 4fdc 2f3d
00000140: 83e5 47bd e19a 853d 97ae 67be 0281 bd3d
00000150: 4e5f 4e3c 5d45 203d a603 04be 26a7 b33c
00000160: 9fb8 96bd e63f 643e ea44 6ebd 0189 d9bd
00000170: 336f 3ebd 73c4 cabc ce20 3b39 e2a0 39be
0.0675311 0.05482676 0.08252212 0.055153355 0.0065929866 -0.1133453 -0.037393842 -0.062013708
0.2212815 0.07532535 0.07362692 0.061319944 0.026558584 0.013546698 -0.046602525 0.079081096
0.053096816 0.1048284 -0.113979645 0.22849461 -0.07554215 0.16812572 -0.14544111 -0.05158531
0.0018691202 -0.24801806 -0.17254332 -0.09017631 -0.15016647 0.21234609 -0.1832766 -0.067821406
0.14230824 -0.02166986 -0.0015535611 0.052032195 -0.2719149 -0.072418064 -0.05543148 -0.19606984
-0.1341836 0.12290661 -0.16349708 0.19152088 -0.11467996 -0.02999647 -0.21478453 0.17015032
0.09535534 -0.1048491 0.1682117 -0.19296409 -0.12279322 0.093092054 -0.013349638 -0.15189846
-0.27590883 0.1705639 0.09503657 -0.22882754 0.18811515 -0.02088539 -0.18875988 0.02783177
-0.12343499 0.05154078 -0.08604955 -0.09571871 -0.108386725 -0.1269685 0.14979717 0.055077337
0.03963569 -0.1366538 0.10866287 0.050735235 0.086978115 0.06670649 0.040232647 0.042934712
-0.048802864 0.065236814 -0.22625194 0.09253122 0.012595965 0.03912865 -0.12892017 0.021930289
-0.073594324 0.2229 -0.05817119 -0.106218345 -0.046492767 -0.024751877 0.0001784593 -0.18127778

sentiment_branch.attn.in_proj_weight f4 [72, 24]
00000000: c016 723e bdb8 0bbe 615f d83d 0c2c d03b
00000010: 4d6b f4be f2ae d7be 21d1 6b3d 8f11 083f
00000020: db72 14be 63c6 bd3e 2de7 193e 8ad8 143d
00000030: bb6c 703e 0e18 c1be 4643 5c3c 1ea9 16be
00000040: 9f37 ae3e 20c1 a8be 2b08 1fbe 93bd d8be
00000050: 3b6a 9dbd f9c6 9c3e 4c1c bc3c dc73 c6bc
00000060: a403 7b3e a021 a43c 151a 41be 8e2a 3fbe
00000070: 7c7b 3fbe 79fb ddbc b505 ec3e 2111 833e
00000080: c64a 44be 20af d93e 6625 6abd 5ef3 b93c
00000090: 9b00 80bd 3d95 d9be a0ce 6cbe fe7b 32be
000000a0: d6ed 333e 3b10 b5be 54e5 e93d e706 263d
000000b0: d1c9 493d c6b6 8c3d 4fb9 b13d e3ae 8e3e
000000c0: 14ea 8b3d 9d3c b9be 4619 64bd 0502 aabd
000000d0: 8cf8 f2be 3e7b 9cbe 6fc6 5c3e db0a cd3e
000000e0: edb1 2cbe 8199 863d b523 343e cec8 a83d
000000f0: b01a e63d c806 b1bd 7c5a a6be 5c2d 0dbf
00000100: 005a bc3e a9fa 94bd 2074 3b3e 9d14 5abe
00000110: ae8f 2fbe 02d6 7a3e ada6 c43e fe0b 023f
00000120: bd0a 043e fd22 ba3d 992c d9bd 23a9 08be
00000130: 738f 00bf bfd4 39be 64d4 df3e 17bd 823e
00000140: 778b 72be 4ecd 803d d2ee bfbd 35ba d63d
00000150: 7155 8a3e d85d 2ebe 1ec7 53be 6941 61be
00000160: b304 f53e e413 4ebe 4b66 4e3e 7656 bbbe
00000170: d9fb 6dbe ccf1 8d3e ae62 a23e 5485 b63e
00000180: 2129 8f3b e6dc 7bbe 7a77 30be fcbc 423d
00000190: e71c debc 8e9c d5be b4bf 963e dc79 903e
000001a0: a61d 03be b6a4 a63e 2003 103e c2f8 fcbd
000001b0: 9673 aa3c 64fa e3be 1089 24bd 5271 aabe
000001c0: fda0 a03e e98c 7abe 786d 47be 9788 30be
000001d0: 6d4a f9bd 79a6 ea3d c596 9a3e d764 863e
000001e0: 0b19 cf3d 9182 b3be f97d 113e 759b ac3d
000001f0: 95a3 97be 371f cdbe 6407 3f3d 7df7 ce3d
00000200: bc4f 203e 8412 973d 2ba3 2e3e 7693 9abd
00000210: 1c42 30bd 20f6 8e3d 058b eabd b83c 4fbe
00000220: dd75 273e 19c1 12be dcca 773c e52c 433d
00000230: d765 223e 04b8 84bd 0fec 25be e23c ad3d
00000240: 904e 15be 9cec 12bd 4b34 a63e e912 103e
00000250: 5dcd 8d3e 8314 ed3e 2ed8 a4be 73dd 3dbe
00000260: d3e1 503e 8bfe 08bd 4985 81be 80b0 84bb
00000270: a93c ca3c 04a5 253e 03cd fa3d 052f 383e
00000280: 8e47 18be f9a6 dc3e 84f7 843c 445a c73e
00000290: c230 7a3e 32a4 78be 3074 e7bb 207e d0be
000002a0: 7e6a 51bd 9ad6 04bd fe11 dfbd 6922 473e
000002b0: 8122 b03e a284 123e b298 91be 37d5 1bbf
000002c0: 02e4 773e d9e5 003c 8bc8 f4bd 3e1e 703d
000002d0: d1fc a8be 3079 aa3e bb1f fd3d bbca e73e
000002e0: e1ec f2be edf9 8f3e d13c 8fbd 8790 283e
000002f0: d576 83be 0396 a3be 8bec eebd ab18 7abe
00000300: dfdc c43e a643 a8be bfec 153e 19ba f8bd
00000310: 2e32 b5be 39e8 9abe 1a5a ab3e 24c9 8b3e
00000320: a21e 3dbe 6d87 a03e d0b7 0a3e 91e6 b63c
00000330: f8b8 bd3e 52e8 cebe f143 03be aaa2 b7be
00000340: d458 e93e e013 10be 7aed 6ebe ef93 bfbe
00000350: f4a9 f0bd d5ab a63e 0d21 393e 59da d33c
00000360: 12d7 a4bd f6f2 3fbe 03c5 a73d 056e 253e
00000370: 5d55 32be d226 0dbe 943b bc3e 2a43 913e
00000380: bd7b af3d ce70 b43e a84e 163e b8b6 8cbd
00000390: e9c7 3d3c 783e 6d3c 696a 2a3e c444 92be
000003a0: e8c5 b8bc 6ef4 dfbb 1eee 263e 6364 b7be
000003b0: f3bf 68bd fe72 b33d 3eb0 263e dfa6 313e
000003c0: e310 623e 8d49 c8be 016e f1bd 6715 0a3e
000003d0: 31b1 a8be ade4 4abe d9fb 9e3e 19b8 7a3e
000003e0: 89c2 58be 9c3d d43e b2b2 23bd 404d 6f3e
000003f0: 57da 5abe 59d6 a3be 3d46 83be 54b3 ffbe
0.23641491 -0.13644691 0.10565067 0.006352907 -0.47738114 -0.4212566 0.057572488 0.5315179
-0.14496939 0.3706542 0.15029593 0.03633932 0.23478977 -0.37713665 0.013443774 -0.1471295
0.3402681 -0.32959843 -0.1553046 -0.42332134 -0.076862775 0.30620554 0.022962712 -0.024225168
0.24513108 0.020035565 -0.18857606 -0.18668577 -0.1869945 -0.02709745 0.46098104 0.25599006
-0.19169149 0.42516422 -0.057164572 0.022699054 -0.062501155 -0.42496672 -0.23125696 -0.17430112
0.17571196 -0.35363945 0.11420694 0.040533926 0.049264733 0.06870799 0.08677923 0.27867803
0.06831756 -0.36179057 -0.055688165 -0.083011664 -0.4745525 -0.30562776 0.21560071 0.40047345
-0.16864748 0.06572247 0.17591746 0.082414255 0.11235559 -0.086438715 -0.3249091 -0.5514734
0.36787415 -0.07274372 0.18306017 -0.21296926 -0.17144653 0.244957 0.38408414 0.5079955
0.12894721 0.09088705 -0.106042095 -0.1334577 -0.50218886 -0.18147562 0.4371673 0.2553489
-0.23686014 0.06289159 -0.09371723 0.10484735 0.27018312 -0.17027986 -0.20681426 -0.21997608
0.47855148 -0.20124775 0.20156209 -0.36589402 -0.23240604 0.2772354 0.31715912 0.35648596
0.0043689166 -0.24595985 -0.17233077 0.04754351 -0.027113391 -0.41721004 0.29443133 0.2821797
-0.12804279 0.3254754 0.14063692 -0.12352134 0.020807069 -0.4452697 -0.040169775 -0.33289582
0.31372824 -0.24467815 -0.19475353 -0.17239605 -0.12172399 0.114575334 0.30193153 0.2624881
0.101121984 -0.35060552 0.14208211 0.084280886 -0.2961699 -0.40062878 0.046637908 0.101057984
0.15655416 0.073765785 0.17054431 -0.07547657 -0.043031797 0.06980538 -0.11452297 -0.20238006
0.16353555 -0.14331473 0.015124049 0.047650237 0.15859161 -0.06480411 -0.1620333 0.08458878
-0.1458075 -0.03587018 0.3246177 0.14069714 0.27695742 0.46304712 -0.32196182 -0.18541507
0.20398645 -0.033445876 -0.25297 -0.0040493608 0.024687128 0.1617623 0.12246134 0.17986687
-0.14871046 0.4309614 0.016231306 0.38936055 0.24432662 -0.24281386 -0.007063411 -0.40721226
-0.05112695 -0.032431222 -0.108921036 0.1944672 0.34401324 0.14308408 -0.2843681 -0.60872215
0.24208072 0.0078673 -0.11952313 0.05862259 -0.33005384 0.33295584 0.12359568 0.4527186
-0.4744635 0.28120366 -0.06994022 0.16461383 -0.256766 -0.31950387 -0.11666211 -0.24423473
0.3844976 -0.32864112 0.14641093 -0.1214487 -0.35389847 -0.30255297 0.3346718 0.27301896
-0.18468717 0.31353322 0.13546681 0.02232674 0.37055182 -0.4041162 -0.12818886 -0.3586629
0.45575583 -0.14070082 -0.23332778 -0.37417552 -0.11751166 0.32552972 0.18079014 0.025860952
-0.08048834 -0.18745026 0.08191874 0.1615525 -0.17415376 -0.1378434 0.36764205 0.28371555
0.08568523 0.35242313 0.14678442 -0.06870788 0.011583307 0.014480226 0.16642155 -0.2856809
-0.022555307 -0.006834558 0.16301772 -0.35818776 -0.056823682 0.087621674 0.16278169 0.17348813
0.22076754 -0.39118615 -0.1178856 0.13484727 -0.32947686 -0.19813795 0.3105152 0.2448429
-0.2116796 0.41453254 -0.03996534 0.23369312 -0.21372353 -0.31999472 -0.25639525 -0.49941504

sentiment_branch.attn.in_proj_bias f4 [72]
00000000: 7de7 153e 496a 813d c1c2 0b3e 4133 0e3e
00000010: fdaa 0c3e 2511 6b3c 61b8 d9bd 755c d6bd
00000020: 76dc 133e 8557 103d 7ec1 e23d c54c 353e
00000030: 9714 883c b39d fcbd 005c 2a3e eefd 7abd
00000040: 56f1 893d 9b5f 9ebd d95b 933b 08e7 2fbd
00000050: 0de6 eabd dced d1bd 1894 bd3d a4c3 73bd
00000060: 916a bbb7 8c5e 09b9 ef79 d0b8 2054 b0b7
00000070: c523 96b7 7fd0 86b7 cce8 0e37 217c 5e37
00000080: dc40 5eb8 0591 b9b7 f16a 6ab7 a4ba 12b8
00000090: 5f7d 2037 c2d8 a3b8 887e 11b8 b1eb 5cb7
000000a0: d311 c236 741b 3138 10e7 b4b6 d0dc 4ab6
000000b0: b21c 00b7 ca7c f4b7 2ebd 7ab5 852e b637
000000c0: 2cf9 d33c a5f0 3fbd cb77 263c 2161 1abc
000000d0: f8d8 873a 03ea 2c3d 2925 663c 19ff 8abc
000000e0: 954a 33bd 32cf 4ebd f9a7 ccb9 6384 99bc
000000f0: 65bc 34bc fa29 9f3c 6a4c 0c3d 8aab 51bc
00000100: cdf0 95bc 5ce4 75bc 6024 a5bb 98b0 f7b9
00000110: 3578 043d 6fa3 a13b 7231 61bc cf90 d7b9
0.14639087 0.063191004 0.13648511 0.1388674 0.13737102 0.014347349 -0.106308706 -0.104668535
0.14439568 0.035239715 0.11072062 0.17705067 0.01661138 -0.12334766 0.16636658 -0.061277322
0.06735484 -0.07733079 0.004497033 -0.042944938 -0.1146966 -0.10250446 0.09256762 -0.05951275
-2.2341761e-05 -0.0001310056 -9.940925e-05 -2.1020009e-05 -1.789805e-05 -1.6071133e-05 8.518062e-06 1.3261132e-05
-5.298933e-05 -2.2121249e-05 -1.3972386e-05 -3.4982935e-05 9.565933e-06 -7.81282e-05 -3.4688535e-05 -1.3167898e-05
5.7837256e-06 4.2225656e-05 -5.3913172e-06 -3.0228875e-06 -7.636076e-06 -2.9145176e-05 -9.340755e-07 2.1717753e-05
0.02587565 -0.046860356 0.010160397 -0.009422571 0.0010364344 0.04221536 0.014046946 -0.016967343
-0.0437723 -0.050490566 -0.00039035061 -0.018739885 -0.011031245 0.019429196 0.03425256 -0.012797246
-0.0183033 -0.015008058 -0.0050397366 -0.00047243084 0.0323412 0.004932813 -0.013744699 -0.00041115886
