models/checkpoints/news_lstm/news_lstm_20260212_082152.pt (torch, 180022 bytes, 37 tensors)

sentiment_branch.bn.weight f4 [11]
0	0x3f83ad32	1.028723
1	0x3f81ca0d	1.0139786
2	0x3f82ee7c	1.022903
3	0x3f7e0fd5	0.9924291
4	0x3f893242	1.0718462
5	0x3f86a029	1.0517627
6	0x3f87e8ac	1.0617881
7	0x3f8877fb	1.0661615
8	0x3f84a306	1.0362251
9	0x3f81ba3f	1.0134963
10	0x3f80f275	1.0073992

sentiment_branch.bn.bias f4 [11]
0	0x3b2ffacf	0.0026852374
1	0x3cbcfc89	0.023069637
2	0xbced32b6	-0.028954845
3	0xbb01dc75	-0.001981524
4	0x3c6b8eb8	0.0143772885
5	0xbc721bac	-0.014777105
6	0x3c15d657	0.009145341
7	0xbae011dd	-0.0017095167
8	0x3c26a47c	0.010171052
9	0x3c19d83b	0.009389932
10	0xbc16f01b	-0.009212519

sentiment_branch.bn.running_mean f4 [11]
0	0xbc954651	-0.018222006
1	0xbb992d95	-0.0046746233
2	0x3c42fb78	0.011900775
3	0x3bf1a056	0.00737385
4	0x3a175140	0.00057723
5	0xbc9a73fd	-0.018854136
6	0xbd0d0f6c	-0.034438536
7	0xbd5e513a	-0.054276682
8	0x3b7d03cb	0.0038606997
9	0x3c2e7375	0.010647644
10	0xbbeb63a2	-0.007183508

sentiment_branch.bn.running_var f4 [11]
0	0x3f98dfba	1.1943276
1	0x3f81c658	1.0138655
2	0x3f82c323	1.0215801
3	0x3f83d2ad	1.0298668
4	0x3f9495c0	1.16082
5	0x3f93bd9a	1.1542237
6	0x3f922f49	1.142068
7	0x3f95c14b	1.1699613
8	0x3f89b5d0	1.075861
9	0x3f7c3601	0.98519903
10	0x3f7d9804	0.9906008

sentiment_branch.lstm_layers.0.weight_ih_l0 f4 [256, 11]
0	0xbdc98022	-0.098388925
1	0x3d09fc7a	0.033688046
2	0x3d992472	0.074776545
3	0xbcf12960	-0.029438674
4	0xbe071f3b	-0.13195507
5	0xbd9fd376	-0.07804005
6	0x3dc965e1	0.09833885
7	0xbd5d42c7	-0.054018762
8	0xbdd6e41c	-0.10492727
9	0x3c0a4683	0.008439663
10	0x3c6f936a	0.014622549
11	0x3d8e44c1	0.069467075
12	0x3dc1248c	0.09430799
13	0xbdc49772	-0.095991984
14	0x3da43905	0.08018688
15	0xbbb7ca96	-0.005608867
16	0xbde637a1	-0.11241079
17	0x3d1029cf	0.03519612
18	0xbe02f554	-0.12788898
19	0xbde1a048	-0.11016899
20	0xbdd2ff09	-0.1030255
21	0x3cffbe38	0.031218633
22	0xbd8e520b	-0.06949242
23	0x3d99a1e4	0.07501581
24	0xbd3c57de	-0.045982234
25	0x3dba621b	0.091007434
26	0xbe0a7950	-0.1352284
27	0x3c1941c7	0.009354061
28	0x3d20cb7e	0.039256565
29	0xbb06872e	-0.002052735
30	0x3d9a2a0c	0.07527551
31	0x3cbd4d1d	0.02310806
32	0x3dc21d4b	0.094782434
33	0x3d342d64	0.0439886
34	0x3e29ea03	0.16593175
35	0x3da950ed	0.082673885
36	0xbe14a009	-0.14514174
37	0xbdce409f	-0.10070919
38	0xbd911507	-0.07084089
39	0x3d4e72de	0.050402515
40	0xbd8456e4	-0.064618856
41	0x3c6b574d	0.014364076
42	0xbd2a6759	-0.041602466
43	0x3da0acc1	0.0784545
44	0xbd88b13e	-0.06674431
45	0xbe0eba23	-0.13938193
46	0xbd6d59a0	-0.0579468
47	0xbd8a9ead	-0.06768546
48	0xbdfa3472	-0.122170344
49	0x3d6ef253	0.058336567
50	0x3de689bf	0.11256742
51	0xbd9f365f	-0.07774042
52	0x3dd7f935	0.10545579
53	0x3d92188b	0.071335874
54	0xbbf0b216	-0.0073454482
55	0xbdb1d7a7	-0.086837105
56	0x3d2ccb15	0.04218586
57	0xbdd3b886	-0.103379294
58	0x3bdda0b3	0.0067635416
59	0x3b106f2c	0.002203892
60	0x3d8c5ae9	0.06853277
61	0x3df6e0be	0.12054585
62	0x3cad1fc9	0.02113332
63	0x3dbcf18e	0.092257604
64	0x3d9ca7a8	0.076491654
65	0xbda7cfc4	-0.08193925
66	0xbd4cdfab	-0.050017994
67	0x3c7c58e0	0.015402049
68	0x3de329e5	0.11091975
69	0xbd728d44	-0.059216753
70	0x3dd6b0ee	0.104829654
71	0x3e2a44f9	0.16627873
72	0x3e150b1a	0.14555016
73	0x3dd63bbb	0.104606114
74	0x3d9f6531	0.077829726
75	0x3c596f7d	0.01327121
76	0xbdebceab	-0.11514028
77	0x3dc7880d	0.097427465
78	0xbd8ca6ec	-0.06867775
79	0x3d589b4d	0.05288248
80	0x3cf6b3fb	0.030115118
81	0x3e002ac2	0.12516311
82	0x3d8e5958	0.06950635
83	0x3dfdbf29	0.123899765
84	0x3e1205ce	0.14260027
85	0xbaa14ade	-0.0012305637
86	0x3e0a4884	0.13504225
87	0xbd92a494	-0.07160297
88	0xbdac91bd	-0.08426235
89	0x3db5b107	0.08871656
90	0xbde5da84	-0.11223319
91	0xbe0a0695	-0.13479073
92	0xbe12b9c5	-0.14328678
93	0xbd486e6d	-0.048933435
94	0x3d7d3213	0.061815333
95	0xbdd42b0f	-0.10359775
96	0xbd71ae1b	-0.05900393
97	0xbd0b93ad	-0.03407638
98	0x3d220313	0.039553713
99	0xbb85a882	-0.0040789256
100	0xbd2cc1be	-0.042176954
101	0xbd6b5f61	-0.057464007
102	0x3de11eb0	0.10992181
103	0xbc9ed37f	-0.019387959
104	0x3dd97286	0.10617547
105	0x3e0888c0	0.13333416
106	0x3e22edb4	0.15910989
107	0x3d48d926	0.049035214
108	0x3c9ca41b	0.01912122
109	0x3cb6599f	0.022259532
110	0xbc07b7ce	-0.008283569
111	0xbdbd1d52	-0.09234108
112	0xbd9e09ff	-0.0771675
113	0x3c034c09	0.008013734
114	0xbcbfb43b	-0.02340137
115	0x3cdc5c4a	0.026899476
116	0xbdeabdac	-0.11461958
117	0xbda72e7a	-0.081631616
118	0x3d9eca7a	0.07753463
119	0xbde78fba	-0.113067105
120	0x3d7eb100	0.06218052
121	0xbd49454a	-0.049138345
122	0xbdda8728	-0.1067031
123	0xbd01f341	-0.031726126
124	0x3ca9b24b	0.0207149
125	0xbcac8ded	-0.02106377
126	0xbca04171	-0.019562455
127	0xbb8eb6d0	-0.004355289
128	0xbd257e8a	-0.04040388
129	0x3e00b40c	0.12568682
130	0xbc277a4e	-0.010222031
131	0xbd14747d	-0.036243904
132	0x3dae2fd3	0.085052155
133	0x3d931a4c	0.0718275
134	0x3b0f70b9	0.0021887256
135	0xbda415f6	-0.08012001
136	0x3d394b36	0.045237742
137	0xbdb33b2c	-0.087515205
138	0xbde12844	-0.10994008
139	0x3c4cf472	0.012509452
140	0x3ca2847c	0.019838564
141	0x3daa2bc2	0.083091274
142	0xbcfb7dfd	-0.030699724
143	0xbe1fcd75	-0.1560572
144	0xbdcce667	-0.10004883
145	0xbd02206e	-0.03176921
146	0xbe1c9c39	-0.15293969
147	0x3d14d13a	0.036332346
148	0xbc72172e	-0.014776034
149	0x3da89d45	0.08233122
150	0x3b42bac7	0.0029713379
151	0xbd8086e3	-0.062757276
152	0x3c51bc9e	0.0128013175
153	0x3e1d3cb9	0.15355195
154	0xbd7d4ee5	-0.061842818
155	0x39916d7b	0.00027738124
156	0xbd73f842	-0.05956293
157	0x3e0694b7	0.13142668
158	0xbe078c9d	-0.13237233
159	0xbd8a57ad	-0.06755004
160	0xbd4c2980	-0.049844265
161	0xbd81cafb	-0.063375436
162	0xbde0fc8a	-0.10985668
163	0x3b126683	0.0022338934
164	0xbca11291	-0.019662173
165	0x3db3bfe8	0.087768376
166	0x3d99f089	0.075165816
167	0x3dd75edd	0.105161406
168	0x3db8f34b	0.090307795
169	0xbd3921d0	-0.04519826
170	0x3db1c759	0.08680601
171	0x3d4cdbf9	0.05001447
172	0x3df96128	0.12176734
173	0x3dd534d1	0.104104646
174	0x3d69fb2f	0.057124313
175	0x3c23af28	0.009990491
176	0x3c98ce98	0.0186532
177	0x39a0ab26	0.00030645094
178	0x3dace2ad	0.084416725
179	0x3d7bbe5a	0.06146083
180	0xbd4bcc75	-0.049755532
181	0x3d371d81	0.04470587
182	0xbd7116a5	-0.058859486
183	0xbde9ffcd	-0.11425743
184	0xbdea5b43	-0.11443188
185	0x3dfc659a	0.123240665
186	0xbd91bae6	-0.07115726
187	0xbdf0c2cc	-0.117559046
188	0x3d95c86c	0.07313618
189	0xbdc80f1b	-0.09768506
190	0xbdfb3a09	-0.12266929
191	0xbe1fb99d	-0.1559815
192	0x3d83f140	0.06442499
193	0x3e0b4269	0.13599552
194	0x3e1d6f03	0.15374379
195	0xbcdbec1f	-0.02684599
196	0xbdac3859	-0.08409185
197	0x3d5ce620	0.0539304
198	0xbd9d5fe8	-0.07684308
199	0x3d0fe2e1	0.035128478
200	0xbd806875	-0.062699236
201	0xbdeeedb8	-0.11666435
202	0x3bc11fc5	0.00589368
203	0x3ca026cd	0.019549752
204	0x3d1d6e7e	0.03843545
205	0x3c620b9b	0.013796712
206	0xbd055796	-0.03255423
207	0xbcba66a7	-0.022754027
208	0x3e0626bf	0.13100718
209	0x3bb26b93	0.0054449528
210	0xbdba1c8c	-0.09087476
211	0xbdf5dcd3	-0.120050095
212	0x3d96c0c0	0.07360983
213	0xbc02f93f	-0.007993995
214	0x3d9fe312	0.07806982
215	0x3d2f9667	0.042868044
216	0x3d971585	0.073771514
217	0xbd15af24	-0.03654398
218	0x3db8854e	0.09009801
219	0x39da6563	0.0004165574
220	0xbc79efd3	-0.015254932
221	0xbce0fbbb	-0.027463784
222	0xbcf6f7a4	-0.030147381
223	0xbd6f4c9e	-0.058422677
224	0x3d9258d0	0.07145846
225	0xbb1a6d34	-0.0023563625
226	0x3be5f6d8	0.0070179515
227	0x3d60a531	0.05484504
228	0x3cdc15ad	0.026865805
229	0xbd9d66dd	-0.07685635
230	0xbd7e0bdd	-0.062023032
231	0x3e0950e3	0.13409762
232	0x3c3095f5	0.01077794
233	0x3d61d2bc	0.055132613
234	0x3d693888	0.056938678
235	0xbd8ec1bd	-0.069705464
236	0xbca306e5	-0.019900749
237	0x3d93a26b	0.07208713
238	0xbb89be6a	-0.0042036073
239	0x3ced571b	0.0289722
240	0xbd0881b7	-0.03332683
241	0x3df04df7	0.117336206
242	0x3c71c898	0.014757298
243	0x3d0229cc	0.03177814
244	0x3db6a30e	0.08917819
245	0xbdec1bce	-0.11528741
246	0xbdd862cd	-0.1056572
247	0x3e0379a8	0.12839377
248	0xbdfcf857	-0.123520546
249	0x3c631adc	0.013861384
250	0xbcf65c64	-0.030073352
251	0xbc743906	-0.014906174
252	0xbd9cef66	-0.07662849
253	0xbdf8f237	-0.12155574
254	0x3cafa24b	0.021439692
255	0x3d23ceaf	0.03999203

sentiment_branch.lstm_layers.0.weight_hh_l0 f4 [256, 64]
0	0xbc9f2f87	-0.019431842
1	0xbdd1dba4	-0.10246971
2	0xbe0b8830	-0.1362617
3	0xbce66168	-0.028122619
4	0xbd724d02	-0.05915547
5	0xbcc4292e	-0.023945417
6	0xbdaa52ea	-0.08316596
7	0x3dba85ac	0.09107527
8	0xbcae126b	-0.021249017
9	0x3e131366	0.14362869
10	0xbdefb186	-0.11703782
11	0xbd0effbf	-0.034911867
12	0x3d9708fb	0.0737476
13	0x3e025e28	0.1273123
14	0xbdbe4134	-0.0928978
15	0xbd9e1b89	-0.07720096
16	0xbdfb6d6e	-0.122767314
17	0x3e127758	0.14303339
18	0x3d79f6e9	0.061026487
19	0xbdcd526f	-0.100254886
20	0xbd639a44	-0.05556704
21	0xbca9fd83	-0.020750767
22	0x3dea5feb	0.11444076
23	0x3dbff740	0.09373331
24	0x3be513af	0.006990872
25	0x3c60e4c3	0.013726416
26	0x3c4acb8e	0.012377633
27	0xbd999c00	-0.07500458
28	0x3d12a8ee	0.035805635
29	0xbde64a96	-0.11244695
30	0x3b5e5e2b	0.003393064
31	0xbd5677d0	-0.052360356
32	0xbcfa8fdd	-0.030586177
33	0x3c25461c	0.010087516
34	0x3deb876d	0.1150044
35	0x3d8ac4d4	0.06775823
36	0xbb75a507	-0.0037482397
37	0xbd15b8ef	-0.03655332
38	0xbdae9939	-0.08525319
39	0x3d71a64f	0.058996495
40	0x3c97d72e	0.018535223
41	0x3d47d312	0.048785277
42	0xbdb3615d	-0.08758805
43	0xbd992fbc	-0.07479808
44	0x3dcb832d	0.09937129
45	0xbd000a3f	-0.03125977
46	0x3d031af1	0.032008115
47	0x3d13842f	0.036014732
48	0xbdb9afee	-0.09066759
49	0x3c969e93	0.018386161
50	0xbdc25cb2	-0.094903365
51	0xbdbaba73	-0.091175936
52	0xbba50df0	-0.005037062
53	0xbd7eece1	-0.062237624
54	0xbde8e921	-0.11372591
55	0xbe02fae3	-0.12791018
56	0xbd944d16	-0.072412655
57	0x3d96be72	0.07360543
58	0x3d18ae3c	0.037275538
59	0x3d62942a	0.05531708
60	0xbdebaa31	-0.11507071
61	0xbddf7c54	-0.109123856
62	0xbd08814b	-0.03332643
63	0xbc42dfdb	-0.011894192
64	0xbb035ec0	-0.002004549
65	0xbde9f847	-0.11424308
66	0x3dbb639e	0.0914986
67	0xbd640f28	-0.055678517
68	0x3d21779c	0.03942071
69	0x3ba7c358	0.0051197223
70	0xbd933707	-0.0718823
71	0x3c4a29e4	0.012339089
72	0xbdfc8f2f	-0.123319976
73	0x3e36e615	0.17861207
74	0xbdc66de6	-0.0968893
75	0xbb52c06a	-0.0032158145
76	0x3d2d7aa4	0.042353287
77	0xba6385a0	-0.00086792745
78	0xbdb94dfb	-0.09048077
79	0x3da080d9	0.07837076
80	0x3de1717c	0.110079736
81	0xbc7347ab	-0.01484863
82	0xbc3560b2	-0.011070417
83	0x3c25b003	0.010112765
84	0xbb821b45	-0.003970536
85	0x3c313026	0.010814702
86	0x3d231638	0.03981611
87	0xbd96e5e9	-0.07368071
88	0x3d27fcf5	0.041012723
89	0x3cb868cc	0.022510909
90	0xbe0dc375	-0.13844092
91	0x3cdfe801	0.027332308
92	0xbc1d7ef2	-0.009612786
93	0xbdb5d73d	-0.08878944
94	0x3dc1ff37	0.094725065
95	0xbde27340	-0.110571384
96	0x3d99272e	0.07478176
97	0xbdca66fc	-0.09882924
98	0x3cba240e	0.02272227
99	0x3d0ce43a	0.03439734
100	0xbdc95bfc	-0.09831998
101	0xbdd84ecd	-0.10561905
102	0xbd84ea81	-0.064900406
103	0xbcfa3434	-0.03054247
104	0x3d1e4330	0.038638294
105	0xbd3f269f	-0.04666769
106	0x3daa130b	0.083044134
107	0x3e037bb4	0.12840158
108	0x3d386a0e	0.045023017
109	0x3d97b446	0.07407431
110	0x3cb36f25	0.021903584
111	0x3d9a258c	0.07526693
112	0xbcf55111	-0.029945882
113	0xbe078e7a	-0.13237944
114	0xbc45d9e0	-0.012075871
115	0x3d82b434	0.06382027
116	0x3cd70f37	0.026252372
117	0x3cd49e77	0.025954468
118	0x3d829f9b	0.063780986
119	0x3d6b5f8c	0.057464167
120	0x3bd0c271	0.0063708355
121	0xbdac8b6b	-0.08425029
122	0x3d8a9e24	0.06768444
123	0xbd7a7662	-0.061148055
124	0x3d605172	0.054765172
125	0xbc0c3e11	-0.00855972
126	0x3dbb4108	0.09143263
127	0x3ca9cc5c	0.020727329
128	0x3da7befb	0.081907235
129	0x3da4c283	0.08044913
130	0x3d9838e7	0.07432728
131	0x3b116010	0.0022182502
132	0xbc48351b	-0.012219693
133	0xbd250dc0	-0.040296316
134	0x3dbf48c6	0.09340052
135	0x3cfc760a	0.030818004
136	0x3d6fd742	0.058554895
137	0xbdc842a4	-0.09778336
138	0x3da0e540	0.07856226
139	0x3c67e1bf	0.014152943
140	0xbe05c4fb	-0.13063423
141	0xbca04644	-0.019564755
142	0x3daf9fab	0.08575376
143	0xbd90a1e1	-0.07062126
144	0x3c8e488a	0.017368574
145	0xbdb110ab	-0.08645757
146	0xbda803c2	-0.08203842
147	0xbde6af4b	-0.11263903
148	0x3d88497e	0.066546425
149	0xbd86021e	-0.065433726
150	0xbd9d521d	-0.076816775
151	0xbdef60d3	-0.1168839
152	0xbc9f7a6c	-0.019467555
153	0x3da34679	0.07972426
154	0xbd652785	-0.055945892
155	0x3cbb8f6d	0.02289554
156	0x3df6c1b4	0.12048665
157	0x3d9f2fda	0.07772799
158	0x3dd32949	0.10310609
159	0xbe006a95	-0.12540658
160	0xbd8545a4	-0.065074235
161	0xbcf84acc	-0.030309103
162	0xbdcd9a83	-0.100392364
163	0x3b78be62	0.0037955274
164	0xbd001113	-0.031266283
165	0x3bee790a	0.0072776126
166	0x3d59fea0	0.053221345
167	0xbcb58117	-0.022156281
168	0x3d2e8fd2	0.042617626
169	0x3dc16555	0.09443156
170	0x3db0a822	0.08625819
171	0x3d7f3d56	0.062314354
172	0x3df6923b	0.1203961
173	0x3adcea31	0.0016854462
174	0x3e2378cc	0.15964049
175	0xbd508e49	-0.050916944
176	0xbd60946e	-0.054829054
177	0x3d8fe955	0.070269264
178	0xbdf85a9c	-0.12126657
179	0xbd3092da	-0.0431088
180	0xbd980693	-0.07423129
181	0xbd5308c2	-0.051522024
182	0x3e14145b	0.1446089
183	0xbda780a4	-0.08178833
184	0xbd8f119e	-0.06985782
185	0x3d3930f7	0.045212712
186	0xbd7804ee	-0.060551576
187	0x3e105590	0.1409514
188	0x3e03d930	0.12875819
189	0x3d974e06	0.07387929
190	0x3d9e9c5e	0.077446684
191	0x3dd0bbb1	0.10192049
192	0xbd120cd0	-0.03565675
193	0x3dba813b	0.0910668
194	0x3c8af6f3	0.016963458
195	0x3d932189	0.07184131
196	0x3db3dd1b	0.08782407
197	0xbbcd97a2	-0.0062741796
198	0x3d235ff5	0.039886434
199	0xbc384331	-0.011246488
200	0x3d4b4ead	0.049635578
201	0xbdc8c8a2	-0.09803893
202	0x3da24308	0.079229414
203	0x3db7d345	0.08975843
204	0xbc037381	-0.008023144
205	0xbe12b77f	-0.1432781
206	0x3ae05812	0.0017116091
207	0xbd421cc5	-0.047390718
208	0x3d8c40ce	0.06848298
209	0x3b58ca23	0.0033079467
210	0xbdb8e40d	-0.09027872
211	0xbda9c7be	-0.08290051
212	0xbd3a4d9a	-0.045484163
213	0xbd8bafb4	-0.06820622
214	0xbc07bdaf	-0.00828497
215	0xbc86f9e0	-0.016476572
216	0x3c386ac5	0.011255925
217	0xbdbcfa1c	-0.09227392
218	0xbdce7854	-0.100815445
219	0x3e15b610	0.14620233
220	0xbdfaebe6	-0.12252025
221	0xbd9c2a28	-0.07625228
222	0x3dd58b4d	0.1042696
223	0xbcba8c8c	-0.022772096
224	0x3d989dcf	0.074519746
225	0xbd6c815d	-0.057740558
226	0x3d83f358	0.064428985
227	0xbcaf249d	-0.021379763
228	0x3da1591d	0.07878325
229	0x3d933a8b	0.071889006
230	0x3d8367d8	0.06416291
231	0xbdbfebd6	-0.09371154
232	0x3da7b9d2	0.08189739
233	0x3dbfe96b	0.09370693
234	0xbd774577	-0.06036898
235	0x3c12ce3f	0.008960306
236	0x3dd890fe	0.1057453
237	0x3cbf2045	0.023330817
238	0x3d40a62a	0.047033466
239	0xbdb6eb78	-0.08931631
240	0x3da772d4	0.081761986
241	0x3dd9a51c	0.10627195
242	0xbd3865d3	-0.045018982
243	0xbd81f927	-0.0634635
244	0xbd21c83a	-0.03949759
245	0xbda884cb	-0.08228453
246	0xbd9b188e	-0.07573043
247	0xbc9116d6	-0.017711084
248	0xbd3c752a	-0.046010174
249	0x3df957c6	0.121749446
250	0x3dab05b3	0.083506964
251	0x3cb8cae5	0.022557685
252	0x3df3b612	0.118999615
253	0xbdcdbda0	-0.10045934
254	0x3d9cd518	0.07657832
255	0x3dfd264c	0.1236082

sentiment_branch.lstm_layers.0.bias_ih_l0 f4 [256]
0	0x3d0ba388	0.034091502
1	0xbbe5100c	-0.0069904383
2	0x3d8d5f5b	0.06902953
3	0x3dada072	0.08477868
4	0xbda9bd70	-0.082880855
5	0x3dd93726	0.10606222
6	0x3d9674a8	0.07346469
7	0x3c42b1ec	0.01188324
8	0x3de5a71d	0.11213515
9	0x3bd98671	0.006638341
10	0xbc9d96d6	-0.019236963
11	0x3d41aa0b	0.047281306
12	0xbda324b3	-0.07965984
13	0x3dae4047	0.08508354
14	0xbdda4670	-0.10657966
15	0xbc552cbc	-0.013011154
16	0x3d42f22a	0.047594227
17	0xbd00b30c	-0.031420752
18	0x3e1bd0ca	0.15216365
19	0x3deee277	0.116642885
20	0xbda9afa7	-0.08285456
21	0x3d84d9d6	0.064868614
22	0x3dc11e49	0.094296046
23	0xbd998638	-0.07496303
24	0xbe262737	-0.16225897
25	0x3dd54c0c	0.104148954
26	0xbcf577cd	-0.029964352
27	0x3d2fa8ac	0.042885467
28	0xbd83d18e	-0.06436454
29	0xbd3ab650	-0.045584023
30	0x3dd2ab22	0.10286547
31	0x3d95ae04	0.073085815
32	0x3c822604	0.015887268
33	0xbd72d1af	-0.059282
34	0x3d42453d	0.047429312
35	0xba342bfa	-0.0006873008
36	0xbda5f5f0	-0.081035495
37	0x3dddcca3	0.10830047
38	0xbe0966d5	-0.13418134
39	0x3d99aa8d	0.07503233
40	0xbcc1eb04	-0.023671634
41	0x3d299690	0.041403353
42	0xbdb86232	-0.09003104
43	0xbe021a44	-0.12705332
44	0x3d010391	0.03149754
45	0x3ce9e4d8	0.028551504
46	0x3cb1dcdb	0.021711757
47	0xbd910521	-0.070810564
48	0x3d1c3005	0.038131732
49	0xbdd9dcae	-0.106377944
50	0x3df7a0ed	0.12091241
51	0x3e25c70f	0.16189216
52	0xbdf7ae85	-0.12093834
53	0xbcf6ad07	-0.030111803
54	0xbdbf75e8	-0.09348661
55	0x3e125e82	0.14293864
56	0xbd956296	-0.072941944
57	0x3cf3baaf	0.029752104
58	0xba5a2427	-0.0008321427
59	0xbca3a9a0	-0.019978344
60	0x3bd74f95	0.006570766
61	0xbdd48f60	-0.10378909
62	0x3d4d6737	0.05014726
63	0xbd8b1fea	-0.067931965
64	0x3daed6e2	0.085370794
65	0xbd9c3ce7	-0.07628804
66	0xbd3156cc	-0.043295667
67	0xbe193e29	-0.14965118
68	0xbd935748	-0.07194382
69	0x3dc48b53	0.095968865
70	0x3aeabf1c	0.0017909738
71	0x3e0f8066	0.14013824
72	0x3e101f50	0.14074445
73	0x3db66897	0.08906668
74	0xbce0e45a	-0.027452637
75	0xbb920498	-0.004456114
76	0xbdde2568	-0.108469784
77	0xbcdea532	-0.02717838
78	0x3d46a816	0.048500143
79	0xbe13e294	-0.14441901
80	0xbdb22e1d	-0.08700202
81	0x3db00033	0.08593788
82	0xbc5e0d6f	-0.0135530075
83	0x3b087e9c	0.0020827418
84	0xbd83a2d7	-0.064275436
85	0xbd9de5aa	-0.077098206
86	0x3c5c379c	0.013440993
87	0x3dd1a493	0.10236468
88	0xbd3f04fb	-0.04663561
89	0x3d087921	0.033318643
90	0x3d80b019	0.06283588
91	0x3d4a1a3f	0.049341436
92	0xbce844ff	-0.028353212
93	0x3d42abec	0.04752724
94	0xbe006750	-0.1253941
95	0xbde313b8	-0.110877454
96	0xbd23ebe4	-0.040019885
97	0x3d4d4697	0.050116148
98	0xbdad5901	-0.08464242
99	0xbcf11aae	-0.029431667
100	0x3d4d4e5a	0.05012355
101	0xbca05337	-0.01957093
102	0xbde06c00	-0.10958099
103	0x3e171dac	0.14757413
104	0xbc8f6e4d	-0.01750865
105	0xbdaa2602	-0.08308031
106	0xbdb4fc9c	-0.08837244
107	0xbd05a04f	-0.032623585
108	0x3d283802	0.04106904
109	0xbccb67bb	-0.024829736
110	0xbcde3779	-0.02712606
111	0x3da94b7d	0.08266351
112	0x3e06ca3a	0.13163081
113	0xbe0e30df	-0.1388583
114	0xbba9ad42	-0.0051781246
115	0x3d85c806	0.06532292
116	0xbdceaaf6	-0.10091202
117	0x3cce47ba	0.025180686
118	0x3d7e7e6e	0.06213229
119	0x3dfe4489	0.12415416
120	0x3d3375b6	0.04381343
121	0xbbe3a212	-0.0069468105
122	0x3d35aeef	0.044356283
123	0xbcdadbd2	-0.026716147
124	0x3da533de	0.080665335
125	0xbe0fb025	-0.14032038
126	0x3dc6eb81	0.097128876
127	0xbcdce6ab	-0.02696546
128	0x3cbe09e4	0.023198076
129	0x3de7cff8	0.11318964
130	0x3d253cd6	0.04034122
131	0xbd34ad1b	-0.0441104
132	0xbda60c0e	-0.08107768
133	0x3d7b9a12	0.06142623
134	0xbdd53a07	-0.104114585
135	0x3dc2837b	0.09497734
136	0xbdeabfce	-0.11462365
137	0xbd8b7844	-0.06810048
138	0xbd054e32	-0.032545276
139	0xbddaabe3	-0.10677316
140	0xbdb3aa0b	-0.087726675
141	0xbd62542f	-0.055256065
142	0xbb91e584	-0.004452409
143	0xbc9dc3cc	-0.019258402
144	0x3d42a99b	0.04752503
145	0x3ded8016	0.11596696
146	0x3db30e60	0.08742976
147	0x3b703fe0	0.0036659166
148	0xbd61b1f3	-0.055101346
149	0x3bc2a1c1	0.0059396927
150	0x3d866462	0.06562115
151	0x3d34599e	0.044030778
152	0x3e0e3c10	0.138901
153	0xbd352928	-0.044228703
154	0xbbded458	-0.0068002157
155	0xbd949eed	-0.07256875
156	0xbcc8eda0	-0.02452737
157	0x3c75db88	0.015005954
158	0xbd1fa51a	-0.038975812
159	0x3dd1baf9	0.1024074
160	0xbb7b26d8	-0.0038322713
161	0x3d782b3c	0.060588107
162	0xbd763ee5	-0.060118575
163	0x3cd3c3fe	0.025850292
164	0x3d91cc0e	0.071189985
165	0xbdbc12bd	-0.091832615
166	0xbdc9aa34	-0.09846917
167	0x3db30385	0.08740906
168	0x3d4bd695	0.04976519
169	0xbcd4ca06	-0.025975239
170	0xbba76010	-0.005107887
171	0x3d963849	0.07334954
172	0xbd908284	-0.07056144
173	0xbdaed711	-0.085371144
174	0x3d7891f1	0.060686056
175	0x3d67c116	0.056580625
176	0x3d5c74bc	0.053822264
177	0xbd0dcd06	-0.034619354
178	0x3c5cdc1f	0.013480215
179	0x3d256c40	0.04038644
180	0xbd99598b	-0.07487782
181	0xbd5b60bd	-0.053559054
182	0x3d70236c	0.05862753
183	0x3db4ac5d	0.08821938
184	0xbbf26b1d	-0.007398023
185	0x3d808b73	0.06276598
186	0xbd53da90	-0.05172211
187	0xbdd0068a	-0.10157497
188	0xbda7f5c3	-0.08201172
189	0x3de65636	0.11246912
190	0xbdba6f11	-0.091032155
191	0xbd6fa5fc	-0.058507904
192	0x3a60353c	0.00085528544
193	0xbd899987	-0.06718736
194	0xbe031246	-0.1279994
195	0x3dcb2fd6	0.09921233
196	0x3a02d326	0.000499057
197	0x3d33a577	0.04385897
198	0xbdc097da	-0.094039634
199	0x3c8c3239	0.017113792
200	0x3e2fd25f	0.17170094
201	0x3d8a74b2	0.06760539
202	0xbdaf4e92	-0.08559908
203	0xbddb01c9	-0.106937
204	0xbd3d95cd	-0.04628544
205	0xbd43064a	-0.04761342
206	0x3db12c49	0.08651025
207	0xbd6e7eb3	-0.0582263
208	0xbdb2abc9	-0.08724172
209	0x3dbb235c	0.09137604
210	0x3e242247	0.16028701
211	0x3cea65c5	0.02861298
212	0xbd5a1e63	-0.053251635
213	0xbdc21a9f	-0.09477734
214	0xbdef7a71	-0.11693276
215	0x3dbb26ac	0.091382354
216	0x3d0e3719	0.034720514
217	0xbcaa4895	-0.020786563
218	0xbc2a5845	-0.010397022
219	0x3dc01cbb	0.0938048
220	0x3d4febe0	0.050762057
221	0x3c2dfaf2	0.010618912
222	0xbdf2a32b	-0.11847528
223	0x3dbbc8d1	0.09169162
224	0x3cb69e2b	0.022292217
225	0xbde61c79	-0.112358995
226	0x3dca378c	0.09873876
227	0xbd620fcc	-0.055190846
228	0xbdeb2b76	-0.11482899
229	0xbd0a3806	-0.033744834
230	0x3bb76b1b	0.0055974848
231	0xbba5983e	-0.005053549
232	0xbc19011a	-0.009338642
233	0xbcbde0f3	-0.023178553
234	0x3dcc3eb4	0.09972897
235	0xbd63b1d3	-0.05558951
236	0xbdd721d4	-0.10504499
237	0xbe05cfe8	-0.13067591
238	0x3db78fa2	0.08962943
239	0x3d27cf92	0.04096944
240	0xbd74ab1c	-0.059733495
241	0x3b93509e	0.0044956943
242	0x3d443211	0.04789931
243	0x3aec9fa6	0.001805295
244	0xbbc25713	-0.00593079
245	0xbd63d64f	-0.055624302
246	0x3d8faf6c	0.07015881
247	0x3c9199d3	0.017773544
248	0xbc6a435c	-0.014298286
249	0x3dcb7a1d	0.09935401
250	0xbd874a9d	-0.06606028
251	0x3cc6377b	0.024196377
252	0x3dba166d	0.09086309
253	0xbdc166c6	-0.094434306
254	0xba90f856	-0.0011060338
255	0xbdc16f14	-0.094450146

sentiment_branch.lstm_layers.0.bias_hh_l0 f4 [256]
0	0xbc497d0a	-0.012297878
1	0x3d794728	0.060858876
2	0x3dd9bcff	0.10631751
3	0xbc4765c8	-0.012170263
4	0x3bd35a87	0.0064500007
5	0x3c8210e4	0.015877195
6	0x3d9ff0e2	0.078096166
7	0xbb22e831	-0.0024857635
8	0x3e265711	0.1624415
9	0x3e04f5db	0.12984411
10	0xbdb06627	-0.08613234
11	0x3d8e34ad	0.06943641
12	0x3dbd1b73	0.09233751
13	0x3df8caff	0.121480934
14	0xbe00ffa8	-0.12597525
15	0xbdaf3c81	-0.08556462
16	0xbcb3a8d1	-0.021931084
17	0x3d27eed6	0.040999256
18	0x3e17cb49	0.14823641
19	0xbda126e3	-0.07868745
20	0x3dd618db	0.104539596
21	0x3d916e3c	0.07101104
22	0x3de5c23f	0.1121869
23	0xbd00b000	-0.031417847
24	0xbb819e38	-0.0039556287
25	0xbd500119	-0.050782297
26	0xbd6047a9	-0.05475584
27	0xbd44fdb6	-0.04809352
28	0x3de17a3c	0.110096425
29	0x3d1e4409	0.038639102
30	0x3d2a9c6e	0.04165309
31	0x3cb58408	0.022157684
32	0xbcbeb27e	-0.023278471
33	0x3b881834	0.004153276
34	0x3d3e54bd	0.04646753
35	0xbd47f615	-0.048818666
36	0x3d874d3f	0.066065304
37	0x3d7911cb	0.060807984
38	0xbdd5d127	-0.10440283
39	0xbcaf1b24	-0.021375246
40	0x3e049abd	0.12949653
41	0xbd25368a	-0.040335216
42	0x3c7b7ef3	0.015350091
43	0xbdd1b09d	-0.102387644
44	0x3d5d52a9	0.05403391
45	0xbdbe5046	-0.09292655
46	0xbcb6b097	-0.022301001
47	0xb9b34f24	-0.00034200505
48	0x3df87f7c	0.12133691
49	0x3dd76554	0.10517374
50	0x3d1fbbc8	0.03899744
51	0xbcc6d1bf	-0.024269937
52	0xbd86082c	-0.065445274
53	0x3dc7ac0d	0.09749613
54	0xbd226f89	-0.03965715
55	0xbdcaa296	-0.09894292
56	0xbd9e5abc	-0.0773215
57	0xbde015db	-0.109416686
58	0xbdd39e3d	-0.10332916
59	0xbe055d38	-0.13023841
60	0xbde0e529	-0.10981209
61	0xbda4cb6f	-0.080466144
62	0xbdb324a2	-0.087472215
63	0xbd596a9d	-0.05308019
64	0xbddcaf1c	-0.10775587
65	0xbccad927	-0.02476175
66	0xbd29dd94	-0.04147108
67	0xbdbec154	-0.09314218
68	0x3db73c70	0.089470744
69	0x3ded7bdb	0.11595889
70	0x3df36ccf	0.11885988
71	0x3c9c3e82	0.019072775
72	0x3ddfe108	0.10931593
73	0xbdad6dbb	-0.08468195
74	0x3dbeb1c8	0.09311253
75	0xbda1f2b1	-0.07907618
76	0x3dc20a8a	0.094746664
77	0xbd45e1fc	-0.04831122
78	0xbd0b4728	-0.034003407
79	0xbcf82e64	-0.030295558
80	0xbb99b813	-0.004691133
81	0x3d640d31	0.055676643
82	0x3d4e08bc	0.0503013
83	0xbda2536f	-0.0792607
84	0xbde523be	-0.11188458
85	0xbd6d855a	-0.057988502
86	0xbd666688	-0.056250125
87	0x3d140597	0.036138143
88	0xbe092d6e	-0.13396236
89	0xbe0030a1	-0.1251855
90	0x3a7e7fe0	0.0009708386
91	0x3d012efd	0.031538952
92	0x3ca9d69d	0.020732218
93	0xbc58d052	-0.013233261
94	0x3d445a7f	0.047937866
95	0xbd1ece07	-0.0387707
96	0xbcd73d9a	-0.026274491
97	0xbbab9dc3	-0.0052373125
98	0x3cc02c7f	0.023458717
99	0xbc40c19e	-0.011764912
100	0x3d609ca6	0.05483689
101	0xbd24a18b	-0.040193122
102	0x3d640514	0.055668905
103	0x3dd36b5c	0.103232116
104	0xbd3fbae8	-0.046809107
105	0x3df24ffc	0.11831662
106	0x3d13518e	0.03596645
107	0xbdc3bc6a	-0.095574215
108	0x3d3303fa	0.043704964
109	0xbd48f090	-0.049057543
110	0xbca9c40f	-0.02072337
111	0xbc8c4132	-0.017120931
112	0x3d4b3837	0.049614158
113	0xbcd089d8	-0.025456354
114	0x3d1d9c66	0.03847923
115	0x3df229a1	0.11824346
116	0xbdbd50a4	-0.092438966
117	0x3dd58140	0.10425043
118	0x3de0fbb1	0.10985506
119	0x3dffd5e6	0.1249197
120	0xbcb9913a	-0.022652257
121	0x3b4ca79a	0.0031227828
122	0xbcfa304d	-0.03054061
123	0x3c4c3696	0.012464186
124	0x3d6d8571	0.057988588
125	0x3c804d69	0.015661912
126	0xbd12212c	-0.035676166
127	0xbda14e37	-0.078762464
128	0x3c2fe82a	0.010736505
129	0x3df2ce40	0.11855745
130	0xbddbd4e9	-0.10733969
131	0xbd761587	-0.060079124
132	0xbd939f1a	-0.072080806
133	0xbd05b8b3	-0.032646846
134	0xbc08a0d3	-0.008339125
135	0xbdc5d245	-0.09659246
136	0xbda3ccd2	-0.07998051
137	0x3ba32aba	0.0049794586
138	0xbcfebef1	-0.031096907
139	0x3c6b3135	0.014354994
140	0x3dc241ed	0.094852306
141	0x3e07e4e5	0.1327091
142	0xbd88e058	-0.06683415
143	0x3d3189fb	0.04334448
144	0x3d5c9823	0.053856026
145	0xbd01fdfa	-0.03173635
146	0xbd2beb61	-0.04197252
147	0x3da52a73	0.08064737
148	0xbd0eeb15	-0.03489216
149	0x3debb835	0.11509744
150	0xbd90d1d7	-0.07071274
151	0x3d369227	0.044572975
152	0xbdd40ad8	-0.10353631
153	0xbd2649fa	-0.040597893
154	0x3ddb25c1	0.1070056
155	0x3c363c8a	0.011122832
156	0xbdde2b17	-0.108480625
157	0x3ca0027b	0.019532433
158	0xbd455a4e	-0.048181824
159	0x3de39098	0.111115634
160	0x3d034b1f	0.032054063
161	0xbd9cc2d0	-0.07654345
162	0x3d85a403	0.065254234
163	0x3cbbb00c	0.022911094
164	0xbdbc30ee	-0.0918902
165	0xbcf9e61f	-0.030505238
166	0x3d82b54f	0.06382238
167	0xbce9d034	-0.028541662
168	0xbd38efb9	-0.045150492
169	0xbcfa3acb	-0.030545613
170	0xbdc9961b	-0.098430835
171	0xbd0901f8	-0.033449143
172	0x3d2bdc5b	0.041958194
173	0x3d802824	0.06257656
174	0xbd9c9c7f	-0.07647037
175	0xbc3d4679	-0.0115524465
176	0x3db0d4fd	0.08634374
177	0x3c69fd27	0.014281548
178	0x3be23be5	0.0069041126
179	0x3d623481	0.055225853
180	0x3d2761f0	0.040864885
181	0x3db513d2	0.08841671
182	0xbe046309	-0.12928404
183	0x3d059c72	0.0326199
184	0xbe059833	-0.1304634
185	0xbda25b78	-0.079276025
186	0x3d4a6f48	0.049422532
187	0xbdd34c92	-0.10317339
188	0x3d9b3c4f	0.07579862
189	0xbd46fd0e	-0.048581176
190	0x3d1bac28	0.038005978
191	0x3d0b34d5	0.03398593
192	0x3d9db4c2	0.077004924
193	0x3d8d4035	0.06897012
194	0x3d57d200	0.052690506
195	0xbcecd3e5	-0.028909633
196	0xbb9c770b	-0.004774933
197	0xbd00b024	-0.03141798
198	0x3da30a4a	0.07960947
199	0xbdb4ebcd	-0.08834038
200	0x3df56f55	0.119841255
201	0x3d772930	0.060342014
202	0x3dc966ca	0.098340586
203	0xbd62106c	-0.055191442
204	0x3d82a229	0.06378586
205	0x3c6be14a	0.014396975
206	0xbd34d452	-0.044147797
207	0x3d1c3fb1	0.03814668
208	0xbdf54c65	-0.11977462
209	0x3d0bae09	0.03410152
210	0x3dac8f09	0.08425719
211	0xbcdb7053	-0.026786959
212	0xbcf8b42b	-0.030359348
213	0xbd91ef6d	-0.07125745
214	0x3ddf7a7b	0.10912033
215	0x3d0d0286	0.034426235
216	0x3c53680e	0.012903227
217	0x3c9110af	0.01770815
218	0x3d910493	0.070809506
219	0x3e2459b3	0.16049843
220	0x3ccfbfc5	0.025359998
221	0x3db6bbbc	0.08922526
222	0x3da3551b	0.07975217
223	0x3d8cb099	0.06869621
224	0xbd6c2bc1	-0.057658914
225	0xbcaa5898	-0.020794198
226	0xbdacc0b8	-0.08435196
227	0xbdb895b3	-0.09012928
228	0xbe0f48b1	-0.13992573
229	0x3dadb00b	0.08480843
230	0x3dadbce7	0.08483296
231	0xbd062d65	-0.032758135
232	0xbda7584d	-0.08171139
233	0x3df7bf45	0.12097029
234	0x3db7f956	0.08983104
235	0xbce67535	-0.02813206
236	0xbc982dee	-0.018576588
237	0xbd952af4	-0.07283583
238	0x3d79417a	0.06085346
239	0x3d23a668	0.03995362
240	0xbd0a308f	-0.033737715
241	0x3d2ef5f2	0.04271502
242	0x3d9284d5	0.07154242
243	0xbb92dbed	-0.0044817836
244	0x3d6579c6	0.056024335
245	0x3c2f4afd	0.010699031
246	0xbdc4d3a6	-0.09610681
247	0x3de5e52c	0.11225352
248	0xbbe31e07	-0.00693107
249	0xbda224a5	-0.07917146
250	0xbd857b46	-0.06517653
251	0xbd8a5f38	-0.06756443
252	0xbc7401a4	-0.014892969
253	0x3da0c9c2	0.07850982
254	0x3de047da	0.109512046
255	0xbdb4adbc	-0.088222

sentiment_branch.lstm_layers.1.weight_ih_l0 f4 [128, 64]
0	0xbd9d0b33	-0.07668152
1	0xbca9bbb5	-0.020719388
2	0xbc2c40f0	-0.010513529
3	0x3d8262f2	0.063665286
4	0x3d514d00	0.051098824
5	0x3e2b4ac1	0.16727735
6	0x3ce2ca58	0.027684376
7	0x3dfb7df3	0.12279882
8	0x3cc8f10d	0.024529004
9	0xbb494751	-0.0030712674
10	0xbe2bdf21	-0.16784336
11	0xbe02f358	-0.12788141
12	0x3dcde81b	0.10054036
13	0xbdef6e7e	-0.116909966
14	0x3e25f510	0.16206765
15	0x3da990a6	0.082795426
16	0xbe276275	-0.16346152
17	0x3e1df53f	0.15425585
18	0xbcb63113	-0.022240197
19	0xbe188c7c	-0.1489734
20	0xbd8390f4	-0.06424132
21	0x3e0662ee	0.13123676
22	0x3e07d505	0.13264854
23	0xbd50c677	-0.05097052
24	0x3e0b186e	0.13583538
25	0xbd90be05	-0.07067493
26	0x3d869cef	0.065729015
27	0xbe06f6c5	-0.13180073
28	0x3ddc8ce3	0.107690595
29	0x3deb38fc	0.11485478
30	0xbdfd7dee	-0.12377535
31	0x3d48851b	0.048955064
32	0x3c9e6316	0.019334357
33	0xbbf5c7d2	-0.007500627
34	0xbd0d673a	-0.034522273
35	0xbe473ad1	-0.1945603
36	0xbe274857	-0.16336189
37	0xbc9f8b60	-0.019475639
38	0x3cc0dfe6	0.023544263
39	0x3e36c6f4	0.17849332
40	0xbdc50c2c	-0.09621462
41	0x3df05842	0.11735584
42	0x3d550da1	0.05201495
43	0xbd891670	-0.06693733
44	0x3e3928ed	0.18082018
45	0x3dbf2f6e	0.09335218
46	0x3d37fa97	0.044916715
47	0xbcaed0b6	-0.021339756
48	0xbdd750d1	-0.105134614
49	0x3dc6cdbf	0.09707212
50	0x3daa24e1	0.08307815
51	0xbd885138	-0.06656116
52	0x3e077aef	0.13230489
53	0x3e1e24a9	0.15443672
54	0x3c2fe4c5	0.010735695
55	0xbc7cef7d	-0.015437958
56	0x3e255235	0.1614464
57	0xbdbcd1e2	-0.092197195
58	0xbdc073a7	-0.09397059
59	0x3e232081	0.15930368
60	0x3cb4cf8e	0.022071626
61	0xbdf51e72	-0.119686976
62	0xbe09818f	-0.13428329
63	0xbdb84fe3	-0.08999612
64	0x3c432b4c	0.011912178
65	0xbe19b881	-0.15011789
66	0xbe2aff24	-0.16698891
67	0x3dd89739	0.105757184
68	0x3db74f0f	0.08950626
69	0xbe345a1a	-0.17612496
70	0xbde31563	-0.110880636
71	0x3e12fe96	0.1435493
72	0x3dc2f2b6	0.0951895
73	0x3df19ec2	0.11797859
74	0xbd4fff2a	-0.050780453
75	0xbe03f866	-0.12887725
76	0xbdfbe75d	-0.122999884
77	0x3db1f630	0.08689535
78	0x3dcfe0a5	0.101502694
79	0x3d78d7d5	0.06075271
80	0xbddd4e26	-0.10805921
81	0x3e38d678	0.18050563
82	0x3db0a72a	0.08625634
83	0x3bb6a2c1	0.005573601
84	0x3d8acb51	0.06777061
85	0xbde362b1	-0.11102808
86	0x3c42ff9e	0.011901764
87	0xbdfe02b4	-0.12402859
88	0xbcc8145d	-0.024423772
89	0x3cb33d22	0.021879736
90	0xbe2d9456	-0.16951117
91	0x3c906a03	0.017628675
92	0xbd840937	-0.0644707
93	0xbcd50669	-0.026004033
94	0x3dee7fe5	0.11645488
95	0x3e0d6a4b	0.13810079
96	0x3d722a7e	0.059122555
97	0xbd7ad653	-0.06123955
98	0x3dacd1f0	0.0843848
99	0x3d4133be	0.047168486
100	0xbd485b7c	-0.04891537
101	0x3dcd3b12	0.100210324
102	0xbe06a996	-0.1315063
103	0xb9118aa4	-0.00013879925
104	0x3dcc2d72	0.099696055
105	0xbe347743	-0.1762362
106	0x3d07b743	0.033133756
107	0xbd9c7507	-0.07639509
108	0xbd52478d	-0.051337767
109	0xbdd74031	-0.105102904
110	0x3e14fd55	0.14549764
111	0xbdda2843	-0.106522106
112	0xbd1b7fac	-0.037963554
113	0xbe0d82d6	-0.13819441
114	0xbd8ff7cd	-0.07029686
115	0xbe135104	-0.14386374
116	0x3e2fa4d4	0.1715272
117	0x3c9364eb	0.017992457
118	0xbdd00022	-0.10156275
119	0x3d4a666e	0.04941409
120	0x3db84c43	0.08998921
121	0xbcfad05f	-0.030616937
122	0xbe193de4	-0.14965016
123	0x3e137786	0.14401063
124	0xbe0eadba	-0.13933459
125	0xbb19c2ea	-0.0023462125
126	0x3d94541d	0.07242606
127	0xbe10fda3	-0.14159255
128	0xbdbddb42	-0.09270336
129	0x3d7d1e4f	0.061796483
130	0x3dcb1c68	0.099175274
131	0x3d59c4fc	0.053166375
132	0x3e1db634	0.15401536
133	0x3d1018c3	0.035179865
134	0xbe2e09bb	-0.169959
135	0xbdec3484	-0.11533454
136	0x3db31e8a	0.08746059
137	0x3da08933	0.07838669
138	0x3dcd318c	0.10019216
139	0xbdcbd480	-0.099526405
140	0x3e1b213e	0.151494
141	0x3dc28940	0.094988346
142	0x3c8f770c	0.01751282
143	0xbdda410e	-0.106569394
144	0x3c24b7a3	0.010053548
145	0xbe812b97	-0.2522857
146	0xbdb00b4c	-0.08595905
147	0x3d6128f6	0.054970704
148	0xbe3ab1b0	-0.18231845
149	0x3cb4319d	0.021996314
150	0xbc59cde9	-0.013293722
151	0xbc8229cc	-0.01588907
152	0xbd06a62f	-0.03287333
153	0xbd9bfeac	-0.07616934
154	0xbe17dcd5	-0.14830334
155	0x3e0ea96a	0.13931814
156	0xbe132ff6	-0.14373764
157	0xbddad7c4	-0.10685685
158	0xbd8b3d56	-0.06798808
159	0xbcd95597	-0.02653007
160	0x3de37a71	0.11107338
161	0x3de9685e	0.113968596
162	0x3e1bbfbc	0.1520986
163	0xbd761e6f	-0.060087617
164	0xbd468c06	-0.04847338
165	0xbdfc7d0d	-0.12328539
166	0xbe2822a6	-0.16419467
167	0x3cba8215	0.022767106
168	0xbe586c58	-0.2113508
169	0x3cd3eac8	0.025868788
170	0xbd54699b	-0.051858526
171	0xbc8b64b3	-0.01701579
172	0x3cc5dfc9	0.02415456
173	0x3e072762	0.13198617
174	0xbcf787e5	-0.030216167
175	0xbe5e1b61	-0.21690132
176	0xbe16b7cb	-0.14718549
177	0x3dc6cb0c	0.09706697
178	0xbc82922b	-0.015938839
179	0x3bfc25cf	0.007694937
180	0xbe107f57	-0.14111076
181	0x3dd36d4e	0.103235826
182	0xbd3734f4	-0.044728234
183	0x3e1a308e	0.15057585
184	0xbde91095	-0.11380116
185	0x3e09e37b	0.13465683
186	0x3e0e968a	0.13924614
187	0xbc9912b8	-0.018685684
188	0x3e3132c6	0.17304525
189	0x3e23f954	0.1601308
190	0xbda06fd1	-0.07833827
191	0x3e21bec5	0.15795429
192	0x3caa652d	0.020800197
193	0x3e02c2c9	0.12769617
194	0xbe0ddebc	-0.13854498
195	0x3d98a884	0.07454017
196	0xbe06aa6e	-0.13150951
197	0x3d51f0d3	0.05125506
198	0x3cc4a598	0.024004743
199	0xbd37f8ba	-0.04491494
200	0xbdfe2f62	-0.12411381
201	0x3dc22184	0.09479049
202	0xbe111291	-0.14167239
203	0xbe10ec02	-0.1415253
204	0x3d629174	0.055314496
205	0xbd3f62af	-0.04672497
206	0x3e1aa7fd	0.15103145
207	0x3cff60ea	0.031174142
208	0x3def0de4	0.11672571
209	0x3ca833f4	0.020532586
210	0x3cf0f704	0.029414661
211	0x3e39a4fc	0.18129343
212	0x3c9289ac	0.017887913
213	0xbe00c01d	-0.12573285
214	0x3d3bb321	0.045825128
215	0xbdfa0fce	-0.12210046
216	0xbca7aa8f	-0.02046707
217	0xbcef85d1	-0.029238613
218	0xbdc07d7a	-0.09398933
219	0x3e406743	0.18789391
220	0xbd6d0d59	-0.057874057
221	0xbbf8d559	-0.0075937924
222	0xbdf3db43	-0.11907055
223	0x3ca906f0	0.02063319
224	0x3da06f7e	0.078337654
225	0x3bb1f7f4	0.0054311696
226	0x3e413cb7	0.18870817
227	0xbddd501f	-0.108062975
228	0x3e05b3ca	0.13056865
229	0xbdfcd582	-0.12345411
230	0x3cbc8171	0.023010941
231	0x3db9ea92	0.09077944
232	0x3e41b1f9	0.18915547
233	0xbd987e30	-0.07445943
234	0xbd0549ca	-0.032541074
235	0x3d919006	0.071075484
236	0x3e4a3eea	0.19750562
237	0x3e3629ad	0.17789336
238	0x3d931446	0.07181601
239	0xbd0c5d37	-0.034268584
240	0x3dfadea1	0.12249494
241	0xbe1db51b	-0.15401118
242	0x3d341b4a	0.043971337
243	0xbd930f36	-0.07180636
244	0xbe20575b	-0.15658323
245	0x3e2b4f23	0.16729407
246	0xbe02b87b	-0.12765686
247	0x3dbb3551	0.09141029
248	0x3dca91de	0.09891103
249	0xbc4de9a7	-0.012567914
250	0xbd3f4317	-0.04669484
251	0xbcea24d2	-0.02858201
252	0x3df2bf72	0.118529215
253	0x3e3355a4	0.17513138
254	0x3bef85f9	0.007309672
255	0xbd8026a1	-0.06257368

sentiment_branch.lstm_layers.1.weight_hh_l0 f4 [128, 32]
0	0xbd86540d	-0.06559
1	0x3defb568	0.11704522
2	0xbe0a2117	-0.13489185
3	0xbddebb70	-0.108755946
4	0xbdc74e57	-0.09731739
5	0xbe163aa8	-0.14670813
6	0xbdc87f8b	-0.09789952
7	0x3cec440c	0.028841041
8	0xbc96e47e	-0.0184195
9	0xbdd25d09	-0.10271651
10	0x3d23b1f9	0.03996465
11	0xbe0c7739	-0.13717355
12	0xbc282e89	-0.010265001
13	0x3e110ee1	0.14165832
14	0x3cc0cdf0	0.023535699
15	0xbe0ef9a4	-0.13962418
16	0x3e1df97a	0.15427199
17	0x3cc6ffe2	0.024291936
18	0xbda7a394	-0.08185497
19	0xbd1ac234	-0.037782863
20	0xbe1614af	-0.14656328
21	0x3dae48b8	0.08509964
22	0xbe288ed3	-0.16460733
23	0x3d9f5bb7	0.07781165
24	0x3da5cd94	0.080958515
25	0x3d6cd618	0.057821363
26	0xbdf44f28	-0.1192916
27	0xbda2932a	-0.079382256
28	0x3e14c30d	0.14527531
29	0xbe240db1	-0.16020848
30	0x3b98ed61	0.0046669696
31	0xbdd9f023	-0.106415056
32	0xbd9025f5	-0.0703849
33	0xbd629703	-0.055319797
34	0x3dea277c	0.11433312
35	0x3d8ab1d6	0.06772201
36	0x3de1284e	0.10994016
37	0xbdfd1d17	-0.12359064
38	0xbe23ab7f	-0.1598339
39	0xbe39755f	-0.1811118
40	0xbdf79f52	-0.12090935
41	0x3d45fd02	0.04833699
42	0xbe14e7c9	-0.14541544
43	0xbe4f602d	-0.20251532
44	0x3e5242bc	0.2053327
45	0xbb126249	-0.0022336415
46	0xbe39d432	-0.18147352
47	0x3e19c20c	0.1501543
48	0x3e3b9534	0.18318635
49	0x3dafde51	0.08587325
50	0xbd18fb96	-0.037349306
51	0x3da77113	0.08175864
52	0x3d3a583d	0.045494307
53	0xbd3d3c18	-0.046199888
54	0x3da51f28	0.08062583
55	0xbe09e63f	-0.13466738
56	0xbbca1054	-0.0061664972
57	0x3d420104	0.04736425
58	0x3dce8746	0.10084395
59	0xbe135c9f	-0.14390801
60	0xbc290fe1	-0.010318727
61	0xbc41a9f2	-0.011820303
62	0x3dd8c83f	0.10585069
63	0xbd2aebcf	-0.04172879
64	0xbd3beb23	-0.04587854
65	0xbe2b20f7	-0.16711794
66	0xbdd6c18e	-0.104861364
67	0x3dc5776e	0.0964192
68	0x3d7feefd	0.062483776
69	0xbbe79fe8	-0.007068623
70	0x3d32f438	0.043689936
71	0xbaf9a928	-0.0019047605
72	0xbe053d25	-0.13011606
73	0xbde547f2	-0.11195363
74	0x3e16a4b0	0.14711261
75	0xbb752a19	-0.0037409125
76	0xbd655fa3	-0.05599941
77	0xbe068b81	-0.13139154
78	0x3da61518	0.08109492
79	0xbde14b90	-0.110007405
80	0xbdddd47d	-0.108315445
81	0x3e12f7b8	0.1435231
82	0xbd535ddc	-0.051603183
83	0xbb9e7bac	-0.00483652
84	0x3d8803d0	0.06641352
85	0x3cf45eac	0.0298303
86	0xbe0d7ecc	-0.138179
87	0xbd9a24ca	-0.07526548
88	0xbe25373d	-0.16134353
89	0x3e219292	0.15778568
90	0x3dbb863f	0.09156465
91	0xbd8ac2b9	-0.06775422
92	0xbc2d692b	-0.010584156
93	0xbe09509d	-0.13409658
94	0xbd4c7bc5	-0.049922723
95	0x3db985f9	0.090587564
96	0xbd6c3028	-0.057663113
97	0xbd8d5214	-0.06900421
98	0x3dde2943	0.10847714
99	0x3c55c390	0.013047114
100	0xbe2cc8eb	-0.16873519
101	0x3da7b97f	0.081896774
102	0x3e1ef679	0.1552371
103	0xbd62c01a	-0.055358984
104	0x3d3046c8	0.043036252
105	0xbd885b95	-0.06658093
106	0xbd67cfcb	-0.05659465
107	0xbe223d6a	-0.1584374
108	0x3d7ff6af	0.062491115
109	0xbdcd4098	-0.10022086
110	0x3daa25ff	0.083080284
111	0x3e352149	0.17688479
112	0xbd638b25	-0.05555262
113	0xbd0f500f	-0.03498846
114	0x3cb14618	0.021639869
115	0xbd2d248e	-0.04227119
116	0x3cce5922	0.025188986
117	0xbac896cc	-0.001530373
118	0xbdbf7371	-0.093481906
119	0xbd866f0e	-0.06564151
120	0x3e155a1e	0.14585158
121	0xbdbed403	-0.09317782
122	0x3e1f338b	0.15547006
123	0xbc627a48	-0.013823099
124	0xbe007c4f	-0.1254742
125	0x3d8a5091	0.06753648
126	0x3d43b003	0.04777528
127	0x3d14879d	0.036262143
128	0x3e15ece1	0.14641143
129	0xbd1d3671	-0.038381997
130	0xbdc8544b	-0.097817026
131	0x3d0fd99f	0.03511965
132	0xbe2e2335	-0.17005618
133	0xbe1f2486	-0.15541276
134	0xbcf0b66e	-0.029383864
135	0x3e01893d	0.12650008
136	0xbc8decc5	-0.017324815
137	0x3d8e84da	0.06958933
138	0x3dc66601	0.096874245
139	0xbe04a844	-0.12954813
140	0xbda119f1	-0.07866276
141	0xbe19c3dc	-0.1501612
142	0xbe03f249	-0.12885393
143	0xbe250cfa	-0.16118231
144	0xbe244b7d	-0.16044421
145	0x3ce64fee	0.028114285
146	0xbd4c68b8	-0.049904555
147	0x3e105215	0.14093812
148	0x3dd0a00a	0.10186775
149	0x3d0eaccb	0.034832757
150	0xbdf8f451	-0.12155975
151	0x3d1eac51	0.038738552
152	0x3dc8dd0d	0.09807787
153	0xbd25b853	-0.04045899
154	0x3d56adfe	0.052412026
155	0x3e4294d2	0.19002083
156	0xbd938575	-0.07203189
157	0x3df86fdf	0.12130713
158	0x3ddaf099	0.106904216
159	0x3e0e8800	0.13919067
160	0xbdb149c3	-0.08656647
161	0xbdd44488	-0.10364634
162	0x3d567dd5	0.052366097
163	0x3d9da774	0.07697955
164	0x3df5972a	0.11991723
165	0xbdf298b5	-0.11845533
166	0x3e092d71	0.13396241
167	0xbdd8ecdc	-0.10592052
168	0xbd4fb3f7	-0.050708737
169	0x3da9dc1b	0.08293935
170	0x3bca0d6f	0.006166152
171	0xbc5ad9f1	-0.013357625
172	0xbd85798e	-0.06517325
173	0x3d266e17	0.040632334
174	0x3db95b58	0.090506256
175	0xbdfbf97a	-0.12303443
176	0xbd2403a0	-0.04004252
177	0xbd921c7b	-0.071343385
178	0xbc8e9aa6	-0.017407726
179	0xbd6bebd9	-0.05759797
180	0xbe15adcc	-0.1461708
181	0x3cb49a62	0.022046272
182	0x3db46c23	0.08809688
183	0xbd3d3781	-0.04619551
184	0x3ddd4518	0.10804194
185	0x3dad08b0	0.08448923
186	0xbdf33d55	-0.118769325
187	0x3d6fda28	0.05855766
188	0xbd7938b1	-0.06084508
189	0x3de298ed	0.110643245
190	0xbdc8ba64	-0.09801176
191	0xbdc94381	-0.098273285
192	0x3e0c9961	0.13730384
193	0xbdf51317	-0.11966532
194	0x3dd17512	0.102274075
195	0xbd9270d9	-0.0715043
196	0x3dac927d	0.08426378
197	0xbe09ad53	-0.13445024
198	0x3de6ab83	0.11263182
199	0xbb3b83f0	-0.0028612576
200	0xbe37b2c7	-0.17939292
201	0x3d148c56	0.036266647
202	0x3d9971e5	0.07492427
203	0x3d58a8dd	0.052895416
204	0xbd1a37c9	-0.037650857
205	0xbca1ce79	-0.019751774
206	0xbda3926e	-0.079869136
207	0x3db5a212	0.08868803
208	0x3e22b25a	0.15888348
209	0xbd79752b	-0.060902756
210	0xbe3fedf9	-0.18743123
211	0x3d9f6f4c	0.077849
212	0x3e46cb23	0.19413428
213	0x3da77edb	0.08178493
214	0xbda6827e	-0.08130358
215	0xbdd343aa	-0.1031564
216	0xbd3c8e7e	-0.04603433
217	0xbd9e036e	-0.07715498
218	0x3d847f31	0.06469572
219	0x3cb5ed63	0.022207921
220	0x3ba23242	0.004949839
221	0xbc1ba4ab	-0.009499709
222	0xbc7dfe34	-0.015502501
223	0xbde517ae	-0.11186157
224	0x3d44f1a4	0.04808201
225	0x3da20dab	0.07912763
226	0x3e324feb	0.17413299
227	0xbcc58f64	-0.024116226
228	0xbd20c531	-0.039250556
229	0xbe1fd9f3	-0.15610485
230	0x3dff55e8	0.12467557
231	0x3dd1a1c2	0.10235931
232	0x3dad3c5e	0.0845878
233	0xbdfb0075	-0.122559465
234	0xbe00029f	-0.12501
235	0xbd41bb7d	-0.047297943
236	0xbe1f8db6	-0.15581402
237	0xbe3b1902	-0.18271258
238	0xbdf26d9e	-0.11837314
239	0x3e3858a7	0.18002568
240	0xbc475bca	-0.01216788
241	0x3e1a045b	0.15040724
242	0xbbe0aa97	-0.0068562734
243	0x3d9fca91	0.07802308
244	0xbe0bb7a6	-0.13644275
245	0xbe1f29bb	-0.15543263
246	0xbaeddddb	-0.0018147783
247	0x3e51d005	0.2048951
248	0x3d82eeba	0.0639319
249	0xbe26ff8a	-0.16308418
250	0xbda1b6ad	-0.07896171
251	0xbbffb0cd	-0.0078030587
252	0x3dd0f1e2	0.102023855
253	0xbdf3250c	-0.118723005
254	0xbd54df59	-0.051970813
255	0xbc7b0ce4	-0.015322898

sentiment_branch.lstm_layers.1.bias_ih_l0 f4 [128]
0	0x3b563b0c	0.0032689003
1	0xbc1c9878	-0.009557836
2	0xbc9441c5	-0.018097768
3	0xbdefd532	-0.11710586
4	0x3e1bf36e	0.1522958
5	0x3cb1fcf5	0.021727065
6	0xbdd356f8	-0.10319322
7	0xbdbe30a2	-0.0928662
8	0x3b32e86c	0.0027299179
9	0x3e0baf92	0.13641194
10	0x3d781cf9	0.060574505
11	0x3e34f590	0.176718
12	0xbd60867a	-0.054815747
13	0x3d5be5a0	0.053685784
14	0xbe027c54	-0.1274274
15	0xbd874966	-0.066057965
16	0x3e1a64a3	0.15077452
17	0x3dfc3af8	0.12315935
18	0x3dacd272	0.08438577
19	0x3d6dbe4e	0.058042817
20	0x3d6eeebd	0.058333147
21	0xbcad8023	-0.021179264
22	0xbd9cfc4a	-0.07665308
23	0x3dc023db	0.09381839
24	0xbe210a22	-0.15726522
25	0xba9caada	-0.0011952773
26	0x3da4ce00	0.08047104
27	0xbadf434a	-0.0017033604
28	0x3dc04e6b	0.09389957
29	0xbd8494f2	-0.064737216
30	0x3d4f6604	0.0506344
31	0x3e0dcc06	0.1384736
32	0x3d871f9a	0.065978244
33	0xbe2d61de	-0.16931865
34	0x3e30a821	0.17251636
35	0xbe41d13d	-0.18927474
36	0x3da10223	0.07861736
37	0x3d7bfc54	0.061519936
38	0x3cc7d1a8	0.024391964
39	0x3dc8a4e9	0.09797079
40	0x3d8a6792	0.06758036
41	0xbd29da6c	-0.04146807
42	0x3e23a083	0.15979199
43	0x3de1555b	0.110026084
44	0x3e0321e1	0.12805893
45	0x3b5f0c5d	0.0034034469
46	0x3d2c7e0e	0.042112403
47	0xbbb105b2	-0.0054022903
48	0x3cf76cd5	0.030203262
49	0x3dae5888	0.0851298
50	0xbdf9538d	-0.12174139
51	0x3dd23725	0.10264424
52	0xbd0a3946	-0.033746026
53	0xbe32a232	-0.17444685
54	0x3e2b04d6	0.16701064
55	0xbd584e91	-0.0528093
56	0xbe33bae5	-0.17551763
57	0xbe0f6cd7	-0.14006363
58	0xbd31b12d	-0.04338186
59	0x3d4a9a0c	0.049463317
60	0xbdfa6e91	-0.1222812
61	0xbd2bf8ce	-0.041985326
62	0x3df4a2e1	0.11945129
63	0xbe52df49	-0.20592989
64	0xbe16d01c	-0.14727825
65	0xbdc62788	-0.09675509
66	0xbda12aa9	-0.07869465
67	0xbe2132a9	-0.15741982
68	0x3ddb82d6	0.10718314
69	0xbe00187f	-0.12509345
70	0xbc93ba19	-0.018033074
71	0x3e1edd49	0.15514101
72	0xbe1aa1e1	-0.15100814
73	0x3e25f03a	0.1620492
74	0xbc3f0ebe	-0.01166123
75	0x3e27fb7f	0.16404532
76	0xbe24e56b	-0.16103141
77	0x3e1e604a	0.15466419
78	0x3d631d62	0.055447944
79	0x3d131a8b	0.035913985
80	0xbd76f5f4	-0.060293153
81	0xbd668806	-0.056282066
82	0x3d254cc7	0.040356424
83	0xbd04459d	-0.03229295
84	0x3e27f7b1	0.1640308
85	0x3c89f67f	0.016841171
86	0xbe3d25f7	-0.18471514
87	0x3c4e8bdf	0.01260659
88	0x3c1ea4d4	0.009682853
89	0x3d830adf	0.06398558
90	0xbce10dcd	-0.027472401
91	0x3d3cc8d1	0.04608995
92	0xbda56c12	-0.080772534
93	0xbe1dde30	-0.15416789
94	0x3db03d87	0.086054854
95	0xbc9aba34	-0.018887617
96	0x3e278969	0.16361012
97	0x3e01a03e	0.12658784
98	0x3e0ae1f5	0.13562758
99	0xbdc114ea	-0.09427817
100	0xbdd03bce	-0.10167657
101	0xbdd1e776	-0.10249226
102	0x3dffb081	0.12484837
103	0xbdcbc0c2	-0.09948875
104	0x3cafddca	0.021468062
105	0xbe1b079c	-0.15139621
106	0xbe042dc5	-0.12908085
107	0xbd115eb7	-0.035490718
108	0x3d17e034	0.03707905
109	0x3dbb98ce	0.091600046
110	0xbe0ccbf1	-0.13749672
111	0xbd348c8f	-0.04407936
112	0x3c4bdfed	0.012443525
113	0xbe48fc64	-0.1962753
114	0x3d035f19	0.032073114
115	0x3d3ff5fe	0.046865456
116	0xbdfdcedf	-0.12392973
117	0xbe1a094f	-0.15042613
118	0xbc8e921e	-0.017403658
119	0x3d7ee540	0.06223035
120	0xbe1c5df0	-0.1527021
121	0xbdd7dc65	-0.10540084
122	0xbe172f82	-0.14764217
123	0x3e1df0c4	0.15423876
124	0xbe0cbf24	-0.1374479
125	0xbe0c2284	-0.13685042
126	0x3cb81b75	0.02247403
127	0x3e0e7e6e	0.13915417

sentiment_branch.lstm_layers.1.bias_hh_l0 f4 [128]
0	0x3c1db4da	0.009625638
1	0xbe42895f	-0.18997715
2	0x3e0ce09c	0.13757557
3	0x3df87bc5	0.12132982
4	0x3e196b9c	0.14982456
5	0xbdc7a7d2	-0.09748806
6	0x3d802a2e	0.06258045
7	0x3dd0fe4e	0.10204755
8	0xbde48a88	-0.11159235
9	0xbe2099b8	-0.15683639
10	0x3d1d6921	0.038430337
11	0xbd80d12d	-0.06289897
12	0xbdadf614	-0.08494201
13	0x3e29d42c	0.16584843
14	0x3dadc43d	0.08484695
15	0x3e0dbaf0	0.13840842
16	0x3d9bd7d5	0.07609526
17	0x3d3b7d2a	0.045773663
18	0xbd665576	-0.056233846
19	0xbe274ec1	-0.16338636
20	0xbe38ab46	-0.18034086
21	0xbdf9a095	-0.12188832
22	0x3de5818d	0.112063505
23	0xbe2419c3	-0.16025452
24	0x3cb27362	0.021783534
25	0xbc8b9ef8	-0.017043576
26	0xbd5fd365	-0.05464496
27	0x3e09b699	0.13448562
28	0x3db2179f	0.086959116
29	0x3a70e456	0.0009189298
30	0xbda0bed5	-0.07848898
31	0xbc995b08	-0.018720165
32	0xbcbbc287	-0.022919906
33	0x3dc7b425	0.09751157
34	0x3daa6486	0.083199546
35	0xbde7cb3b	-0.1131806
36	0xbda61823	-0.081100725
37	0x3d386ea4	0.04502739
38	0x3e19f2ef	0.15034078
39	0x3dd12154	0.10211435
40	0xbc907fc1	-0.017639043
41	0xbd7ea152	-0.062165566
42	0x3dd47491	0.10373796
43	0x3e4604ac	0.1933772
44	0xbe2394fd	-0.15974803
45	0x3e20c611	0.15700556
46	0x3e088e08	0.1333543
47	0xbac24349	-0.0014821078
48	0xbdf25120	-0.118318796
49	0x3d89b7e6	0.06724529
50	0xbda139b6	-0.078723356
51	0xbdc16f27	-0.09445029
52	0x3d7a2d1a	0.06107817
53	0x3da3b8db	0.07994243
54	0x3d893840	0.06700182
55	0xbe235c4b	-0.15953176
56	0xbe3267ad	-0.17422362
57	0x3cb0f869	0.021602826
58	0x3b88f1ef	0.0041792314
59	0x3ca02912	0.019550834
60	0x3e134c5c	0.14384598
61	0xbda0eeaa	-0.078580216
62	0x3d516347	0.05112007
63	0xbde7605c	-0.11297676
64	0x3de6e499	0.1127407
65	0x3de78da0	0.1130631
66	0xbe3290ab	-0.17437999
67	0xbe12c4df	-0.14332913
68	0xbc99791b	-0.018734505
69	0x3cd4031d	0.02588039
70	0x3e01483f	0.12625216
71	0x3e00946d	0.1255662
72	0x3b0eed9f	0.0021809114
73	0xbe0fcb30	-0.14042354
74	0xbce49105	-0.027901182
75	0x3def408a	0.11682232
76	0xbdcc841e	-0.09986137
77	0x3e0d19c6	0.13779363
78	0x3e1e1800	0.15438843
79	0xbd98e6a3	-0.074658655
80	0xbde41383	-0.11136534
81	0xbb27d8ba	-0.0025611357
82	0xbe0e6d19	-0.13908805
83	0x3d63f3c4	0.055652395
84	0xbdb1a0c0	-0.08673239
85	0x3d726088	0.05917409
86	0xbe0334a7	-0.12813054
87	0xbdc37523	-0.095438264
88	0xbdbbdc93	-0.091729306
89	0xbc9fc8ad	-0.01950487
90	0x3e2e6244	0.17029673
91	0x3e21d3c1	0.15803434
92	0x3bc1fd79	0.005920109
93	0xbded4c93	-0.11586871
94	0xbe11fe73	-0.14257221
95	0x3cafccac	0.0214599
96	0x3ba45459	0.005014938
97	0xbe389a70	-0.18027663
98	0xbd79b4fd	-0.06096362
99	0x3d99f40c	0.07517251
100	0xbd14bfa3	-0.03631557
101	0xbe21d021	-0.15802051
102	0xbe036cf6	-0.12834534
103	0x3d496564	0.04916896
104	0xbcfe6e32	-0.031058405
105	0xbd76ccb2	-0.060253806
106	0x3e0472ce	0.1293442
107	0xbdd8ab29	-0.10579521
108	0xbe2b3723	-0.16720252
109	0x3d294cbe	0.041332953
110	0x3d7ef7d9	0.062248085
111	0xbce2acf1	-0.027670356
112	0xbd8def39	-0.06930394
113	0x3dba97af	0.091109626
114	0xbd0699fa	-0.032861687
115	0xbe13311e	-0.14374205
116	0x3de08e1d	0.10964606
117	0xbe342a1a	-0.17594185
118	0xbdf3dbdc	-0.11907169
119	0x3daafeeb	0.08349403
120	0x3dffc863	0.124893926
121	0x3e2e776c	0.17037743
122	0xbd2f7fa9	-0.042846356
123	0xbdb8005d	-0.08984444
124	0x3bcfa72c	0.006337067
125	0xbccab38c	-0.024743818
126	0xbcd5dab3	-0.02610526
127	0xbd94d6ed	-0.07267556
