models/checkpoints/news_lstm/news_lstm_v12_real_multi.pt (torch, 52722 bytes, 19 tensors)

sentiment_branch.lstm_layers.0.weight_ih_l0 f4 [128, 16]
00000000: d150 113e 62a8 0c3e 92a1 593c fd03 aebb
00000010: 44ca c83d 10ba 22be 49be 8d3d a884 1abd
00000020: 2a8f 0f3d 1265 50ba 284a b93d fc67 f73c
00000030: ae40 d63c 1f7d 123e 853d c73d 5c70 debd
00000040: 1a42 e63d 19d8 92bd 02b4 8e3d 514d 493d
00000050: 0283 dabd 7ca5 a63d a82d 3a3d 21ea 80bd
00000060: e94f 3abe ae56 99bd dff6 17bd 301d 9fbd
00000070: 5b08 cdbd 6918 a23d 0b3e a53d 2f1d 37be
00000080: ba0f 1bbc 2c7b 6bbd 6c23 28be dfa0 afbd
00000090: 26c7 c8bd 188e 69bd 78c5 80bd df37 42be
000000a0: a284 5ebe 4c44 753d 2135 ec3d 0a35 ab3d
000000b0: 034a 023e 50cc e23d f002 fbbb 2a12 9fbc
000000c0: cff0 39bd 88a8 c9bd a3a0 ecbd fe58 b7bd
000000d0: c848 2a3e c80b 06be 1abe 663b a2ed b23d
000000e0: f09c 343e dcc9 b93a 8f49 e53d d0ef 413d
000000f0: 1779 2e3e 85c3 133e 6d8d c1bd 1136 e73c
00000100: 9aa9 2f3c a90b 293e 23cb 0cbe f914 c8bc
00000110: 97c5 223e b541 04be 0e43 063d 1ae4 483e
00000120: 90e4 abbd 6801 3a3e 04fb 413e 2144 ca3c
00000130: dc9b efbc 0df8 fc3d 6445 0e3d 6ef0 3a3e
00000140: 0da5 f33c 0395 c83d 3021 93bc 7de8 09be
00000150: 7b33 4bbe 7c9e c7bd 7a6d cfbd 4fef 50be
00000160: a70c 293c d2dd 61be 2053 833d da2e 74bd
00000170: 87ee a8bd ec38 bf3c a6e7 07bc f656 d23d
00000180: 4553 163e a9a7 213e 518e bbbc d4c2 0e3e
00000190: 9202 1dbe 063c 13bd 9fa5 62bd 5c29 6dbd
000001a0: 6d6a 4f3d 83b4 acbc 2de7 5cbb 7814 67bd
000001b0: 4edb ec3d b9d8 2c3e 9693 a03d a049 aa3c
000001c0: e2bf 163e 338c d5bc 1e24 483e 0085 203c
000001d0: 2126 a63c 813e bdbd 312a 83bb 038a 89bd
000001e0: b3a6 233e 9544 d0bc 5a5f 07be 6098 3a3a
000001f0: 6c6c 373e 622f b4bc bc60 463e 014c c4bb
00000200: 1f5a f5bd 5927 d93d cbcf 443e 4be6 153d
00000210: 5be0 323e 1cdf 86bd 2607 203e dff7 bd3d
00000220: 72b0 00be ddce 13bd 219e febd 15b6 a5bc
00000230: adea e93b 3307 1dbe 8f02 c8bd 162a 1a3e
00000240: 2662 233e 3004 983d 6906 2cbe 9c39 eb3d
00000250: 3592 ca3d 8309 afbd 3c77 5cbc bac2 bc3d
00000260: 916f 333d 1322 143e 64e3 07be ae9a a8bd
00000270: 02b4 62bd 392c 273e cbbb 28bd be84 42bd
00000280: 8a74 a53d c693 e3bd 7cd0 dc3d 4b07 213e
00000290: 13cc b0bd 564a 843c 4d1a 3f3e a29e 993d
000002a0: 81d0 473e 61cb 1bbd 0814 463d 0981 eabd
000002b0: c3ca acbd 2b14 263e 00c2 1ebd c05e 253e
000002c0: 41da 033e 0e58 273e 9bc3 743d f55a cebd
000002d0: 5575 373e 50b9 433d 9a61 1f3d 0b8d 703d
000002e0: 233b 063d b3cf 5c3e 4478 b03d bf4a 97bd
000002f0: 7c85 6b3d a43d 963c 3160 bd3c c3a2 61bd
00000300: af37 b6bc a736 683d 7d6b dc3d f71b 99bd
00000310: 97d1 7ebd a8f9 f13d 4cdc 19bd 0fa7 e0bd
00000320: 737d 55be 0a08 3dbe b416 5dbd b5c9 0ebe
00000330: 0e22 68bd ef63 2a3e eb0e fdbd aec3 643c
00000340: 673f 2fbc 38e0 28be 4e0c 3ebe 664c 2dbe
00000350: b6ae 1ebe 260e a43d 7fe6 e73d 9be3 093e
00000360: 8dea a43d 10d8 4d3d cc71 ed39 6b23 e43d
00000370: 7a9a cf3d f1b9 47be e70a cf3d ce3a 24be
00000380: b943 85bd 9fce 073e fa04 55bc 0a14 c63d
00000390: 2a1b 1c3e bf79 3ebe 0b4f c1bd 45d7 143d
000003a0: 40ed 603e 82ab 7cbc 9e68 a4bd c37f 0a3e
000003b0: 0fb2 d13d 448d 533e 8ad8 463e 1ce7 9d3d
000003c0: ee23 4c3d 6954 e6bd 6e9b 273e 15bf 47be
000003d0: 7e0c 9ebc 8a47 c3bd afa5 a23d dc4a fb3d
000003e0: 6540 dfbd 8c09 1b3e 1cb4 023e 0bb1 cbbd
000003f0: 28a8 483d 0325 003e e4e5 1abd cd65 263e
0.14190985 0.13736108 0.01328315 -0.005310534 0.09804204 -0.1589129 0.0692106 -0.037724167
0.03504864 -0.0007949631 0.09047347 0.03020095 0.026153889 0.14305542 0.09728531 -0.108612746
0.112430766 -0.071701236 0.069679275 0.049146 -0.10669519 0.081370324 0.045453697 -0.062946565
-0.18194546 -0.07487236 -0.03710067 -0.07769239 -0.10011359 0.07914812 0.080684744 -0.17882226
-0.009464199 -0.057490513 -0.16419762 -0.085756056 -0.098036095 -0.057020277 -0.06287664 -0.18966626
-0.21730283 0.059879586 0.11533571 0.08359726 0.12723546 0.11074126 -0.0076602623 -0.019417841
-0.04539567 -0.09846598 -0.115540765 -0.08952521 0.16629326 -0.13090432 0.0035208524 0.08736731
0.17637992 0.0014174539 0.11195671 0.047347844 0.1703838 0.14430054 -0.09450803 0.028224023
0.0107215885 0.16508354 -0.13749366 -0.024424063 0.15895687 -0.1291569 0.032778792 0.19618264
-0.08393204 0.18164599 0.18943411 0.02469069 -0.029249124 0.123519994 0.034734145 0.18255779
0.029741788 0.09794047 -0.017960161 -0.13467593 -0.19843857 -0.09747025 -0.10128303 -0.20403789
0.010317958 -0.22057274 0.06412339 -0.059614994 -0.082486205 0.023342572 -0.008294975 0.10270493
0.14680202 0.15786614 -0.02289501 0.13941509 -0.15333012 -0.035945915 -0.05533373 -0.05790077
0.050638605 -0.021082168 -0.0033707127 -0.056416005 0.115652665 0.16879548 0.0784065 0.02078706
0.14721635 -0.026067829 0.19545028 0.009797335 0.020281853 -0.09240437 -0.0040028323 -0.06715777
0.1598156 -0.025423327 -0.13219967 0.00071180426 0.17912453 -0.02199525 0.19372839 -0.0059905057
-0.1198008 0.10603208 0.19219892 0.036596578 0.17468397 -0.065855235 0.15627727 0.09275793
-0.12567309 -0.036085952 -0.124325044 -0.020228425 0.0071385712 -0.15334778 -0.09766113 0.15055117
0.1595541 0.07422674 -0.1679932 0.114855975 0.09891168 -0.08546736 -0.013456162 0.09216829
0.04380757 0.14466123 -0.13270336 -0.08232628 -0.05534745 0.16325463 -0.04119472 -0.047489874
0.08078869 -0.1111217 0.10781953 0.15725438 -0.08632674 0.016148727 0.18662377 0.0750096
0.19513132 -0.038035754 0.048358947 -0.11450393 -0.08437111 0.16218631 -0.03875923 0.16149426
0.12876226 0.16342184 0.059756856 -0.100759424 0.17915852 0.04778415 0.03891144 0.05872826
0.03277124 0.21563606 0.08616689 -0.073873036 0.057500347 0.01833994 0.023117157 -0.055086862
-0.022243349 0.056692746 0.10762689 -0.07476037 -0.0622116 0.11815196 -0.037563607 -0.10969364
-0.20848636 -0.18460098 -0.05397673 -0.13944133 -0.056673102 0.16639684 -0.12356361 0.013962669
-0.010696269 -0.16491783 -0.18559381 -0.16923675 -0.15496334 0.08010511 0.113232605 0.13465731
0.080525495 0.05025488 0.00045288948 0.11139568 0.10136886 -0.19504525 0.10109501 -0.16038057
-0.06507058 0.13262413 -0.013001675 0.09671791 0.15244737 -0.1860113 -0.094389044 0.03633811
0.21965504 -0.01542175 -0.08027767 0.135253 0.1023904 0.20659357 0.1941854 0.07710096
0.049838953 -0.11246569 0.16367885 -0.19506486 -0.019293066 -0.09535129 0.07941758 0.12270138
-0.10900954 0.1514036 0.12764019 -0.09945878 0.04898849 0.12514119 -0.037816897 0.16249771

sentiment_branch.lstm_layers.0.weight_hh_l0 f4 [128, 32]
00000000: 573b 23bc 7147 603d 634e 6d3d 5559 28be
00000010: 354e 373d aa67 bcbd d320 463e beac b53d
00000020: 2c48 0a3e 3338 a73c 0882 263e 1db5 2fbe
00000030: 3b42 4a3b 2ebb a7bb 15bc 5e3c 52ab 76bc
00000040: 98e7 babd b101 17be 0e05 a03d c08c 35bc
00000050: ab73 86bd 97df 99bd 62e8 16be 3ff8 14be
00000060: 9a2a 34bd fd9b c83d a293 73bd 801f a23d
00000070: ba2e eebd c458 8a3d 14fe 903d b121 b9bd
00000080: d836 ee3d 9b7f cbbc a665 013d f73d 09bd
00000090: 78e3 313d e6d6 f93a 2eee 2f3e 7c05 943d
000000a0: 5eb2 63bd ca2a f73d bc27 12bd 1fa6 7bbd
000000b0: b0af fbbd ffad fdba 9cd1 803c 2c30 943c
000000c0: 09da 053e 5cad 9abc 9822 ef3c 756d a9bc
000000d0: 6d31 d2bd d8e6 b63d a48a 70bc 8596 cc3c
000000e0: e0f7 0a3d 8f3a 71bd d169 abbd f7a6 023e
000000f0: c974 bb3d 3fd3 d2bd bdc6 b1bd ad25 663c
00000100: b3d6 28be 1889 923a 8582 e8bc 8c71 0e3e
00000110: e20c 3fbe 7889 fa3c 6761 0a3e d616 6abe
00000120: 1298 0c3e 2138 34be 2b3c 143e 1f67 bd3d
00000130: 5a11 47bd 574d c3bb 89ac 10be b019 f3bd
00000140: b4f4 2dbe c885 803d d050 8cbd 4b6c 97bd
00000150: 4e97 17be 6c48 e8bd 9c14 183e 83a4 37be
00000160: 77e5 5f3c 85e3 2d3e 9e71 b33b 3dfd 373e
00000170: 390c aa3c caae 38bd be0b 213e 51cf aabd
00000180: 0e81 71bd f09e 45bd 03b7 09be c624 acbc
00000190: 1619 83bc 4b6f 8cbd 08c4 b0bc bc19 b1bb
000001a0: 4f73 213e baa2 863d 1c54 883d 086f c83d
000001b0: 5ce2 2dbc 45e4 173e 1ae0 15be 059a 0cbd
000001c0: 3c41 c3bc 07ce 443d ff8a 353e 5b47 18be
000001d0: b61f c83d cd7f ddbd 194e e63d 0167 8d3d
000001e0: 457f 12be 3704 9a3d ce1f 19be 5dd7 2bbe
000001f0: b122 d13d 1b37 0ebe b62f 17be f9ad 3d3d
00000200: cb31 233c d083 fbbd c228 8d3d cd88 ef3d
00000210: 8839 083d 07ec 1dbe bdf9 babc 508e 1bbe
00000220: f454 f83d 281c 2a3d f6a9 103e 3e4d 863d
00000230: 8c75 033e 2a61 b73d 67fa a5bd 44a0 053e
00000240: b39c 01be 1ec9 003d e1f1 4b3e 67da e2ba
00000250: 0a25 edbd e19e 45bd 488b bdbd 74bd 0b3d
00000260: bc1d 123c 40f2 b7bd 2d86 aabd 70d2 c6bc
00000270: 35a8 e4bd 8ddc 25be fd03 cabd c29f 0dbd
00000280: dd78 c63d 8663 1ebc f74b d03c b12c 703e
00000290: edfa fa3d ae48 ef3d 7e63 36be 49a7 02bd
000002a0: f11c d53c 0894 87bd e201 d83d 31c0 14be
000002b0: b776 6cbe 1af3 d2bd f42f 6d3e 038e 8bbc
000002c0: d062 8dbc d6fe 43be 805a f2b9 6ac0 53be
000002d0: b700 1d3e c492 0f3e 4c08 283e d2e7 32be
000002e0: 97c9 17be 5fa6 183e 1089 a0bd d9cf 1e3e
000002f0: 47dc 9bbd 9728 863e 641a f7bb 6331 9dbd
00000300: ff52 a5bd 04d8 19be 7c62 493d 40f2 0f3e
00000310: ce00 98bd fde7 8bbd d7e4 fbbd 10ed 19be
00000320: b249 10bd 83e2 44bd a279 0c3e c7b0 60bd
00000330: 42a0 763c 2b1a 40be cb56 e43d 4e45 3d3d
00000340: db40 e83d 48cd d53c bb95 2b3e da42 b63d
00000350: 3fc6 cb3c f302 d6bc 5760 40bc b9ba 0f3d
00000360: 6420 5c3d 1440 d3bd cc12 da3d 2a69 1b3e
00000370: 928a f23d 5f67 1d3e 4725 fcbd 7689 87bd
00000380: b820 9ebd 33cb e33d 526a 4dbe 762e 05bd
00000390: 0ece 133e 0d58 023c bbc4 c5bd 5ed4 c2bc
000003a0: 1096 77bd 2084 273d 65a7 f4bd 19f0 053c
000003b0: 299c 88bc 49d6 233e c384 cd3d c26f d4bd
000003c0: 7b71 24be 8256 ba3d aecf 223e db93 cfbd
000003d0: da0b a83d 25bd c1bd 99a4 b13d c135 bb3d
000003e0: 6f9f abbd bb75 0abe cd20 a43d 3eae 40be
000003f0: 0c8b 29be 0d5d a5bd 5e07 e8bd 6bb4 41be
-0.009962878 0.05475563 0.057936084 -0.16440327 0.04475232 -0.0919946 0.19348459 0.088708386
0.13504094 0.02041254 0.1626054 -0.17158933 0.003086223 -0.005118749 0.013594647 -0.015055494
-0.09126204 -0.14746739 0.07813464 -0.011080921 -0.06565031 -0.075133495 -0.14737085 -0.14547823
-0.04398594 0.097953774 -0.059466965 0.079161644 -0.11630006 0.06755212 0.070797116 -0.09039629
0.11631554 -0.02484112 0.03159108 -0.03350636 0.04342982 0.0019061237 0.17180702 0.072276086
-0.055590026 0.12068708 -0.035682425 -0.061437722 -0.12289369 -0.0019354223 0.01572495 0.018089376
0.13071455 -0.018881492 0.0291913 -0.020682076 -0.102633335 0.08930749 -0.014681492 0.024974117
0.0339278 -0.058893736 -0.08369792 0.12759005 0.091531344 -0.10294198 -0.086804844 0.014047069
-0.16488151 0.0011179773 -0.028382549 0.13910502 -0.18657258 0.030583128 0.13513719 -0.22860274
0.13729885 -0.17599536 0.14476077 0.092481844 -0.048600532 -0.0059601474 -0.14128317 -0.11870134
-0.16987878 0.06275517 -0.06851351 -0.07393702 -0.14803812 -0.113419384 0.14851612 -0.1793385
0.0136655485 0.16981323 0.0054761907 0.17967696 0.020757781 -0.045088567 0.15727136 -0.08340324
-0.058960967 -0.048247278 -0.1344872 -0.021013629 -0.016003173 -0.06857165 -0.02157785 -0.005404679
0.15766643 0.065740064 0.066566676 0.097868025 -0.01061305 0.14833172 -0.14636269 -0.034326572
-0.023834817 0.048048045 0.17728804 -0.1487097 0.097716734 -0.10815392 0.11245365 0.06904412
-0.14306362 0.07520335 -0.14953539 -0.16781373 0.10211695 -0.13888209 -0.14764294 0.04630849
0.009960602 -0.122810006 0.068925396 0.116960146 0.03325799 -0.15422069 -0.022824163 -0.15191007
0.121255785 0.04153076 0.14127335 0.065577015 0.1283781 0.089540794 -0.08104401 0.13049418
-0.12657432 0.0314418 0.19916488 -0.0017307521 -0.1157933 -0.04824722 -0.092550814 0.034116223
0.008918222 -0.089817524 -0.08326373 -0.024270266 -0.111648954 -0.16197415 -0.09864042 -0.034576185
0.096910216 -0.009667283 0.025426848 0.23454548 0.122548915 0.116837844 -0.17811391 -0.031897817
0.026014777 -0.066200316 0.10547234 -0.1452644 -0.23092161 -0.10300274 0.23162824 -0.01703549
-0.017259032 -0.19140181 -0.00046225265 -0.20678869 0.15332304 0.1402083 0.16409415 -0.17471245
-0.14822994 0.14907216 -0.078386426 0.15508975 -0.07610374 0.26202843 -0.007540988 -0.076754354
-0.08072471 -0.1502381 0.049166188 0.14057255 -0.074220285 -0.06831358 -0.12299507 -0.15031838
-0.03522653 -0.04806758 0.13718274 -0.054856088 0.015052857 -0.18759982 0.11149367 0.046208672
0.11340495 0.026098862 0.16756336 0.0889947 0.024874805 -0.026124453 -0.011741719 0.035090182
0.053741828 -0.10314956 0.106481165 0.15176836 0.118428364 0.15371464 -0.123117976 -0.066180155
-0.07721084 0.111227416 -0.20060089 -0.03251501 0.14434072 0.007955563 -0.09656664 -0.023782905
-0.060445845 0.04089749 -0.119459905 0.0081749195 -0.016676025 0.15999712 0.10035088 -0.103728786
-0.16058914 0.09098531 0.15899536 -0.10135623 0.082053855 -0.094599046 0.08673973 0.09141112
-0.08380019 -0.13521473 0.08014069 -0.18816468 -0.16556948 -0.08074389 -0.1132953 -0.1891648

sentiment_branch.lstm_layers.0.bias_ih_l0 f4 [128]
00000000: a980 53be 6db6 b33d 6136 103c 6479 043e
00000010: 433c c4bd d5ff 203e d55e f1bd 9342 2fbe
00000020: 7631 463e 7392 403e 133f 643d 3df7 39be
00000030: 5d5b aabd 2a75 ebbd 7efb 113d de61 f1bc
00000040: ae62 553c 9521 a5bd e93b 0cbe 168c 80bd
00000050: def8 68bd 0c6d aebd 3391 e93d c27a ffbd
00000060: ea50 3fbe e55c 6bbd ab4a 203e d389 2e3e
00000070: 8e0e efbd d5bf c6bd 1d18 153e 1a30 933d
00000080: 8553 503c fd0e c3bd 7f3d ce3d 2705 253e
00000090: e69d 98bd 1bbc 533e 0d64 0ebe 8113 12be
000000a0: e20f f13d fc04 0ebe 2830 063e 2977 61be
000000b0: ef8a acbd fa90 393e 949d dc3d 2739 17bb
000000c0: 5c64 fb3d 472c 163e 8471 d9bd 3c38 f4bd
000000d0: 99aa 96bc 3157 b3bd 7e1b a33c 8691 4f3d
000000e0: 4b34 073e 1f7b 58be a8eb 2cb9 6729 80bd
000000f0: 3d60 a73c 28c5 513e f36a eebd e568 a13b
00000100: ecd9 ab3d 3d98 52bd aa93 253d 45c0 283d
00000110: 81c3 093e 7caa 06bd 3aaf b6bc 8c2c 9f3d
00000120: 50a9 9a3b 4f7b 46be 7a8a e3bc 6902 d93c
00000130: 1251 b7bd f57a 38be ffd3 2f3c 3612 1c3e
00000140: be82 56bc 4b80 9cbd 2b78 1c3d 0344 3ebe
00000150: 07af 25be c41c 19be 9210 32bd 6c95 de3d
00000160: 0c55 1a3e e711 79bd a0fb 26be dc0c 0b3b
00000170: 1edf 3ebe 00e2 d6bb 0fd2 353e fe17 26be
00000180: 3903 e8bd de25 24be d96d 77bc 5fb8 d03d
00000190: e0a6 0abe 79dc 5d3e 55b9 bf3c 0af4 f03b
000001a0: 5d75 38bd 749a 2e3e f3d0 973d ff5e ca3d
000001b0: 6c7a 093e a0e6 44bd 4327 403e a9c3 07be
000001c0: d7db cfbc e578 4ebd f38f 583d 8c2f 1c3e
000001d0: 0e78 01be 1fdf c2bd b0c7 193e 124a 0c3e
000001e0: 1ae3 28be 11df 09be 79c0 b4bd f684 c03d
000001f0: 720b 013e 08df 44bc 89f8 d1bd bdbd 083e
-0.20654549 0.08775029 0.008802027 0.12936932 -0.095818065 0.15722592 -0.11785666 -0.1711524
0.19354805 0.18805866 0.055724215 -0.1816072 -0.083182074 -0.11496957 0.035640232 -0.029465612
0.013024015 -0.08063046 -0.13694729 -0.06276719 -0.056877963 -0.08516893 0.11404648 -0.12474586
-0.1868321 -0.057461638 0.15653484 0.17044763 -0.11672698 -0.09704558 0.1455998 0.07186909
0.012715225 -0.09524343 0.10070323 0.16115247 -0.07451992 0.20677225 -0.13905354 -0.14265253
0.117706075 -0.13869089 0.13104308 -0.22018112 -0.08424937 0.1812171 0.10772243 -0.0023074837
0.122750014 0.14665328 -0.106173545 -0.11924788 -0.018391894 -0.08756865 0.01991057 0.05067589
0.13203542 -0.21140717 -0.00016490987 -0.06257897 0.020431632 0.20485365 -0.11641493 0.0049258345
0.08391175 -0.051414717 0.040424027 0.041198988 0.13453485 -0.03287743 -0.022300351 0.077721685
0.0047198907 -0.19382976 -0.027775992 0.026490407 -0.0895101 -0.18015654 0.010731696 0.15241322
-0.013092695 -0.076416574 0.03820054 -0.18580632 -0.16180049 -0.1495238 -0.043472834 0.10868344
0.15071505 -0.06080809 -0.16306925 0.0021217382 -0.186398 -0.006557703 0.17755912 -0.1622009
-0.1132874 -0.1603007 -0.015101873 0.10191416 -0.1354022 0.21666135 0.023403803 0.0073533105
-0.0450338 0.17051107 0.07412901 0.098814 0.13425606 -0.048071504 0.18764977 -0.13258232
-0.025373382 -0.050408263 0.052871656 0.15252513 -0.12643453 -0.09515213 0.15017581 0.1370013
-0.16492882 -0.13464 -0.08825774 0.0940036 0.12602022 -0.012016065 -0.102524824 0.1335363

sentiment_branch.lstm_layers.0.bias_hh_l0 f4 [128]
00000000: bea8 e93d 3318 9c3b 2f40 1fbd c915 cbbc
00000010: 1533 28be d3e5 9fbd 4d7c 9dbd 9f06 813d
00000020: 0e4a dfbb 4ae6 073d 4746 91bd cdb5 38be
00000030: c782 0b3e 8d5c 8bbd bf9d 1a3d 8b5e fb3d
00000040: 363b c2bd 08f5 193e 0562 363e 2cfb 853b
00000050: 0676 f1bd 60f7 013e e32e 89bd 4d6f aebd
00000060: c243 233e f09a 073e 2963 1b3d 93c2 333e
00000070: ef75 8bbd 6a91 043d c1a6 1a3e 7b98 65bd
00000080: 800c c3bd e162 fdbd dad2 163e 24f3 003e
00000090: 9887 a63d 936b 4e3e 5ea4 1f3d e95a 8d3d
000000a0: 2610 2abd 4a0b dcbd e070 11bc 03a6 d8bb
000000b0: 47c7 1dbc 58a1 853d 9642 1a3e c40a 97bc
000000c0: ffd6 923c d3f1 393e 2cff 08bd 6678 2f3d
000000d0: 1dc5 bf3d d502 883d 703c 56bd 7b59 593c
000000e0: c3db e8bd 68fa 41bd ad9e 14bd 2f04 fc3d
000000f0: c339 2d3e a2a3 f03d 93d0 9d3c 006f 483e
00000100: a41e 903d 13a5 093e ccca 8b3b 3666 98bc
00000110: d7ee dc3d 59af 2bbe aaef 53bd 97f4 24bd
00000120: 6123 683d f84c c23d 4fd5 a03d ad09 c73d
00000130: a1d4 19be 0624 30bd bafd c73d ca94 793b
00000140: 4cdf 3d3d bf0d 243e 031c 89bd 035b 32be
00000150: 731b 4bbd 7043 a6bc 1998 2d3e 5ba7 46be
00000160: f48a a5bd 5da6 ea3d e29a f93c 65dd a83d
00000170: 7a36 37be 6acb 883d 7075 983d 788e 19be
00000180: c999 14be 3e88 243e 9e0e c13c 6b98 dfbd
00000190: b83b 243e 52cc 063e 7393 0d3e 22a0 28be
000001a0: b8db f63d d955 cb3d 2d98 35be 2640 a0bd
000001b0: 72b8 a43d 4e07 4bbd cb13 033e 6158 8bbd
000001c0: f78f 043e 3283 d3bd fde8 d1bd 4f0c 1d3d
000001d0: ec6a 84bb cf6b 173e dd44 453e f2e2 033e
000001e0: b112 3fbc b388 17be 429c c7bd 567d e43d
000001f0: 99b6 f23d 91ac 6c3c 838f 5c3d c955 193d
0.11409138 0.004763627 -0.03887957 -0.024790661 -0.16425736 -0.07807507 -0.07689724 0.06300091
-0.006814248 0.033178605 -0.070934825 -0.18038101 0.13624106 -0.06804762 0.037748095 0.12273892
-0.0948395 0.15034878 0.17810829 0.00408878 -0.11790089 0.12692022 -0.06698396 -0.08517323
0.15943816 0.13242698 0.037936363 0.17554693 -0.068096034 0.03236524 0.15102674 -0.05605362
-0.095238686 -0.12372375 0.14728871 0.12592751 0.08131331 0.20158224 0.038975112 0.06902105
-0.041519307 -0.10744341 -0.008877009 -0.006611587 -0.009630031 0.065249145 0.15064463 -0.01843775
0.017924784 0.18158655 -0.033446476 0.04283943 0.09363768 0.06641165 -0.05230373 0.013265963
-0.11370041 -0.047357947 -0.036284138 0.123054855 0.16916566 0.117499605 0.019264495 0.19573593
0.07037094 0.13441877 0.0042661186 -0.018603425 0.107877426 -0.16766109 -0.051742233 -0.04027232
0.056674365 0.09487337 0.078531854 0.097186424 -0.15022518 -0.043003105 0.097651914 0.003808307
0.04635553 0.16020869 -0.06694796 -0.1741753 -0.049586724 -0.020295829 0.16952552 -0.19399779
-0.08083144 0.114575125 0.030469362 0.08245353 -0.17891875 0.06679423 0.074442744 -0.14995754
-0.1451179 0.16067597 0.02356654 -0.10917743 0.16038406 0.1316388 0.13825779 -0.16467336
0.12053627 0.099284835 -0.17733832 -0.07824735 0.08042993 -0.049567513 0.12800519 -0.06803966
0.12945543 -0.10327758 -0.10249517 0.038341817 -0.0040410664 0.1478722 0.1926455 0.12879542
-0.011662171 -0.1479824 -0.09746601 0.111567184 0.11851234 0.01444544 0.0538478 0.037435327

sentiment_branch.fc.weight f4 [32, 32]
00000000: b8bd 9c3c 6831 ed3d 92f0 d2bd 4336 103e
00000010: 65d4 1bbe eff0 843e 00dd 183e 30d5 043e
00000020: fb79 e7bd b42b 0dbd 5a81 013e 5218 b1bd
00000030: 8990 ad3d 29c9 5b3d 3615 44be f043 f3bd
00000040: a9c6 3c3d 8d5c 4abe 9f15 57be 1425 b73d
00000050: 4107 54bd a404 1a3d e7bb 7ebc 8abc d13d
00000060: 21ca ac3d 8dff 433d 1098 0a3e 1025 4f3d
00000070: 8492 aebd 5963 e63d 2e98 233e e7bf 2cbc
00000080: db4c d8bd 2f63 483e a7f7 45be 8a21 8ebd
00000090: e99f 9a3d 08b3 4f3e 68da f3bd fa87 cf3c
000000a0: 5028 f83d d7cf 633c 0375 1ebe f3b3 ab3d
000000b0: e032 35bd 141f 723e 1611 e4bd 0a1d b43c
000000c0: fb66 b6bc 0d0e 63be 5b78 24be 29c8 dd3c
000000d0: a075 f93c 0ac4 813d 5822 d63d 58b9 cf3d
000000e0: 9b21 5fbd 5fe1 a13c 186d 743e 4559 483d
000000f0: a9c3 9dbd 8456 463e fb0f 2e3d 8844 a6ba
00000100: 5121 0d3e d400 18bd 608c adbd a6b4 243e
00000110: 5d95 db3d 505a df3d 5782 233e 5c16 b7bd
00000120: e69f f63b 5fd2 0fbe 416b bdbd 3294 2f3d
00000130: 907f 503d 06e3 9fbd cd24 c2bc 497a 31be
00000140: e19c 903d 834e 06bd eedf b8bd 9207 26bd
00000150: 4f66 a6bd 850e f0bd 36a3 723c 3cf3 2a3c
00000160: 4814 a23d 8faf 22be 243d 053d 47e5 a03d
00000170: 527c da3d 37d4 12be fb03 cf3d ea64 c6bd
00000180: 40d0 503d 35a5 2b3e 66d5 18bd 6b66 34be
00000190: 92b7 ad3d 6a11 dc3d 41d9 b1bc af2b ff3c
000001a0: eab5 0dbe 304b 0ebe b760 fabd ce05 193c
000001b0: d02c 26bd d432 613e f76b 783d f60d 213d
000001c0: 45fa 14be a895 7bbd 99c7 fdbd ea1e 883d
000001d0: bfa6 653d 5017 0fbd 3347 49be 4849 c13d
000001e0: cb65 4fbe e54c 9f3d 4c0d 423e 421a 0d3e
000001f0: 18fd b43d 924c 5ebc 7fd8 b33d 3236 f13d
00000200: 2f70 8b3c 1cd4 d53c 7868 0c3e 3105 32bd
00000210: a0bc 223e b756 68bd 0821 283e d600 34be
00000220: 33a9 ebbd 9c23 b33d 1cb2 2bbd e6a1 e0bd
00000230: b834 f2bd 2f08 96bd ba04 043c f66c 333d
00000240: 58e3 eabd 97dd 52bc debe 98bc 22e1 303d
00000250: 5852 1cbd 5f1f 953d cf7c e2bd e218 e7bd
00000260: eb5b a73d a923 183d d8c2 0fbe e5f1 12bd
00000270: 28e8 123d b53b ff3d 2001 95bd cf59 4c3d
00000280: 1ffc 6fbd b4e6 d2bb 8553 09bd 2f77 d03d
00000290: 5e3e 84bc 3d84 19be 3e2b 0abe d2b2 a43d
000002a0: 6f00 f0bd 3335 813c 117b 243a c30a 0e3e
000002b0: 950c 3f3e e7a2 de3d 0f0e 193e 8caf 22be
000002c0: 84ba 9ebc e593 1bbd 7c8c ae3d 8557 e83d
000002d0: 50a3 c9bc a03d bc3d ab3b 91bc 5b09 df3c
000002e0: e2b6 13be 745c 56bd 797f 25bd 8262 b9bc
000002f0: 7992 20be d949 7cbc 1167 c03d f8c6 50bd
00000300: 010d fd3d ddd0 383d d619 49be 1fd7 e43d
00000310: 66a7 a3bd 99a8 cebc 3c6d 703d f082 053e
00000320: 551b da3d 205f 003e da8b 8cbd 318d e23d
00000330: ee52 773d 2fae 6ebd 7831 103e 0199 213e
00000340: b8c0 1abe 3279 943c 7741 8a3c 8bcb c8bd
00000350: 6b4c 55bd 2ba2 c2bd 21d4 b1ba fd51 babb
00000360: 33a4 883b 7ae0 ba39 6541 cbbd 5041 d93d
00000370: 3182 cdbc 6a5c 8dbd e45a 9ebd 27ea 44bc
00000380: 2e81 dcbb 21fa be3d 54a4 163e 8c10 e73d
00000390: ceea 133e bbb0 163d 137b 033e d97e 8bbd
000003a0: 5d60 c63d 080f 35bc 8ee9 cf3d e875 e23b
000003b0: 825f 0ebe 165b 03bd 2be9 5fbd e09d 9b3d
000003c0: e907 0e3e 0ba9 883d 107c f03d ce44 37bd
000003d0: 9dbd 23be 4966 37be 04c6 283e 0bc8 dcbd
000003e0: c7b0 ee3c 1071 0bbe 10da b63b e606 c83c
000003f0: baff 24be d4c0 a0bd df44 95bb 2a7b 63bd
0.019133434 0.11581689 -0.102997914 0.14083199 -0.15217741 0.25965068 0.14928055 0.1297195
-0.11302563 -0.034465507 0.12647 -0.08647217 0.084748335 0.05365864 -0.19148716 -0.118781924
0.046087895 -0.19761868 -0.21004342 0.08942619 -0.05176473 0.037602082 -0.015547729 0.10241039
0.084369905 0.047851134 0.1353457 0.050572455 -0.085240394 0.11249418 0.1597602 -0.0105438
-0.10561534 0.19569086 -0.19332753 -0.06939991 0.07550032 0.20283139 -0.11906892 0.025333393
0.12117064 0.013904533 -0.15474324 0.08383932 -0.04423797 0.23644668 -0.111360714 0.021986503
-0.022265902 -0.22173329 -0.16061537 0.027072983 0.030451596 0.063362196 0.10455769 0.101427734
-0.054475408 0.019760786 0.23869741 0.04891326 -0.07703335 0.1936894 0.04249571 -0.0012685219
0.1378224 -0.037110165 -0.0847404 0.16084537 0.10721848 0.109058976 0.1596769 -0.089398116
0.0075263856 -0.14045094 -0.09248973 0.04286594 0.050902903 -0.07806973 -0.023699189 -0.17331804
0.07061172 -0.03278972 -0.09027086 -0.040534563 -0.081249826 -0.117215194 0.01480942 0.010433968
0.079140246 -0.15887283 0.03252901 0.07856231 0.106682435 -0.14338766 0.10108181 -0.096872166
0.050979853 0.1676224 -0.037312888 -0.17617194 0.08482279 0.10745509 -0.02171004 0.03114876
-0.13838926 -0.1389587 -0.12225478 0.009339763 -0.04057008 0.21992046 0.06064984 0.039319955
-0.14548595 -0.06142202 -0.12391586 0.066465214 0.056067225 -0.034934342 -0.19656067 0.094378054
-0.20253675 0.07778338 0.18950385 0.13779548 0.08837336 -0.0135680605 0.08781528 0.11777915
0.017021267 0.026102118 0.13711727 -0.043461982 0.15892267 -0.056723323 0.1641885 -0.17578444
-0.115068816 0.08747026 -0.041917905 -0.1096838 -0.118264616 -0.0732578 0.0080577675 0.043805085
-0.11469144 -0.012870214 -0.0186457 0.043183453 -0.038164467 0.07281374 -0.110589616 -0.11284043
0.08171829 0.037143383 -0.1403917 -0.03587522 0.035865933 0.1246256 -0.07275605 0.049890336
-0.05859005 -0.0064361934 -0.033526916 0.101789825 -0.01614302 -0.14991851 -0.13493058 0.0804192
-0.11718833 0.015772438 0.0006274442 0.13871293 0.18657143 0.10870915 0.14946769 -0.15887278
-0.019376047 -0.03798284 0.08522889 0.11344818 -0.024614006 0.091914415 -0.017728647 0.02722614
-0.14425233 -0.052334264 -0.04040477 -0.02262998 -0.15680875 -0.015398466 0.09394658 -0.050971
0.12355996 0.045121063 -0.19638762 0.111738436 -0.07990913 -0.025226878 0.058697924 0.1303823
0.106497444 0.12536287 -0.06862612 0.110620864 0.060381822 -0.058271583 0.14081371 0.15781023
-0.15112579 0.018124197 0.01687692 -0.09804448 -0.05207483 -0.09503587 -0.0013567248 -0.0056860433
0.0041699647 0.00035643933 -0.099245824 0.106081605 -0.025086494 -0.06902392 -0.0773218 -0.012018717
-0.0067292666 0.09325052 0.14711124 0.11282453 0.1444504 0.036789637 0.12839918 -0.06811304
0.096863486 -0.011050947 0.10151969 0.006911028 -0.13903621 -0.03206929 -0.054665726 0.07598472
0.13870205 0.066728674 0.11742413 -0.04474335 -0.159903 -0.17910112 0.16481787 -0.10780343
0.029137028 -0.13617349 0.0055801943 0.024417352 -0.16113177 -0.07849279 -0.004555329 -0.05553738

sentiment_branch.fc.bias f4 [32]
00000000: a4d7 623d 5d76 84bd 6c9a 29be e5d0 123e
00000010: 0c56 84bd 58b3 fdbd fc8d 97bd c334 013e
00000020: 5767 153e daf4 a43d 7a20 f03c 31c8 32be
00000030: e9cb 36be b101 413e 56c2 22be 2703 583d
00000040: 8279 0a3e ea56 9f3d 34bc 2bbd 96ec d2bd
00000050: 6b77 223e 063e 083d f532 04be edde e83d
00000060: 7b2b f53b 69b0 7e3d 9e35 aebc cace 563d
00000070: f670 f0bd cfa4 bb3d c937 283e e067 3b3e
0.055381432 -0.064678885 -0.16562814 0.143375 -0.06461725 -0.12387723 -0.07400128 0.12617783
0.14590202 0.08054514 0.029312361 -0.1745918 -0.17851223 0.18848301 -0.15894446 0.05273738
0.13522914 0.077802494 -0.04192753 -0.102990314 0.15865867 0.033262275 -0.12910064 0.11370645
0.00748199 0.062179957 -0.021265801 0.052443303 -0.117402956 0.09162294 0.1642753 0.18301344

price_branch.lstm.weight_ih_l0 f4 [64, 5]
00000000: 2f13 dd3d 35e8 95be 1b8d 493c 4035 883d
00000010: ca00 873d a36c 543e 5c9c a23d adc0 fc3d
00000020: 18a2 81be 4248 0c3e a58f 23bd 0f23 87be
00000030: 5ec3 67be 5e95 543e 7ae2 40be d00e 1abe
00000040: 6b63 963e d3ad cf3d e734 3ebe becd 18be
00000050: 6da0 863c d6c5 45be e07a f5bd 33ca d63c
00000060: 03c8 323e 6d38 a33d f82e 1dbd 2abd 3e3e
00000070: 5959 1bbe a31b 9c3d e679 81bd 4765 aabd
00000080: dcfe 26be db0f 6f3e 2492 62be 8357 f7bd
00000090: 0541 c93d 8bff fdbd 7aa9 233e 52aa 913e
000000a0: d55b ebbd 9fb6 ed3c 5a78 b23c 3063 b4bd
000000b0: ea9b 4abe 4cfd 3b3e a243 0d3e 1a59 3b3c
000000c0: 4255 823b 784d 49be 5559 36be d028 b6bc
000000d0: dbda 9f3d c6d6 34bc b9d8 753e a456 f73d
000000e0: 9b8f 193e f4a0 04be eca3 b83d 9c1e 1b3d
000000f0: aaff 61bd 2909 493e 8669 f43d 532a 06be
00000100: a724 7c3e c4e0 f63d 1e1b 2abe 37f4 36be
00000110: e469 833e 910c e33d db5f 743e 88b7 813e
00000120: 1896 d1bd 342b 5a3e 801a 4dbd 314c 4dbd
00000130: d953 673e 3bee bfbc 748a 3e3e e4a6 38be
00000140: 76f3 bd3c b156 563e 55a7 d5bd 3a4b 8a3d
00000150: ff02 5d3e 3e4c 63be 5255 263d ac71 00be
00000160: 810c b3bd 5da2 693e 7298 363e 3fcc 8fbc
00000170: d840 08be 61e6 66be 20d1 f83d dc33 563e
00000180: 3045 e63d 67a0 6b3e 6efa 8e3e 06ef 953e
00000190: c466 18be 7654 f5bd f93e 99bd cae7 18be
000001a0: 767d eebd 71fa 01be f976 973e 963c 913d
000001b0: 5b9b 40bc b889 833d aa8b 3fbe 1e3e 66be
000001c0: 853b 3ebd 1af5 913e 4118 d03d d9ec 06be
000001d0: 35c5 363e 4d3c 7d3d 4abf 0f3d ffbb 7dbb
000001e0: 8b67 57bd a83c ca3d 7eb0 523e c604 73bd
000001f0: 296a 20bd 9a4c e3bd e26f 113e fd74 793e
00000200: 9bd5 5ebd 9fd4 3dbd 6398 aa3d 5162 663d
00000210: 9b5e 7cbc a1e1 9dbd b5cc 30be 499c afbd
00000220: 8217 4abe 2434 57bd 7223 16bd d853 833d
00000230: b8a0 853d 420c 3fbe f22c eb3d 35fc 803e
00000240: 6066 933e 64e1 82bd bdb3 d6bd c446 97bd
00000250: 7f6b f6bc 99c5 02be 612e 383e b133 103e
00000260: b05e 21be 32b7 8ebd 1fec dfbc a50f 983e
00000270: 5a3f 1e3c 9c6e f43c 3dc8 643e b29f 77be
00000280: bc08 fabd ad35 543e 2e9e 2cbd 42ce 903c
00000290: f843 19be 636f 803e 8f2c 0cbe 272c 123b
000002a0: 1605 953e 3cad 783e 60aa ff3d d8f8 273e
000002b0: 5475 d5bd b0f8 07be 02ea 643e 8cde 4f3b
000002c0: 6a6d 9b3d 7d5f b33d 6d77 503e e34b 5abe
000002d0: 6432 eb3c 018c e63d 9f78 3b3d 4394 c63c
000002e0: 0719 ecbd 4c96 c6bd 5d6c 233e c0a3 3dbc
000002f0: 72a3 c33b a9ab 8b3e 1340 243e e8d5 3cbe
00000300: 84a7 79be 440e 083d b56d 21be 28f1 aebd
00000310: 4b11 32be 68df 553e 59be 353e 356c dbbd
00000320: e3a5 0fbe 472c 43bd b285 463e e978 68be
00000330: 99f6 e13c 7fd3 983d f08b ebbc d556 783e
00000340: 03d6 363e 2d04 2abe 0e7f a73d d8c6 493e
00000350: 492c 09be 0933 0a3d 1651 543e 396e b43c
00000360: 3942 43be cb06 373e 3852 82be a28a cd3b
00000370: e74c 9abe 4af8 a0bb b0c4 2c3d 068d be3d
00000380: 1885 803e eb83 9b3e 8971 21be 8b7f 683d
00000390: 59d5 3a3e aacf 13be d6d6 15be 51a1 9ebe
000003a0: d79c 05bd ae83 3a3e 662a 543e fa58 3cbd
000003b0: 1417 e6bd 618c 253e 7e70 b03d f9b2 ec3d
000003c0: 6b7b 353e 0611 c1bc 7151 7fbd 1719 703e
000003d0: dbc3 bbbd e903 163e 499f cdbc 3da7 f1bd
000003e0: cc68 21be 5ee1 ed3d 7539 76be 464a 38be
000003f0: 8242 a03d 1336 0bbe 783c 99bd 2e94 1b3e
0.107946746 -0.29278722 0.012301709 0.06650782 0.065919474 0.20744567 0.079399794 0.123414375
-0.2531898 0.13699439 -0.039931912 -0.26393935 -0.2263312 0.20760104 -0.18836394 -0.15044713
0.29372725 0.10140576 -0.18574868 -0.14922234 0.016433919 -0.1931375 -0.11986327 0.026219463
0.17459111 0.07969747 -0.03837487 0.18626848 -0.15170802 0.07622459 -0.063220784 -0.08320098
-0.16308159 0.23345892 -0.2212606 -0.120772384 0.098268546 -0.124022566 0.15982619 0.28450257
-0.11492125 0.029017745 0.021785904 -0.08807981 -0.19786039 0.18358344 0.13795331 0.011434818
0.0039774487 -0.19658458 -0.17807515 -0.022236258 0.07805415 -0.011037534 0.24008454 0.12077072
0.14996187 -0.12952024 0.090156406 0.03787099 -0.05517546 0.196324 0.119341895 -0.13102083
0.24623357 0.120545894 -0.16611907 -0.17866598 0.25666726 0.11086381 0.23864691 0.25335336
-0.10233706 0.21305543 -0.0500741 -0.05012149 0.22590579 -0.023429027 0.18607503 -0.18032414
0.02318738 0.20931508 -0.10432307 0.067526296 0.21583174 -0.22197053 0.04060871 -0.12543362
-0.08742619 0.22815843 0.17831591 -0.017553447 -0.13305986 -0.2254882 0.121492624 0.2091822
0.11243665 0.23010407 0.27925438 0.29283923 -0.14882952 -0.11979 -0.07482714 -0.1493217
-0.116450235 -0.12693192 0.29582956 0.07091634 -0.01175579 0.06422752 -0.18705621 -0.22484633
-0.04644348 0.2850731 0.10160876 -0.13176288 0.17848666 0.061825085 0.035094537 -0.003871679
-0.05258898 0.098748505 0.20575139 -0.059330724 -0.039163742 -0.11098595 0.14202836 0.24361034
-0.05440293 -0.04634535 0.08329847 0.056246106 -0.015403415 -0.07709051 -0.1726559 -0.08574731
-0.1973553 -0.05253996 -0.036654897 0.06412476 0.06524795 -0.1865702 0.11483182 0.2519242
0.28789043 -0.06390646 -0.10483501 -0.07386544 -0.030080555 -0.1277069 0.17986442 0.14082219
-0.15758777 -0.069685355 -0.027334271 0.29699436 0.009658659 0.029837899 0.2234201 -0.24182013
-0.12208697 0.207236 -0.04214304 0.017676476 -0.14967334 0.2508498 -0.13688873 0.002230415
0.29105443 0.24284834 0.12483668 0.1640352 -0.10422769 -0.1327846 0.22354892 0.0031718342
0.075892285 0.08758447 0.20358057 -0.21318011 0.028710552 0.112571724 0.04576933 0.024240619
-0.11528211 -0.096966356 0.15959306 -0.011574686 0.005970412 0.27279404 0.16040067 -0.18440974
-0.24380308 0.03321673 -0.15764506 -0.08542091 -0.17389409 0.20886004 0.17748393 -0.10713998
-0.14028125 -0.047649648 0.19386938 -0.22702374 0.027583407 0.07462215 -0.02875325 0.24251874
0.17855076 -0.16603155 0.08178531 0.19704759 -0.133958 0.033740077 0.20734057 0.022025215
-0.1906823 0.17873685 -0.25453353 0.00627263 -0.30136797 -0.004912411 0.042179763 0.09304242
0.25101542 0.30374083 -0.15765966 0.05676226 0.18245448 -0.14434686 -0.14632735 -0.3098245
-0.032620277 0.18214294 0.20719299 -0.045983292 -0.112348706 0.16166832 0.08615206 0.11557574
0.17722861 -0.023567688 -0.062333528 0.23447071 -0.09168216 0.14649929 -0.025100367 -0.11799476
-0.15762633 0.11615251 -0.24045356 -0.17997083 0.07825185 -0.13594846 -0.074822366 0.15193245

price_branch.lstm.weight_hh_l0 f4 [64, 16]
00000000: be5b 3f3e 0a4c 853e ef72 4e3e 562e 2bbd
00000010: cebd a33d 5576 14be 7f73 5bbe 2664 e6bd
00000020: 8419 cdbc 5bd7 5a3e 36d0 6e3e 4287 413e
00000030: 6912 ba3d 77b5 da3d e5ee a2bc 6dbd 12bd
00000040: 5dce 07bc 0b05 e43d 4364 0c3e 3478 e0bc
00000050: 8be5 b13d 5a69 36be 143b 8cbe 553c 933d
00000060: 8eb4 10be 8518 b8bd 15fe 013e 5d65 53be
00000070: 3b56 24be 43d4 8e3e d2b2 4dbe 9681 71bb
00000080: d051 453e 0f0f 50be 6c87 51be 28fd c9bd
00000090: e136 2e3e b383 18be 631c 03be e577 5fbe
000000a0: 754a 71be 496e 463e b0d4 33be 7568 023d
000000b0: 12c4 2c3e d6db 6c3e 4731 0b3e d10d d33d
000000c0: 1446 063b e236 37bc 2abf b5bd 7016 c8bd
000000d0: 99e0 5abe a3d4 5ebb 466b 463c be23 11be
000000e0: 0d6b 0dbe 625c 463e 6100 173e 4a71 183e
000000f0: 1a5e 513e 6a52 853e 42bc 163e dda4 56be
00000100: 2903 91be 8738 8f3d 6259 f23d ed0b 5ebd
00000110: 3737 92be 1616 68bd bbc0 c33d dc17 ff3d
00000120: 1537 fe3c bad1 863d 27a3 633e d26e b13d
00000130: 4fec d73d 7618 d5bd 6d03 5dbd 0a2c f33d
00000140: 83f1 f5bd 5503 823e d9a3 dc3d 33ae 3c3e
00000150: 6671 24be 26d6 6cbe 0d2d 863c 3a7f eabd
00000160: d2bf 2dbe 522d 353c 29bf de3d 5c2a 4fbd
00000170: c9b5 483d 26b1 e73d ef82 11be 04a8 d4bd
00000180: 5bf3 763e 179d 263e 87d1 6f3e 5188 4e3e
00000190: 0998 27be c487 43bd ddd8 28be 20fe 24be
000001a0: 5320 673e 6b36 9ebd 26ec 27be f54a 863d
000001b0: e251 343e 6f9b 28be d913 013e 4a03 8d3e
000001c0: 9700 05bd 3501 6a3e dd44 5d3e 5c4c 3fbe
000001d0: 2d26 9ebd ab0c b6bd d643 da3c 22db 213e
000001e0: 1249 a23c ce84 423e b45d 29be 276e b33d
000001f0: cdb6 b83a f47b b1bd 1372 ad3d 2af6 edbd
00000200: 39c2 45bd 2a59 c13d c16c 02bd a49d 853c
00000210: 8440 19be 6c8c bebd 5541 733d 9f61 223d
00000220: b8f0 7ebd 46bd 063e 2844 e0bb 8279 703d
00000230: 250e 86be 497c 883e f549 56be b43d 413e
00000240: 5f75 32be 32d1 ccbd 0890 0d3e b3cf 92bd
00000250: d416 4fbe 43f2 423d 0e95 1a3e d3ba 80be
00000260: ba1c 963e 490e 0ebe ee4f a73d ca68 823d
00000270: c171 3cbe f822 a63d 2f5a c1bb b382 6a3d
00000280: 7c26 f33d d6cd 853d b026 653e a5bb 86be
00000290: 41d3 ba3b 3741 fdbd a5f2 293e b382 51be
000002a0: f505 063e 7a30 7d3d bfbc 613e 4b64 2dbe
000002b0: 6a3f eebd f710 00be 41e9 033e 6cc9 d13d
000002c0: 14d8 00be 4fc2 273c f6cd 01be 158f 343d
000002d0: 51c0 883d a740 90be c2a5 c8bc 4dd9 393e
000002e0: 592a e7bd dd1b 25bd 6b6f 5f3e 869a 48be
000002f0: c2d2 753d 3bd4 2f3e 2936 e9bd 780c c53d
00000300: e367 c93d 6b14 293e 190e b9bd 22dd 7d3e
00000310: 61c0 95bd f650 36be f59c 43be 83d9 67be
00000320: 38d2 d9bd 8900 27be c869 58be a513 0abe
00000330: f225 303c d93f 0c3e c3e9 34be 352b 1bbe
00000340: 43a0 153e ff35 e1bd d63b 33bd 4070 3d3d
00000350: 20f3 0cbd 10de 3fbe c560 d73d 6767 80be
00000360: 474e 04bd 1a8c 883e c617 ef3b a7bb 913c
00000370: b583 25be 61fe f9bd 5037 c2bd 2588 2dbe
00000380: 75eb 7bbd ea68 6a3e 565a 343e 9146 12bd
00000390: fede 90be d0ea b1b8 34f8 8bbe 39e4 793d
000003a0: 0e34 d2ba a033 38bd d9ab 2bbe d195 303e
000003b0: a2ea f6bd c548 063e dd3f 66bd 0cbb c5bb
000003c0: ee26 09bc b688 31bb d618 b43d 1cdb 163e
000003d0: 4ef9 613d 769e bebd 6596 503e 7fa4 86bd
000003e0: 7240 733d b4e9 d4bd 7d7c 5b3e 366e fcbc
000003f0: d2b1 42be d29f 3fbe fab8 41be 235b fc3d
0.1868734 0.26034576 0.20161031 -0.041792236 0.07995187 -0.14498265 -0.21430777 -0.112495705
-0.02503658 0.21371214 0.23321614 0.18899253 0.09085543 0.10679143 -0.019889304 -0.03582518
-0.008288947 0.11133774 0.13710122 -0.027401067 0.0868636 -0.17813626 -0.27388823 0.07189242
-0.14131376 -0.08989052 0.12694581 -0.20644136 -0.1604852 0.27896318 -0.20087746 -0.003685092
0.1926949 -0.20318244 -0.20461816 -0.09862739 0.17013122 -0.1489399 -0.12803797 -0.2182308
-0.2356356 0.19378008 -0.17561603 0.0318379 0.1687167 0.23130736 0.13593017 0.1030537
0.0020488547 -0.011182519 -0.08874352 -0.097699046 -0.2137474 -0.0034001253 0.012110537 -0.14173791
-0.13810368 0.19371179 0.14746238 0.14886966 0.20446053 0.2603944 0.14720252 -0.20961328
-0.28322724 0.069932036 0.11833455 -0.054210592 -0.2855775 -0.056661688 0.09558245 0.12455723
0.031032125 0.06582971 0.22230206 0.086637154 0.10543119 -0.10405056 -0.053958345 0.11873634
-0.12008955 0.25393167 0.10773439 0.18425827 -0.16058883 -0.23128566 0.016378904 -0.11450048
-0.16967705 0.0110581685 0.10876305 -0.050577506 0.04900149 0.11313085 -0.14210103 -0.10383609
0.2411627 0.16270863 0.23419772 0.20169188 -0.1636659 -0.047736898 -0.16488977 -0.16112566
0.22570924 -0.07725223 -0.16398677 0.06557266 0.17609361 -0.16465543 0.12605228 0.27541572
-0.032471266 0.22852023 0.216083 -0.18681473 -0.07722125 -0.08889135 0.026643675 0.15806249
0.019810233 0.18995973 -0.16539651 0.08761244 0.0014092565 -0.0866622 0.084690236 -0.11619218
-0.04828093 0.09440835 -0.031841997 0.01631052 -0.14966017 -0.09304127 0.059388477 0.03964388
-0.062241286 0.1315814 -0.0068440624 0.05870963 -0.26182666 0.26657322 -0.2092665 0.18871194
-0.17427586 -0.10000838 0.13824475 -0.07168522 -0.20223552 0.04759432 0.15095922 -0.25142536
0.29318792 -0.13872637 0.08169542 0.06367643 -0.18402769 0.081121385 -0.0059006433 0.05725355
0.11872575 0.06533401 0.2237804 -0.26315036 0.005701453 -0.12365954 0.16596468 -0.20460014
0.1308821 0.06181381 0.22044657 -0.1693279 -0.11633189 -0.12506472 0.12881948 0.10243496
-0.12582427 0.010239198 -0.12676224 0.044081766 0.066773064 -0.28174326 -0.024493102 0.181493
-0.11287374 -0.040309776 0.21819846 -0.19590196 0.060015447 0.17170803 -0.11387283 0.09621519
0.09834268 0.16511695 -0.09035892 0.24791387 -0.07312084 -0.17804322 -0.19102843 -0.22641568
-0.10635799 -0.16308798 -0.21134102 -0.13484056 0.010751234 0.13696231 -0.17667298 -0.15153201
0.14611916 -0.10996627 -0.043758236 0.046249628 -0.03441155 -0.18737054 0.10516504 -0.2507889
-0.032301214 0.2666939 0.007296535 0.017789675 -0.16163523 -0.12206722 -0.09483206 -0.16946466
-0.061503846 0.22891584 0.17612585 -0.03571183 -0.2829513 -8.483755e-05 -0.273378 0.061008666
-0.0016037242 -0.04497111 -0.16764773 0.1724465 -0.120564714 0.13113697 -0.05621325 -0.0060342606
-0.008371098 -0.0027089543 0.087937996 0.14732021 0.055169396 -0.09307568 0.20369871 -0.06574344
0.05938763 -0.10396138 0.21434207 -0.030814271 -0.19013146 -0.1871331 -0.18918219 0.123220704

price_branch.lstm.bias_ih_l0 f4 [64]
00000000: d71a a4bc 5579 663e 22e4 10be daf9 983e
00000010: 4f79 d5bd 07fd 0b3e 9db2 1cbe 58cf fd3c
00000020: a815 5b3e bd30 623b 0956 d13b 10bb 0fbe
00000030: d5ce 8a3d 12e4 223e b52b 53be a23a 4dbc
00000040: a470 35bd 64b5 03bd fd67 1bbd e9c3 a93e
00000050: 79fb 283e 3c65 d1bd dc1e 3b3d 19ad 613e
00000060: cc02 e03d 39f1 28bc 5b05 22be 83e4 ef3d
00000070: bc8b 943e 3427 9ebc 327e 173e e3dc 2abe
00000080: f137 14bd 52a8 86bc c6b3 3a3d 4dc0 18be
00000090: 6f19 993c 256e 6abe 07d5 66be 207f 0cbe
000000a0: 32cb dc3d b8f3 ff3d 1d8b d33d dfbe 74be
000000b0: a8a3 a63b 276b 7a3d 8136 0bbe 3683 483c
000000c0: 24af 83bc 56ab 813e 0544 e13d 2d84 54bd
000000d0: 88ed c5bd 8558 f5bd 9ef4 febd 7e3d d53d
000000e0: 06e4 96bd 3271 d33d aa6a 2ebe 5e8d 2ebe
000000f0: fa08 7c3e ddbb 7d3e c42d 783e 50a0 cc3d
-0.02003233 0.22507222 -0.14149526 0.29878122 -0.104235284 0.13670741 -0.1530251 0.030982658
0.2139498 0.0034513914 0.00638843 -0.14036202 0.06777731 0.15907314 -0.20622142 -0.012526186
-0.044296876 -0.03215541 -0.037940968 0.3315728 0.16502179 -0.10224387 0.045683727 0.22038688
0.109380335 -0.010311418 -0.15822355 0.11713507 0.2901286 -0.019305803 0.14794233 -0.16685824
-0.036186162 -0.016437683 0.0455816 -0.14917107 0.018688885 -0.2289358 -0.22542201 -0.1372037
0.10780944 0.124976575 0.10329268 -0.23900937 0.0050854273 0.061137345 -0.1359501 0.012238314
-0.016074724 0.2532603 0.10999302 -0.051883865 -0.09664446 -0.119797744 -0.12449001 0.10412119
-0.07367711 0.10324325 -0.17032877 -0.17046115 0.246128 0.24778695 0.24236208 0.09991515

price_branch.lstm.bias_hh_l0 f4 [64]
00000000: 3b6f 9f3e 3e7d fc3d 811d b2bd add2 a2bd
00000010: 4bb5 afbd d864 a0bd 7cc4 ed3d aad8 6c3e
00000020: f87e 473e 885a ccbc 1db1 4d3e fa7e 3a3e
00000030: 8eca 17bd 93a1 9abd b3ce 4abe b71b 8f3d
00000040: c94f 8f3d aa9c 253e b88d 60be e1ce 8d3d
00000050: a3f6 c5bd e6f1 523e 396d 4abe 111e fe3d
00000060: 96b4 4ebc 2443 8f3e e669 093e c4df 34bd
00000070: e2cd dd3d fc6d 883d 8da1 973e a857 f4bd
00000080: 974d 9fbe e5bf 1b3e 9a90 52be 5aa6 553e
00000090: fe1b 0bbe b5d0 b93d d0ce 16bd 3128 c83d
000000a0: 1330 3a3e 076f e13d ce4a 82be 71dd 8abe
000000b0: cb2f 8dbe 967b 473e c7b5 513e 8d4a 83be
000000c0: a6b1 2dbe 586e 32be 9f26 a9bd 9864 013d
000000d0: a66f cabd 5ce9 ac3d e5d6 3dbe e4d2 11be
000000e0: 91dc 083e deac 9cbd 9088 e33d edc7 be3d
000000f0: 5c55 babd c2d6 50be ac9f 113e d09c c23d
0.3113955 0.123285756 -0.08697034 -0.079503395 -0.08579501 -0.078317344 0.11609742 0.23129526
0.19482028 -0.024945512 0.20087095 0.182125 -0.037058406 -0.07550349 -0.19805412 0.06987708
0.0699764 0.16173044 -0.21929061 0.06924225 -0.09666183 0.2060009 -0.19768228 0.124080785
-0.012616297 0.27980912 0.13419303 -0.044158712 0.10830285 0.06661603 0.2961544 -0.119307816
-0.31113884 0.1520992 -0.20562974 0.2086424 -0.13584897 0.09073011 -0.036818326 0.09773291
0.18182401 0.11007505 -0.25447696 -0.2712207 -0.27575526 0.19480738 0.20479499 -0.25642815
-0.16962299 -0.17424905 -0.082593195 0.031590074 -0.098845765 0.08442947 -0.18539007 -0.14240605
0.1336539 -0.07650159 0.111100316 0.093154766 -0.09098312 -0.20394424 0.14221066 0.09502566

price_branch.fc.weight f4 [16, 16]
00000000: 141e 873e cf9b aebd caa2 983d 3b5f ee3d
00000010: 2add 603d dc35 a93d 4180 24be 68b4 0e3e
00000020: 5d21 0dbe e546 0bbe 0f76 283e bf09 1d3e
00000030: 8b50 1f3d 774e 4a3d cf05 e23d e71b 17be
00000040: 4820 683e 35ac 72be ad3a 5e3e 7773 483e
00000050: e30a fabd 0824 8d3c f31d fc3d 4513 5f3e
00000060: e12c 06be c79f 09be 2a1b 803e 552e 433d
00000070: d8ab c23d c7ba 243e 815a e33d 58b6 9abb
00000080: b877 27be 5391 b53d 1712 2cbc 7bcd ac3e
00000090: 0a20 97bd 184e 883d b5ee 8cbe 8722 473e
000000a0: 57a6 643e bbc7 3d3e b2e8 17bd b75b c73c
000000b0: 82db 9a3d caa1 d1bd 41a8 8ebe 3f02 83be
000000c0: f90f 92bd 2cf0 703e cac6 1a3e fa74 383e
000000d0: 401e b73d f2a4 81be bab8 163d 4e7c 34be
000000e0: 9cde 8abd 0098 5d3e 8c10 4b3e b604 d2bd
000000f0: 2668 26be fc66 46be ddfa 893e 06bd 613e
00000100: 964c e3bd 3c3b b9bb aafa 363e b9f7 65bd
00000110: 2d0b ae3c b090 2d3e 369c 473e 6c14 273e
00000120: b5f4 863d dfb2 7bbe 6c56 11be d980 da3d
00000130: 2fe1 bdba 7881 b0bd ff41 00bd df06 43be
00000140: f6a0 0ebe c975 1f3e 3ec8 293e 8f74 90be
00000150: 48af a9be fc3d a03e e4c7 80be 5a5e 9cbd
00000160: ba33 7cbe 7170 a7bd 3bfc 8f3e ef0c 84be
00000170: a2e0 18be 6c17 413e bf62 8a3c 1bb7 763e
00000180: 5d06 a9bd 236f 793e 8a39 afbd 067d 003e
00000190: 7f23 25bd 1947 55be ec22 623c bc5d cfbd
000001a0: 08de b13c ac4a 473e bfe4 1e3d 3638 5f3e
000001b0: 503b af3d 4c8f 333e c5f7 ee3d 4121 78be
000001c0: 0170 8bbd c7af 97be de5c 57be 4dd2 0dbd
000001d0: 3f56 84be 3615 43be 7a31 6a3e 6d25 edbb
000001e0: 7a32 003e 9437 64be 2672 68bd 429b 77be
000001f0: be89 193e ada6 e0bb cf48 d4bd 8418 00be
00000200: 231f 593d a74e d4bd 52ec 61bd 446f fb3d
00000210: 49a9 a13c 8ecf 15be 9a32 cc3c 3fe8 85bd
00000220: 73dc 25be 469f 863e 6957 323e 5a25 be3c
00000230: 9dab 08be b34b 523e 885e 143d f2c1 cfbd
00000240: ca88 af3d fad1 9cbd eb92 323e 442b 743e
00000250: 4ee3 403e a99f 0abe 7290 c63c 25f6 3d3e
00000260: 05f1 53bd 56f3 933e 17ab a2bd 027c 75be
00000270: b98a 9bbd 1b26 143e ff9e dbbd 74a2 61be
00000280: 14f5 0dbe ec26 003e a27d f1bd 862e 77bc
00000290: 376b bcbd c068 f93b 5376 87be 778d bfbd
000002a0: d72c 57bc bc34 33be a96a 80be 5783 2cbd
000002b0: e9c9 47bd f088 643e 8bf7 103e 72c2 1e3e
000002c0: f45a 8abc 84e1 29be b695 61bc 1251 1c3e
000002d0: 240d 3b3d 4ef2 6fbe e607 3c3e b883 b3bd
000002e0: 50bd 553e 3643 5ebe a23d 6b3e f6d4 453e
000002f0: 2eb9 0f3e 3454 383e e88f 69be 6051 5b3e
00000300: bfdc 003e 9cf3 833e ada1 47be d10a 0d3b
00000310: 0b4c 223e ece5 b13c 34b1 b3bd 793e 433d
00000320: aadc e23c 6deb 05be 36b3 53be b945 4e3e
00000330: 2da1 f4bc 043e 2cbe c5a2 9f3c bce6 50be
00000340: 3488 95bd 307c c0bd 4028 773e 9439 ba3d
00000350: d63b d8bc d4cf ce3c e08e 33be 1ec0 313e
00000360: fcac 453e 94fa 933c 9403 4b3d c4a1 3d3c
00000370: 0044 adbd 6e0d ffbd 360b 603d 70fb 9b3d
00000380: e713 9e3d 3387 143e 22b9 85be 6037 773d
00000390: 9fde b23d b941 be3d 190b 33be 9377 4b3e
000003a0: fe0b 4d3d c482 dd3c 8b45 453e 2b72 503e
000003b0: 589d 393d 9678 c9bd 9276 31be b98f 583e
000003c0: 80db a3bd d64b 9fbc 8508 12be b55b 853d
000003d0: c2f1 2f3e a98a 3abe 2957 853d c7c3 d1bd
000003e0: 6d89 563e 0f04 003e df9b da3d 311f 87be
000003f0: 1afb 37be 997f c2bd 8b6f f0bd 1d46 283e
0.26390135 -0.08525812 0.074529245 0.116392575 0.05489842 0.08262226 -0.1606455 0.13936007
-0.13782258 -0.13601263 0.16451286 0.15335749 0.03889517 0.049391236 0.11036264 -0.14756738
0.22668564 -0.23698504 0.2170207 0.19575296 -0.12209108 0.017229095 0.123104 0.21784694
-0.13103057 -0.13439856 0.25020725 0.047651608 0.09505433 0.16086875 0.111012466 -0.004721444
-0.16354263 0.08865609 -0.01050236 0.3375052 -0.07379158 0.0665552 -0.2752587 0.19446765
0.22329079 0.18533222 -0.03708715 0.024335725 0.07561399 -0.10235937 -0.27862743 -0.2558765
-0.07131953 0.23529118 0.15114895 0.18013373 0.089413166 -0.25321156 0.036797263 -0.17625543
-0.067807406 0.21640015 0.19830531 -0.10254805 -0.16250667 -0.19375223 0.26949206 0.22044763
-0.11098592 -0.0056528132 0.17869058 -0.05614445 0.021245563 0.16949725 0.19493183 0.16316384
0.06589643 -0.24579953 -0.14193124 0.10669107 -0.0014486666 -0.08618444 -0.03131294 -0.1904559
-0.13928589 0.15572275 0.16580293 -0.28213927 -0.3314154 0.3129729 -0.25152504 -0.07635184
-0.24629107 -0.08175743 0.28122124 -0.25791118 -0.1492944 0.18856591 0.016892789 0.24093287
-0.08253167 0.24358802 -0.085558966 0.12547693 -0.040317055 -0.20827903 0.013802271 -0.101253
0.021712318 0.19462079 0.038792368 0.21798787 0.08556235 0.17535132 0.11668352 -0.24231435
-0.068084724 -0.29626295 -0.2103152 -0.034624387 -0.2584705 -0.1905106 0.22870436 -0.0072371275
0.12519255 -0.22286826 -0.056749485 -0.2418032 0.1499395 -0.006855807 -0.1036545 -0.12509352
0.05300821 -0.10366564 -0.055157013 0.122770816 0.019734042 -0.14629957 0.024926472 -0.06538438
-0.16197376 0.2629339 0.17416157 0.02321117 -0.13346715 0.2053669 0.036222965 -0.10144414
0.08571012 -0.07657237 0.17438857 0.2384463 0.1883671 -0.13537468 0.024238799 0.18550928
-0.051743526 0.28896588 -0.07942789 -0.23973086 -0.075948186 0.14467661 -0.107236855 -0.22034627
-0.13863021 0.12514848 -0.11791541 -0.015086776 -0.09200137 0.007611364 -0.26457462 -0.09353154
-0.013133249 -0.17500585 -0.25081375 -0.042117443 -0.04877654 0.22317863 0.1415693 0.15503863
-0.016889073 -0.16589934 -0.013768604 0.15265301 0.04566683 -0.23432276 0.18362388 -0.08765358
0.20872998 -0.21705326 0.2297273 0.1931952 0.14035484 0.18000871 -0.22808802 0.21417761
0.12584208 0.25771797 -0.19495268 0.002152134 0.1584932 0.02171608 -0.08774033 0.047667
0.027693111 -0.13078089 -0.20673832 0.20143785 -0.02986201 -0.16820532 0.019486794 -0.20400518
-0.07301369 -0.09398687 0.24136448 0.090930134 -0.02639572 0.025245585 -0.17534971 0.17358443
0.1930427 0.01806382 0.04956396 0.011574212 -0.084602356 -0.124537334 0.05469819 0.07616317
0.0771864 0.145047 -0.26117808 0.060355544 0.08733868 0.09289879 -0.17484702 0.19869833
0.050060265 0.027039893 0.1926481 0.20356052 0.04531607 -0.09837453 -0.17330387 0.21148576
-0.08000851 -0.019445341 -0.14261062 0.06511632 0.17182067 -0.18216957 0.06510765 -0.1024242
0.20950861 0.12501548 0.10674261 -0.26390985 -0.17966881 -0.094969936 -0.11740025 0.16432996

price_branch.fc.bias f4 [16]
00000000: 4627 ab3d 81e3 1e3e 7472 1d3e 118a 7bbe
00000010: 3891 1dbd 68f3 e1bd d3b1 1d3e 6458 45bd
00000020: 14ec ca3d 60b5 873e 90bd 233e b649 32be
00000030: 3f34 fd3d aa46 58be 521a 633d 1b47 4f3d
0.083571 0.15516473 0.15375692 -0.24564387 -0.03846857 -0.11032754 0.15399866 -0.04818
0.099083096 0.26505566 0.15990281 -0.17410931 0.12363481 -0.21120706 0.055445023 0.05060492
