models/checkpoints/news_lstm/news_lstm_v4.pt (torch, 113894 bytes, 29 tensors)

sentiment_branch.lstm_layers.0.weight_ih_l0 f4 [192, 11]
000000 e5 79 1a bd 34 e6 5e bd a8 84 18 3e 92 0e cc 3d
       -0.037713904 -0.054418758 0.14894354 0.099637166
000010 13 2c 16 3d d6 0b 81 3d 28 1b b6 3d 67 8f bc 3d
       0.036663126 0.06301086 0.088918984 0.09207039
000020 9f 47 3a bd ad ac 84 3c 04 68 93 3d 65 c7 90 bd
       -0.04547846 0.01619562 0.07197574 -0.070692815
000030 27 4a 8b bd 2d 31 98 3d a1 fa 27 bd 79 de f7 3d
       -0.06801253 0.074312545 -0.041010503 0.1210298
000040 40 bc c3 3c 32 3d 84 bc 3c a6 3f 3e 2c 20 ad 3d
       0.023893476 -0.016142461 0.18715757 0.08453402
000050 c5 4c 51 be 39 35 15 3b c7 05 01 3e 73 5f 07 3e
       -0.20439442 0.002276732 0.1259986 0.13220005
000060 11 78 84 3d 9e 84 14 3d 4f 94 15 3d 96 fa 6a 3d
       0.06468213 0.036259286 0.03651839 0.057367884
000070 da cd bd 3d de 50 e9 bd a4 ce f8 bd d5 95 17 3e
       0.09267779 -0.11392377 -0.121487886 0.1480325
000080 dd 08 cc bb 8f 03 aa 3c 93 21 ea 3d 3c 05 d7 3d
       -0.0062266425 0.02075365 0.11432185 0.10499045
000090 f3 e9 ed bc f4 73 f2 bd d0 4f f5 bd fc e5 70 3d
       -0.02904222 -0.118385226 -0.11978114 0.05881308
0000a0 4e a7 4d bc 2e ba 8f 3d 27 f3 ee bd 8e 0a 29 bd
       -0.012552096 0.07017933 -0.116674714 -0.04126983
0000b0 35 46 9b 3d bb 21 88 bd 4b e2 df bd 00 cf 27 be
       0.0758175 -0.066470586 -0.10931834 -0.16387558
0000c0 da 19 33 be 49 ff 9a 3d c5 25 90 3d 4d 79 f7 3d
       -0.1749033 0.07568223 0.07038454 0.12083683
0000d0 34 dc 35 3c 71 b3 35 3d f6 87 11 3d 90 ac 18 3e
       0.011099864 0.04436058 0.035530053 0.14909577
0000e0 fd b0 19 3d b3 1e 24 be 73 75 33 3b ad 95 eb bb
       0.037522305 -0.16027336 0.0027383238 -0.0071894736
0000f0 37 69 06 3e 22 bf e6 3d 01 ef a4 3d 78 8a 4f bd
       0.13126074 0.112669244 0.08053399 -0.050669163
000100 32 22 e7 bc 88 8e 4c bd 9e 9c 00 3e 4e 52 b4 bc
       -0.028214548 -0.049940616 0.12559745 -0.022011902
000110 d7 3a 2d be 17 0b 2f 3c d9 c8 f2 3d ac 87 43 bd
       -0.16916977 0.010683796 0.11854715 -0.04773681
000120 3d 26 f4 bc f7 33 fc 3d 86 a2 49 bd 75 3c 2c be
       -0.02980339 0.12314599 -0.04922726 -0.16819938
000130 a3 2f 83 3d 1b fc dc 3d 72 f6 0e be 0d 26 d6 bd
       0.0640557 0.10790273 -0.13961199 -0.10456476
000140 96 b8 9e 3d 58 66 c9 3d df aa c5 bd d4 52 f2 bd
       0.07750051 0.09833974 -0.09651732 -0.118322045
000150 3f ca 66 3d c0 f1 e4 bd ef cc a8 bd 9b e8 c7 3d
       0.05634522 -0.11178923 -0.08242213 0.09761163
000160 e1 c6 08 be 17 98 c7 3d 44 87 9a 3d 83 a9 db 3d
       -0.13357116 0.09745806 0.07545331 0.10725691
000170 99 01 1a bd c7 3a c5 bd b0 f8 dc bd ac cd 03 be
       -0.03759918 -0.096303515 -0.10789621 -0.12871426
000180 f9 71 0f be 3f 73 1b 3e cd 16 35 be 68 f4 f9 3d
       -0.14008321 0.15180682 -0.17684479 0.1220482
000190 d0 22 05 3e 1f 96 dc 3d d5 9a 7d bd 53 36 9e 3d
       0.13001561 0.10770821 -0.061915237 0.07725205
0001a0 4e 1b 02 be 90 df b8 3d 98 49 87 3d 00 8f de b8
       -0.12705728 0.09027016 0.06605834 -0.00010612421
0001b0 be bd 1c 3e 45 b3 5a bd 58 ee 04 3e ec 1d 12 be
       0.15306756 -0.05339362 0.12981546 -0.14269227
0001c0 26 60 d0 3d ad a8 27 be 63 93 3d bc 7e 15 a9 bd
       0.10174589 -0.16372938 -0.011570784 -0.082560524
0001d0 e1 e8 03 3e 0a da 46 3e 52 ac 96 3d 8f 35 69 bd
       0.12881805 0.19419113 0.07357086 -0.056935843
0001e0 1e 2d b2 bd af df 93 bc 68 a2 0b be 95 75 3c 3d
       -0.08700012 -0.018050997 -0.13636172 0.046010572
0001f0 81 ab 8d bd da 14 27 bc c7 76 47 bd 25 54 11 be
       -0.069174774 -0.0101978425 -0.04869726 -0.14192255
000200 72 d7 cb 3d b4 81 96 3d 47 1d 9e bc 10 78 9a bb
       0.09953202 0.07348958 -0.01930107 -0.0047140196
000210 c6 e2 62 be f6 3a a4 bd f9 0c 66 3d aa 83 a7 bd
       -0.2215682 -0.080190584 0.056164715 -0.0817941
000220 fb 14 61 be d4 46 80 bd e6 e3 e6 bd d9 ee d1 bd
       -0.2198066 -0.062635094 -0.11273937 -0.10250635
000230 7b 30 32 be eb c0 dc bd 15 2c 31 3d 9c 12 1d 3e
       -0.17401306 -0.10778984 0.04325493 0.1533913
000240 fe d0 d2 3d 3f a0 5a 3d d0 40 ff 3b d3 b5 09 bc
       0.10293768 0.05337548 0.0077897087 -0.008405167
000250 4a 60 1d 3e 75 64 93 3d da 34 15 3e 35 27 b9 bd
       0.15368763 0.07196895 0.14570943 -0.09040681
000260 aa a7 85 3c 1b 6c 0e bc d4 a5 1a 3d 3a c3 17 bb
       0.0163153 -0.008692767 0.037755802 -0.0023157136
000270 26 84 ed bc fc 33 a8 3d 5f d4 10 bb 71 5d 8c 3d
       -0.028993677 0.0821304 -0.002209924 0.0685376
000280 9a 6b b4 bb 7f 90 d8 bb 56 fa 8e 3d 05 0c 2f 3e
       -0.005505991 -0.006609022 0.069813415 0.17094429
000290 4d 22 25 be ab 88 ab 3d 3e 3b 0c 3d ff 62 c4 3d
       -0.16126366 0.08375677 0.034236185 0.095891945
0002a0 f2 e8 09 3e 96 12 e1 bd dc 51 e0 bd 9c ca 8c 3d
       0.13467768 -0.10989873 -0.109531134 0.06874582
0002b0 a7 5b f7 bc 8b ed 9b bd b7 3f 15 3e 3c 9d 20 bd
       -0.03019507 -0.07613667 0.14575087 -0.03921245
0002c0 f7 c7 c8 ba d8 65 ae 3d da ce 9a bd 6a cd aa 3d
       -0.0015318383 0.08515519 -0.07558985 0.08339961
0002d0 a2 30 16 bc a3 70 7e 3d 76 2c 3b 3b 44 24 34 3e
       -0.009166868 0.062119137 0.0028560436 0.17591959
0002e0 21 da 2f 3c d7 8f 58 3d 26 ae be 3d 97 f9 08 be
       0.010733158 0.05287155 0.0931056 -0.13376461
0002f0 51 14 0e be 01 21 fb bd 36 15 17 ba dd eb 0f be
       -0.13874938 -0.12262154 -0.00057633535 -0.14054818
000300 ff 94 54 be 9c 7f d7 3c 4a ac be 3b 27 6e 4c be
       -0.20759962 0.026305966 0.0058188783 -0.19963895
000310 70 e5 b7 3d 27 5c 39 3d 4a 0a f4 bd 7a 24 64 bc
       0.089793086 0.0452539 -0.11916025 -0.013924712
000320 da ba 41 3d 1c a4 01 3d 92 62 a2 3d ae dd 5a 3d
       0.047297336 0.031650648 0.07928957 0.053434066
000330 dd b9 00 be 7c 55 10 be 78 cc 0c be 99 0d a5 3c
       -0.12570901 -0.1409511 -0.13749874 0.020148085
000340 03 b7 40 bd 22 77 2e 3e d9 c2 72 3d 40 ef c6 bd
       -0.047049534 0.17037633 0.059267852 -0.09713602
000350 52 fe fb 3c f9 47 5e bd cf 0b 44 3d 94 81 f0 3d
       0.030760918 -0.054267857 0.047862824 0.11743465
000360 75 de 9d bd 41 d2 10 3e d9 e7 2e 3e bf 59 d1 bd
       -0.07708446 0.14142706 0.1708063 -0.10222196
000370 c3 92 dd 3d b2 63 8f 3e cf 26 54 be 25 29 35 be
       0.10819008 0.2800575 -0.2071793 -0.17691477
000380 c5 3f 37 3e 96 79 9c 3e 56 75 4b 3d 47 7f 22 bd
       0.1789542 0.30561513 0.049672447 -0.039672162
000390 98 9b 7e 3d 22 b9 06 3d db d3 6d 3e 16 a5 17 be
       0.062160105 0.0328914 0.23225348 -0.14809069
0003a0 38 bd 36 3c fb c3 fd bc 27 3e 91 bd 70 0b 05 be
       0.011153512 -0.03097724 -0.07091933 -0.12992644
0003b0 2e c2 1f be 2e ea 7a 3d 21 5d a0 3d a6 e2 9e 3d
       -0.15601417 0.061258487 0.07830263 0.077580735
0003c0 15 aa 95 bd 37 44 20 3c 31 ea cc 3c fd 04 d5 3c
       -0.07307831 0.009781889 0.025014015 0.026003355
0003d0 67 a5 4a 3c 9c 18 f0 3d e8 76 23 bb b4 06 a4 3d
       0.012368537 0.11723444 -0.00249427 0.08009091
0003e0 41 32 0e 3e c1 5b 34 3e 7d 10 ec bd f5 3b 21 bc
       0.13886358 0.17613126 -0.115265824 -0.009840955
0003f0 7e 80 72 bd dc 54 87 3d 93 94 b0 bd 01 be f4 3d
       -0.05920457 0.066079825 -0.08622088 0.11950303

sentiment_branch.lstm_layers.0.weight_hh_l0 f4 [192, 48]
000000 ed c6 b2 3d 7a 90 81 3c 62 64 03 3e 99 2d bb 3d
       0.08729348 0.015815962 0.12831262 0.091395564
000010 04 1c c4 3d 8b 40 d5 bd ab 4f 85 3c 3d 1f ff bc
       0.09575656 -0.10412701 0.01627334 -0.031142825
000020 ba 03 25 3c d8 15 d2 3d d1 76 36 bc 08 21 3a bd
       0.010071689 0.102580726 -0.0111367265 -0.045441657
000030 20 92 c5 3d b7 af f3 bd 26 69 bb 3c 52 73 a8 3d
       0.09647012 -0.11898749 0.022877287 0.082251206
000040 89 a6 04 bd c5 08 f3 3d 9f f6 6e bd 8d d8 eb 3d
       -0.032385383 0.11866907 -0.058340665 0.11515913
000050 9c 33 ce 3c 06 db f1 3d c1 f6 b2 3d 43 15 8c bd
       0.025171094 0.118093535 0.08738471 -0.06839993
000060 91 23 ed 3d a5 20 ec bd 86 f3 bd bd 5e e4 be bd
       0.115790494 -0.11529664 -0.09274964 -0.09320901
000070 ac 57 3b 3d 40 6e eb 3d aa 45 dd bd 66 e1 e3 bd
       0.045737907 0.11495638 -0.10804303 -0.11126976
000080 7b 95 ab bd ec cb cc bd 7d ed e4 bd c1 c3 c4 3d
       -0.083781205 -0.099998325 -0.1117811 0.096076496
000090 b3 5b 77 bd 7f f0 e3 bd bd 5f af 3b 80 19 7b 3d
       -0.060390186 -0.11129855 0.005351989 0.061303616
0000a0 96 10 e5 bc 0e be 33 bc c7 9c ce bc 51 fb 9b 3d
       -0.02796201 -0.010970606 -0.025221242 0.07616294
0000b0 bf 25 cb 3c f2 ba ef 3d 5f b6 0e be 80 ed 03 be
       0.024798272 0.11705579 -0.13936757 -0.12883568
0000c0 09 53 a0 bd a9 b7 b9 bd 84 89 c6 3d 13 bc ec bc
       -0.07828338 -0.090682335 0.09694198 -0.028898275
0000d0 01 9f f2 bc 38 5e fb 3d 93 b0 04 3e 9e 5f 1c 3c
       -0.029616835 0.1227383 0.12957983 0.009544281
0000e0 bd 70 62 3d 1d 15 11 3d 94 7f b4 bd 48 3b 8a 3d
       0.055283297 0.035420526 -0.08813396 0.06749588
0000f0 42 72 26 3c 23 c8 06 be da d2 fa bd 36 8d f6 bc
       0.010159077 -0.13162284 -0.12247248 -0.030096631
000100 55 b7 21 be e1 a6 42 3d 16 a3 fa bd a8 6f d7 3d
       -0.15792592 0.04752243 -0.122381374 0.105193436
000110 88 bc b3 bd 63 08 4b bd 74 ea f7 3d 8a 55 bc bc
       -0.08776194 -0.049568545 0.12105265 -0.022990007
000120 cc ed 17 3b c0 fd af bd 91 4a 74 3d c8 36 41 3d
       0.002318251 -0.08593321 0.059641425 0.047171384
000130 5f 95 e3 3d 27 18 28 3e 14 ad 1a be 98 29 b1 3d
       0.11112475 0.16415463 -0.15105087 0.086505115
000140 eb 88 df 3d 21 cc 3c 3d a0 c2 11 bd 36 3a 21 3e
       0.10914787 0.04609311 -0.035586 0.15744862
000150 6c 0c ff 3d c2 13 aa bd 18 80 4e be 56 50 4e 3d
       0.12453541 -0.0830455 -0.20166051 0.050369583
000160 37 8c d8 bd 62 42 08 be f5 5e 19 be 44 19 39 bd
       -0.10573619 -0.13306573 -0.1497763 -0.04519011
000170 e8 7f 87 bd ad be 89 3d 40 ce 25 be 36 00 9c bd
       -0.06616193 0.06725822 -0.1619196 -0.07617228
000180 4c 02 e4 bd de 96 c8 bd f8 c5 bb bd bc 14 c1 3d
       -0.111332506 -0.09794401 -0.09168619 0.09427783
000190 69 a4 08 3d 13 a0 8a bd ca 21 bf 3c 65 5b 19 3e
       0.03335992 -0.06768813 0.023331542 0.1497627
0001a0 62 78 c0 bd 5e c0 8e 3d f0 90 a9 3d fb 76 47 bc
       -0.09397961 0.06970285 0.08279598 -0.012174363
0001b0 5d 9f 1c be 40 31 13 3e 03 fb 95 3d 59 70 16 be
       -0.15295167 0.14374256 0.07323267 -0.14691295
0001c0 ca 85 9e bd 95 ad 77 3d df b1 4d 3d cc 8b 3c bd
       -0.07740362 0.060468275 0.05021846 -0.04603176
0001d0 f2 b8 a7 bd de 93 0e 3d d0 15 59 3d 47 65 8f bd
       -0.081895724 0.034808986 0.052999318 -0.07001739
0001e0 8a 50 28 3e e4 66 08 be 7d c6 ea ba 13 42 44 bd
       0.16436973 -0.133205 -0.0017911937 -0.047914576
0001f0 04 2d 70 3d 8f 62 ad bd bb f3 2f 3d f2 ba d2 3c
       0.05863668 -0.08466064 0.04295705 0.025723908
000200 59 de b2 bd 81 e6 b0 bd 4e 12 0e 3e 84 04 84 3d
       -0.08733816 -0.08637715 0.1387417 0.06446174
000210 ef 2b 5c 3d 65 b3 74 bb 9c dd e0 bd b3 22 2a be
       0.053752836 -0.0037338373 -0.10979769 -0.16614799
000220 88 4f ec 3b 6d e1 4b 3d b2 f2 05 be db 5f d9 bd
       0.0072116293 0.04977553 -0.13080862 -0.10613986
000230 d0 60 24 3d 6f 42 e4 3d 28 17 0c 3e 59 13 a9 bc
       0.04013139 0.11145484 0.13680708 -0.020639108
000240 8a 3c 60 bd 09 de 06 3e 96 b8 20 bd 19 a4 22 bd
       -0.054745235 0.13170637 -0.039238535 -0.039707277
000250 7e 46 2c be 64 14 08 be 04 d5 b1 3c f1 bd da 3d
       -0.16823766 -0.13289028 0.02170802 0.1068076
000260 8d 99 8b bd 70 d4 e7 bd 35 a4 9b bd 99 d4 74 3d
       -0.06816397 -0.11319816 -0.075996794 0.05977306
000270 94 7f d8 3d 4a 0f d6 3d e5 73 a1 3d ee 51 e1 ba
       0.105712086 0.10452135 0.07883433 -0.0017190555
000280 7d e5 c7 bd 62 3e 9e bc e6 99 fb 3d 44 4b d7 3c
       -0.09760568 -0.019316856 0.12285213 0.026281007
000290 5b dd 95 bd 78 55 1e bd 73 cd 0c bd ca 50 3b bd
       -0.07317611 -0.038655728 -0.03437562 -0.045731343
0002a0 1d 70 83 bb f2 2c b1 bd 5d 87 0e 3e e7 cc 40 3c
       -0.0040111677 -0.08651151 0.13918824 0.0117676025
0002b0 5a 5b c4 3c 4e a1 22 be 47 91 ca 3d c2 62 1f 3e
       0.023969341 -0.15881845 0.09890991 0.15565017
0002c0 c1 6a c7 bd 50 cc 93 bd 64 b3 07 be 72 a6 20 be
       -0.097371586 -0.07216704 -0.13252026 -0.15688494
0002d0 f8 e8 80 3c 37 f1 e2 bd 66 6e 76 3c 5e d3 24 3d
       0.015736088 -0.11081164 0.0150409695 0.040240638
0002e0 78 f3 83 bd 01 54 21 3e fd 33 ec 3d 91 5c d2 3d
       -0.06442922 0.15754701 0.115333535 0.10271562
0002f0 e7 89 f4 3c 9b 59 85 3d d4 c8 c7 3d 2d 8f 70 bd
       0.029850913 0.065112315 0.09755102 -0.058730293
000300 37 db a2 bc 4c a8 ef bc b0 06 b5 bd c4 ff 01 bd
       -0.01987992 -0.029255055 -0.08839166 -0.031738058
000310 3f fb b4 bc a6 c6 57 3e 6e 29 9f bd 9d 43 28 3d
       -0.02209246 0.21071872 -0.07771574 0.041080106
000320 31 72 b2 bd e0 4f e8 3d e4 00 21 3e b5 18 29 3e
       -0.087131865 0.1134336 0.15722996 0.16513331
000330 3c 7c 5c bc a5 a9 1b 3e 61 88 5f 3e 0b e5 87 3d
       -0.013457354 0.15201433 0.21829368 0.06635483
000340 b5 02 c2 bd cc c4 89 be b1 63 5b 3d 06 99 63 3d
       -0.094731726 -0.26907957 0.05356187 0.055565856
000350 af 30 8a bc ff 86 92 3e 88 fa 0d be 10 ff 21 3c
       -0.016868917 0.2861862 -0.13865101 0.009887472
000360 0f 28 60 3d 96 fb 04 be a9 1a d5 bc d3 c3 cd 3c
       0.054725703 -0.12986597 -0.02601369 0.02511779
000370 60 d1 09 be f4 fc 64 be 9f c2 47 be 70 3c 9e 3c
       -0.13458776 -0.22362119 -0.19507836 0.019315928
000380 99 94 b1 bd 32 b4 2b bd 81 74 ad 3d 8c ca 31 be
       -0.08670921 -0.041919895 0.08469487 -0.17362422
000390 d5 01 12 3d a0 db d5 3d 8f f4 04 3d 5f a9 21 bc
       0.03564628 0.10442281 0.03245979 -0.009867041
0003a0 e1 99 6c bd 6f 44 13 bd 9b be e0 bd e0 7b 64 be
       -0.057763938 -0.035953935 -0.10973855 -0.2231288
0003b0 29 eb 2f be 7d e4 56 bd 45 4c 07 be c5 53 b8 3c
       -0.1717955 -0.052463997 -0.13212688 0.022500882
0003c0 0a 0f da bc 61 3e 10 be 79 45 1e 3d 52 55 ae 3c
       -0.0266185 -0.14086296 0.038640473 0.021280918
0003d0 32 2f c1 bc 8b e6 a9 bd f1 fa e0 bd af 61 21 3d
       -0.023582075 -0.08295926 -0.10985363 0.0393998
0003e0 5c 04 98 3d b3 a8 60 3d 42 f2 06 3e 0b bc 19 be
       0.074227065 0.054848384 0.13178352 -0.15013139
0003f0 cc d9 35 bc 5b 28 a3 bd f5 16 d9 3c cb d9 bc 3d
       -0.01109929 -0.079666816 0.026500205 0.09221228

sentiment_branch.lstm_layers.0.bias_ih_l0 f4 [192]
000000 b5 f3 b2 3d b4 a9 d6 3d c4 63 48 3e 44 39 d4 3c
       0.0873789 0.10481587 0.19569308 0.025906213
000010 6e e0 47 3e e2 66 0b be fb 9d af bd 16 75 99 bd
       0.19519207 -0.13613465 -0.08575054 -0.074930355
000020 1d 43 5c 3d 49 bd 7b bd 91 4b 54 3b d0 3d 8a bd
       0.05377494 -0.061459813 0.0032393674 -0.06750071
000030 be bd 63 bd c5 4d 8e bd 38 c1 b2 bd 1e 8a a1 3d
       -0.055600874 -0.06948427 -0.0872826 0.07887672
000040 79 81 bd 3d db d2 1f bd 63 e8 16 3d 7e e8 bb bd
       0.092532106 -0.039019447 0.036842715 -0.09175204
000050 9c c0 0d 3e 6d 09 19 3e 27 e9 43 3e e4 5e ce bd
       0.13843006 0.14945002 0.1913191 -0.10076693
000060 92 5e 64 bd 22 21 d9 bd e3 f1 b5 3c f9 5b e7 bd
       -0.05575425 -0.10602023 0.022210067 -0.11296839
000070 ce 9f b4 bc b2 95 12 3e 17 1b 7b bd a6 78 81 bd
       -0.022048857 0.14314917 -0.06130513 -0.0632184
000080 3e 0b 97 3d 27 ef 13 3d 47 1d 27 3d b0 e8 ff bc
       0.07375191 0.036116745 0.040799405 -0.031238884
000090 59 98 ee 3b 68 51 67 bd 26 25 60 3d 3a 0b ae 3d
       0.007281345 -0.05647412 0.054722928 0.08498235
0000a0 bc e4 31 be ef c0 0d be c2 3e 24 be db b8 87 bc
       -0.17372411 -0.1384313 -0.16039565 -0.016567638
0000b0 ba 64 bb 3c fe ae b1 3d f3 be c9 3d a2 9a 22 be
       0.022875179 0.08675955 0.09850874 -0.158793
0000c0 c7 b6 e3 bd 06 16 d1 bd 9b bd 9f 3d 5b 36 d5 bd
       -0.111188464 -0.10209279 0.07799836 -0.10410758
0000d0 fd 97 af 3d c4 f0 2d bd 19 ca 25 be e6 6b 37 bd
       0.08573911 -0.04246594 -0.16190375 -0.044780634
0000e0 05 01 05 3d ad a3 37 3e 78 6d 5c 3c ab 30 25 3d
       0.032471675 0.17933531 0.013453834 0.040329617
0000f0 49 44 cb 3d 3a 2e e2 bd 8d a0 61 bc 25 30 d6 3b
       0.09925134 -0.11043973 -0.013771188 0.006536501
000100 9f 47 a2 3c 6f c4 d8 bd f5 5a c9 bd 32 2b 30 bc
       0.019809542 -0.10584342 -0.09831802 -0.010752486
000110 78 fd 99 3c c2 2f 23 3e 94 2c 1f 3d 35 f5 61 3d
       0.018797621 0.15936187 0.038860872 0.05516549
000120 2d 1d 98 3c 8b 6c 35 3d ab 6b 51 3d 8a 58 da bd
       0.0185686 0.044292968 0.05112807 -0.10661419
000130 ed 31 13 3e 24 3f 8e bc 2c 41 31 3e 26 d1 6b bc
       0.14374514 -0.017364092 0.17310017 -0.014393127
000140 96 00 fb bd 1f 8a f6 3d db 81 41 3d d7 a0 54 3d
       -0.12255971 0.12038063 0.04724298 0.0519112
000150 88 ee c3 3d 3d 7d b5 bd 4a b1 ec bd bd de d8 bd
       0.095669806 -0.08861778 -0.11557253 -0.10589359
000160 de e3 c9 3d 5f 6f 6f bd 43 94 4d bd f3 ec 96 bd
       0.09857915 -0.05845582 -0.05019022 -0.07369413
000170 20 dc 4e 3e 3a 5f 23 3c 58 32 c7 3d 0d 89 0b be
       0.20201159 0.009971434 0.09726399 -0.136265
000180 00 e4 9b bd 59 23 01 bd 5e c7 7c bc c0 cb 41 3c
       -0.07611847 -0.03152785 -0.015428392 0.011828363
000190 04 ac 23 be c2 7a 81 bd d8 c1 96 3d 60 4f 07 3e
       -0.15983588 -0.06322242 0.073611915 0.13213873
0001a0 5f 4d 23 bd ed df e5 3b 81 d9 20 bc 53 cc 3b bd
       -0.03986871 0.0070152194 -0.009817482 -0.045849156
0001b0 47 ed 02 3e 66 50 7b 3d ea a1 fa 3d 1e df 81 3c
       0.12785827 0.06135597 0.12237914 0.01585346
0001c0 37 e9 d7 3c 69 d5 44 bd a6 13 b1 bd 2b af 6d bc
       0.026356323 -0.048055086 -0.08646326 -0.014507095
0001d0 a8 d0 6e 3d bb 02 26 3e 2a 9e c9 bd 1d 4b e0 bd
       0.05830446 0.16211979 -0.098446205 -0.10951827
0001e0 ee d3 8a 3d 2f 21 f1 bd 41 78 a4 bc f6 c0 93 bb
       0.06778704 -0.117739074 -0.020076873 -0.0045090867
0001f0 71 6d 95 bd 53 29 9b bd c9 ed 1c bd 42 5e 06 be
       -0.07296265 -0.07576241 -0.038312707 -0.13121894
000200 de d0 db 3d 45 28 8e bd de 60 cf 3d a4 6c 4e bd
       0.10733198 -0.069412746 0.10125898 -0.050396577
000210 1e e2 88 3d 5b 79 d2 bc 12 c0 99 3a e8 ae c7 bd
       0.066837534 -0.025692632 0.0011730215 -0.097501576
000220 d6 ee 87 bc 33 05 9e bd 40 37 c2 bc 09 09 03 be
       -0.016593378 -0.077158354 -0.023707986 -0.12796415
000230 5f 45 88 bc 2f 4f df 3d 73 6e 0a 3d 6f 3e d1 bd
       -0.016634641 0.10903775 0.03379674 -0.102169864
000240 25 04 f7 3b f3 89 06 bc 62 1c 9d 3d d4 65 c9 3c
       0.007538336 -0.008211601 0.07671429 0.024584688
000250 b8 ef 0f bb c2 29 0d 3e 30 43 2d be 5f f2 7a bd
       -0.0021962952 0.1378546 -0.16920161 -0.0612663
000260 3c cb e2 3c 3f c7 dc 3c 6c 03 71 3d 33 7b b6 3c
       0.0276848 0.026950477 0.058841154 0.022275543
000270 67 00 25 bd 2b 81 57 bc 4a b5 3c 3d d7 59 da bd
       -0.040283587 -0.013153355 0.04607133 -0.10661667
000280 a8 b8 f4 bc a9 90 0f 3e 1e 61 7b 3b 65 3b 0b 3d
       -0.029873207 0.14020027 0.0038357447 0.03399219
000290 62 cf 9d bd bb d2 a2 3d bb e5 68 3d 04 49 a5 3d
       -0.07705571 0.0795035 0.056859713 0.08070567
0002a0 d3 d8 bc bd e5 61 de bc a8 bc 61 3d 0f fe 17 3c
       -0.092210434 -0.02714629 0.055111557 0.009276881
0002b0 60 26 40 3a 8b dc e1 bd b0 7e 8a bd eb c2 b5 3d
       0.0007329937 -0.11028393 -0.06762445 0.08875068
0002c0 a6 15 04 be e5 38 61 bb 1b 2d 10 3c 07 e3 26 3e
       -0.12898883 -0.0034366187 0.0087998165 0.16297542
0002d0 a1 1b 6f 3c 66 01 0f 3e 90 b0 4f bd 66 01 7b bd
       0.01459399 0.13965377 -0.050705492 -0.06128063
0002e0 51 c6 86 3d 98 60 fa 3c e2 14 92 bc 6d e8 68 3c
       0.065807946 0.030563638 -0.017832223 0.014215571
0002f0 6e 14 98 3d fa c4 18 3e c6 dc 3c 3d 2a 3d ad bd
       0.07425772 0.1491889 0.046108983 -0.08458932

sentiment_branch.lstm_layers.0.bias_hh_l0 f4 [192]
000000 b4 1e 22 3d 17 e9 be bd ac ff 46 3d 78 bf f7 3d
       0.039580062 -0.09321802 0.04858367 0.12097067
000010 bd 28 62 3e 59 6b 0a 3e c5 89 22 be e2 16 a5 3b
       0.22085853 0.13517512 -0.15872867 0.0050381282
000020 83 30 9f 3d ff e3 27 3e d1 d2 d8 bd 9c 22 82 bc
       0.07772925 0.16395567 -0.10587085 -0.015885644
000030 24 e2 06 3d a0 79 9c bd 2e 50 a6 bd c2 c0 b6 bd
       0.03293051 -0.07640386 -0.08120762 -0.089234844
000040 41 4b b6 3d 8e 49 77 3d 1e 08 2f bd 86 7a ff bd
       0.08901072 0.06037288 -0.04273235 -0.12474541
000050 ec a7 a4 3d ae e0 7f 3d ca 7f f2 bc 33 c3 1a 3e
       0.08039841 0.06247013 -0.02960195 0.15113525
000060 54 49 df 3d f9 22 f1 3d c3 9e 0c be 9a 17 30 3d
       0.10902658 0.11774249 -0.13732438 0.04299126
000070 96 40 0c bd 9e ad 77 bd 6b 03 1d 3c 8c f4 b1 3d
       -0.03424128 -0.06046831 0.009583334 0.08689222
000080 23 c1 f0 bc bb 7b 3f 3d 2f d1 85 3d a4 a4 fa 3d
       -0.02938897 0.046748858 0.06534039 0.12238434
000090 ea 5a 20 bd 88 64 fa bc 92 fa 20 bd 60 ad 06 3e
       -0.039149202 -0.030565515 -0.039301462 0.13152075
0000a0 ea ed 3f 3d 36 d7 f0 bd 9c 04 26 be c9 2c 75 bd
       0.046857752 -0.11759798 -0.16212696 -0.059857164
0000b0 83 ed 30 bc ac fb 4b bd 2e df 73 bc ec 5a 1d bd
       -0.010798815 -0.04980056 -0.014884753 -0.038416788
0000c0 57 2b 88 3d 0c 06 fb 3b 17 3e cd 3d 62 68 d5 3d
       0.066488914 0.007660633 0.10021608 0.104203
0000d0 2f 5c 43 3d c1 26 ad bd 7e 61 a0 3d 17 0d 61 3d
       0.047695335 -0.08454657 0.07831095 0.054944124
0000e0 15 b1 90 bd 5c 7b 20 bd 4a 60 47 bd 9b be fe 3b
       -0.07065026 -0.039180145 -0.048675813 0.007774187
0000f0 15 93 ba 3d 98 06 a5 bd 47 72 ab 3c 50 05 c6 bc
       0.09110085 -0.08057898 0.020928515 -0.024172455
000100 c4 cf 9a bd 5e 06 33 3d f8 9a 2a 3e f6 c1 84 3d
       -0.075591594 0.043707244 0.16660678 0.064823076
000110 8e 8e bd bd 46 16 2e 3a 0c 1d dc 3d 45 dc 6f 3d
       -0.09255706 0.0006640892 0.10747728 0.058559675
000120 8b 51 c4 bd a1 1a c8 bd 3b b6 2e bd c0 c5 5b bd
       -0.095858656 -0.09770704 -0.042654257 -0.053655386
000130 05 04 c0 3d f4 25 9b 3d 8d 26 3a bd 3e be 2c be
       0.09375767 0.07575598 -0.04544692 -0.16869447
000140 0d f8 a6 bd f1 56 dd bd 81 39 ac 3d d2 44 a0 bd
       -0.08152781 -0.108075984 0.084094055 -0.078256264
000150 2a 27 f0 3d 7f 70 2c 3d 7a 07 1f 3e 80 b2 24 be
       0.1172622 0.042099472 0.15530196 -0.16083717
000160 0f a0 c8 3d 58 65 93 3d 84 19 a6 bd df 87 27 bd
       0.09796154 0.07197064 -0.081103355 -0.04090106
000170 84 27 4e 3e 2f 60 ce bd 99 54 3d 3c e3 97 d7 bc
       0.20132262 -0.10076939 0.011555814 -0.026317542
000180 d6 27 a7 bb 9b d1 4f 3d d7 ec 77 3d 66 16 25 3d
       -0.0051011844 0.050737005 0.060528602 0.040304564
000190 33 ce fd 3d 4f 36 f5 3d a7 27 7b 3c fc e1 ce bd
       0.12392845 0.11973249 0.015329278 -0.10101697
0001a0 fe f0 e1 bd 7e b9 17 bd c9 b5 77 3b 13 b1 00 bd
       -0.11032294 -0.037042134 0.0037797561 -0.03141887
0001b0 cf 43 35 bd 63 20 c5 bd 74 40 c7 3d 86 5e e3 bd
       -0.04425412 -0.09625318 0.0972909 -0.11102013
0001c0 1c de d4 bd c9 56 c4 bd a7 8f 46 bd 6f d3 f1 3d
       -0.103939265 -0.095868655 -0.04847684 0.11807906
0001d0 cb 07 4a bc ce 51 28 3e b9 ce a5 3d fb e1 92 bc
       -0.01233096 0.16437456 0.0809607 -0.017930022
0001e0 08 ac d4 3c 31 37 ae 3c 1a 53 96 bd 86 ce cd 3d
       0.025960937 0.021266552 -0.07340069 0.10049157
0001f0 0d 19 af 3d cb 22 ec bd 6f e3 09 be 5e 81 30 3d
       0.085497 -0.11530074 -0.13465665 0.043092124
000200 6b bb 4a bd b8 0e 07 be 74 29 c4 3c c3 e6 98 bd
       -0.049495142 -0.13189209 0.023945548 -0.07465889
000210 80 03 8c bd 71 99 01 3e 69 ba cd bd 26 3d b7 3d
       -0.06836605 0.1265619 -0.100453205 0.0894721
000220 11 36 b4 bd cb cf 9b bd 2e 26 1d 3d 97 5e c6 bd
       -0.08799375 -0.07607993 0.03836649 -0.0968601
000230 f4 b7 9e 3d 3e e6 01 bb 72 f4 39 bd b3 02 d9 3a
       0.0774993 -0.0019821073 -0.045399137 0.001655659
000240 59 fd f3 3c fd 05 0a 3e b1 3e b5 3d 91 ad 3b 3d
       0.029783892 0.13478847 0.08849848 0.045819823
000250 11 4a 07 bd e1 be 64 3d ce 2e 2a be 67 bd 30 3e
       -0.03302962 0.0558461 -0.16619417 0.17259751
000260 84 3f 06 be 1c ae 4c 3e 6b 54 b4 3b d1 2f 9c 3d
       -0.13110167 0.19988292 0.0055032275 0.07626308
000270 13 dd 43 3e d8 e5 b5 3d 7e 80 f2 3d 01 45 9f 3d
       0.19127302 0.0888173 0.11840914 0.07776833
000280 d8 15 b4 3d ae 67 37 bd 87 c3 c4 3d d8 02 3a 3d
       0.08793229 -0.04477661 0.096076064 0.04541287
000290 95 7b 1a 3d 0e 8d a1 bd 46 66 a3 3c e4 4c c9 bd
       0.037715513 -0.07888232 0.019946229 -0.09829119
0002a0 a0 23 e1 3d cb 53 09 3e 88 45 f8 bd 6c 19 0a 3d
       0.10993123 0.1341087 -0.12122637 0.03371565
0002b0 38 7d 64 3d b9 d0 81 bd 44 5f 1d bc 01 87 f8 bc
       0.05578348 -0.06338639 -0.009605233 -0.030337812
0002c0 57 71 7d bd e8 33 ef bd 28 93 8c 3c 6f 03 16 3e
       -0.061875667 -0.11679822 0.017160013 0.14649747
0002d0 e3 ef 46 bd 4f ae 57 3d 58 41 2c 3e 88 d1 3e bb
       -0.048568618 0.052656468 0.16821802 -0.002911659
0002e0 c2 60 ad 3c a3 5a e8 3d 7b 5b 40 3d e4 fd 0e 3d
       0.021164302 0.113454126 0.046962243 0.034910098
0002f0 ac 38 d5 3d f2 e3 eb bd cd 73 5c 3c d0 6c 6e 3c
       0.104112 -0.115180865 0.013455343 0.01455231

sentiment_branch.lstm_layers.1.weight_ih_l0 f4 [96, 48]
000000 60 be 31 3e c4 4c 9d bd 0a 93 00 3e f4 41 43 be
       0.17357779 -0.076806575 0.12556091 -0.19068128
000010 94 59 2c be 1d 8a 1c 3e 08 b4 13 be a8 1a 7c be
       -0.16831046 0.15287061 -0.14424145 -0.24619544
000020 2f 87 55 3e 60 35 17 bb a5 91 43 be b7 5e fb bd
       0.2085235 -0.0023072585 -0.19098528 -0.12273925
000030 a8 ff 9b bd bd 5d 2f 3e 63 82 db 3d e5 ee f2 3d
       -0.07617122 0.17125602 0.10718229 0.11861972
000040 e5 f6 52 bc c5 d6 1a be 8b 75 6c bd 46 fd f4 bd
       -0.012876247 -0.1512099 -0.057729285 -0.119623706
000050 c4 bf 11 3e fd e0 71 3d 48 52 06 be f7 1e 86 3c
       0.14233309 0.059052456 -0.13117325 0.016372187
000060 1b e3 5e be ce 6e 5e 3e 65 21 11 3e 3f 57 e7 bc
       -0.21766321 0.21721956 0.14172895 -0.028239844
000070 ba b3 06 be d0 34 f9 bd 17 de a7 3d fd eb ff 3c
       -0.13154498 -0.12168276 0.08196657 0.031240458
000080 19 05 a3 3d 14 96 f7 bc 4f b1 c0 bd d1 88 19 3d
       0.07959957 -0.03022293 -0.09408819 0.037483994
000090 89 15 70 bd f7 28 72 be 80 af 20 be 77 6e 4f 3d
       -0.058614288 -0.2364844 -0.15691948 0.050642457
0000a0 a9 c1 5e 3e 00 5e 93 3d 0e 6a 3a be 5a 72 0a be
       0.21753563 0.071956635 -0.18204519 -0.13520184
0000b0 98 59 59 3d 44 9e 2e be 2b 2b e5 bd 5c f8 44 bc
       0.05306396 -0.17052561 -0.11189874 -0.012022104
0000c0 6c d5 0a 3e 4d ec b2 bd 34 f0 df 3d 28 17 cf 3d
       0.13557976 -0.08736477 0.10934487 0.101118386
0000d0 14 94 36 be a0 a0 13 3e 61 e0 89 3c e4 97 56 3d
       -0.17829925 0.14416742 0.016830625 0.052390948
0000e0 62 46 07 3e d3 d8 77 3e d6 03 c1 3b 19 57 d2 bd
       0.13210443 0.24203806 0.00589035 -0.10270519
0000f0 50 21 27 be 3c 58 7a be 0f 50 f5 bd b0 42 41 be
       -0.16321301 -0.24447721 -0.119781606 -0.18873096
000100 d3 e7 55 3d 7d a1 29 be b8 09 9c bd bd dc c7 bc
       0.052223038 -0.16565509 -0.07619041 -0.024397248
000110 96 4a 0c 3e f6 c1 fd 3b ef f9 b0 bd f2 e9 f7 bd
       0.13700327 0.007744069 -0.08641421 -0.121051684
000120 10 b8 c6 3c 3b 7b 01 3e 51 28 31 be 6d d8 92 bc
       0.02425769 0.12644665 -0.17300536 -0.017925465
000130 ff 1c 73 be 8d fc 04 3e a3 3e 69 3e d1 33 25 3e
       -0.2374153 0.12986965 0.227778 0.16133048
000140 5a 56 f8 3d 0c 06 73 bb e3 0d 71 bd dd 47 2f 3e
       0.12125845 -0.0037082462 -0.058851134 0.17117257
000150 8f ee 50 bd ef b7 d7 3d 1f 24 28 3e 60 f7 19 be
       -0.051008757 0.105331294 0.16420029 -0.15035772
000160 3e f2 83 3d 64 34 51 3d c9 4e 80 3d 07 15 a1 3d
       0.064426884 0.051075354 0.06265027 0.07865339
000170 12 d2 0d be 2c 7d b9 3d c5 b7 80 3c 92 f5 31 3e
       -0.13849667 0.09057078 0.015712628 0.17378834
000180 ec 9d 01 3e ee 21 43 bd bf 9c 37 bd b5 06 94 bd
       0.12657899 -0.04763978 -0.04482722 -0.07227842
000190 69 8c 42 bc 0f 9d 2e be 8e 72 55 be 51 d6 e6 bd
       -0.011874297 -0.170521 -0.2084448 -0.11271346
0001a0 50 7d 1f 3e cb ea fd 3c 5e df 1b be 46 f1 f9 bd
       0.15575147 0.030995747 -0.15221927 -0.122042224
0001b0 67 cf 09 be 71 44 73 3b 41 7f 43 be 9a f6 02 3e
       -0.13458024 0.0037119652 -0.19091512 0.12789384
0001c0 4a 9e 19 3d 7b 64 11 be b7 be 25 be 40 47 6c 3c
       0.03750447 -0.14198487 -0.16186033 0.014421284
0001d0 06 e0 ab bd da 40 0d 3d ce 74 17 3e a2 f0 9c 3d
       -0.083923385 0.034485675 0.14790651 0.076630846
0001e0 dd 26 2f 3e 8e 5e d5 3d 01 7c 37 3e b2 de 39 be
       0.17104669 0.104184255 0.17918397 -0.18151358
0001f0 54 37 41 3d e3 5c 09 3e 7c 1e 27 be 9b 82 34 bd
       0.047171906 0.1341434 -0.16320223 -0.044069868
000200 9f 69 cc bd 6c ea 67 3e 2b 24 3b be d3 2d 2c 3e
       -0.09981083 0.22648019 -0.18275516 0.16814356
000210 93 79 e4 3d 14 61 ed bd 69 96 d5 3d d4 02 07 bb
       0.11156001 -0.11590782 0.10429079 -0.002060105
000220 4f 73 b2 3c 79 11 88 bd d0 37 7e 3c 83 d6 fa 3c
       0.021783499 -0.06643958 0.015516236 0.030619865
000230 09 f6 06 3e 72 30 86 bd 9c 02 36 bd 73 67 e2 bd
       0.13179792 -0.06552209 -0.044436082 -0.110548876
000240 46 ae 7c 3d 30 df 4d be 64 95 05 3e 68 8d 44 bd
       0.061689638 -0.2010467 0.13045269 -0.047986418
000250 d9 d6 9f bc 08 51 35 3e b3 89 3f 3e 70 2d 0f 3e
       -0.019511627 0.17706692 0.18704872 0.13982177
000260 60 cf 39 3e f2 ac e4 bd 3a d9 e4 3d 34 bd ec 3d
       0.18145514 -0.11165799 0.11174245 0.11559525
000270 15 77 8f 3d c0 e1 a6 3c db c2 0a bd 9e 79 84 bc
       0.07005135 0.020371318 -0.033877235 -0.016171273
000280 f4 0d 78 bd 57 f6 7f bd b0 bd 09 3e 50 7f a0 3d
       -0.06056018 -0.062490787 0.13451266 0.07836783
000290 fa 45 07 3e 13 78 b0 bd c0 35 f6 3d c8 ef a5 bd
       0.13210288 -0.08616652 0.12021971 -0.08102375
0002a0 41 23 ca bd 11 ac 44 3e 8a 58 dc bd 6d c0 ab 3d
       -0.098700054 0.19206263 -0.10759075 0.08386312
0002b0 9f 72 f9 3c 3f d0 b4 bb 98 8d 26 bc 4f fd 27 bd
       0.030450163 -0.005517989 -0.0101655945 -0.04101306
0002c0 bc 38 bd bc 11 cf d1 3d 33 14 e2 3a 54 7b 3f 3e
       -0.023098342 0.10244573 0.0017248451 0.1869939
0002d0 06 34 4e 3e cf ba 0d 3e f8 57 03 3e ba 87 6f 3e
       0.20137033 0.13840793 0.12826526 0.2339162
0002e0 7a 8a 94 3d 45 7b 46 3d 2d c6 7f 3d 6b fa 47 be
       0.07252975 0.048457403 0.062444855 -0.1952912
0002f0 ff 1d 86 3e ca b9 47 be 4a 0d 19 be 20 8e 3a 3c
       0.2619476 -0.19504467 -0.14946476 0.011386424
000300 90 1c fe bd 51 30 3d 3e 1b cf 90 3d 64 a2 1b 3c
       -0.124077916 0.18475462 0.07070752 0.009499166
000310 b8 c8 e4 bd 93 45 23 be 3b 7a b5 3d 38 30 25 be
       -0.111710966 -0.15944509 0.08861204 -0.16131675
000320 01 fe 1f 3e 50 7c 37 bd c4 8d 5c 3c 7e 4e 50 3e
       0.15624239 -0.044796288 0.013461534 0.20342442
000330 f0 04 4b 3d 80 bd 15 be 03 b3 f9 3d 60 44 59 be
       0.049565256 -0.1462307 0.12192347 -0.21217489
000340 14 7f 40 3e aa 22 b9 bd de ed 5c be 37 88 92 bd
       0.18798476 -0.09039815 -0.21575114 -0.07154887
000350 e5 44 8a bd b6 70 3d 3d 89 12 26 be aa 21 05 3e
       -0.06751422 0.046250068 -0.16218008 0.13001123
000360 21 9d 1a be a6 1b 25 be 0a 69 98 3d a8 18 40 be
       -0.15099002 -0.16123828 0.074419096 -0.18759406
000370 72 22 fb 3c a1 99 3c bd 20 9d 1c 3e 40 d4 e1 bd
       0.030656073 -0.04604495 0.15294313 -0.110268116
000380 e7 0f b1 bc 49 a2 25 bd 7e 66 74 3d 2f 17 33 be
       -0.021614028 -0.04043797 0.059668057 -0.17489313
000390 5c f7 be 3c 73 32 18 bd 77 48 21 3e 4a da 2b 3e
       0.02331131 -0.037157487 0.157503 0.1678249
0003a0 f3 03 00 be 83 66 62 3e 10 ae 9a bd c7 ba 1b bd
       -0.12501507 0.22109418 -0.07552731 -0.03801992
0003b0 da ae 2a 3e 6f cf cf bd bf f7 a1 bd 57 29 ba 3d
       0.16668263 -0.10146987 -0.07908582 0.09089916
0003c0 2f bf 98 bc 7d fd 07 be c2 dd dc 3d 0c 24 a1 3d
       -0.018645851 -0.13280292 0.107844844 0.078682035
0003d0 33 4e ed 3c 56 b7 00 3e c5 78 0b be cc 6f 73 3d
       0.028967952 0.12569937 -0.13620289 0.05943279
0003e0 44 b3 86 bd 1b 99 3f be fa f9 2e 3e 20 11 1c 3d
       -0.06577161 -0.18710749 0.17087546 0.03810227
0003f0 fa f1 7c be 35 d8 4e 3c 25 1a e9 bd 88 1c 03 3d
       -0.24701682 0.01262479 -0.1138194 0.03200963

sentiment_branch.lstm_layers.1.weight_hh_l0 f4 [96, 24]
000000 1d c7 75 3e 90 65 a1 3d 7e 9a 3c bd f7 72 ae 3d
       0.24001737 0.078807 -0.046045773 0.085180216
000010 70 3f 50 be 89 e5 43 3d 24 54 31 bd e3 58 89 3d
       -0.203367 0.047826324 -0.043293133 0.06706407
000020 d5 5f 8a 3d ba 1e 3e bb 65 dc 36 3d 38 e6 27 be
       0.0675656 -0.0029010014 0.04464378 -0.16396415
000030 79 7b b8 bd f7 25 e2 3d 36 ed f4 3d e0 b6 42 be
       -0.090079255 0.110423975 0.11959307 -0.19015074
000040 d9 a4 a7 3d 12 fe 8e 3d 14 71 eb bd e0 bf 1b bd
       0.08185739 0.06982054 -0.11496177 -0.038024783
000050 ef 09 fd bc 65 90 ff bc 15 94 8a 3d 2c df cc 3d
       -0.030888526 -0.031196782 0.06766526 0.10003504
000060 e3 6f 8d 3e 35 57 7a 3c 86 02 db bd 6a b2 42 3d
       0.27624425 0.015279581 -0.10693841 0.04753343
000070 34 b9 00 be 79 55 47 be 2b 93 37 3b b1 25 08 be
       -0.1257065 -0.19466199 0.0028011303 -0.13295628
000080 d2 8a b3 3c 0d cc 6b bd 50 88 48 be 74 db 82 bc
       0.02191678 -0.057567645 -0.19583249 -0.015973784
000090 e6 5e 49 be 60 78 a2 3d 21 dd 19 3d a0 83 a7 3d
       -0.19665107 0.07933116 0.0375644 0.08179402
0000a0 cb fb 7e 3c e9 8b bf bd 6b d8 c8 bb 61 bb 9a 3d
       0.015562962 -0.093528576 -0.0061293147 0.07555271
0000b0 5a 41 62 be 65 79 bf 3c 55 27 02 3e 8e fb c8 3c
       -0.22095242 0.023373315 0.12710316 0.024534013
0000c0 9a f3 d7 3d 79 08 9f bd 26 cc b2 3d ec 55 62 3d
       0.1054451 -0.07765288 0.087303445 0.055257723
0000d0 ee 0e d2 3d e5 41 24 3e 3e d1 63 be 59 ae 25 3e
       0.10256754 0.16040762 -0.22247788 0.1617979
0000e0 16 02 18 be 00 63 9c bd 49 26 13 be 84 a6 3f 3e
       -0.14844546 -0.0763607 -0.14370073 0.18715864
0000f0 a4 03 51 3e 41 29 00 bd 2f 30 42 be 77 f0 cf 3d
       0.20411545 -0.031289343 -0.18963693 0.10153287
000100 16 59 d2 bd 82 74 3d bc 87 b6 a8 3d 5b de f2 3c
       -0.10270898 -0.011563422 0.08237939 0.029647043
000110 2c a3 c7 3d bd 2e 0b bd 8e c0 ad bd 07 b8 fd bd
       0.097479194 -0.03398012 -0.084839925 -0.12388616
000120 d4 48 1f 3e 09 61 ef bc da ee ab bd 3b 57 4e bd
       0.15555125 -0.029221075 -0.08395167 -0.05037616
000130 cc 50 75 3d 40 41 39 be f5 b8 e5 bd ec 32 35 3e
       0.059891507 -0.18091297 -0.112169184 0.17695206
000140 af 53 13 be 08 98 4d 3b 15 a4 71 3c 54 59 fd 3d
       -0.14387392 0.0031371135 0.014748593 0.123705536
000150 95 7b 40 3e 5a 19 24 be 60 f3 ec bc a1 80 17 bd
       0.18797143 -0.16025296 -0.028924644 -0.036987904
000160 81 62 37 be 89 1f 4c 3e 7f dd 25 be 4b 49 87 3c
       -0.1790867 0.19933905 -0.16197775 0.016514441
000170 c6 e4 ac 3d f3 1a 45 3e e1 ad fd bd b2 f4 37 bc
       0.084420726 0.19248562 -0.123866804 -0.0112277735
000180 ea 7a 57 3e 4a 1c 2f bd 8d 85 97 bd ab 2c 9c 3d
       0.21042982 -0.042751588 -0.0739852 0.07625707
000190 56 a3 70 bd 61 a7 ef 3d 42 9f 3e 3e b3 03 1a 3e
       -0.05874952 0.11701847 0.1861544 0.15040474
0001a0 32 4e 62 3e 6b f9 83 bd 79 a6 1a be 71 e3 1a be
       0.22100142 -0.06444057 -0.15102567 -0.15125825
0001b0 79 26 1f 3e 46 b6 f5 bc b0 94 f8 3d 89 0c 96 3d
       0.1554202 -0.029994141 0.12137735 0.0732661
0001c0 ac ba 1f be 47 28 dd 3d 8a 22 a3 3d 22 1a 89 3d
       -0.15598553 0.10798698 0.07965572 0.066944376
0001d0 65 f4 d1 bd 55 02 40 be 6a 00 5b 3d 95 54 04 be
       -0.10251693 -0.1875089 0.05346719 -0.1292289
0001e0 af 13 18 be 98 03 03 3e ff 5a bb bd 12 31 64 be
       -0.14851259 0.1279434 -0.091482155 -0.22284344
0001f0 5e d3 03 bd 3b 51 35 bd 2b d2 b1 3c f8 5a 0c 3d
       -0.032183997 -0.04426692 0.021706661 0.034266442
000200 f8 22 a1 3d ff 69 e9 bd ba d5 60 3e 33 37 60 3e
       0.07867998 -0.1139717 0.2195653 0.21896057
000210 be b0 05 3d 72 5e d9 3d 20 7e 31 bd 41 6b 37 3e
       0.032639258 0.10613717 -0.043333173 0.17912008
000220 02 1f b8 3d 3f e0 61 3e 9f 5c 7a bd 17 c3 c8 3c
       0.08990289 0.220582 -0.061123487 0.024507089
000230 27 ce e7 bc 06 c1 3d 3e 72 a5 ac 3c 6f c0 c1 bd
       -0.028296543 0.18530664 0.021074984 -0.09460532
000240 8c 3f b4 bc 8c ce 40 3d 6d 8d 0a be b7 33 1e 3e
       -0.022002958 0.04707198 -0.13530512 0.15449415
000250 14 17 96 3c 11 49 c7 3d 7c b6 db 3b 6a a1 2f 3d
       0.018321551 0.09730733 0.0067051034 0.042878546
000260 09 7b 97 bd a1 4a c4 3d 4e 9d 5b 3c 4c fb cc bc
       -0.07396514 0.09584547 0.013404204 -0.025022171
000270 13 6d c7 bd a2 26 d9 3d 3e 67 99 bd 72 3d b0 bd
       -0.09737601 0.10603072 -0.07490395 -0.0860547
000280 ed 0f 71 3d 63 35 fa bd 3d ee 52 bd 26 6b d1 bd
       0.05885308 -0.12217214 -0.051496733 -0.10225515
000290 9d b1 44 3d c6 35 06 bc 35 b0 ca 3c 32 3c 87 3d
       0.048020948 -0.0081915315 0.024742225 0.06603278
0002a0 ea 4e 36 be ef 06 a6 3d d6 e8 7e 3c 94 7d 4f be
       -0.17803541 0.08106791 0.015558442 -0.20262748
0002b0 6a 5a 0d 39 29 75 49 bd ab f9 a6 bd 3f 73 e8 3d
       0.0001348049 -0.049184 -0.08153089 0.113501064
0002c0 e1 70 4a 3d 40 0e 21 3c eb 66 51 3e c0 51 de 3c
       0.049424056 0.009830058 0.20449416 0.02713859
0002d0 3d c2 b4 3c 14 cc 1f bb 6f f8 2b 3c be 85 d7 bd
       0.022065276 -0.0024383115 0.010496243 -0.10523556
0002e0 b5 f4 66 3d d0 64 b0 bd f3 1c 24 bc dc 88 ef bd
       0.056385715 -0.086129785 -0.010016668 -0.11696026
0002f0 74 d3 27 3d 0b d3 4c be 04 0d 4d 3e 44 7e d0 3c
       0.04097314 -0.20002382 0.20024496 0.025450833
000300 d8 46 5a be 2c 49 07 3e 0b 0f 1b 3d fb ea 34 3e
       -0.21316087 0.13211507 0.037856143 0.17667763
000310 fc 78 aa bc 06 a2 05 be 9a f8 49 be a1 39 ce bd
       -0.020809643 -0.13050088 -0.1972374 -0.100695856
000320 1a 3f c6 3d ae 7a 7f 3e 15 54 72 be 90 07 bc bc
       0.096800044 0.24949142 -0.23664887 -0.022952825
000330 78 30 10 be e7 52 31 be c0 44 7d be 78 0f 40 be
       -0.1408099 -0.17316781 -0.24733257 -0.18755901
000340 17 fb cf 3d c6 bc 18 be d0 02 0e 3e c9 f8 ec bd
       0.101553135 -0.14915761 0.1386826 -0.115708895
000350 d7 02 22 3e ca 77 9c bd 56 76 d9 bc 10 c5 30 3d
       0.15821396 -0.076400355 -0.026545685 0.043156683
000360 95 33 a0 bd 06 4b 58 bd 00 79 b1 3d ff f5 eb 3d
       -0.078223385 -0.052805923 0.08665657 0.115215294
000370 4c 87 12 3e f3 e2 cc bd ea 9c e1 3d 08 80 0a be
       0.14309424 -0.10004225 0.11016257 -0.13525403
000380 25 90 b0 bc 9e 4e f9 3d a8 c7 5a be 18 24 79 be
       -0.021553108 0.12173198 -0.21365225 -0.24330175
000390 ab 78 44 bd 4a 67 4d bc d5 25 69 bd 50 f1 e2 3d
       -0.04796664 -0.012536833 -0.056920845 0.11081183
0003a0 46 73 bb 3b 2d 30 11 3d ab 82 ac bb 2e 3e 79 bd
       0.005720529 0.035446335 -0.0052646003 -0.060850315
0003b0 74 b3 9b bd 3f 45 a7 bc b9 37 2f 3d 27 49 1f 3e
       -0.07602587 -0.020418761 0.04277775 0.15555249
0003c0 77 fe bb bd 39 e5 b9 3d c8 2b dd bd 7b 6d 29 be
       -0.09179395 0.09076924 -0.10799366 -0.1654567
0003d0 83 56 ea 3d 32 d3 cd bd 44 66 80 3c a0 8d 2d 3e
       0.11442282 -0.10050048 0.015673764 0.16948557
0003e0 c1 bd 94 3e 93 91 5a 3e 27 c8 8f bd 64 16 1e be
       0.2905102 0.21344595 -0.07020598 -0.15438229
0003f0 c3 79 96 3d c6 4f 72 3b aa 7b ec 3d f6 5a 3d bd
       0.07347443 0.0036973818 0.115470245 -0.046229325

sentiment_branch.lstm_layers.1.bias_ih_l0 f4 [96]
000000 e1 80 eb 3d 54 45 e2 3c fb 65 4c be 32 4a 03 3e
       0.11499191 0.027620949 -0.19960777 0.12821272
000010 c8 98 9d bd 14 bb 0c be 49 62 47 be 74 ba 9e bd
       -0.07695156 -0.1374324 -0.19471087 -0.07750407
000020 dd ed 3b 3d bf 48 20 be e9 ed 91 bd 0a a2 b8 bd
       0.04588114 -0.1565275 -0.07125456 -0.090152815
000030 07 b0 8d bd 52 57 08 3e ab 3c 2b 3e 84 14 0d be
       -0.0691834 0.1331456 0.16722362 -0.13777357
000040 6a 4d 05 3e 2b 56 17 3d 44 f5 0c 3e 29 a1 cf 3d
       0.13017812 0.03694741 0.13765436 0.10138161
000050 b6 1c fb bd 2d 32 03 3e 9e 6d bf bd a9 f1 1c be
       -0.122613356 0.1281211 -0.0934708 -0.15326561
000060 f5 8a 5c be d0 63 5c bd 7b f3 5c 3d f0 6c c4 3d
       -0.21537383 -0.053806126 0.05394314 0.09591091
000070 0e 62 fe 3d 08 4b 27 be 0e cd 2c bd 21 c0 f5 3d
       0.12421046 -0.16337216 -0.042187743 0.11999536
000080 27 af 4a 3e 8d 98 64 bd f2 63 44 be 48 c7 27 bd
       0.19793378 -0.055809546 -0.19178751 -0.040961534
000090 8d 15 3d be fa a6 25 bd 44 a8 12 3e b0 2a 09 be
       -0.18465252 -0.040442444 0.14322 -0.1339519
0000a0 d2 85 df 3d 77 b5 20 be 78 63 bf 3c b9 76 ba 3d
       0.10914196 -0.15694223 0.02336286 0.09104676
0000b0 88 cc 05 be f1 b4 4a 3e b5 03 44 3e 11 90 53 be
       -0.13066304 0.19795586 0.19142039 -0.20660426
0000c0 83 79 ec bd 6a 0b f1 3d b3 5d 28 3e 1b 9f b7 3d
       -0.11546614 0.11769755 0.16441993 0.08965894
0000d0 f9 6b 56 3d a8 3c 07 be 0e 42 18 3e 72 25 21 3e
       0.052349064 -0.13206732 0.14868948 0.1573694
0000e0 d5 cf a5 bd 7a 1d 02 3e de 61 a1 bd 4c 26 a6 3d
       -0.080962814 0.12706557 -0.07879995 0.08112773
0000f0 c8 2b bd bb e5 e3 21 3e 13 cf b1 bd cb 77 29 3e
       -0.0057730414 0.15809591 -0.086820744 0.16549604
000100 f9 36 35 be e6 f4 99 3d f2 d7 9a 3d fc 07 5e 3d
       -0.17696752 0.07517414 0.075607195 0.054206833
000110 ab 8e 0c 3e 48 92 28 bb 28 3b 0f be 61 b9 1b be
       0.13726299 -0.0025721956 -0.1398741 -0.15207435
000120 29 f4 0a 3e 38 f8 25 be 38 a6 25 be a0 b3 8c 3d
       0.13569702 -0.16207969 -0.16176689 0.06870198
000130 c6 6a ad 3d 13 e6 d0 3d 83 c5 1e bd e7 be cb bc
       0.08467631 0.10200133 -0.03876258 -0.024871303
000140 fb aa 1f 3d 41 42 4e 3d 70 b7 b3 3c 69 0e cf 3d
       0.03898142 0.050356153 0.021938056 0.101101704
000150 88 fd 6b be 68 14 c2 bd 04 28 c0 bd 15 21 e7 3c
       -0.23045933 -0.094765484 -0.093826324 0.028214017
000160 fd 3a 8b 3c 64 27 96 3b eb 07 9d 3d ac 76 6c 3e
       0.016995901 0.0045823324 0.07667526 0.23092145
000170 4f db 35 3e 54 9a 51 bc ca 35 f1 bc ae d9 54 be
       0.17759441 -0.012793142 -0.029444594 -0.20786163

sentiment_branch.lstm_layers.1.bias_hh_l0 f4 [96]
000000 5d 3b eb bd 68 97 03 be 41 74 3b be 26 e6 7d bd
       -0.11485932 -0.12850726 -0.18306066 -0.061987065
000010 30 d8 3f be 64 71 25 3e ca df 5c be 7b 28 46 be
       -0.18734813 0.16156536 -0.21569744 -0.1935138
000020 40 84 45 bd 37 ee 29 3e 5e 31 47 bd a4 33 18 3e
       -0.048221827 0.16594778 -0.048631065 0.1486345
000030 ff eb 69 bd 21 32 12 be 3e d7 2f 3d e2 2c 17 be
       -0.05710983 -0.14276935 0.04292988 -0.14763215
000040 ef ea 4f 3d d2 15 3f be f8 5e 96 bd 79 ec fe 3d
       0.05076116 -0.18660668 -0.073423326 0.12447447
000050 ad 50 29 ba fe b2 26 bd 17 7b 0f 3e 65 26 32 bd
       -0.000645886 -0.040698044 0.14011799 -0.043493647
000060 b9 ac 93 3b 21 af ea 3d 59 0f 3c be 19 49 28 3e
       0.004506674 0.114591844 -0.1836523 0.16434135
000070 d1 f3 15 3e 47 e0 b6 bd 10 d1 da 3c f5 6d a5 bd
       0.1464379 -0.08929496 0.026711017 -0.08077613
000080 af f4 49 3e 78 46 18 3e f5 c7 f0 bd 7a 3e a8 bd
       0.19722246 0.14870632 -0.11756889 -0.082150415
000090 a1 df 22 bd 46 1d 17 be 3a cf eb 3d de 37 9e bd
       -0.03976405 -0.1475726 0.11514135 -0.077254996
0000a0 ad 27 0d be 84 82 07 bd ed e4 3b 3e 36 c4 b7 bd
       -0.13784666 -0.033083454 0.18349047 -0.08972971
0000b0 6f a6 0c 3e 35 64 f1 3d 16 62 cb 3b 59 e8 ca bc
       0.13735364 0.11786691 0.006206761 -0.024768995
0000c0 88 55 57 bc ac e9 3e be 47 40 0b 3e 2d ef 23 3e
       -0.013142951 -0.18643826 0.13598739 0.16009207
0000d0 1c 8e c7 3d ee 94 32 be 9b 71 7c 3c 7a dc 20 3d
       0.09743902 -0.17439625 0.015407945 0.039272763
0000e0 b7 90 c2 bd 79 6a 85 3d c2 5e b7 3d 41 1b 34 be
       -0.095002584 0.06514449 0.089536205 -0.17588522
0000f0 36 ed 43 bd 8b 3d 41 be 52 8a 06 3e dc 7c 12 3d
       -0.047833644 -0.18871133 0.13138703 0.035763606
000100 95 c1 17 be fa b2 72 3c 85 3e 48 3e fd c4 a3 3d
       -0.1481994 0.014813179 0.195551 0.07996557
000110 45 e4 6b 3e 51 32 51 3e fb 16 1c be 90 d6 7a 3d
       0.23036297 0.2042935 -0.15243141 0.06123978
000120 3f d7 63 bd b3 d3 11 3e 0d 1f 02 bd 43 58 a8 bd
       -0.055625197 0.14240913 -0.031767894 -0.082199596
000130 28 ec a4 3d e9 ad dd 3d 40 5a ef bd e2 9c 0d 3e
       0.08052856 0.10824186 -0.11687136 0.13829377
000140 e8 5c 1e 3e 88 e1 8e bb bd 62 a0 3d 30 84 1e 3e
       0.15465128 -0.0043603815 0.07831333 0.15480113
000150 a4 c6 24 be 80 51 20 3d 90 a8 b1 3d 04 b6 a0 3d
       -0.160914 0.039140224 0.08674729 0.07847217
000160 34 4b 44 be 65 74 0e 3e e8 c3 34 3e 25 74 c1 bd
       -0.19169313 0.13911588 0.17652857 -0.09445981
000170 3c 5c 9b bd d9 9d b7 bd 12 69 28 3e f6 41 f9 3b
       -0.07585952 -0.08965654 0.16446331 0.00760674
