models/checkpoints/news_lstm/news_lstm_v3.pt (torch, 117114 bytes, 37 tensors)

sentiment_branch.bn.weight f4 [11]
00000000: bc52 873f 4757 843f 2018 833f bb6e 823f
00000010: 9181 8b3f a421 793f 2e97 863f c924 8d3f
00000020: 59e6 883f 2568 863f 4c3e 893f
1.0572124 1.0339135 1.0241737 1.0190042 1.0898916 0.97316957 1.0514886 1.1026851
1.0695297 1.0500532 1.0722136

sentiment_branch.bn.bias f4 [11]
00000000: 1c74 253c 609c c23b ba74 5d3c 53a8 ad3c
00000010: a4c9 ef3b 35c5 2dbc 1253 00bb 97bc a0bb
00000020: ac13 cf3b 5cd0 083d 53dd 9bbc
0.010098483 0.0059390515 0.013516599 0.021198427 0.0073177386 -0.0106061 -0.0019580764 -0.004905294
0.0063194837 0.033401832 -0.019026434

sentiment_branch.bn.running_mean f4 [11]
00000000: 6c54 00bc 5de5 6b3a fe19 2fbc 1dcb f5bb
00000010: 7863 e73a 8779 febb 7aad 96bc 00bf a4bc
00000020: f910 cfbb 2298 5dba dc0d 88bb
-0.007832628 0.00089987164 -0.010687349 -0.0075010196 0.0017653545 -0.007765952 -0.018393267 -0.020110607
-0.006319162 -0.00084531505 -0.004152043

sentiment_branch.bn.running_var f4 [11]
00000000: 78c5 973f e9e0 7d3f 6d04 7d3f 002d 813f
00000010: e648 953f c736 8c3f 0006 8c3f 3e8b 8d3f
00000020: ac35 893f 7c77 6a3f 4653 6b3f
1.1857138 0.9917131 0.9883488 1.0091858 1.1662872 1.0954217 1.0939331 1.1058118
1.0719504 0.9158857 0.9192394

sentiment_branch.lstm_layers.0.weight_ih_l0 f4 [192, 11]
00000000: 4eb6 303e 417b e33c d4ab 2bbd b7c3 6fbd
00000010: 6570 0fbd fb16 d43d 31cb 98bd c60a 5a3d
00000020: 4453 053e d1ba bbbc 5d5c 10be 5ab4 09be
00000030: 662a c8bb fd73 eabc 1a74 b2bd ebfa 3dbe
00000040: d0f8 e1bc ae9b 063c 417c 263e 7940 163e
00000050: 3373 0f3d 9dec d9bd 75aa ea3c 9175 cebc
00000060: a196 4abe 981d ffbd e98e c2bd 9d17 d93d
00000070: e0ca 0c3c 7dff 1abc 7fb2 40bd 459e 933d
00000080: 6c13 bdbc 0e66 783d 780a ffbc 8876 92ba
00000090: 23e9 113d 9e27 7e3d 084e 07be 9a20 c6bd
000000a0: ddb9 903d 9eec 503d adff 01be e091 05bd
000000b0: 3811 36bd 41ea edbd 4463 683d 3666 98bd
000000c0: fa8d dabd 99a9 09be 0859 d2bd e8dd 143b
000000d0: d3bf 67be 9335 e1bc 4cda 833d a2a9 3b3d
000000e0: b2c0 e93d 2c7a 43bd 17c1 623d 8b5e 1cbe
000000f0: d95c 1bbd d357 dfbc e60f a5bb 3ac3 6cbc
00000100: 072a 1fbe 1a96 263e 01b3 12bd 677e 56be
00000110: 9f84 e0bd d6d2 df3d 621a 48be 7bb0 44bc
00000120: 29e9 3b3d b04f b43d 3648 0cbe 64cd ddbb
00000130: 8813 f4bd 6305 243d e6ee 9bbd 3909 0e3e
00000140: 8625 263e ede9 ad3c fb47 8abd c02f 483c
00000150: e0f4 c13d d8b6 febd 9b96 a33d c67a 23bd
00000160: 4de6 813e 3c53 403d 0784 e03d 1241 2cbe
00000170: ea7f b43d 37ea 0f3e 7a4e 14bd 2172 e7bc
00000180: c9fb ac3d d944 8c3a ceb6 8bbd 2ac9 683d
00000190: 5296 053d 3585 b2bd e98b 153e 3045 60be
000001a0: 6158 aa3c 70ee 823d df94 df3d ef88 13be
000001b0: 6b56 3c3e 86be 24bd e83f df3a 6975 fe3c
000001c0: 1974 1ebe 8345 30be 9094 b4bd c549 49bd
000001d0: a6c8 083d a6eb 2b3d c63b b4bd c5fe 253c
000001e0: eff7 93bd 2c40 69bd 6c87 383d af2c e3bd
000001f0: f091 b73d 00cc 99bd d754 82bb 8bee c3bd
00000200: 0f4d d5bd 426b 91bd cb17 23be 2134 193e
00000210: babf 88bd 7b32 e33c 808a ca3c a6b9 36be
00000220: 4490 383d 316f 77bd 674f 0dbe ec51 c6bd
00000230: f4a2 de3b 877b 1bbe b85d 9c3c 2c7f eebd
00000240: 1e71 c53c 09e4 5fbd fec3 e3bd 4330 aa3c
00000250: 88ef 703c 8fec 843d 725c e5bd 43aa 873c
00000260: bf58 cf3d efb0 653c 0980 a03d 779a 613d
00000270: 1ce7 b3bd e9a9 bdbd 88ea c33d e313 a73d
00000280: 71e0 7cbd 65fb c5bd 8886 bebd 28c2 2bbe
00000290: 7760 31bd 61b2 ed3d 9829 a93d 0fec 173d
000002a0: 8d7c 603d 2b6c a2bc fcfa 8abb 5fa2 0ebd
000002b0: 5e8a 38bd 788a 763d 2383 a3bd f47d e03c
000002c0: 040f 08bc 6619 233b 15ed 20be 3719 a43d
000002d0: 2f56 323e fec5 3f3e 7651 273d 596a 1cbc
000002e0: 0f4a ab3d 0189 093e d1db 023e 68e1 02bd
000002f0: e95b 933c 11e8 ba3d ff9c c5bd 608d 34be
00000300: 354a 843d 4860 2bbe fbd6 653d 8b72 283d
00000310: 6ece e53d ba6b ab3d d211 f7bd 1929 5d3d
00000320: ea29 a03d 5112 9abc 048f 4a3d b2b1 a8bd
00000330: 5741 bcbd f747 20be db93 523b 6e7e 1b3b
00000340: b824 f3bd c1c4 f5bd f101 e2bd 3bc5 063e
00000350: 48e8 323e 77bc 14be c565 053e e8db 05bb
00000360: 4add e73c d944 e7bc 70aa 2ebd c8fa e2bd
00000370: 4e3d 8dbd 913e cd3d 7481 553d 4148 95bd
00000380: 0162 4ebd 2ddd 3f3b 9307 093e 5a89 343d
00000390: 27de e43d 603f 4e3d b2a4 f2bd ef4b b43d
000003a0: 06df ddbd b510 e93d dcf1 ad3d 7fea c7bd
000003b0: f709 e53d e55e ebbd e147 c33d 6985 1dbe
000003c0: ce6b fd3d 2ff4 f0bd 8056 d2bd fd31 f63d
000003d0: f236 dabd 62be e53d 743c 013e ceda 453d
000003e0: 1886 0abe b67f 7dbd 9412 fd3d b622 9dbd
000003f0: a454 64bc baf7 073e 50dc 96bd 4fd5 f73d
0.17257044 0.027768733 -0.041911915 -0.058536258 -0.035019297 0.10355946 -0.07460631 0.05323293
0.13020045 -0.02291623 -0.14097734 -0.13447705 -0.00610857 -0.02861976 -0.08713551 -0.18552749
-0.027584463 0.008215828 0.16258337 0.14673032 0.035021972 -0.106408335 0.028645733 -0.025202544
-0.19784023 -0.124568164 -0.09499914 0.10600207 0.008593291 -0.009460327 -0.047045227 0.07207922
-0.02308055 0.060644202 -0.031132922 -0.0011174241 0.035622727 0.0620495 -0.1321336 -0.09674187
0.070667006 0.051006906 -0.12695189 -0.03260982 -0.044450015 -0.11616946 0.056735292 -0.0744137
-0.10671611 -0.13443603 -0.102708876 0.0022715274 -0.22631769 -0.027491366 0.06438121 0.04581607
0.11413707 -0.047723934 0.055359926 -0.1527044 -0.037930343 -0.027263558 -0.0050372956 -0.0144508425
-0.15543376 0.16268197 -0.035815243 -0.20946656 -0.109627955 0.10928886 -0.19541314 -0.012004967
0.045876656 0.08804262 -0.13699421 -0.0067688692 -0.11917788 0.0400442 -0.07613926 0.13870706
0.16225252 0.021229709 -0.067520104 0.012218416 0.09470534 -0.124372184 0.0798771 -0.039912008
0.25371018 0.04695438 0.10962682 -0.16821697 0.0881346 0.1405419 -0.036207654 -0.028252663
0.08446462 0.001070167 -0.068219766 0.05683247 0.03261406 -0.087168135 0.14604153 -0.21901393
0.020794095 0.063931346 0.10917067 -0.14407705 0.18392341 -0.04022076 0.0017032595 0.031061845
-0.15473975 -0.17214017 -0.088173985 -0.049142618 0.03339448 0.04197278 -0.088004634 0.010131543
-0.07225024 -0.056945965 0.045051023 -0.11092507 0.08963382 -0.07509613 -0.003977399 -0.09566983
-0.104150884 -0.07100536 -0.15927045 0.14961292 -0.06677194 0.027734032 0.024724245 -0.17844257
0.045059457 -0.060408775 -0.13799821 -0.09683594 0.006794328 -0.1518384 0.019087657 -0.1164535
0.02410179 -0.05466083 -0.11121367 0.020774966 0.014705546 0.064904325 -0.11199273 0.01656068
0.10124349 0.014019235 0.07836921 0.05507895 -0.08784315 -0.092609234 0.09566218 0.0815809
-0.06173748 -0.0966709 -0.093030035 -0.16773283 -0.043304887 0.11606289 0.082598865 0.037090357
0.05480628 -0.01982697 -0.0042413455 -0.034822818 -0.045053832 0.060190648 -0.07983997 0.02740381
-0.008304361 0.0024886965 -0.1571544 0.08012622 0.17415689 0.18727872 0.04084917 -0.00954684
0.08363735 0.13431169 0.12779166 -0.031953245 0.017988162 0.091262944 -0.09649085 -0.17632055
0.06459466 -0.16735947 0.056113224 0.04112486 0.11221014 0.083701566 -0.12063946 0.053994272
0.078204945 -0.018807562 0.049452797 -0.08237018 -0.0919215 -0.15652452 0.0032131586 0.002372648
-0.11872238 -0.120004185 -0.110355265 0.13161175 0.17471421 -0.14525019 0.13027103 -0.0020425264
0.028303761 -0.028231071 -0.04264301 -0.11082989 -0.068964586 0.10021699 0.05212541 -0.07289172
-0.050386433 0.0029276118 0.13381796 0.0440763 0.11175185 0.050353408 -0.118478194 0.08803546
-0.10833554 0.1138014 0.08493397 -0.097615235 0.11183541 -0.11492709 0.09535194 -0.15382923
0.12374078 -0.11765324 -0.10270405 0.12021253 -0.10655011 0.11217953 0.12620717 0.04830437
-0.13527715 -0.061889373 0.12357059 -0.07672636 -0.0139361955 0.13278094 -0.0736624 0.12101232

sentiment_branch.lstm_layers.0.weight_hh_l0 f4 [192, 48]
00000000: d820 163d 790b bdbd 8350 b13c 4fcb 6abd
00000010: 38fc bfbc 4f5d b7bd 2de8 2e3d 4917 fabd
00000020: 0fec 3cbd 75f1 d8bd 1fa6 4fbd 28ba d23d
00000030: f66b dcbd 6686 b23d 0472 103e ab97 6cbc
00000040: 2842 9b3d bbe9 823c 4ea5 c7bc e4a9 463d
00000050: f382 43bc c9e6 653d 6c48 643d 378e c33c
00000060: c81a ce3d 13c9 0c3c edd6 15be 2433 f23d
00000070: 4117 b23d 7d1f ab3d 0f72 b53d a8d0 043d
00000080: 4866 1fbe 3a90 fcbd 2c81 2abd c4ce e5bd
00000090: 7b91 1ebd 18d8 ebbd aa87 29bd 5f84 283d
000000a0: 5cb4 0c3e f745 16be 01fd 513d 20b8 0a3d
000000b0: e849 92bc a060 e9bc 400e f33d 0c3a e13d
000000c0: 01ac 043e 192d ad3c 3509 f73d 2cc1 bc3d
000000d0: 326f c33d ffe1 2c3b 4626 20be 8971 f1bd
000000e0: 789f 363e e36e 853c 4c05 d4bd 1278 183d
000000f0: c7c1 01bb 9fd3 1fbe 89d0 9a3c 5161 733d
00000100: 6b92 81bd 5104 31ba f969 dfbd afaf a9bd
00000110: 3a79 7bbd 92cb 153e 5366 9dbd 4b6f 233e
00000120: 5848 99bd 3147 f6bd 660b 7fbd ee01 8f3d
00000130: e935 bdbd b4ed 1d3c 42df 723d 07a1 dfbd
00000140: 7a02 f33c 7702 883d 3c30 b73d 62f8 843c
00000150: be5e 963d 4d5f 193e 0fc4 dcbd d2ce 78bc
00000160: 5ee2 40bc ffd5 8bbc 7716 da3d 63fa 903d
00000170: 4e16 31bd 3970 c6bd 0cef 483e d5f5 0abd
00000180: 55ed 24be 154f 213e 1bb4 f83d 8191 333e
00000190: b8d7 5a3c 4b3a c83d 23ad 183e 47f4 3b3d
000001a0: bb86 c63d 5e01 18be 0088 74bd 3971 2b3e
000001b0: 8e9b 0e3e 82f9 e2bd 3cf1 253d 9253 333e
000001c0: ad54 223e a8c9 cdbc 37c2 bdbc 0ca8 05be
000001d0: 0167 c63d cc62 c8bd 9e24 a33a 17e3 96bd
000001e0: 9448 fe3d 8587 80bd 45b3 e1bc 3c3a 38bd
000001f0: fd27 ed3c a9c5 503e 36a3 4e3e f2c2 b53d
00000200: 564c 183e 9a09 85bd 4cf9 fbbd 836f 8cbc
00000210: 8aa1 5bbd 4144 143e 9f6f 83bd fc0a 893e
00000220: ce44 2cbe 6003 683d 3889 153e eb2c 263d
00000230: ca28 313b 438d 4e3d 6199 c33d 0344 05be
00000240: 1ed2 d43c 63ce 5bbd f66a 983d 2174 a53d
00000250: 1c15 12bd ddd9 4b3d 3f14 093e 6a2d 623d
00000260: 0a11 51bd a5f8 bcbd 1bbe 633d 26d0 09be
00000270: dd97 e33d b1b1 313d 7be2 56be 3668 2e3c
00000280: e91a 173d bc5d 563c 2e8c e13d 2c8a 1f3d
00000290: 29ca b03d d9ae a43c 6ffc 973d fe5a 95bd
000002a0: 25e6 023e 784e 47bd 490a 573d 4a41 3c3e
000002b0: 3d4b 023e bd8a 3cbd d823 b5bb caa2 e53d
000002c0: e3a0 173e 008c 883d 0278 283d 9bfe e3bd
000002d0: 3852 223d e1dc e83d abf9 7f3d 837d a3bc
000002e0: 25ca 17be 9048 fabd 4760 3ebd 19bf 893d
000002f0: 1043 0f3e cadd b03d 2efc a6bc b148 223d
00000300: bd20 2bbd 1e48 6abd bb60 f2bd 98cd 2ebe
00000310: 7f8d febd 83f0 33be 634d 94bc 5dba 27bc
00000320: 8392 1e3e 1523 92bd c157 0a3e 86ea 1a3e
00000330: ddc2 403d 0091 e53d 317f 613d 838f 923d
00000340: 478f 9a3d accf d5bd 57f4 87bd 8865 753d
00000350: f815 04be 3b1a 21bd 4d3c a03d 6b74 09be
00000360: 94cf c2bc 7742 65bd 9f86 913d 25ff b9bb
00000370: 9f8a 74bd 53d8 91bb 897b 95bc 6825 abbc
00000380: b510 003d c587 d3bb 9763 97bd 90ab 2f3b
00000390: f742 853d 7dee 25bd 602f bc3d f0bf 0cbe
000003a0: c7bb 4b3d 6a6b 82bd 09b3 033e cfcd f3bd
000003b0: fa48 643c b77f 98bd 6e78 a0b9 fcff bcbc
000003c0: b5eb 47bc 9cbf 223e 3dcd 21bd fb89 013e
000003d0: 2760 2cbe 3cd7 253e 3aad 32bc 51e4 29bd
000003e0: 9ecf f2bd 6fe6 dc3c d3a3 4bbb 8ea6 e73d
000003f0: a52c 943c 89c4 bdbd f24b b23d 75bb c6bc
0.036652416 -0.09230704 0.021644836 -0.057322796 -0.023435697 -0.08953344 0.04270189 -0.122114725
-0.04612356 -0.10592929 -0.050695535 0.10289413 -0.107627794 0.08717041 0.14105994 -0.014440457
0.07580978 0.015980592 -0.024370816 0.048501864 -0.011933076 0.056128297 0.05573313 0.023871524
0.10063702 0.008592862 -0.14632769 0.118261606 0.086958416 0.08355615 0.088596456 0.032425553
-0.15566361 -0.123321965 -0.041627094 -0.11221078 -0.03871296 -0.11515826 -0.041389145 0.041141864
0.13740677 -0.14675127 0.051266674 0.033867 -0.017857507 -0.028488457 0.11867952 0.109974
0.1295624 0.021139668 0.12062303 0.09216532 0.09542693 0.0026379821 -0.156396 -0.11789233
0.1783427 0.016288226 -0.10352573 0.037223883 -0.0019799338 -0.15608071 0.018898265 0.05941898
-0.06326755 -0.00067526574 -0.109088846 -0.08285462 -0.061394908 0.14628437 -0.076855324 0.15960424
-0.074845016 -0.120252974 -0.06226673 0.0698279 -0.09238798 0.009639192 0.059294946 -0.109193854
0.029664267 0.06641095 0.08944747 0.01623172 0.073422894 0.1497776 -0.10779583 -0.015186029
-0.01177272 -0.017069815 0.10648816 0.070790075 -0.043234162 -0.096893735 0.19622439 -0.03392585
-0.1610616 0.15752824 0.121437274 0.17535974 0.013357095 0.097767435 0.14909796 0.045887258
0.096936665 -0.14844272 -0.059700012 0.1674241 0.13926527 -0.11082746 0.040513262 0.17512348
0.15852614 -0.025120571 -0.023163898 -0.13052386 0.09687615 -0.09784469 0.0012446826 -0.07367533
0.12416187 -0.06275848 -0.027551303 -0.04497741 0.028949732 0.20387901 0.20179448 0.088750735
0.1487287 -0.06495972 -0.12303409 -0.017143017 -0.053620853 0.14479162 -0.064177744 0.26766193
-0.16823122 0.056643844 0.14603126 0.04057018 0.0027032369 0.050427686 0.09550739 -0.13014226
0.025979098 -0.053663623 0.07442276 0.080787905 -0.035664663 0.049768317 0.1338663 0.05521909
-0.05104164 -0.09227113 0.05560122 -0.13458309 0.1111295 0.04338235 -0.20984833 0.010644963
0.036890898 0.013083871 0.11013065 0.03895013 0.08632309 0.020102905 0.07421195 -0.07292746
0.12783106 -0.048658818 0.052500043 0.18384281 0.12724014 -0.04603075 -0.0055279545 0.1121269
0.14807467 0.06667328 0.041130073 -0.111325465 0.03962919 0.11370254 0.06249396 -0.01995731
-0.14823206 -0.122208714 -0.046478536 0.06725902 0.13990426 0.08636053 -0.02038392 0.039620105
-0.04177927 -0.057197683 -0.11834856 -0.17070615 -0.12429332 -0.17572217 -0.018103307 -0.010237304
0.15485577 -0.071355976 0.13510038 0.15128526 0.047060836 0.11209297 0.05505294 0.07156279
0.07546859 -0.10440001 -0.06638401 0.05991128 -0.12899005 -0.039331656 0.078240015 -0.13423316
-0.023780622 -0.05597159 0.07105755 -0.0056761676 -0.059702512 -0.0044508367 -0.018247383 -0.02089186
0.031265933 -0.006455394 -0.07392042 0.002680514 0.06506913 -0.040510643 0.091887236 -0.13745093
0.049739625 -0.06368144 0.12861265 -0.11904489 0.013933415 -0.07446235 -0.00030607305 -0.023071282
-0.012202193 0.15893406 -0.03950237 0.12650292 -0.16833554 0.16195387 -0.010905558 -0.041477505
-0.11856006 0.026965348 -0.0031072989 0.11311065 0.018087694 -0.09266002 0.08705892 -0.024259308

sentiment_branch.lstm_layers.0.bias_ih_l0 f4 [192]
00000000: a4b3 d93d 7dce a2bd 95c7 033e 1742 c5bd
00000010: 3f5a 0cbd 6d70 ce3d f593 5a3d a0c7 1b3e
00000020: a27e 99bd b811 98bd c992 283e b67b 963d
00000030: 1082 b73c d3fe 503d 9dfe c03d 658a 733d
00000040: b97d 2abd 2c6f db3b 1301 d7bd 83e2 06be
00000050: 5d3a 933d 23ee 093e d192 6c3c 67e4 4ebd
00000060: 3e39 d7bd c74c 853d 4fe3 123e 700a 8d3d
00000070: c99c cfbc 7bb8 223e 3b77 2dbe cfee d93d
00000080: 3885 ba3d 193e 64bc 3116 0b3d eb5a 613d
00000090: 8464 e6bd 70b5 d63d 069f 243e 718a 80bc
000000a0: 93bf f93b 9285 9dbd e4cf bbbc 286a 0ebe
000000b0: b155 db3d 6d79 b7bd 2895 053d 4edd b83d
000000c0: 5ec7 eb3d 41e2 023e 7ea5 483e cd40 cdbd
000000d0: 4f1a 12be f781 8abd 9637 67bd 6a44 b03d
000000e0: 6342 0d3e 2315 22bc ceb1 2f3e faa2 f03d
000000f0: 3e58 8a3d dd63 e4bd 7abc ab3d 5fe1 9f3d
00000100: 9dc4 9f3d e22c 4ebb ccc5 82bd e365 943d
00000110: 079e 8e3c c7fa 723d e963 d03d c2c8 06bd
00000120: c8bd a6bd 9d07 a83d 54ad 393e 0ed5 df3b
00000130: 3909 b6bd a250 113e 775d 1eba dd01 8bbd
00000140: 24c1 393c c697 9cbd bb75 a43d 50d8 633d
00000150: 86b7 1d3c f592 5abd ee8a 113e 1aac 04be
00000160: 2fb4 4f3d d2bd c53d 86b4 493d 3961 693d
00000170: ce1b 29bd 33a0 213e 8aba b1bd 609b eebc
00000180: 3553 00be b63c cfbd 2c5f f03d fbca af3d
00000190: 9425 893d 11a2 32bd f17b 3f3d 990c cc3c
000001a0: c904 193d 7038 15ba 6bfa 7e3d 00d2 983d
000001b0: 9436 633d 8df4 9b3d 1d03 3cbd 0763 5d3d
000001c0: a95e 8fbc db89 86bb 07d2 6f3d 6a82 5bbc
000001d0: 8132 0b3e ad12 953c c0fc b8bd 7ab6 eebd
000001e0: 7c08 da3d 1be9 50bc 19a4 53bc 4d56 ef3c
000001f0: dd10 c33d 0e1a 0e3c f036 87bd 9be0 133e
00000200: 3eda 143e 7034 5fba bf64 e73c 9b61 d9bd
00000210: c0de bebc 9f74 483d f03a 963d a1c3 7c3c
00000220: 99ad b1bd c40f 823d f1cb 33bd 7edd 203b
00000230: b48d 68bc 4d9b b23d 8ab0 013e d070 e4bd
00000240: 964c 82bd f823 09be ac97 65bb 1c70 a83d
00000250: d708 ce3c 3d6c ca3c 26a5 843d 4241 dcbd
00000260: 2e7c c2bd 3fbb 43bd 3357 59bc e352 26be
00000270: d409 ed3d c192 7a3d 171b 0abe 0bf3 adbd
00000280: da0d 57bd df12 46bd 3ad9 e0bd 961d 3fbc
00000290: 114f 873d bd1d ed3d 626d 083d 1690 06be
000002a0: 28d1 8a3d 0a33 0d3e 3e1f d6bd 5269 52bd
000002b0: 24fe a53d 5221 acbc 9480 813d 37db 8a3d
000002c0: ef39 9aba 9c1d ac3a d855 ddbd 6204 7fbc
000002d0: 7d64 143a f707 ba3d 8594 263e 1529 4cbd
000002e0: 5685 87bd 57a7 053e d9ab dd3d bbc4 10be
000002f0: 07c6 da3d 9106 313e 39b1 ed3d bf14 5d3e
0.10629967 -0.07949541 0.12869103 -0.09631746 -0.034265753 0.10080037 0.05336376 0.1521287
-0.074948564 -0.074252546 0.16462244 0.07347815 0.022400886 0.05102427 0.09423564 0.059458155
-0.041623805 0.0066966023 -0.10498252 -0.13172345 0.07188866 0.13469748 0.014439301 -0.05051079
-0.10508965 0.06508785 0.14344524 0.068867564 -0.025343316 0.15890686 -0.16940014 0.10641252
0.09107441 -0.013930821 0.03395671 0.055018347 -0.112496406 0.10483825 0.16076288 -0.015691014
0.0076217144 -0.07691492 -0.022926278 -0.13907683 0.10709704 -0.08958707 0.03261295 0.090265855
0.11512636 0.12781622 0.1959438 -0.100221254 -0.14267848 -0.0676307 -0.056449495 0.08606799
0.13794856 -0.009892735 0.17157671 0.11749835 0.06755112 -0.1115186 0.083855584 0.07806658
0.07801173 -0.0031459858 -0.06385383 0.07245996 0.017409338 0.05932119 0.10175306 -0.0329063
-0.08141667 0.08204577 0.18132526 0.006830818 -0.08888478 0.14190915 -0.0006041149 -0.06787465
0.011337552 -0.07646136 0.08030268 0.055626214 0.009626275 -0.053362805 0.14213154 -0.12956277
0.050708946 0.09655346 0.049244426 0.056977484 -0.041286282 0.15783767 -0.08678158 -0.029126823
-0.12531741 -0.101190016 0.117369026 0.08583637 0.066966206 -0.04361159 0.04674906 0.02490835
0.03735808 -0.0005692309 0.062250536 0.07461929 0.05547197 0.07615004 -0.045901407 0.054049518
-0.017501192 -0.004105789 0.058549907 -0.013397792 0.13593484 0.018197382 -0.09032583 -0.116558984
0.106461495 -0.012750889 -0.012917542 0.029215956 0.09524701 0.008673204 -0.06602275 0.14441149
0.14536378 -0.00085145887 0.028246282 -0.1061432 -0.023299575 0.048939344 0.0733546 0.015427501
-0.08675689 0.06350663 -0.043895666 0.0024546082 -0.014193941 0.087210275 0.12665 -0.1115433
-0.06362264 -0.13392627 -0.003503303 0.08224508 0.0251507 0.024709815 0.06476812 -0.107546344
-0.09496342 -0.047785994 -0.013265419 -0.16242556 0.1157414 0.06117511 -0.13486896 -0.084936224
-0.052503444 -0.04835784 -0.10978933 -0.011664769 0.066068776 0.11577938 0.03330744 -0.13140902
0.06778175 0.13789001 -0.10455178 -0.051369973 0.08105114 -0.021011982 0.063233525 0.06780093
-0.0011766533 0.0013131383 -0.10807389 -0.01556501 0.0005660726 0.090835504 0.16267593 -0.049843866
-0.06617229 0.13052116 0.10823793 -0.14137547 0.10682302 0.17287661 0.11606068 0.21589945

sentiment_branch.lstm_layers.0.bias_hh_l0 f4 [192]
00000000: b40e cebc a361 e43d b569 4e3e c34c dc3d
00000010: ce1b c13d 8a9b 79bd b3a9 823d d600 c03d
00000020: 508d babc aad5 f53d 8f45 fcbc 6aef b3bd
00000030: 3a49 b13d 5874 e5bd 6e0a 0fbe c3f8 98bd
00000040: 927a 173c fa7e 68bd ffa6 cfbd 02c8 4cbd
00000050: 34ab 6fbc aeb2 013d cdca 9e3d 354b 6c3d
00000060: c4f2 57bd 31ea 76bc e86c ed3d df1b afbd
00000070: 1965 d63d e6f4 a6bd ab47 be3d e838 203e
00000080: da21 f6bd 3c27 bc3d f0b3 593d 352c 02bb
00000090: ed83 acbd b76b 7dbc aed7 3e3d fcae 143c
000000a0: cbbe c13c f834 c13d 3cb3 cabd 78d0 f33d
000000b0: 59f6 cfbd 7067 fdbd d518 bbbd 54e4 8ebd
000000c0: 4632 8cba 9f0f 86bd fcfe 153e 97ee 1ebd
000000d0: 53e0 ea3d 38fb 3d3d e48a e2bd 6312 cdbd
000000e0: c53c db3d d59d d63d 68cf 343d 9172 25be
000000f0: c782 bebc f0c0 fe3b b5d0 02bd ade4 653d
00000100: 54a3 a63d 2bda b63d 9ff4 9b3b e89b 15be
00000110: fec4 003d 739c 823d 2921 dc3d bdde f0bb
00000120: 4cb1 d73d 38da 7c3d 27ef 19bd 47ee d8bc
00000130: 6522 60bd 0128 d5bd fb14 03bc 1956 aebc
00000140: 1059 e33d 2fa4 1dbd 8010 19bc de3e 7cbd
00000150: c84e 64bd c0e8 c1bd 97f5 a73d 6ff1 b6bd
00000160: ead2 0fbe 2dbe c5bc 7b68 833d 45af 54bd
00000170: 9208 0fbd b458 273e 2761 49bd 697b bd3d
00000180: ccd6 f0bd 45d2 903c 3092 cfbd 68b3 5e3c
00000190: 21b2 02bc 1fd4 3dbd 39bb d33d 4300 3ebd
000001a0: e1ab 21bd dbc0 fabd 53b9 f2bd 4a5b be3d
000001b0: d339 263d f985 ab3d 7543 cbbc 2b1a d33d
000001c0: d8d2 11be dbea d1bb 9ead c33d ded9 b73d
000001d0: ee33 10bc 3aa4 543d 6d91 003d f5b5 17bd
000001e0: 9752 26bd 4aea 8f3d 5c54 39bd c076 af3c
000001f0: 62c6 593d 1185 04be b540 5c3d 8f94 62bd
00000200: c06d db3d 47d1 c93c 3cb3 ca3d 840c f7bd
00000210: 5c4d 9b3d 8d99 19bd 3730 4fbd 2e9d a73d
00000220: f891 f83d 3121 603d e075 163d 2e37 1a3d
00000230: 3e04 c13d 7fa0 94bd e86c acbd a342 0bbc
00000240: 102b 823d 8f59 0cbc ab5d 473e c161 f43d
00000250: 5818 99bd 32b1 14be 9cdc 893d b41a c6bb
00000260: 2a8f 73bc b98a 57bd 9720 7b3c 6d2f 583d
00000270: 979d 4cbd 6e7e 09bc 7831 ef3d 29c0 94bc
00000280: a8ad 7c3d dda7 9c3c 7e0a 213d 9dfb 893c
00000290: 3d54 dcbd fd0d ecbc fb30 65bd 2b05 ddbd
000002a0: b036 013d 94f4 57bd 6141 9a3d 5677 bdbd
000002b0: ca80 00be 2fec a43c 85c2 c43d 9e55 9bbd
000002c0: 8e79 b5bd 6fd9 193e 9e97 10be 0070 21be
000002d0: a86d 8dbd 6a9c a43d 84b7 a93d 0946 f8bc
000002e0: a2e4 e7bd 5d59 273e 871a debd 6bb7 88bd
000002f0: 992f b2bd 1616 98bd f025 963c 545a 70bd
-0.025153495 0.11151435 0.20157512 0.10756829 0.094291314 -0.06093935 0.06380024 0.093751594
-0.022772461 0.12003644 -0.030794887 -0.08785899 0.08656545 -0.112038314 -0.13968822 -0.074693225
0.009245532 -0.05676172 -0.10139274 -0.04999543 -0.01462822 0.031664543 0.07753525 0.05768891
-0.052721754 -0.015070484 0.11593038 -0.08550238 0.104685016 -0.081521794 0.09291013 0.15646708
-0.120181754 0.09187171 0.053150117 -0.0019862775 -0.084236 -0.015467576 0.046592407 0.009074923
0.023650547 0.09433931 -0.098974675 0.11904997 -0.10154409 -0.12373245 -0.09135596 -0.06977144
-0.0010696135 -0.06545948 0.1464805 -0.038801756 0.11468568 0.04638216 -0.110616475 -0.100132726
0.1070495 0.10479323 0.04414311 -0.16156985 -0.023255719 0.007774465 -0.03193732 0.056126285
0.08136621 0.08928331 0.0047593857 -0.14610255 0.031437866 0.063774966 0.10748512 -0.007350771
0.105318636 0.061731547 -0.03758159 -0.026480807 -0.0547203 -0.10408021 -0.008000608 -0.021281289
0.11100972 -0.038486656 -0.009342313 -0.061583392 -0.055739194 -0.09468222 0.082011394 -0.089327686
-0.14045301 -0.024138534 0.064164124 -0.051924963 -0.034920283 0.16342431 -0.049164917 0.09252054
-0.11759719 0.01767839 -0.10135305 0.0135925785 -0.00797704 -0.046344873 0.10338444 -0.04638697
-0.039470557 -0.122438155 -0.11851754 0.09294756 0.04058249 0.08375163 -0.02481244 0.103077255
-0.14240587 -0.006406171 0.09554599 0.08977102 -0.0088014435 0.05191443 0.03138869 -0.037038762
-0.040606108 0.07027109 -0.045246467 0.02141893 0.05316771 -0.12941386 0.053772647 -0.055317458
0.107142925 0.024635924 0.098974675 -0.12062934 0.075831145 -0.037499953 -0.05058309 0.081842765
0.12137216 0.054719154 0.036733508 0.03765028 0.09424637 -0.07257175 -0.0841921 -0.008499774
0.0635587 -0.008566274 0.19469325 0.119327076 -0.07475346 -0.1452072 0.06731531 -0.0060456637
-0.014865676 -0.05262253 0.015327594 0.052779604 -0.049954977 -0.00839196 0.11679357 -0.018158035
0.06168905 0.019123012 0.039316647 0.016843611 -0.10758255 -0.028815264 -0.055954915 -0.10792001
0.031546295 -0.052723482 0.07532001 -0.09251277 -0.12549129 0.020132152 0.09607414 -0.075846896
-0.08861075 0.1502435 -0.14120337 -0.15765381 -0.06905681 0.08037646 0.08286956 -0.030306833
-0.11322905 0.16342683 -0.108449034 -0.06675609 -0.08700485 -0.074260876 0.018328637 -0.058679894

sentiment_branch.lstm_layers.1.weight_ih_l0 f4 [96, 48]
00000000: f578 acbd 4b60 bebd c313 d0bd af09 9bbc
00000010: 4e9a 34bd dfc3 ccbd 5e3b 36bd 183d b4bd
00000020: 5e1e 2dbe 58fb a53d b5a8 0ebe 17bc 1ebe
00000030: d62c aebd faa4 3d3e 0623 acbd f589 d83d
00000040: 3864 053e b840 bfbd feda f1bd 48aa 293e
00000050: b413 433e f3c9 33be 407c 7a3d 41d4 60be
00000060: e619 d0bd 184c 713d 184c 353d 5119 1dbc
00000070: 2ab7 263e e5c7 093e 12ed b13d f4ca b1bd
00000080: cdf7 fc3c 104d 563d f223 e5bd ef15 8cbb
00000090: 8907 ccbd ed80 2dbd 1d71 cfbc 03eb 24bd
000000a0: adb8 67be 1585 6d3c 0142 12be c7dc c13d
000000b0: f823 de3d cd19 253e d73c 203e 0fa3 c73c
000000c0: 14d4 943d 43cf 6c3e f9a7 b03d 6e41 103e
000000d0: 9af7 873d 833f 903d 5fa0 53be 2d13 213e
000000e0: 51f5 d53d ef19 f63d 95b2 be3c 70f5 483c
000000f0: 4440 24be 4ff5 1b3e f165 443e c0c6 16be
00000100: 92a7 a03d a430 1dbd 58c3 0cbe e0f7 8c3c
00000110: 0d0f 963d aa04 23be 7ff1 5b3e 14ff 17be
00000120: abce 473e 8f65 1c3e 8ba6 96bd 3b26 f5bd
00000130: 018f 383a d32e 4f3e 408a 293e 985d 39be
00000140: 9bda a03c 50f3 f83c 390b c1bb 8623 39be
00000150: a6be 5cbd 082b 21be 3d25 303a ea40 24bd
00000160: 87f4 3b3e de5d 013d 7b7b 1c3e 4d6d 11be
00000170: 0308 3fbe 9080 02be 4a35 68bc a9d9 923d
00000180: 16f4 273d 7fbc ca3d 9c5b 07be 990a fcbd
00000190: 609b ec3d 0688 1f3e de66 bdbd 2854 b8bd
000001a0: 3c08 103e 1e82 853d 3021 ec3d 74db d7bc
000001b0: 6e4e 31be 5f5d 2fbe 8b21 99bd ffa1 c53c
000001c0: 5603 9abb 5728 2dbe 1755 61be a8a6 82bd
000001d0: 383c 2c3e e8e1 dd39 714e ecbd a573 56bd
000001e0: b1f6 13bd c8e0 b3bc 84cc 95bd 798a 103e
000001f0: b1a7 d8bc 7263 013e 0204 d6bd 8b7c 34bd
00000200: 89cd 303d 99b3 25be e49f 9e3d 2e8a 123e
00000210: a856 51be a245 47bd a33f 913d 78dc a13d
00000220: 0564 a7bd 95aa 1d3d 19fe c7bd c11e 22be
00000230: c96d 14be f6bb 3fbd d11f debd 542e 1e3e
00000240: 8e13 193e 5cf1 16be 7681 ea3d 7cb0 91bd
00000250: 35ba 59bd 42ec 0cbe 9b50 853d 17ce e4bd
00000260: 8db3 b83d 743a 1ebe 7732 acbc cc3a cfbc
00000270: 0580 9cbd 15a1 73bc 6c6d d43d 2797 4cbe
00000280: 5b44 dbbd 798c 103d 7642 a6bd e7de 8a3d
00000290: e29f af3d fe11 0bbe 7244 2dbd 6cd6 d23d
000002a0: 4c35 99bd 9275 0d3e e285 db3c bf68 193e
000002b0: 9fcb d5bd 4d24 0dbe c1cb eabc 113d 01be
000002c0: 8ba3 3fbe 6f38 26be 0af8 e03d 114d 603d
000002d0: e44f b6bd 7c14 8d3b 3b1d 29be 92e8 cf3d
000002e0: a530 3c3e 8503 acbd d324 7bbc 003d 343e
000002f0: 383a b1bd ddd3 313e 51cf bebc 1c7a 31be
00000300: 0354 6e3c b23c 59be 3a9c 473e f7af 5f3e
00000310: 9d3a 1dbd b135 60bd 2cb2 34be 2099 a13d
00000320: bafb e03d 6f59 24bd 3469 1fbd e370 c93d
00000330: ec12 1fbc 08fc 9a3d c02e e33d 3e28 113e
00000340: d6f1 ccbd 5b47 d33d abd1 3cbd eba7 b5bb
00000350: f24b c53b ce9a 04be 8d17 44bd fd27 2d3e
00000360: bdcf 24be c094 333e 5d30 38be 9a61 2dbe
00000370: fc0e e83d 0926 63bd ac80 f3bd ded9 2bbe
00000380: e013 42bd 1f0e ce3d 6b01 e33d 9263 e7bd
00000390: 0fe1 64bd 7cbc 56bd c2ec 50be 0abd 923d
000003a0: 1a09 1fbe 4c91 9bbc c440 16be 4f17 1a3e
000003b0: 1083 913d c76b fabd 3d8e 1abe 3458 503e
000003c0: 8fb1 4f3e 3ab2 b63d 75ea 16be c914 1ebe
000003d0: 02ee 18bc 2832 44bd 0fb5 0d3e e8ad 3d3c
000003e0: c016 cdbd 8b90 65bd eb95 bcbd d93b 22be
000003f0: 033b 90bd d57b e23c cb0b 1fbe f1a3 493e
-0.08421508 -0.0929571 -0.10160019 -0.018925516 -0.04409247 -0.09998297 -0.04449021 -0.08800715
-0.16906115 0.08104581 -0.13931544 -0.15501438 -0.085046455 0.18519965 -0.08405118 0.10573188
0.13026512 -0.09338516 -0.118093476 0.16568863 0.19050485 -0.17557506 0.06115365 -0.21955968
-0.1016119 0.05891046 0.04426202 -0.009588555 0.16280809 0.1345516 0.08687796 -0.08681288
0.03087988 0.052319586 -0.11188497 -0.0042750756 -0.09962375 -0.04235928 -0.025322491 -0.040263187
-0.22629042 0.014497061 -0.14282991 0.09465938 0.10846704 0.16123123 0.15648209 0.024369745
0.07267013 0.23125939 0.08625788 0.1408746 0.06639023 0.07043364 -0.20666645 0.15729971
0.10447181 0.12016665 0.023278514 0.012265548 -0.1604014 0.15230297 0.19179513 -0.14724255
0.078444615 -0.038376465 -0.13746393 0.01720804 0.073270895 -0.15919748 0.21478842 -0.14843398
0.19512431 0.15273117 -0.07355984 -0.119701825 0.0007040352 0.20232706 0.16556644 -0.1810211
0.01963549 0.030389458 -0.0058912304 -0.18079957 -0.053892754 -0.15739071 0.0006719416 -0.04010097
0.18354999 0.03158366 0.15281479 -0.14201851 -0.186554 -0.12744355 -0.014172861 0.07170422
0.041004263 0.09899234 -0.1321854 -0.12306709 0.11553073 0.15579233 -0.09248136 -0.090004265
0.14065641 0.065189585 0.115297675 -0.02634976 -0.17315075 -0.17125462 -0.07477101 0.024125097
-0.0047001047 -0.1690992 -0.22005115 -0.063794434 0.16819847 0.00042320718 -0.11538399 -0.05235638
-0.036123935 -0.02195777 -0.07314399 0.14115323 -0.026447149 0.12635592 -0.10449983 -0.044064086
0.043164764 -0.16181792 0.077453405 0.14310524 -0.20443213 -0.04865039 0.07092216 0.07903379
-0.08173374 0.038492758 -0.09765262 -0.15832044 -0.14495005 -0.046810113 -0.10845912 0.1544736
0.14948866 -0.14740509 0.11450474 -0.0711374 -0.053156096 -0.13762 0.06509515 -0.11172121
0.090186216 -0.15451986 -0.021020157 -0.025296591 -0.07641605 -0.014869948 0.10372433 -0.19979535
-0.10706397 0.035290215 -0.08118145 0.067807965 0.08575417 -0.13581082 -0.042301603 0.10294804
-0.07480869 0.13814381 0.026797239 0.14981364 -0.10439228 -0.13783379 -0.02866161 -0.12620951
-0.1871473 -0.16232465 0.1098481 0.054760996 -0.08901957 0.0043054204 -0.16515057 0.10151781
0.18377931 -0.08399109 -0.015328604 0.17601395 -0.086536825 0.17365976 -0.023292216 -0.17331737
0.014546397 -0.2121456 0.1949319 0.21844469 -0.038385976 -0.054738704 -0.17646092 0.078905344
0.10985513 -0.040124353 -0.03891869 0.098359846 -0.009709101 0.075676024 0.11092901 0.14175507
-0.10007064 0.10316344 -0.046098392 -0.005543699 0.0060210163 -0.12949678 -0.047874022 0.16909786
-0.16094871 0.17537212 -0.17987199 -0.16931763 0.11330983 -0.055456195 -0.118897766 -0.16782328
-0.047382236 0.10061287 0.11084255 -0.112982884 -0.055878695 -0.052425846 -0.20402816 0.071649626
-0.15530816 -0.018990181 -0.14673144 0.15047954 0.07105076 -0.12227588 -0.15093322 0.20346147
0.20282577 0.08920713 -0.14737876 -0.15437616 -0.009334089 -0.047899395 0.138386 0.011577107
-0.10014105 -0.05604605 -0.09208282 -0.15843143 -0.070425056 0.027646938 -0.15531842 0.19691445

sentiment_branch.lstm_layers.1.weight_hh_l0 f4 [96, 24]
00000000: e717 ecbd 1bfc d33d 2b23 f2bd 4b3c 383e
00000010: 25b3 51bc 590a c33d 91e1 1ebe 073d 6b3d
00000020: ce9e ff3d e81d 3bbd 9b85 dc3d 0469 febd
00000030: c6f4 ecbd 2774 44bd 00c5 15be dd39 033e
00000040: be0f e03d 1ace a63d ab7b c8bd 7c2e aa3d
00000050: 10f3 2e3e 6bd6 0abe 60c6 43bd 6b36 54bd
00000060: 2c92 31be 2eac 15be 0c99 cebc 6fb0 b83d
00000070: 99c3 90bd 9576 2f3e b591 2bbd 8816 2fbe
00000080: 0bb7 fbbd c903 f63c 6f0b df3d 194a 5fbd
00000090: 05da bcbd 76a8 3e3c 103e 583d 305a 3c3e
000000a0: 7d0e d7bd d913 da3d 6350 e43d 79f9 bb3d
000000b0: 3c59 063e 6882 9b3d 6b26 363d d114 0cbd
000000c0: c532 53be 3098 fdbd c40b 2fbd a431 de3d
000000d0: 241b cd3d 967c 823c 328d 173e 56de 0ebd
000000e0: 8178 f2bd ea63 29be 37b3 5f3d 63dc e3bc
000000f0: 6bf4 323e a937 223d 92f0 c4bd 5a71 90bc
00000100: 82ae 4f3d 9774 c93d ee73 8c3d cdc1 24be
00000110: 6aa8 b83d 6b2e 493d 45e2 46bd dd71 f93c
00000120: ba47 13bc 97df 23be 5d6b 4c3d 28ce 923d
00000130: f79d e33d 18ce 97bd 57fe aebd 211a 59bd
00000140: c8db 133d 53e6 ef3d b982 2f3e 0f5c 2c3e
00000150: d4d4 da3d 862b e53d e98d de3d 2cab 23be
00000160: 46f1 3fbd 9258 c6bd 9bf6 95bc 8ac4 093d
00000170: 93ec 963d 8ae6 67bd 0a8e 9ebd b220 033d
00000180: 2ac7 383e e2f3 36be cee6 523e 7dce 363e
00000190: 6a44 ee3d 0e09 5abd 7f94 14be 7aa2 4ebe
000001a0: 06c0 953d c4d5 2fbe 4a22 8d3d b0d8 a03d
000001b0: 84f9 ef3d 8f12 7ebd b7d8 6b3c 03e6 003e
000001c0: c9bd 8cbd 037e ad3d 6f54 32be ed31 653c
000001d0: abfd aa3d 6fa5 e2bd a5b9 4f3e fcf8 44be
000001e0: 253e 2abe 4561 8dbd 341a 333e 4f11 cd3c
000001f0: f8c1 cf3d e8cd b4bb 049d 9abc 9720 cbbc
00000200: 2663 02be 817e 41bd 5b3f cabd a024 47be
00000210: 4a26 05bd d16c 02be aa21 f3bd cd67 393c
00000220: 67da 18be 2cac 96bc abd4 15be 2f78 1ebe
00000230: 9fb4 b43d c28c 273e 06e1 a73d a86b 1a3e
00000240: d37f aabc 2c47 8cbd 3fc1 1ebe 1e0b 243e
00000250: 3866 a1bd 2ded d1bd 5570 a23d 1aaa b9bd
00000260: f0df 143e 9863 2abd 32c8 303e 1107 323e
00000270: 78ab 0ebe 7767 07be ba44 183e 7a8a 143c
00000280: ea72 1e3e 8c46 2d3e 3354 e5bd 03ee b73c
00000290: f90f 8f3d fb60 43be 035e 9c3d 0142 8f3c
000002a0: 5d17 0b3e 4be5 c13d 97d4 9dbc f1ce 3abe
000002b0: 78ee 493e c5ea ecbc 9945 0f3e e9c1 dc3c
000002c0: dec1 73be d21f 373e 0541 8e3d eb86 363d
000002d0: b18b 4a3c c681 0a3d cc1f d73c 7a11 25be
000002e0: df2c 973d 55cb 9ebc a53d 413e 8ee0 ff3d
000002f0: 3801 bebd b063 bebd e192 8fbc f324 1cbd
00000300: f222 5bbd b150 01be b9ab 053e 1136 263a
00000310: 5dc7 17be ee50 103e e584 213e fe39 39ba
00000320: 4cc3 263e bc4c 2c3e 2579 a03d c7de a43d
00000330: e1d5 25be 13d5 b1ba a3d4 4bbd a2d6 25be
00000340: 61f1 983d db46 29be f750 3f3d f8b0 1fbe
00000350: 4e2b 0f3c 351a 4dbc b9dc 213e aef6 b33d
00000360: 9a33 a4bd 8371 48be 390d 343e 1e39 cb3d
00000370: 3833 633d 50ab 40bd 323b d6bd 9b7a cc3c
00000380: 268d 9dbd 86c3 5bbe a366 ddbd 3828 243e
00000390: d889 103d 2f3f cbbd d7cf c0bd a98d e0bd
000003a0: df67 543e c1cb 093e 5a88 1f3e cc31 10be
000003b0: 437d df3d 6eb3 d4bd bf92 813d d0a8 6c3d
000003c0: 9d85 23be 1f32 733e d9d2 283d d538 213e
000003d0: 995f cfbc 1e77 623e ed73 813e a6ae cb3d
000003e0: ce09 5e3e 87c0 643e 9cc4 0d3e 3d75 21bd
000003f0: 7cc3 973d ba6a 02be 3ebd 5ebd 16b4 593e
-0.115279965 0.1035082 -0.11823114 0.1799175 -0.012799059 0.09523458 -0.15515734 0.057431247
0.124814615 -0.045682818 0.10767671 -0.12422374 -0.11570124 -0.047962334 -0.14625931 0.12815042
0.109405026 0.081447795 -0.09789213 0.083096474 0.17084908 -0.13558356 -0.047796607 -0.05180971
-0.17340916 -0.14616463 -0.025219463 0.09018027 -0.07068557 0.17135079 -0.041887004 -0.17098439
-0.12290772 0.030031102 0.10890853 -0.054514024 -0.092212714 0.011636844 0.052793562 0.18393779
-0.1050081 0.10648317 0.11148145 0.091784425 0.13119978 0.075932324 0.044470232 -0.03419954
-0.20624836 -0.12382543 -0.04273583 0.10849312 0.10014942 0.015928548 0.14799955 -0.034880005
-0.118393905 -0.1654202 0.054614272 -0.02781505 0.1747605 0.039603863 -0.09616198 -0.017632175
0.050703533 0.09836691 0.06858049 -0.16089554 0.090164974 0.049116533 -0.04855563 0.030449802
-0.008989269 -0.16003262 0.049907077 0.071682274 0.11114114 -0.07412356 -0.08544605 -0.053003434
0.03609827 0.11713853 0.1713971 0.16831993 0.10685125 0.11189942 0.10866911 -0.15983266
-0.046860956 -0.09684862 -0.018306067 0.0336347 0.07369342 -0.056616344 -0.077419356 0.032013603
0.18044725 -0.17866471 0.20595858 0.17852207 0.11634143 -0.05323129 -0.14509772 -0.20179167
0.07312016 -0.17171389 0.06891306 0.0785383 0.11717513 -0.062029418 0.014394931 0.12587743
-0.06872136 0.084713005 -0.17415021 0.013988954 0.083491646 -0.1106671 0.20285662 -0.19235605
-0.16625269 -0.06903318 0.17490464 0.025032667 0.101444185 -0.00551771 -0.018873699 -0.024795813
-0.12733135 -0.047239784 -0.09875365 -0.19447565 -0.03250722 -0.12736823 -0.11871655 0.011316252
-0.14927064 -0.018392645 -0.14631908 -0.15475534 0.08823513 0.16362289 0.08197217 0.1508013
-0.020812904 -0.068495125 -0.15503405 0.16019866 -0.07880825 -0.10250316 0.07931582 -0.090656474
0.1453855 -0.041598886 0.17263868 0.17385508 -0.13932598 -0.13223062 0.14869967 0.0090662185
0.15473524 0.16921443 -0.111977 0.02245236 0.069854684 -0.19079964 0.07635119 0.017487528
0.13583131 0.09467562 -0.01926641 -0.18243004 0.19719875 -0.02892054 0.13991393 0.026947932
-0.23804423 0.17883232 0.06945995 0.04456226 0.012362407 0.033815168 0.02626028 -0.16119948
0.07381605 -0.019384066 0.18871172 0.12494002 -0.09277576 -0.09296358 -0.017526092 -0.038121175
-0.053500123 -0.12628438 0.13053788 0.0006340454 -0.14822145 0.14093372 0.15773351 -0.00070658315
0.16285437 0.16826147 0.078356065 0.08050304 -0.1619487 -0.0013567529 -0.049763333 -0.16195157
0.074679144 -0.16530935 0.046708073 -0.15594852 0.008738352 -0.012518455 0.15806855 0.08787285
-0.08017655 -0.19574551 0.17583169 0.099230036 0.055468768 -0.047038376 -0.10460509 0.024960807
-0.076929376 -0.21461305 -0.10810592 0.16030967 0.035287708 -0.09924161 -0.09414642 -0.109645195
0.20742749 0.13456632 0.15579358 -0.14081496 0.10912564 -0.10385786 0.06326818 0.05777818
-0.15968938 0.23749588 0.041216705 0.15744336 -0.02531414 0.22115752 0.25283757 0.09945421
0.21683428 0.22339068 0.13844532 -0.039418448 0.074103326 -0.12736025 -0.054379694 0.21260104

sentiment_branch.lstm_layers.1.bias_ih_l0 f4 [96]
00000000: b194 25be 8951 d3bc 2834 19be 6430 3cbe
00000010: c017 6d3d 5cab 0dbe 1b1a 50be 9bfa 373b
00000020: 0ef1 3a3e fe00 a7bd dd50 e7bd d0b6 92bd
00000030: c384 b0bd f883 c93d c7c6 373d 7dd8 353e
00000040: fc44 473d 334b 223e 4fe9 62be 1813 21bd
00000050: 06e8 593d 0836 4dbd 2786 503e c82d 12bd
00000060: 4b58 37be 611e 1b3e 6ad5 e4bd 0ac8 d0bc
00000070: 2d44 6fbd 984e 913d 089c 4d3d b3b0 183e
00000080: 1c3b 413e 0edb b83c cb9f 08be 84e3 49bc
00000090: 2db6 46be f4bb b93d 19db 0fbe 2ee7 b0bd
000000a0: c3e8 babd 53b1 29be 73d7 163e a51e 14be
000000b0: 7961 cfbd e0c5 39be a50a abbd 371f abbc
000000c0: 5a58 203e a6dd bdbd aaaf e83a fc89 a03d
000000d0: 3d94 d93c 91ed ba3d b2f4 323e 6982 1cbd
000000e0: eb51 403e 3c9a 043e 8720 173e 03c1 0a3e
000000f0: df2c 1d3e 5ba3 c93d f8dc 5d3d 470e 0abe
00000100: 8853 d2bc 6a2b e83d 0015 82bd 813e 0f3e
00000110: 45e7 a2bd bad1 223e 1711 8e3d 6dde b4bd
00000120: 3594 44bd b2fd 2bbd 8b87 4e3d 3968 01be
00000130: 6a02 9e3d 384b 463e 448f 2f3e 75fe 11bc
00000140: b8a0 88bd 635e 043e 73d4 24be f022 353e
00000150: fe0a 0bbe a1ef 92bc ff11 0fbe 515b 423e
00000160: 73a0 25be fc34 f9bd 072f 2c3e d8b0 08be
00000170: 8117 d3bc 6569 0dbd 8d17 453d 6133 fbbb
-0.16170003 -0.025795715 -0.14961302 -0.18377835 0.057883978 -0.138349 -0.20322458 0.0028072956
0.18256018 -0.08154486 -0.1129472 -0.07163775 -0.08619072 0.09839624 0.044867303 0.17758365
0.048649773 0.15848999 -0.22159313 -0.03932485 0.05319979 -0.050100356 0.20363675 -0.03568819
-0.17904775 0.15148307 -0.11173518 -0.025486011 -0.058414627 0.07095069 0.05019763 0.14911155
0.18870205 0.02256539 -0.13342206 -0.01232231 -0.19405432 0.09069052 -0.14048423 -0.08637844
-0.09126427 -0.1657155 0.14730625 -0.14464815 -0.10126013 -0.1814189 -0.0835164 -0.020888908
0.15658703 -0.09270792 0.0017752547 0.078388184 0.026559943 0.091273434 0.17476156 -0.038210306
0.18781249 0.1294946 0.14758502 0.1355019 0.15349148 0.09845611 0.05416581 -0.13482009
-0.025674596 0.113364056 -0.06351662 0.13988687 -0.079542674 0.15900317 0.069368534 -0.08831487
-0.047992904 -0.04198999 0.050422233 -0.12637414 0.07715304 0.19364631 0.17144495 -0.008910765
-0.0667128 0.1292663 -0.16096668 0.17689109 -0.13578412 -0.01793653 -0.13971709 0.18980147
-0.16174488 -0.12168309 0.16814815 -0.1334871 -0.025768043 -0.03452434 0.048118163 -0.007666037

sentiment_branch.lstm_layers.1.bias_hh_l0 f4 [96]
00000000: 1a23 263e 7af1 39be 79c8 2fbd fa28 25bd
00000010: 07b6 bebd 352d 303d 7e3c cd3d 74e6 be3c
00000020: 850e 2b3e a025 30be 3fc8 dfbd 5362 783d
00000030: 30d2 c63d a869 36be 8f0f 2e3e 028b cc3d
00000040: 76b4 4ebe ee10 ee3d d33c d5bd 95fc 80bd
00000050: 3b97 09bc 6ab2 853d 9978 e03d fc61 8fbd
00000060: 952f 173e 31c4 8d3c a9d3 4fbe 5db0 06bd
00000070: af17 4bbe 3e15 0b3d 5060 17bd b5c4 19be
00000080: 9bd3 b03d b230 b63d 8ef0 2c3d 0074 8abc
00000090: 5c73 2d3e 56e0 26bd 2230 933d c375 5f3d
000000a0: dd9b 39be 3443 213e a315 21bd 4e92 933d
000000b0: 54e8 473e 1a8d 2c3e 5e56 523e 005c 103e
000000c0: b6ed c73d bf92 163e 3565 71bd c6ed 2cbd
000000d0: 5550 b73c 9f92 48bd 9c82 1f3e fb1f 313d
000000e0: 4a5e 003d 7480 be3d 4873 e6bd 495c 4bbd
000000f0: e72e ecbd 7cfb 38be d1da 37be e6ce 543e
00000100: c55d 51be a456 043e fac1 0dbe a537 47be
00000110: 9d6c c9bc c09d 223e 8b90 79bd 0cd2 5d3d
00000120: 5afe 173e 5ba3 f8bd 8e84 07be 89be 25be
00000130: 4662 003d cb37 24be 725f 7cbd 9e30 a3bd
00000140: 08b1 8ebd dfd5 4cbe 8a82 45bd e821 a7bd
00000150: 9a77 04be f93b f13c bdb5 26be bfac 49be
00000160: 770a 38be 6b62 e5bc 7030 31be 6fde 04bd
00000170: d1bb 0abe 2049 bd3d 409d 8e3d ce81 a23c
0.16224328 -0.18158522 -0.042915795 -0.04032228 -0.09312063 0.043011863 0.100213036 0.023303248
0.16704758 -0.17201853 -0.10926866 0.060640644 0.09708059 -0.17813742 0.16998123 0.09987451
-0.20186028 0.11624323 -0.10411992 -0.06298176 -0.008397873 0.065281704 0.10960502 -0.07001111
0.14764245 0.017305465 -0.20295586 -0.032883037 -0.19833253 0.033955805 -0.036957085 -0.15016444
0.086341105 0.08896007 0.0422216 -0.016901016 0.16938537 -0.040741287 0.07186915 0.054555666
-0.18125863 0.15748292 -0.039327275 0.0720564 0.1952222 0.16850701 0.20540759 0.14097595
0.09762137 0.14704417 -0.05893441 -0.042218946 0.022377172 -0.048967954 0.15577167 0.04324339
0.03133992 0.09301844 -0.11252457 -0.049648557 -0.115323834 -0.18064684 -0.17954566 0.2078205
-0.20445926 0.12923676 -0.13843527 -0.1945482 -0.024587924 0.1588049 -0.060928863 0.054155394
0.14843121 -0.121405326 -0.1323416 -0.16185965 0.03134372 -0.16036908 -0.06161446 -0.07968257
-0.0696736 -0.2000346 -0.048220195 -0.08160764 -0.1293625 0.029447543 -0.16280265 -0.19694804
-0.17972742 -0.02800103 -0.17303634 -0.03243869 -0.13548209 0.09242463 0.06963587 0.019837286

sentiment_branch.attn.in_proj_weight f4 [72, 24]
00000000: bb3f 1dbd 159c 573e 37c5 643e 05e8 0f3e
00000010: c2bf 803e fb60 873d 320f 053e e8aa 1b3e
00000020: 8b6d 6abe c528 60be 6972 833d 4fb1 e6bd
00000030: 2216 503e cc2d 773e 1272 7b3e c755 a23c
00000040: f459 21be 9c8b eabd c801 28be e7f9 80bd
00000050: 4358 dc3d 9355 6d3d 1631 28bd 2513 f83d
00000060: 9cdd 4c3d 9534 ba3c 1245 73be 71fc 0bbe
00000070: 9577 8cbd f660 883e 8037 123e e8be d43d
00000080: bb9c 2c3e cab3 f5bc 5131 3abe eedc a2bd
00000090: 5c1d 33bd 4954 603e 241d 22be d4b4 19bd
000000a0: 4fe3 f83d 7c13 3c3e af10 08bd 5995 41be
000000b0: 5c06 493e 25a2 533e b432 2c3e f0bb 3bbe
000000c0: 0caa 64be c652 383e 31b7 f5bd 74ad 033d
000000d0: 995c 4a3e 30df b0bd 061c 95bd 66ea 443e
000000e0: 607b 873d 02d7 063e fb78 4abd 1bfe 14be
000000f0: fd7b b6bc 4811 69be b50e 5cbe 71da c83d
00000100: a5fd 78be c57e db3d 8b7f 6fbd 8fb1 6fbe
00000110: 9df8 81bd 8d8d bc3d 3bdf 16be 19fd b63d
00000120: cc72 82bd 620b fdbc db2e 48be ef78 85be
00000130: db74 b83d 00cb 12be aa99 b93c c639 2abe
00000140: 13aa 803d b53a a43d 67b9 2abe 6cb2 033e
00000150: 7e68 abbd 317c d4bd 050e 47be 1809 c2bd
00000160: f451 853c 93fc 1d3e 947d 32be 3a72 62be
00000170: a8e6 923c b1f1 163e 3ac2 36be 8cfb 003e
00000180: ddfe 273e a924 a73d 9925 07be 9f90 4d3c
00000190: 9561 22be ddb2 27be febb f33d 1ac2 823b
000001a0: c00f 3bbe ad11 843e 1635 94bd 525b 243e
000001b0: 7435 9a3d 12f8 fc3d 519e 20be d3fe 7dbd
000001c0: 1663 323d f24a 023d dd1a 073e a3e0 9d3c
000001d0: 2031 f43d 54e1 e73b 255b 3b3e eff6 b83d
000001e0: 842a 943e 2e12 de3d 4f8d 5bbe 1f21 27be
000001f0: 2360 9d3d edac ccbd dde7 ea3d 4eed a13d
00000200: 93f1 853e df8e cf3d 22a5 423d 4da7 193d
00000210: 13be 403e 9632 f5bd 893b 73be 622a 05bc
00000220: f241 c23c d035 b0bd 2979 f4bd 8383 8fbe
00000230: ec53 cf3d 20be 98bd da98 1fbe 505e 01be
00000240: e989 0e3d 6e92 17be ca16 ed3d 08c3 a3bc
00000250: e866 cfbd f2aa 8ebd 68a2 dd3d 44ca 1abe
00000260: 1945 b3bd 950c 66be 1269 583d 7ebc 153e
00000270: c051 20be d929 4d3e 95b4 b13d 7ec0 5a3e
00000280: 9d41 fabd c199 83be adf0 563e 6d03 9d3d
00000290: 93d5 923d 7897 53be a68a b03c 44a6 31be
000002a0: 68fd 24be 1dc5 61be 5fec d23d cd4e 793e
000002b0: 0ca8 38be a745 9b3c 5d37 4bbc 4ba1 d6bc
000002c0: 57c6 f8bd 0da4 b0bd d688 653e 6397 3d3e
000002d0: 6cad b5bd 7c68 95bd c2ba 6e3e ae14 fbbc
000002e0: 0fe2 a0bc 880a b73d ee5f 66be a2cd 35bd
000002f0: 1a04 173e e565 96bc b687 703e 72e5 d6ba
00000300: b106 c63d 6e3d ad3d 0eda 523e d712 903d
00000310: 27b1 343d 6b1c e73c ac41 323e 307e 023d
00000320: 21d4 18be 2c0a 49be 59ca 6ebe 80b2 65be
00000330: 1d19 c6bd 6609 bcbd 86ae 173e 7347 5cbe
00000340: f59a edbc 0c4d 54bd a7a0 98bc 9edb 163e
00000350: d64f 303e 0596 a9bd f3b8 733d 25fa 473b
00000360: 6dba 33bd 9a09 403d 9c36 b43d 91a1 f6bd
00000370: cb30 123e a598 abbd 9c71 5dbe c83a 6bbd
00000380: 0b9d b9bd da43 993d 414c d83d 361a b1bd
00000390: 9432 193e 09b1 083e c579 1fbd 591b f43d
000003a0: 30f9 003e 44ef 86bc bb99 1e3d 6e77 bbbd
000003b0: cd63 c53d cca4 49be f0b8 2ebe 4f0e eb3c
000003c0: 4d03 a33d e74e 2ebd 3d92 41bd 8acc 6abe
000003d0: 2525 17be 7991 38be 8321 153e ad47 813d
000003e0: b3ea 17bd e5aa 89bd 530e 5d3e 11a8 c73d
000003f0: 3ca3 e73d 6b91 25bb 3d1f 583e a162 11be
-0.038390856 0.21055634 0.22340856 0.14053352 0.251463 0.066102944 0.12994078 0.15201914
-0.2289335 -0.21890552 0.064183064 -0.11264288 0.20320943 0.24138564 0.24555233 0.019816292
-0.1575697 -0.114524096 -0.1640693 -0.06297665 0.10759022 0.057942938 -0.041062437 0.121130265
0.05001603 0.022730151 -0.23756817 -0.13670518 -0.06858746 0.26636475 0.14278984 0.10387975
0.16856663 -0.029992957 -0.18182875 -0.07952295 -0.04372917 0.21907152 -0.15831429 -0.037525967
0.12152731 0.18366808 -0.033219036 -0.18904628 0.19631332 0.20667322 0.16816217 -0.18333411
-0.22330493 0.18000326 -0.119978316 0.03214784 0.19761886 -0.0863632 -0.07280736 0.19230041
0.06615329 0.13167956 -0.049431782 -0.14550059 -0.02227592 -0.22760499 -0.21489985 0.098072894
-0.24315508 0.10717539 -0.058471244 -0.23407577 -0.06346247 0.09206686 -0.14733593 0.08934993
-0.06369552 -0.030889217 -0.19549124 -0.26068828 0.090066634 -0.14335251 0.02265628 -0.16623601
0.06282439 0.0801901 -0.16672288 0.12861031 -0.0836954 -0.1037525 -0.19438942 -0.09474391
0.01627443 0.1542838 -0.17430717 -0.22113886 0.017932251 0.14740635 -0.17847529 0.12595958
0.16405816 0.08161289 -0.13197936 0.012546687 -0.15857537 -0.16376825 0.11901091 0.003990424
-0.18267727 0.25794736 -0.07236688 0.16050461 0.075297266 0.12352003 -0.15685393 -0.062010597
0.043551527 0.031809755 0.13193841 0.019272154 0.11923432 0.0070764218 0.18296488 0.09031474
0.28938687 0.10843311 -0.21440624 -0.16321228 0.07684352 -0.099939205 0.11470006 0.079065904
0.2616087 0.101346724 0.047520764 0.037513066 0.18822508 -0.11972539 -0.2375318 -0.008127781
0.023713086 -0.08604014 -0.11937172 -0.28030023 0.10123429 -0.074581385 -0.15585652 -0.12633634
0.03479949 -0.14801952 0.11576612 -0.01999046 -0.1012705 -0.06966199 0.10821992 -0.1511622
-0.08753414 -0.22465737 0.052834578 0.14622685 -0.15656185 0.20035495 0.086770214 0.21362492
-0.12219546 -0.25703242 0.20990248 0.07666669 0.07169642 -0.2066325 0.021550488 -0.17348582
-0.16112292 -0.22047849 0.102989905 0.24346466 -0.18032855 0.018954111 -0.012403336 -0.026199957
-0.12147205 -0.0862504 0.2241548 0.1851478 -0.08870968 -0.072953194 0.2331343 -0.03064951
-0.019639043 0.089375556 -0.22497532 -0.04438556 0.14747658 -0.018359134 0.2348927 -0.0016395284
0.09669245 0.084589824 0.20590994 0.070348434 0.04411426 0.028211793 0.17407864 0.031858623
-0.14924671 -0.19632787 -0.23319377 -0.22431374 -0.09672759 -0.0918148 0.14812669 -0.2151163
-0.029004553 -0.05183129 -0.018631293 0.14732215 0.17217955 -0.08280567 0.059502553 0.0030514088
-0.04387896 0.046884157 0.087994784 -0.12042535 0.14276426 -0.08378724 -0.2162537 -0.057429105
-0.09063157 0.07483645 0.10561419 -0.086475775 0.149607 0.13348784 -0.038934488 0.11919279
0.12595057 -0.016471513 0.038720828 -0.09153639 0.09638176 -0.19691771 -0.17062736 0.028693346
0.07959614 -0.042555716 -0.047258604 -0.22929588 -0.14760263 -0.18024243 0.14563565 0.06312499
-0.03708906 -0.06722049 0.21587496 0.09748853 0.11310431 -0.0025263678 0.21105666 -0.1419778

sentiment_branch.attn.in_proj_bias f4 [72]
00000000: d6c7 2dbd d991 813c d7eb b73c ac0f 043d
00000010: c952 f83c 5155 913d 5b6a 03bc f3ac a6bc
00000020: 0ca5 47bd c448 c0bd 9a03 8fbd 8be3 58bd
00000030: 557c 35bd 9c30 3abd 3c99 ecbc cae7 96bc
00000040: 41b9 ac3c e13e ffbc 1b46 a53d 7ff2 8bbc
00000050: 5efb 253c b208 99bc ccbf 11bd b918 953d
00000060: d44a 1836 0f7e b9b5 a276 eeb4 b034 00b6
00000070: aa76 a8b4 d295 0d33 0a33 4636 6138 97b5
00000080: b293 e0b5 4e3c 7336 5b8b 9f34 c611 6936
00000090: e017 ac36 e5ff 00b6 d6ae 4336 7593 4a36
000000a0: 1773 6734 f24f ad33 e1a4 3f36 915c e1b5
000000b0: 49be 23b5 7473 d534 8845 1eb6 8885 e3b5
000000c0: af40 b6bc b09f 073c 37ba d53c 154b 6c3b
000000d0: 8870 5a3b f3df 79bc 2e59 0b3c 2cd5 173c
000000e0: 391f 913c 2114 1abc 1eab 8c3a 0fb1 ff3b
000000f0: 8c58 6d3c 8388 0a3c c1bd d73b 2a2a 613c
00000100: 4d13 94b9 f0ff e6bc 687d 8dbb f551 9abc
00000110: 1c4c 0d3c 7783 c43b 1b34 7dbb c665 76bb
-0.042426907 0.015816616 0.022451324 0.03224151 0.030312913 0.07096351 -0.008020963 -0.02034614
-0.048741385 -0.09388879 -0.06983109 -0.052951377 -0.044308025 -0.045456514 -0.028881662 -0.018421073
0.02108443 -0.031157913 0.08070012 -0.017083405 0.010130731 -0.018680904 -0.035583302 0.07280106
2.269332e-06 -1.3820262e-06 -4.441727e-07 -1.9104154e-06 -3.1378778e-07 3.296538e-08 2.9534008e-06 -1.1266785e-06
-1.6732286e-06 3.6244924e-06 2.9717452e-07 3.473005e-06 5.128779e-06 -1.9222437e-06 2.9159032e-06 3.0186177e-06
2.1555421e-07 8.070482e-08 2.855719e-06 -1.6790747e-06 -6.0999133e-07 3.9758345e-07 -2.3584307e-06 -1.6951681e-06
-0.02224764 0.008277819 0.02608977 0.0036055495 0.0033331234 -0.015251148 0.008505149 0.009267133
0.017715083 -0.009404213 0.0010732149 0.0078030895 0.014486443 0.0084553985 0.0065838997 0.013742963
-0.0002824314 -0.028198212 -0.004317928 -0.018837908 0.008624103 0.005997117 -0.0038635794 -0.0037597283
