models/checkpoints/news_lstm/news_lstm_v9_binary_5d.pt (torch, 52674 bytes, 19 tensors)

sentiment_branch.lstm_layers.0.weight_ih_l0 f4 [128, 16]
0	0xbed8ec1e	-0.42367643
1	0x3dda5692	0.10661043
2	0x3ea148f9	0.31500986
3	0x3f13827e	0.5762099
4	0xbce518ec	-0.027965985
5	0xbe871d5b	-0.26389584
6	0xbeca66aa	-0.3953145
7	0xbee615a1	-0.44938377
8	0xbe6c88f9	-0.23099126
9	0x3e6177d5	0.22018369
10	0xbe74f771	-0.23922516
11	0xbf19c0bd	-0.6005972
12	0x3e1d5eb5	0.15368159
13	0xbf5f3f17	-0.8720564
14	0xbe8a6aad	-0.27034512
15	0xbe6f6d6d	-0.23381586
16	0x3d61fdb5	0.055173595
17	0x3e824df8	0.2545011
18	0x3e453f72	0.19262484
19	0xbe02c69c	-0.12771076
20	0x3e8fe778	0.28106284
21	0xbe5db0e9	-0.21649517
22	0xbdf0c14e	-0.1175562
23	0x3ed9fbae	0.4257483
24	0xbee51f0b	-0.44750246
25	0xbe0f6d4f	-0.14006542
26	0xbd806d71	-0.06270874
27	0x3e0bf780	0.13668633
28	0x3de4c39c	0.11170122
29	0xbe00e4b0	-0.12587237
30	0xbd99611c	-0.07489225
31	0x3eaa50a8	0.3326466
32	0x3df77d07	0.12084394
33	0x3eb12861	0.3460112
34	0x3e0245d6	0.12721953
35	0x3e33127b	0.17487518
36	0xbe4d60ba	-0.2005643
37	0x3e8fab85	0.28060547
38	0xbe12252d	-0.14271994
39	0x3ebc7a77	0.36812183
40	0xbe44a492	-0.19203404
41	0xbe0fcdbc	-0.14043325
42	0x3d9a553e	0.0753579
43	0xbdbc4391	-0.09192575
44	0x3e45e9af	0.19327424
45	0xbe0f4fee	-0.13995335
46	0x3e4003fb	0.18751518
47	0x3cd0a040	0.025467038
48	0xbe2f5e91	-0.17125918
49	0x3ca43056	0.02004258
50	0xbdc41e28	-0.09576064
51	0x3d0c463c	0.03424667
52	0x3ca3b7dc	0.019985132
53	0xbd33fd1e	-0.043942563
54	0x3e865ebd	0.26244155
55	0x3e880ad5	0.26570764
56	0x3d8002ff	0.062505715
57	0x3eb71fdd	0.35766497
58	0xbe0b661a	-0.13613167
59	0x3da58368	0.080817044
60	0x3dd4e114	0.10394493
61	0xbe2ab652	-0.16671112
62	0x3ed462d9	0.41481665
63	0xbe0f4b60	-0.13993597
64	0xbd25c9ad	-0.040475536
65	0xbdbbb63f	-0.0916562
66	0x3f684181	0.9072495
67	0x3f1c5445	0.61066085
68	0xbe83aaed	-0.25716344
69	0xbdf0f259	-0.11764974
70	0xbf126200	-0.57180786
71	0xbe8eabed	-0.27865544
72	0xbe970dd2	-0.29502732
73	0x3e681e7c	0.22667879
74	0x3d7f3b59	0.062312458
75	0xbe13f853	-0.14450197
76	0x3e1cc44c	0.15309256
77	0x3c485f76	0.012229791
78	0xbdd8da95	-0.10588566
79	0xbec42ef0	-0.3831706
80	0xbdbdcea2	-0.09267928
81	0x3e0e32ef	0.13886617
82	0x3e2df8f9	0.16989507
83	0xbe8b2af4	-0.27181208
84	0x3e010cd6	0.12602553
85	0xbcf2f305	-0.029656896
86	0x3d573ee0	0.052550197
87	0xbedeacd1	-0.43491223
88	0x3f4f896c	0.81069064
89	0x3d3aa657	0.04556879
90	0xbdc32697	-0.09528845
91	0x3ededc87	0.43527624
92	0x3dabe636	0.083935186
93	0xbc1cae1f	-0.009562998
94	0xbf17f4ea	-0.59358084
95	0xbf3135aa	-0.6922251
96	0xbaf36a36	-0.0018571082
97	0x3ee255f6	0.44206208
98	0xbe913838	-0.28363204
99	0x3c9f5a85	0.019452343
100	0x3e6784ef	0.22609304
101	0xbdd29023	-0.10281398
102	0x3d982613	0.07429137
103	0xbe8f6a9f	-0.28011033
104	0x3ec39a9e	0.382039
105	0xbd7aaa82	-0.061197765
106	0x3dab4d07	0.08364301
107	0x3e14b778	0.14523113
108	0xba4c0702	-0.00077830267
109	0xbf1df4d0	-0.6170168
110	0x3de038a5	0.10948304
111	0xbea77474	-0.32706034
112	0x3e20f8de	0.15719935
113	0x3e3b7e74	0.18309957
114	0x3e38ca23	0.18045859
115	0x3d57925c	0.052629814
116	0xbecd1596	-0.4005553
117	0xbd119142	-0.03553892
118	0x3e2ad78a	0.16683784
119	0x3f1e04e7	0.6172623
120	0xbdbd7442	-0.0925069
121	0x3d4d6227	0.050142433
122	0xbe9b26a5	-0.3030292
123	0xbe361d3c	-0.1778459
124	0x3c860828	0.016361311
125	0x3d9bbe99	0.07604713
126	0x3ef597b3	0.479673
127	0xbf2c1bd2	-0.6722995
128	0xbe1c083a	-0.15237513
129	0xbe8f9ce0	-0.28049374
130	0xbe99cccd	-0.30039063
131	0xbe7eb8d9	-0.24875201
132	0x3e742864	0.23843533
133	0xbe897d4d	-0.2685341
134	0xbe021dc2	-0.12706664
135	0xbe41c257	-0.18921791
136	0xbd8daa12	-0.06917204
137	0xbdb713b5	-0.08939306
138	0x3e274506	0.16334924
139	0xbdb43fec	-0.08801255
140	0x3ec8cca2	0.39218622
141	0x3dd1c35f	0.10242342
142	0x3e2755ff	0.16341399
143	0x3efe1ef1	0.4963298
144	0x3f0ed74c	0.55797267
145	0x3dc83467	0.0977562
146	0xbe80a3c1	-0.25124934
147	0xbddf6ffb	-0.109100305
148	0x3ef89354	0.48549902
149	0x3e77593a	0.24155131
150	0x3bbc5736	0.005747701
151	0xbcd263f5	-0.025682429
152	0xbe463d6e	-0.19359371
153	0x3c7e9977	0.015539519
154	0xbebf551c	-0.3736962
155	0xbef4fcf3	-0.47849235
156	0xbd0e343b	-0.03471778
157	0x3ee7f603	0.4530488
158	0x3ea39126	0.31946677
159	0xbdc1688e	-0.0944377
160	0x3c677ed0	0.014129356
161	0xbdc471da	-0.09592028
162	0x3eaf712f	0.3426604
163	0x3ed90be1	0.42391875
164	0xbd6206de	-0.05518233
165	0xbdb9933e	-0.09061287
166	0xbe92869c	-0.28618324
167	0xbd4c8342	-0.049929865
168	0x3dd57871	0.10423363
169	0x3e4e7fd1	0.20165946
170	0x3ddaeac1	0.10689307
171	0xbe10be8b	-0.14135186
172	0x3ef62766	0.48076934
173	0xbeaed6b5	-0.34148183
174	0x3cc79c52	0.024366532
175	0x3e6c2c2b	0.23063724
176	0x3e8a2acf	0.26985785
177	0x3e592ca7	0.2120844
178	0x3e9a2913	0.30109462
179	0x3ebbee4c	0.36705244
180	0xbe52f143	-0.20599847
181	0x3ed60dfb	0.4180754
182	0x3c4bfab4	0.012449909
183	0x3f48d969	0.7845674
184	0xbf3d8aa1	-0.74039656
185	0x3d9845d8	0.07435197
186	0x3e0e9539	0.13924111
187	0xbed09cfa	-0.40744764
188	0xbef726e9	-0.48271874
189	0xbebce852	-0.36895996
190	0xbc54225e	-0.012947647
191	0x3edaccdb	0.42734417
192	0xbdc4385f	-0.095810644
193	0xbe95ed8d	-0.292828
194	0xbe0dd636	-0.13851246
195	0xbe08caab	-0.13358562
196	0xbca1cf30	-0.019752115
197	0xbe8eede3	-0.27915868
198	0xbdb34cf1	-0.0875491
199	0xbcbe0817	-0.023197217
200	0xbe36d426	-0.17854366
201	0x3e0b10cc	0.13580626
202	0x3e2a36f4	0.16622525
203	0x3c8e85f7	0.017397864
204	0xbea31ccc	-0.31857908
205	0x3d111af8	0.03542611
206	0x3dd6b517	0.10483759
207	0xbecda9dc	-0.40168655
208	0x3da6b849	0.08140618
209	0xbe755fdf	-0.23962353
210	0xbd9f7de1	-0.07787681
211	0x3eb9a6ca	0.36260062
212	0x3f05abdd	0.5221537
213	0x3bdfdec2	0.0068319747
214	0x3de174b0	0.110085845
215	0x3d3b3019	0.045700166
216	0x3cb6d075	0.022316197
217	0x3eae096c	0.33991563
218	0x3cb280fa	0.021790016
219	0x3e8ed34b	0.2789558
220	0x3e0d02c8	0.13770592
221	0x3bce1a13	0.0062897294
222	0xbeb99f4a	-0.3625434
223	0xbdf7765f	-0.12083124
224	0x3eb4dce4	0.35324776
225	0x3e29f4ab	0.1659724
226	0x3eb21e63	0.34788808
227	0x3ed2152a	0.41031772
228	0xbe32f7c8	-0.17477334
229	0x3d6163e6	0.05502691
230	0x3ea0c9e2	0.31404024
231	0x3e92e0db	0.28687176
232	0x3f08cbdd	0.5343607
233	0x3e9be094	0.30444777
234	0xbea8f72d	-0.3300108
235	0xbec5b290	-0.38612795
236	0x3c124918	0.00892856
237	0xbe44cf98	-0.19219816
238	0x3d1089da	0.035287715
239	0x3f08a491	0.5337611
240	0xbebfbf77	-0.37450764
241	0xbe134d5d	-0.1438498
242	0xbd79df4e	-0.061003976
243	0x3d0769c5	0.033059854
244	0x3d543132	0.05180473
245	0xbe9670ba	-0.2938288
246	0x3db0a483	0.08625128
247	0xbcbeca56	-0.02328984
248	0x3d7a9125	0.061173577
249	0x3cc02d87	0.02345921
250	0x3e8433f7	0.25820896
251	0x3e6b85f3	0.23000316
252	0xbe278c04	-0.16362005
253	0xbe793032	-0.24334791
254	0x3db96f14	0.090543896
255	0x3ee920db	0.4553288

sentiment_branch.lstm_layers.0.weight_hh_l0 f4 [128, 32]
0	0xbe879e09	-0.2648776
1	0xbd39bb45	-0.04534461
2	0x3dc44965	0.095843114
3	0xbd45209a	-0.048126794
4	0x3dbfe092	0.09369005
5	0xbe00fce6	-0.12596473
6	0x3e0daba3	0.13835005
7	0x3e29733a	0.16547862
8	0x3ea9c4f2	0.3315807
9	0x3e8e45ac	0.2778753
10	0xbf76ff3e	-0.9648322
11	0xbd5e2eba	-0.05424378
12	0x3e9f86d6	0.3115756
13	0x3e04208f	0.12903045
14	0xbe88cef7	-0.26720402
15	0x3f0fabd9	0.56121594
16	0x3d300a60	0.042978644
17	0x3eece019	0.46264723
18	0x3e2dd249	0.16974749
19	0xbe92bda2	-0.28660303
20	0xbdbcea34	-0.09224358
21	0x3d9e5efe	0.07732962
22	0x3d80a8c0	0.062821865
23	0x3dec4237	0.11536067
24	0x3e4f2332	0.2022827
25	0xbe366c6f	-0.17814802
26	0x3f2d6e0e	0.67746055
27	0x3d9b9ee9	0.07598669
28	0x3e589ae3	0.21152835
29	0xbdcffef4	-0.1015605
30	0x3d8f6173	0.07001009
31	0xbeaa5479	-0.33267573
32	0xbe532909	-0.20621122
33	0xbe93f87f	-0.28900525
34	0xba74a334	-0.00093321805
35	0xbe3e3c05	-0.18577583
36	0x3d521529	0.05128971
37	0x3e815242	0.2525807
38	0xbdd593ba	-0.10428567
39	0x3ee7ff43	0.45311937
40	0xbf3d0376	-0.73833406
41	0xbdcaaa27	-0.09895735
42	0xbdd401b4	-0.10351887
43	0x3d09475a	0.03351531
44	0x3e14a269	0.1451508
45	0x3f437115	0.76344424
46	0xbd8dbd43	-0.069208644
47	0xbd5934b8	-0.053028792
48	0xbb679d9a	-0.003534174
49	0xbd66fbde	-0.056392543
50	0x3f0d0e03	0.55099505
51	0xbeed7d38	-0.46384597
52	0xbe662d12	-0.2247813
53	0xbe62e5d1	-0.2215798
54	0x3f0cad51	0.5495196
55	0xbea499ef	-0.32148692
56	0xbe7134ae	-0.23555252
57	0x3e006be2	0.12541154
58	0x3ed4a7d5	0.41534296
59	0xbecc7eb0	-0.39940405
60	0x3f28e7bb	0.6597859
61	0xbf6cc3ce	-0.92486274
62	0xbef37ff5	-0.4755856
63	0xbda73dd1	-0.081660874
64	0xbe36a18c	-0.17835063
65	0xbea2abc8	-0.31771684
66	0xbe8ad46c	-0.2711519
67	0xbf0c6175	-0.5483621
68	0xbe56d4e0	-0.20979643
69	0x3e9e3d78	0.30906272
70	0xbddc88c4	-0.107682735
71	0xbe834a26	-0.25642508
72	0x3f64ffd4	0.8945286
73	0x3e03152a	0.12801042
74	0x3e6923ef	0.22767614
75	0xbf2f57ba	-0.68493235
76	0xbe54444e	-0.20729181
77	0xbd90f1a5	-0.0707734
78	0xbee0f378	-0.43935752
79	0xbe43a97f	-0.19107626
80	0x3e9e7c84	0.30954373
81	0xbc3393b5	-0.010960509
82	0xbece1e99	-0.4025772
83	0xbe21beee	-0.1579549
84	0x3d37cd20	0.044873357
85	0x3e1fd07d	0.15606876
86	0x3ce0c242	0.02743638
87	0x3ea38ee0	0.31944942
88	0x3b48b786	0.0030626967
89	0xbeaeed19	-0.34165266
90	0x3e0b600a	0.13610855
91	0x3d22834f	0.039676007
92	0xbf0a5508	-0.54036
93	0x3d1f61a8	0.03891149
94	0x3e978436	0.29593056
95	0xbd8a992b	-0.06767496
96	0xbe0ee15a	-0.13953152
97	0x3f1ffecd	0.6249817
98	0xbeb9ae36	-0.36265725
99	0x3f10be0e	0.5654
100	0xbea993a1	-0.33120444
101	0x3f01f779	0.5076824
102	0xbe03e217	-0.12879215
103	0xbe68639b	-0.22694246
104	0xbe956dfc	-0.29185474
105	0x3e6bb5a9	0.23018517
106	0x3ebef18a	0.37293655
107	0x3e4f9c18	0.20274389
108	0x3e73553a	0.2376298
109	0xbd4fd5b0	-0.050740898
110	0xbd909058	-0.070587814
111	0x3e46821f	0.19385575
112	0x3e5da37c	0.21644396
113	0x3ef5f370	0.4803729
114	0xbca3f870	-0.020015925
115	0xbea975ba	-0.3309763
116	0xbf15f8b2	-0.58582604
117	0xbebfa181	-0.37427905
118	0x3eb8e469	0.36111763
119	0x3e858d63	0.26084432
120	0xbd40ea6c	-0.047098562
121	0x3eb0697e	0.34455484
122	0xbdcf03a5	-0.10108117
123	0x3f173499	0.5906463
124	0x3eaa9394	0.33315718
125	0xbf89e7da	-1.077388
126	0xbed9c76b	-0.42534956
127	0x3e35fc6c	0.17772073
128	0xbe65108e	-0.22369596
129	0xbde48ac9	-0.11159284
130	0x3e6951d3	0.2278512
131	0xbf0a809a	-0.5410248
132	0xbda0119f	-0.07815861
133	0xbddd94cc	-0.108193964
134	0xbe84e239	-0.25953844
135	0x3e96bbd3	0.29440174
136	0xbebee04b	-0.37280497
137	0x3df565b4	0.11982289
138	0x3e027964	0.1274162
139	0x3e1dc1c1	0.15405942
140	0xbedc0fd9	-0.4298084
141	0xbd749bee	-0.05971902
142	0xbc3ef3c9	-0.011654803
143	0x3e84c2f8	0.2593
144	0xbe74060a	-0.23830429
145	0xbcaba657	-0.02095334
146	0xbefa2e65	-0.4886352
147	0xbea475e3	-0.3212119
148	0xbe7eae50	-0.24871182
149	0x3df1b032	0.11801185
150	0x3f1414ed	0.5784443
151	0xbf36f811	-0.7147227
152	0x3f1cb2b8	0.61210203
153	0x3e2ae6f6	0.16689667
154	0xbe2edede	-0.17077205
155	0x3ea7dcb2	0.32785565
156	0xbdbb214d	-0.09137211
157	0xbf231e04	-0.63717675
158	0xbd890ce3	-0.06691911
159	0xbe6683f3	-0.22511272
160	0xbd1d6c5f	-0.03843343
161	0x3d29aedf	0.041426536
162	0x3e1ae6a7	0.1512705
163	0xbd4bc750	-0.049750626
164	0x3ebfb391	0.37441686
165	0xbdf68e1c	-0.12038824
166	0xbf0717d6	-0.52770746
167	0x3e993b2e	0.29927963
168	0x3da05e41	0.078304775
169	0xbf070ede	-0.5275706
170	0xbeb6d0f9	-0.35706308
171	0x3e786b46	0.24259672
172	0x3ce933c9	0.028467076
173	0x3ee7e0a5	0.45288578
174	0xbdafd637	-0.0858578
175	0x3e403e15	0.18773682
176	0xbe006c59	-0.12541331
177	0xbf2e5226	-0.680941
178	0x3dc18150	0.094484925
179	0x3e69d86b	0.22836463
180	0xbe36357e	-0.17793843
181	0x3ddb17b5	0.10697881
182	0xbf0c89a3	-0.54897517
183	0xbe560c58	-0.20903146
184	0xbef96fe2	-0.48718172
185	0x3f07a76b	0.52989835
186	0x3ec8cf7d	0.392208
187	0xbc473718	-0.0121591315
188	0x3ee96aca	0.45589286
189	0x3edb3915	0.42816988
190	0xbe4cdb74	-0.2000559
191	0x3e9ec90e	0.31012768
192	0xbef5cd07	-0.48007986
193	0xbd8c5fa6	-0.06854181
194	0xbd8b9ec4	-0.068173915
195	0xbe3e2354	-0.18568164
196	0xbe98c226	-0.29835624
197	0x3d9533bf	0.072852604
198	0xbc366ff8	-0.011135094
199	0xbc9862b1	-0.018601747
200	0x3e9a1994	0.3009764
201	0x3d9cdaf2	0.07658948
202	0x3db3376d	0.08750806
203	0x3d12b8e7	0.035820868
204	0xbeedfdde	-0.46482748
205	0x3dea1bf8	0.11431116
206	0x3e253296	0.16132578
207	0x3e6cc66b	0.23122565
208	0xbdba53cc	-0.09098014
209	0x3e3ceda5	0.18450029
210	0xbf15ba0b	-0.58487004
211	0xbeda2608	-0.4260714
212	0x3df10314	0.11768165
213	0xbdf2fe40	-0.118649006
214	0x3ec3c4dc	0.3823613
215	0x3d87388d	0.06602583
216	0x3de049f9	0.10951609
217	0xbdae4496	-0.085091755
218	0x3ea6fd62	0.3261519
219	0x3ebb3234	0.3656174
220	0x3f335a1c	0.7005937
221	0xbed2d16c	-0.411754
222	0xbe081e6e	-0.13292858
223	0xbe82e5d8	-0.25565982
224	0xbec9c2e9	-0.39406517
225	0x3e29b1fe	0.16571805
226	0x3b88d3af	0.0041756253
227	0x3d35a132	0.04434318
228	0xbf3407ac	-0.70324206
229	0x3e893d08	0.26804376
230	0xbe1bbac6	-0.15207967
231	0xbdade658	-0.084912
232	0x3e481262	0.19538262
233	0x3ede81a2	0.43458277
234	0x3eaddaa7	0.3395588
235	0x3e7dbced	0.247791
236	0x3e831426	0.2560131
237	0x3db96c8d	0.090539075
238	0x3e160557	0.14650474
239	0x3e81cdba	0.2535227
240	0xbdff233e	-0.12457894
241	0x3e1cbdb5	0.15306742
242	0xbdf8b284	-0.12143424
243	0xbdd23ab3	-0.10265102
244	0xbecc62d2	-0.39919144
245	0xbec57fe9	-0.3857415
246	0x3bf00819	0.007325184
247	0x3c87e78f	0.016589908
248	0x3d74e557	0.059789028
249	0x3f152235	0.5825532
250	0xbe22c521	-0.15895511
251	0x3cccd11b	0.025002053
252	0xbea462b7	-0.32106563
253	0xbf1fcd76	-0.62422884
254	0xbe829fc9	-0.2551253
255	0xbda0aada	-0.07845087

sentiment_branch.lstm_layers.0.bias_ih_l0 f4 [128]
0	0x3c9a92eb	0.018868884
1	0x3de7b96e	0.11314665
2	0x3e05f6a8	0.13082373
3	0x3e0e4960	0.13895178
4	0xbd32010c	-0.04345803
5	0x3cdcb60a	0.026942272
6	0xbcb06576	-0.021532755
7	0xbe09f6ce	-0.13473055
8	0x3efbdfaa	0.4919408
9	0x3e506c4b	0.2035381
10	0xbe4ad402	-0.19807437
11	0x3d843f62	0.06457402
12	0x3e329863	0.17440943
13	0x3e38eae7	0.18058358
14	0xbd4e60fc	-0.05038546
15	0x3eb56d24	0.3543483
16	0x3e6a2429	0.22865357
17	0x3ccc6ac5	0.024953255
18	0x3dea8569	0.11451227
19	0xbea34317	-0.31887123
20	0x3e2a6740	0.16640949
21	0xbc119427	-0.00888542
22	0xbe3138f9	-0.1730689
23	0x3e039165	0.12848432
24	0xbe1aca49	-0.15116228
25	0xbe4f43e9	-0.2024075
26	0x3d9900bb	0.074708425
27	0xbe27d1de	-0.16388652
28	0xb95f9b4c	-0.0002132479
29	0x3e0bfcb8	0.13670623
30	0xbdc89278	-0.09793562
31	0xbdedb9ba	-0.1160769
32	0x3e802997	0.2503173
33	0x3f08b3ba	0.5339924
34	0xbdc3f897	-0.09568899
35	0x3d8d5db7	0.0690264
36	0xbda091b0	-0.07840288
37	0x3e03893c	0.1284532
38	0x3e26332c	0.16230458
39	0xbd3b6ca6	-0.045757912
40	0x3df1dd8f	0.11809837
41	0x3d1c09a4	0.03809513
42	0x3e1a8423	0.15089469
43	0xbd280190	-0.041017115
44	0x3ebc0b49	0.3672736
45	0x3da47153	0.080294274
46	0x3e9b45cb	0.30326685
47	0xbc86b142	-0.016441945
48	0x3e2827be	0.1642141
49	0x3e6da460	0.23207235
50	0xbe8437bf	-0.2582378
51	0x3e247a32	0.16062239
52	0x3e5deb09	0.2167169
53	0x3e859ef3	0.2609783
54	0x3d4b1106	0.04957678
55	0xbd162406	-0.03665545
56	0x3e6a64e7	0.22890054
57	0xbd123b29	-0.03570095
58	0x3dff1379	0.12454886
59	0xbd2b59ba	-0.041833617
60	0x3e229247	0.15876113
61	0x3d56f866	0.052482985
62	0x3e63dbe3	0.22251849
63	0x3ea47555	0.32120767
64	0xbdee2577	-0.116282396
65	0x3ca34fb5	0.019935468
66	0x3d82dc4a	0.06389673
67	0xbd5fdfdb	-0.054656845
68	0xbe22b860	-0.15890646
69	0x3e03d21c	0.12873119
70	0x3e151e6f	0.1456239
71	0xbd34433a	-0.044009425
72	0xbe3389c5	-0.17533024
73	0x3ddb7983	0.10716536
74	0x3e1a9bf4	0.15098554
75	0x3d9a30e3	0.07528856
76	0x3e1c4d47	0.15263854
77	0xbd93dc01	-0.07219697
78	0xbe08aa5f	-0.13346241
79	0x3dd0b6b3	0.10191097
80	0xbdeed699	-0.11662025
81	0x3c98f005	0.018669138
82	0xbe32a9fb	-0.17447655
83	0x3dd978ac	0.106187195
84	0x3e632ae3	0.22184329
85	0xbd96a3a0	-0.07355428
86	0xbe4952da	-0.19660512
87	0xbdeb557d	-0.11490915
88	0xbe69b285	-0.22822006
89	0xbb4b1ddd	-0.0030993142
90	0x3c21a73f	0.009866535
91	0xbd65df94	-0.056121424
92	0x3d91200a	0.07086189
93	0xbd9e89ff	-0.077411644
94	0xbe0ee23f	-0.13953494
95	0xbd0f8eea	-0.035048403
96	0x3d8be02e	0.06829868
97	0x3ebf263f	0.37333867
98	0x3e29d20f	0.16584037
99	0x3baa2760	0.005192682
100	0x3e719073	0.23590259
101	0x3d9c5290	0.07632935
102	0xbd378432	-0.044803806
103	0x3e77fbe1	0.24217178
104	0x3dc023af	0.09381806
105	0x3ee954d0	0.4557252
106	0x3e4170d5	0.18890698
107	0x3e1e452c	0.15456074
108	0x3eb74bc1	0.35799983
109	0x3da4712e	0.080294
110	0x3e604de6	0.21904716
111	0x3e5b96c4	0.21444231
112	0x3e20b008	0.1569215
113	0xbbbe5920	-0.0058089644
114	0x3dca089b	0.098649226
115	0xbd44ea24	-0.048074856
116	0x3e04b405	0.12959297
117	0x3ddce319	0.10785503
118	0x3eb5dea4	0.35521424
119	0x3dc4148f	0.09574234
120	0x3dcd5461	0.100258596
121	0x3e3ce7d5	0.18447812
122	0x3e9ec198	0.31007075
123	0x3e06cd8f	0.13164352
124	0x3d44e096	0.048065744
125	0x3cb146ad	0.021640146
126	0x3e32af8e	0.17449781
127	0xbda2d7b8	-0.07951301

sentiment_branch.lstm_layers.0.bias_hh_l0 f4 [128]
0	0x3e2dfbd0	0.1699059
1	0x3e99f257	0.30067703
2	0x3d851564	0.064982206
3	0x3d887a48	0.06663948
4	0xbe14191b	-0.14462702
5	0xbdf27037	-0.118378095
6	0x3d879822	0.06620814
7	0xbe259ca6	-0.16173038
8	0x3ea6cb30	0.32576895
9	0x3a3c6ce2	0.00071878557
10	0xbe47919e	-0.19489142
11	0x3d9adcf1	0.075616725
12	0x3eba6750	0.36406946
13	0xbe10dd30	-0.14146876
14	0x3d9a7382	0.075415626
15	0x3ed179d6	0.40913266
16	0xbbfef1ca	-0.0077802883
17	0xbe545461	-0.20735313
18	0xbc5af700	-0.013364553
19	0xbdbe8997	-0.09303587
20	0x3e4baf5f	0.19891118
21	0xbd99761f	-0.07493233
22	0xbcaf6dfb	-0.021414747
23	0x3e1ddb7f	0.15415762
24	0x3e2cf3fb	0.16889946
25	0xbe4f4f29	-0.20245041
26	0xbd1867f9	-0.03720853
27	0x3db864fb	0.090036355
28	0xbd5df3a6	-0.05418744
29	0x3e4dad19	0.20085563
30	0xbd85221c	-0.065006465
31	0xbe64112b	-0.22272174
32	0x3e555374	0.20832616
33	0x3ebb209d	0.3654832
34	0x3e263605	0.16231544
35	0x3dcaf21e	0.099094614
36	0x3ca8b97c	0.020596258
37	0x3c715e50	0.0147319585
38	0x3e1b0ae6	0.15140876
39	0x3ddb0eb8	0.10696167
40	0x3d5f20a9	0.054474507
41	0x3e1962f9	0.14979161
42	0x3d793135	0.060837943
43	0xbbebf81e	-0.0072012087
44	0x3e9a3fb7	0.30126736
45	0xbd6d606a	-0.057953276
46	0x3da57eae	0.08080803
47	0x3d823f71	0.06359757
48	0x3e770d57	0.24126182
49	0x3dfcf097	0.12350576
50	0xbd0d08f8	-0.03443238
51	0xbdf98c34	-0.12184945
52	0x3ddbb6e8	0.10728246
53	0x3d67a938	0.056557864
54	0x3c900d99	0.017584609
55	0xbcd6b291	-0.026208194
56	0x3eeb8f3a	0.4600771
57	0x3e088c63	0.13334803
58	0x3d3db167	0.046311762
59	0x3e25c1c9	0.16187204
60	0x3e98ea08	0.29866052
61	0x3e06fb4e	0.13181803
62	0x3ed78887	0.4209635
63	0x3e3200b5	0.17383082
64	0xbd494e85	-0.049147148
65	0x3d066253	0.032808613
66	0xbe2e3370	-0.1701181
67	0xbe3c11aa	-0.18366113
68	0x3cae116a	0.021248538
69	0x3e127629	0.14302887
70	0x3c3d6dfa	0.011561865
71	0x3df6f862	0.12059094
72	0x3d57516d	0.052567888
73	0x3cb3a865	0.021930883
74	0x3dcc9ec9	0.09991223
75	0xbdaa1abb	-0.0830588
76	0x3cf7c3a1	0.03024465
77	0x3ca816a1	0.020518603
78	0x3dc5df9e	0.09661792
79	0xbdc7cd55	-0.09755961
80	0x3d966865	0.073441304
81	0xbdb27035	-0.08712808
82	0xbd0abb73	-0.03387017
83	0xbd50e3ac	-0.050998375
84	0xbdd427af	-0.103591315
85	0xbde3b935	-0.1111931
86	0xbd4d4e84	-0.050123706
87	0xba3e3aec	-0.0007256705
88	0xbbbe0e42	-0.0058000395
89	0xbdcb7ff2	-0.09936513
90	0xbe2afddc	-0.16698402
91	0xbd411425	-0.047138352
92	0xbdbaa712	-0.091138974
93	0x3dea523c	0.11441466
94	0xbdff3a79	-0.12462325
95	0x3d3655a4	0.044515267
96	0x3cc9682d	0.024585808
97	0x3e8b7fe1	0.27246
98	0x3e762b55	0.24039967
99	0x3d6c58d9	0.05770192
100	0x3e02b03f	0.12762545
101	0x37b6a2f8	2.1771979e-05
102	0x3e686293	0.22693853
103	0x3e3f3e37	0.18676077
104	0x3e2c7cb7	0.1684445
105	0x3ee768bf	0.45197102
106	0x3dbe8964	0.09303549
107	0x3ecb4111	0.3969808
108	0x3e7941dd	0.24341531
109	0xbb675310	-0.0035297312
110	0x3ea6aadf	0.3255224
111	0x3e846b4f	0.2586312
112	0x3ed0075d	0.40630618
113	0xbe90f991	-0.28315404
114	0x3eaf8b02	0.34285742
115	0x3d03635b	0.032077175
116	0xbb05662d	-0.002035509
117	0x3e02edd5	0.12786038
118	0x3ee386aa	0.44438678
119	0x3e110b5d	0.14164491
120	0x3dc65277	0.09683698
121	0xbd53c00f	-0.051696833
122	0x3ecb2cb8	0.39682555
123	0x3be2d256	0.0069220467
124	0x3d83fb50	0.064444184
125	0x3e9daf90	0.30798006
126	0xbd814c80	-0.06313419
127	0x3df93486	0.12168221

sentiment_branch.fc.weight f4 [32, 32]
0	0x3f01edfc	0.5075376
1	0x3d34e72c	0.044165775
2	0x3da3775d	0.07981751
3	0x3e366237	0.17810903
4	0xbd848a0f	-0.06471645
5	0xbdd703c7	-0.10498767
6	0xbdfccf63	-0.123442434
7	0xbee24371	-0.4419208
8	0xbe015e79	-0.12633695
9	0x3e36d770	0.1785562
10	0xbe0f0c3b	-0.1396951
11	0x3c2a6556	0.010400137
12	0x3e6c6d8a	0.23088661
13	0xbea26eb3	-0.31725082
14	0x3d0e204a	0.034698762
15	0x3e009b20	0.12559175
16	0x3e005570	0.12532592
17	0x3e00aff6	0.12567124
18	0x3eb85c7d	0.36008063
19	0x3e43ef26	0.19134197
20	0xbe070ce9	-0.13188519
21	0x3e019893	0.12655859
22	0xbe77b66c	-0.24190682
23	0xbad5b67a	-0.0016304993
24	0xbe53e4d4	-0.2069276
25	0x3eaf567c	0.3424567
26	0xbe85838c	-0.26076925
27	0xbddbcbf7	-0.107322626
28	0x3d754ec5	0.059889574
29	0xbdb2f1a3	-0.08737495
30	0xbc1ce61a	-0.009576345
31	0x3df5a6b3	0.11994686
32	0xbdc4e636	-0.09614222
33	0x3e9afbee	0.30270332
34	0xbd126678	-0.035742253
35	0xbeb5ff23	-0.35546216
36	0x3bb4d286	0.0055182604
37	0x3eead6a0	0.4586687
38	0xbe97d4e0	-0.29654598
39	0x3d46e567	0.04855862
40	0x3e2d8a2b	0.16947238
41	0x3e2ef4d1	0.17085578
42	0x3d846b52	0.06465782
43	0xbd09f9d1	-0.03368551
44	0xbd7cea33	-0.061746787
45	0x3db2e1bd	0.087344624
46	0x3e8f0473	0.27933082
47	0xbddb735b	-0.10715362
48	0xbd996e2a	-0.07491715
49	0xbdfa1ebb	-0.122128926
50	0x3e708e6d	0.23491831
51	0xbcf377b0	-0.029720157
52	0xbf2b186c	-0.6683414
53	0xbdcb1bbe	-0.09917401
54	0xbdd352a6	-0.10318498
55	0xbeb6ff5b	-0.35741696
56	0xbe9f68c1	-0.31134608
57	0x3da7e4bd	0.08197925
58	0xbe6595d6	-0.22420439
59	0xbe41cabb	-0.18924992
60	0xbdec1cda	-0.115289405
61	0x3dc7dee3	0.09759309
62	0x3e0e33ea	0.13886991
63	0x3b35261a	0.0027641119
64	0x3ed61dc5	0.41819587
65	0x3b86fca0	0.0041194707
66	0xbe670e6f	-0.225641
67	0x3e748904	0.23880392
68	0xbdf2abc9	-0.11849172
69	0xbdadf297	-0.08493536
70	0x3dca84f9	0.09888644
71	0xbdea1485	-0.11429695
72	0x3e104920	0.14090395
73	0x3d91289e	0.07087825
74	0x3e1f14e3	0.15535311
75	0x3ee0e1df	0.43922326
76	0x3e6eafb3	0.23309211
77	0xbebf6bbd	-0.37386885
78	0x3e8f1a0c	0.2794956
79	0x3e15504f	0.14581417
80	0x3df66c7b	0.1203241
81	0xbd50a6c3	-0.050940286
82	0x3e97993b	0.29609093
83	0x3c97790d	0.018490339
84	0xbe48d530	-0.19612575
85	0xbd76e772	-0.060279317
86	0xbe2ef2a6	-0.1708475
87	0xbdee9d91	-0.11651147
88	0xbe0c653a	-0.1371049
89	0x3d667775	0.056266267
90	0xbe1e976e	-0.15487453
91	0x3d94b563	0.07261159
92	0x3e34cd76	0.17656502
93	0xbe8edd5b	-0.27903256
94	0xbdd9cb92	-0.10634531
95	0xbdf27b96	-0.118399784
96	0xbe50baa9	-0.20383705
97	0xbdfecbb4	-0.12441197
98	0xbea4add8	-0.32163882
99	0xbd4fcaa2	-0.050730355
100	0x3e246679	0.16054715
101	0x3ea3c3c6	0.319853
102	0xbdb81e1f	-0.0899012
103	0xbe47c281	-0.19507791
104	0x3e540c1a	0.20707741
105	0x3e55ca48	0.20877945
106	0xbe83b95f	-0.25727364
107	0x3db2449a	0.08704491
108	0x3e8512dc	0.2599095
109	0xbe4b3c75	-0.19847281
110	0xbdd2958a	-0.102824286
111	0x3e89625a	0.2683285
112	0x3d43c45d	0.04779469
113	0xbeaebaf1	-0.34127
114	0x3d9b06e3	0.07569673
115	0x3e0fa5ba	0.14028063
116	0xbea75a91	-0.32686284
117	0x3cd42f64	0.025901504
118	0xbeae4d41	-0.34043315
119	0xbe0409e1	-0.12894394
120	0xbdccce2c	-0.10000262
121	0x3ecd54fb	0.40103897
122	0xbeb9d5c2	-0.36295897
123	0xbe8ba277	-0.27272388
124	0xbdc57568	-0.09641534
125	0xbe7af8cb	-0.2450897
126	0xbce6a3ab	-0.028154215
127	0x3dd336ff	0.10313224
128	0xbd13872c	-0.03601758
129	0xbe8e43c4	-0.27786076
130	0x3d6cf3bb	0.057849627
131	0xbe928e4c	-0.2862419
132	0x3eb39a9e	0.350789
133	0xbe3ce406	-0.18446359
134	0xbe017461	-0.12642051
135	0x3de0222a	0.10944016
136	0x3e643fd8	0.2228998
137	0x3e2f7171	0.17133118
138	0xbe44772e	-0.19186088
139	0xbe1f8dc2	-0.1558142
140	0x3e177bb7	0.14793287
141	0xbda9fe79	-0.0830049
142	0xbe602970	-0.21890807
143	0x3c8a86fd	0.01691007
144	0xbe654515	-0.22389634
145	0xbb114f78	-0.0022172611
146	0x3c215f5b	0.009849395
147	0xbdc0fa09	-0.094226904
148	0x3da09dfa	0.07842632
149	0x3e30b8bc	0.1725797
150	0x3cf5bd60	0.029997528
151	0xbbe80ec5	-0.007081839
152	0xbe8dc703	-0.27690896
153	0xbec4b34e	-0.3841805
154	0x3e636b8b	0.22208993
155	0x3e264711	0.16238047
156	0xbe75185a	-0.2393507
157	0x3e1ab71f	0.15108918
158	0x3dfd5d05	0.12371258
159	0xbe45ac7c	-0.19304079
160	0xbec7c96f	-0.3902087
161	0xbe00e98e	-0.12589094
162	0xbe18b54b	-0.14912908
163	0xbbcec13d	-0.006309657
164	0xbe564a7d	-0.20926853
165	0xbe6a87c9	-0.2290336
166	0xbc0f1cae	-0.008734865
167	0x3c80093d	0.015629405
168	0xbdefda3c	-0.11711547
169	0x3e0f2971	0.13980652
170	0xbe5637e6	-0.20919761
171	0xbe2fa0d0	-0.17151189
172	0xbe007de0	-0.12548018
173	0x3d845e70	0.06463325
174	0xbcdd1856	-0.026989143
175	0xbe1a1f44	-0.1505099
176	0x3ecb0795	0.39654222
177	0x3e437ab8	0.19089782
178	0xbca76e70	-0.020438403
179	0xbc820d9f	-0.015875636
180	0x3eb766d0	0.35820627
181	0x3e1800a0	0.14843988
182	0x3e0b9e4e	0.13634607
183	0xbc8234c5	-0.015894303
184	0x3d3501b6	0.044191085
185	0x3ce3ee9f	0.027823744
186	0x3d907169	0.07052881
187	0x3df8fc76	0.12157528
188	0x3e483b49	0.19553865
189	0xbc17abc5	-0.009257262
190	0x3d4e4f04	0.050368324
191	0x3ec5b33b	0.38613304
192	0x3cec9b44	0.02888263
193	0xbea16f0c	-0.31530035
194	0xbe24d018	-0.16095006
195	0xbe6d0f5e	-0.23150393
196	0xbe748f13	-0.23882703
197	0xbda26a43	-0.07930424
198	0x3e70edc6	0.23528203
199	0xbcd4e31e	-0.025987204
200	0x3e08d834	0.13363725
201	0xbdf77776	-0.12083332
202	0x3e8dcc3e	0.27694887
203	0xbcc447d1	-0.023960026
204	0x3e304102	0.17212299
205	0xbd6b611b	-0.057465654
206	0xbd807c1c	-0.06273672
207	0x3cd2b93e	0.025723096
208	0xbdb4f87d	-0.08836458
209	0x3dec432a	0.11536248
210	0x3e322f80	0.17400932
211	0xbcd954c6	-0.026529681
212	0xbdf91a18	-0.1216318
213	0x3e0a9164	0.13532025
214	0xbdcd5c2c	-0.10027346
215	0x3b08ee4b	0.0020893987
216	0x3d859fdc	0.065246314
217	0x3e598deb	0.21245544
218	0xbe73916d	-0.23785944
219	0x3e80ed8c	0.25181234
220	0x3d349c09	0.04409412
221	0xbbdbb591	-0.006704994
222	0x3e2ca385	0.16859253
223	0xbe00b2e0	-0.12568235
224	0xbe1a77ad	-0.15084715
225	0x3e4c21f1	0.19934823
226	0x3ed71f7c	0.42016208
227	0xbdb86772	-0.09004106
228	0x3e238948	0.15970337
229	0x3e76fdda	0.24120274
230	0xbe188fca	-0.14898601
231	0x3cf300f2	0.029663537
232	0x3e1638c1	0.14670087
233	0x3de3df73	0.11126604
234	0xbe420810	-0.18948388
235	0xbd87c442	-0.0662923
236	0x3e6f7263	0.23383479
237	0xbcdcea41	-0.02696717
238	0xbcbc562c	-0.022990309
239	0x3e868e43	0.26280412
240	0xbdbf84fd	-0.093515374
241	0xbe15019c	-0.14551395
242	0x3cec65e0	0.028857172
243	0x3e9f237b	0.31081757
244	0xbea29821	-0.3175669
245	0x3d895949	0.06706483
246	0xbeeea76c	-0.46612108
247	0xbe10d236	-0.14142689
248	0xbec66767	-0.38750765
249	0x3ea6559a	0.32487184
250	0xbb9c421f	-0.0047686244
251	0xbe7af124	-0.2450605
252	0x3d5fc515	0.05463131
253	0x3dec2fb4	0.11532536
254	0xbe48bd21	-0.19603397
255	0x3e2d3cb2	0.16917685

sentiment_branch.fc.bias f4 [32]
0	0x3cd2288e	0.025654104
1	0xbdf09c12	-0.11748518
2	0xbd8da4e7	-0.06916218
3	0x3d4e70be	0.050400488
4	0xbe38fa63	-0.18064265
5	0xbe892de0	-0.26792812
6	0xbe217a59	-0.15769328
7	0x3e00e4b0	0.12587237
8	0xbdfa22c7	-0.122136645
9	0x3d002cc9	0.03129271
10	0xbdfa47d1	-0.12220729
11	0xbdac5510	-0.08414662
12	0xbe99b930	-0.300241
13	0x3d1824c8	0.037144452
14	0x3bf9a108	0.0076180734
15	0xbe41359a	-0.18868104
16	0x3ce1e75b	0.02757614
17	0xbe29c5e1	-0.16579391
18	0xbe5ad363	-0.213697
19	0xbc0141c5	-0.007889216
20	0xbe4e5f2a	-0.2015349
21	0xbc45e7be	-0.012079177
22	0xbe73ee82	-0.23821452
23	0xbdf3705b	-0.118866645
24	0xbdbc29c9	-0.091876574
25	0xbd76a519	-0.060216043
26	0x3d0ad5d3	0.033895325
27	0x3d851bb6	0.06499426
28	0xbeb16ce5	-0.34653392
29	0x3d8633d4	0.06552854
30	0xbdc3859c	-0.09546968
31	0xbcf0479d	-0.029331023

price_branch.lstm.weight_ih_l0 f4 [64, 5]
0	0xbdd9bf62	-0.106322065
1	0xbebe110c	-0.3712238
2	0x3ee7c2fc	0.4526595
3	0x3dea3037	0.114349775
4	0xbe83de1b	-0.2575539
5	0xbea1f7f9	-0.316345
6	0xbed8aa18	-0.4231727
7	0xbe539bbe	-0.2066488
8	0xbe400086	-0.187502
9	0xbee03d3d	-0.4379672
10	0xbe0dfd99	-0.13866271
11	0xbeb640f3	-0.35596427
12	0x3e972109	0.2951739
13	0xbda916b5	-0.08256284
14	0xbec01968	-0.37519383
15	0x3dcf141c	0.101112574
16	0xbe006314	-0.12537795
17	0x3eb4325a	0.35194665
18	0x3e80591b	0.25067982
19	0x3c1431aa	0.009045044
20	0x3e10769a	0.14107743
21	0xbe0d6947	-0.13809691
22	0x3ed97dc4	0.42478764
23	0x3eaeb173	0.34119758
24	0xbec5114c	-0.3848976
25	0x3ee2d438	0.44302535
26	0x3eca56c6	0.39519328
27	0xbd552db8	-0.052045554
28	0x3ec8832f	0.39162585
29	0x3e01be11	0.12670161
30	0xbd690697	-0.05689105
31	0x3e9ccb6a	0.30623943
32	0x3eb1ccc3	0.34726533
33	0x3dc99c89	0.0984431
34	0x3d0e6eed	0.034773756
35	0xbd552fc3	-0.052047502
36	0x3e9137ba	0.28362828
37	0x3dee2708	0.11628538
38	0x3e1bce85	0.152155
39	0x3e5909eb	0.2119519
40	0x3f0aafee	0.541747
41	0x3e84294f	0.25812766
42	0xbeeb6519	-0.4597557
43	0x3e0e793d	0.13913436
44	0x3eacbc79	0.33737543
45	0x3eda8058	0.42676044
46	0x3e107211	0.14106013
47	0x3ed59d5f	0.41721627
48	0x3d0cba3b	0.03435729
49	0xbdfd2065	-0.123596944
50	0x3dbaa2db	0.091130935
51	0xbda61599	-0.08109588
52	0x3e8ed308	0.2789538
53	0xbe50279a	-0.20327607
54	0xbe319520	-0.17342043
55	0x3e1540e2	0.14575532
56	0x3e2d1733	0.16903381
57	0x3e6e3d71	0.23265626
58	0xbcb93ac1	-0.022611024
59	0x3de9803f	0.11401414
60	0x3ebe78fe	0.37201685
61	0x3d7e58b7	0.062096324
62	0xbeb891db	-0.3604878
63	0xbdfafb7e	-0.122549996
64	0x3e77a374	0.24183446
65	0xbbbbdaa3	-0.0057328506
66	0xbd89c041	-0.06726123
67	0x3f013339	0.50468785
68	0xbe036987	-0.12833224
69	0x3c91df74	0.017806746
70	0xbe77d9d2	-0.24204186
71	0xbcd3bea8	-0.025847748
72	0xbea3c081	-0.31982806
73	0x3ebcb2a3	0.3685504
74	0x3e1ecf5c	0.15508789
75	0x3eba235a	0.36355096
76	0x3ec2fbf7	0.3808286
77	0xbe95e9e9	-0.29280022
78	0xbd8496ef	-0.06474101
79	0x3d1348af	0.03595799
80	0xbe6e3d38	-0.2326554
81	0xbee38fc3	-0.4444562
82	0xbd572fc1	-0.052535776
83	0x3e765f03	0.24059682
84	0xbe937a4d	-0.28804246
85	0x3f2cbbcd	0.6747406
86	0x3edff2e0	0.43739986
87	0xbe815d3b	-0.25266442
88	0xbe1128ff	-0.14175795
89	0x3c878b88	0.016546026
90	0x3eae65dd	0.3406209
91	0x3eb02376	0.34402055
92	0x3d809f9f	0.06280445
93	0x3dbcdff9	0.09222407
94	0xbedb3730	-0.42815542
95	0xbe3ff582	-0.18745998
96	0xbebb03c1	-0.36526302
97	0x3d6e01db	0.05810724
98	0xbe4e5c91	-0.20152499
99	0xbd5a7dbd	-0.05334257
100	0xbe3cc2fa	-0.18433753
101	0xbef24097	-0.47314903
102	0x3dd3561a	0.10319157
103	0xbdd10fca	-0.1020809
104	0xbed23e53	-0.41063175
105	0x3e7fc483	0.24977307
106	0x3e9554c3	0.2916623
107	0x3c333fd7	0.010940514
108	0x3d5c5180	0.053788662
109	0x3e702697	0.23452221
110	0xbe89279c	-0.26788032
111	0xbe2b21bd	-0.16712089
112	0x3ea34fee	0.3189692
113	0x3ee08185	0.43848816
114	0xbdddfd47	-0.108393244
115	0xbebe403c	-0.37158382
116	0xbdfe08c3	-0.12404015
117	0x3df71d2c	0.12066111
118	0x3dd604e3	0.10450151
119	0x3dbf9a08	0.09355551
120	0x3e0c7717	0.13717304
121	0x3efa8fd8	0.4893787
122	0xbe548dd9	-0.20757236
123	0x3eebe82a	0.46075565
124	0x3e0062a2	0.12537625
125	0x3dc1af98	0.0945732
126	0x3da54b34	0.080709845
127	0x3f2507a0	0.6446476
128	0x3e0a72cf	0.13520359
129	0xbdf66684	-0.12031272
130	0xbdb3cf21	-0.08779741
131	0xbe7756cd	-0.24154206
132	0xb99f25b8	-0.00030354946
133	0xbd7919b5	-0.06081553
134	0xbe35b9a6	-0.177466
135	0x3d0bf6cc	0.03417091
136	0x3de5a2d1	0.112126954
137	0xbde594d2	-0.11210026
138	0xbea08845	-0.31353965
139	0x3da7697c	0.081744164
140	0x3eff7922	0.49897105
141	0x3f1570ae	0.5837506
142	0xbdc14af2	-0.09438123
143	0xbe090254	-0.13379794
144	0xbccc55e7	-0.024943305
145	0xbe15055a	-0.14552823
146	0x3e550ac3	0.20804887
147	0x3d9007f5	0.07032768
148	0xbdbe592b	-0.09294351
149	0x3eb818f5	0.3595654
150	0xbe31ff61	-0.17382576
151	0x397a38d5	0.0002386303
152	0xbdf3a931	-0.11897505
153	0x3ed83287	0.4222605
154	0x3eb22461	0.3479338
155	0xbe25f19f	-0.16205452
156	0xbe496fd2	-0.19671562
157	0x3d3e9ea5	0.046538014
158	0xbe301f67	-0.17199479
159	0xbe43569d	-0.19076009
160	0x3e0fe31d	0.1405148
161	0x3e4f3062	0.202333
162	0x3eea490b	0.45758852
163	0x3eaa8669	0.33305672
164	0xbe2e55eb	-0.17024963
165	0x3ee6106d	0.44934407
166	0x3edf5347	0.43618223
167	0x3e629b96	0.22129664
168	0x3e03aeb2	0.1285961
169	0xbea59b6f	-0.3234515
170	0xbeb94d6c	-0.3619188
171	0xbf0bdc00	-0.5463257
172	0xbbe533c4	-0.0069946963
173	0xbe186507	-0.14882289
174	0x3e678a52	0.22611359
175	0x3ea25d5d	0.31711856
176	0x3ee1e068	0.4411652
177	0xbe003327	-0.12519513
178	0xbceca0e5	-0.028885314
179	0xbdf287f6	-0.11842339
180	0xbe447fa8	-0.19189322
181	0xbe5c8a3d	-0.21537109
182	0x3d5b3bc4	0.053523794
183	0x3df247ff	0.118301384
184	0xbec8ceae	-0.39220184
185	0xbb4bf120	-0.0031119063
186	0xbdd4590a	-0.10368545
187	0xbe299ffe	-0.16564938
188	0xbe3bd04d	-0.18341179
189	0xbeb40c14	-0.35165465
190	0x3e4db3e9	0.20088162
191	0x3e31f80c	0.17379779
192	0xbe85f1f7	-0.26161167
193	0x3e1b90cd	0.15191956
194	0xbdd16fcc	-0.10226402
195	0x3ead781f	0.33880708
196	0x3ec7ba33	0.39009246
197	0xbedebeb6	-0.43504876
198	0x3dfdd578	0.123942316
199	0xbdbabab1	-0.0911764
200	0xbe12d985	-0.1434079
201	0x3d50bc14	0.050960615
202	0xbe8e92dd	-0.27846423
203	0x3deb3000	0.11483765
204	0xbed7e87c	-0.4216956
205	0xbd6f7e97	-0.058470335
206	0xbd82d000	-0.06387329
207	0x3e0144be	0.1262388
208	0xbe849ed4	-0.25902426
209	0xbef40aec	-0.47664583
210	0x3f2933ed	0.6609486
211	0x3f0dc405	0.5537723
212	0xbe6fbb7f	-0.23411368
213	0x3e8d0fd5	0.2755114
214	0x3e8b30b5	0.27185598
215	0x3e9a16fe	0.30095667
216	0xbc1b6d4c	-0.009486508
217	0x3dd42c90	0.10360062
218	0xbe89f071	-0.26941255
219	0x3e409ca1	0.18809749
220	0xbe935015	-0.28772035
221	0xbdc58856	-0.09645145
222	0x3daf94d0	0.085733056
223	0x3e9b167c	0.30290592
224	0x3e710efb	0.23540871
225	0xbe2ec90a	-0.17068878
226	0xbe538e7f	-0.20659827
227	0x3eb7826e	0.35841697
228	0x3db51331	0.08841551
229	0xbe08dd8b	-0.13365762
230	0x3d969775	0.07353107
231	0x3ea0b93e	0.3139133
232	0xbed1b752	-0.40960175
233	0xbeb17175	-0.34656873
234	0xbe59d3e3	-0.21272235
235	0xbe805a8c	-0.25069082
236	0xbd45353a	-0.048146464
237	0xbf07f1fd	-0.5310362
238	0x3d803c2b	0.06261476
239	0x3ec0b920	0.3764124
240	0x3cc6f665	0.024287412
241	0xbe9a7595	-0.30167833
242	0x3e3d4840	0.18484592
243	0x3c0b6ccd	0.008509827
244	0xbe26ad5a	-0.16277066
245	0xbd48fe79	-0.04907081
246	0x3dc0600b	0.09393319
247	0xbda0f399	-0.078589626
248	0xbea22135	-0.3166596
249	0xbe80d19f	-0.25159928
250	0xbe58915e	-0.21149203
251	0xbf1343cc	-0.57525325
252	0x3e1aee45	0.15129955
253	0x3e8c0e0a	0.2735446
254	0xbed8b5b5	-0.4232613
255	0x3e4a8c4f	0.19780086

price_branch.lstm.weight_hh_l0 f4 [64, 16]
0	0x3db9c6a9	0.090710945
1	0xbdb1ea38	-0.08687252
2	0xbe46a754	-0.19399768
3	0xbdb24d3e	-0.08706139
4	0x3e12f13d	0.14349838
5	0x3d9fe2e1	0.078069456
6	0xbe015e12	-0.12633541
7	0x3d4bd6f9	0.04976556
8	0xbeac3ec5	-0.3364164
9	0x3d174d0c	0.036938712
10	0xbe4edbcf	-0.20201038
11	0xbec25b7f	-0.3796043
12	0x3e2a34ac	0.16621655
13	0x3e49c22f	0.19702981
14	0xbe50ee7e	-0.20403478
15	0x3dcc5b0d	0.09978304
16	0x3dd73ea5	0.10509995
17	0x3e028738	0.12746894
18	0xbe37226c	-0.17884225
19	0x3ed4ad4a	0.4153846
20	0xbdc97793	-0.0983726
21	0x3d149ad1	0.036280457
22	0x3e8a0ae3	0.2696143
23	0x3ec87021	0.39148048
24	0x3de88084	0.113526374
25	0xbd52add2	-0.0514353
26	0xbcc79a82	-0.024365667
27	0x3e8584fe	0.26078027
28	0xbe8bccb2	-0.27304608
29	0xbf13f656	-0.57797754
30	0x3e9bea5d	0.30452242
31	0x3caa9116	0.020821135
32	0x3ef1c0b7	0.47217342
33	0x3da538cb	0.08067473
34	0xbea077b7	-0.31341335
35	0x3e02624e	0.12732813
36	0x3e8a1208	0.26966882
37	0x3d9cbefe	0.07653616
38	0x3d76094f	0.06006747
39	0xbe3e3399	-0.1857437
40	0xbd9f64a1	-0.07782865
41	0x3e964065	0.29346004
42	0x3de2029e	0.110356554
43	0x3e969e0c	0.29417455
44	0xbe1504d0	-0.14552617
45	0x3e40091a	0.18753472
46	0x3d1a1f13	0.03762729
47	0xbf05625e	-0.5210322
48	0x3f3ab32f	0.7292966
49	0x3d1af9b6	0.0378358
50	0xbe93b97d	-0.28852454
51	0x3cf2da82	0.029645208
52	0x3dabc1b5	0.08386556
53	0x3ec6ac80	0.38803482
54	0xbdfef23e	-0.12448548
55	0x3dcf4b7f	0.101218216
56	0x3e0e37b9	0.13888444
57	0x3e966b11	0.2937856
58	0xbe0bc721	-0.1365018
59	0x3eaf3027	0.34216425
60	0xbd11f895	-0.035637457
61	0xbee1811e	-0.4404382
62	0xbe3ff4df	-0.18745755
63	0xbe252bcf	-0.16129993
64	0x3e984447	0.2973959
65	0x3e7a06ac	0.24416608
66	0x3eae2070	0.34009123
67	0xbe83cf46	-0.25744075
68	0x3ee26c02	0.44223028
69	0xbda201c1	-0.07910491
70	0xbd8e76a3	-0.06956222
71	0xbeb9315d	-0.36170474
72	0x3f1fe040	0.62451553
73	0xbdc827b7	-0.097732
74	0xbe7adef4	-0.24499112
75	0xbf1bcc7d	-0.608589
76	0xbe82a79b	-0.25518498
77	0x3e202be7	0.15641747
78	0xbdae9438	-0.08524364
79	0xbf0b97b5	-0.5452836
80	0x3d70d9e5	0.05880155
81	0xbb9850de	-0.004648312
82	0xbd8d7b89	-0.06908328
83	0x3e41a461	0.18910362
84	0xbe70dc68	-0.23521578
85	0xbe22309e	-0.15838858
86	0x3cfd412b	0.030914864
87	0x3f22baa3	0.63566035
88	0xbd6e56de	-0.05818831
89	0xbaa09a10	-0.0012252945
90	0xbccec072	-0.02523825
91	0xbd1a8f64	-0.037734404
92	0x3e24b395	0.1608413
93	0xbdb888aa	-0.090104416
94	0x3dd3bea7	0.103390984
95	0xbce8ebdc	-0.028432779
96	0x3ea35df3	0.31907615
97	0x3e9bd16c	0.30433214
98	0xbe9f9ffc	-0.31176746
99	0x3e86e986	0.2635004
100	0x3ea7db03	0.3278428
101	0x3d6b7441	0.057483915
102	0x3d9387be	0.07203625
103	0xbdbc96e9	-0.09208471
104	0x3e924da5	0.28574863
105	0xbeb6a160	-0.35669994
106	0x3d131004	0.035903946
107	0xbe172253	-0.14759187
108	0x3e23ba7e	0.1598911
109	0xbe42e725	-0.19033487
110	0xbec719d2	-0.38886887
111	0x3da8cc78	0.08242124
112	0x3f169268	0.5881715
113	0x3e3a3e2b	0.18187778
114	0xbdc24471	-0.094857104
115	0xbecfc790	-0.40581942
116	0x3ee00549	0.43754032
117	0xbf4792ca	-0.7795836
118	0xbf295764	-0.6614897
119	0x3cf70e7e	0.030158278
120	0xbf427e82	-0.75974286
121	0xbf3c7dae	-0.7362927
122	0xbf0bce85	-0.54612
123	0xbec3662c	-0.38163888
124	0x3e8a8c39	0.27060106
125	0x3e26dac0	0.16294384
126	0xbe20937f	-0.15681265
127	0xbc4edc69	-0.012625792
128	0xbcb182ff	-0.02166891
129	0xbe1f2e54	-0.15545017
130	0xbe471582	-0.19441798
131	0x3f5935b9	0.848476
132	0xbf1d78dd	-0.6151255
133	0xbd6835d4	-0.05669196
134	0x3ebeb9cb	0.37251124
135	0x3e1779e7	0.14792596
136	0xbd2f5d91	-0.04281384
137	0x3f01e574	0.5074074
138	0x3ec3be4a	0.38231117
139	0x3ecdd87a	0.4020422
140	0xbf4c7400	-0.798645
141	0xbeb41fa8	-0.35180402
142	0xbcdc2683	-0.026873833
143	0xbd47d7f6	-0.04878994
144	0xbe26a404	-0.16273504
145	0x3dcfcb86	0.10146241
146	0xbe181fed	-0.14855929
147	0x3e074236	0.13208851
148	0xbefc6747	-0.49297544
149	0xbc57a810	-0.013162628
150	0x3ebdb8af	0.37054965
151	0xbe7dccef	-0.24785207
152	0xbd88d43a	-0.06681104
153	0x3ee5590e	0.44794506
154	0x3e733080	0.2374897
155	0xbd9499cf	-0.07255899
156	0xbd4b5e56	-0.049650513
157	0x3e270791	0.1631148
158	0xbda24a52	-0.07924332
159	0xbe88a3bf	-0.26687428
160	0x3de28eaf	0.11062371
161	0x3e9d619a	0.30738527
162	0xbe005a1c	-0.12534374
163	0x3eeafd40	0.4589634
164	0x3e10b1e2	0.14130357
165	0x3f2c1f14	0.6723492
166	0xbe9b80c3	-0.30371675
167	0x3dc8f8f7	0.09813111
168	0x3e8d5ce7	0.2760994
169	0x3ce0a4f4	0.027422406
170	0x3d074cae	0.03303211
171	0x3e58772d	0.21139212
172	0xbe7212ec	-0.2364003
173	0x3e98b102	0.29822546
174	0x3e637fd2	0.22216728
175	0xbe230571	-0.15920044
176	0xbeb0ed6f	-0.34556147
177	0xbda4e3a6	-0.08051233
178	0x3edb779b	0.4286469
179	0xbdddf0d2	-0.108369485
180	0xbe154f97	-0.14581142
181	0x3dd9f8de	0.10643171
182	0xbc9d990c	-0.019238017
183	0xbe8765f8	-0.26444983
184	0x3e9959b3	0.29951248
185	0x3e258e25	0.16167505
186	0x3d2fdbf3	0.04293437
187	0x3e029947	0.12753783
188	0xbef7ab1d	-0.48372737
189	0xbde0812d	-0.10962138
190	0xbdea47bf	-0.11439466
191	0xbe762ddb	-0.2404093
192	0xbe96a0d9	-0.29419592
193	0xbe91842e	-0.28421158
194	0x3e2aa016	0.1666263
195	0x3e1dc330	0.1540649
196	0xbdfd9e40	-0.123836994
197	0x3e92f191	0.28699926
198	0x3e7e35ff	0.24825285
199	0xbe78386b	-0.24240272
200	0x3d2ae59f	0.04172289
201	0x3d739d47	0.059476163
202	0xbe429453	-0.19001894
203	0x3caa2903	0.020771509
204	0xbd1dc3ae	-0.038516693
205	0x3e4663e1	0.19374038
206	0x3eb02795	0.344052
207	0x3eedb223	0.4642497
208	0x3df95b6b	0.1217564
209	0xbe70a8e0	-0.2350192
210	0x3da0bafb	0.07848164
211	0xbeca8ad0	-0.3955903
212	0x3d899595	0.06717984
213	0xbd6afce9	-0.0573701
214	0xbd478875	-0.04871412
215	0xbef6de7c	-0.48216617
216	0xbe9cbbec	-0.30612123
217	0x3e4c182e	0.19931099
218	0x3dcdf565	0.10056571
219	0x3d85e870	0.065384746
220	0xbee963c4	-0.45583928
221	0xbc511f0f	-0.012763753
222	0xbeaeb53a	-0.3412264
223	0x3dfd048e	0.12354384
224	0x3e2bd24c	0.1677944
225	0x3d09dfa9	0.033660565
226	0xbe2626ad	-0.16225691
227	0x3e8026b9	0.25029543
228	0x3dc5eec5	0.09664682
229	0xbea04ed7	-0.3131015
230	0x3ecfc671	0.40581086
231	0x3e12a299	0.14319839
232	0x3e2c9f91	0.16857745
233	0xbe5811e4	-0.21100575
234	0x3e6263f9	0.22108449
235	0xbd969636	-0.07352869
236	0xbde8e63c	-0.11372039
237	0x3ce2678d	0.027637267
238	0xbd90fbea	-0.07079299
239	0x3df62ec2	0.12020637
240	0xbeac8138	-0.33692336
241	0xbe1c8dde	-0.15288493
242	0xbe225e54	-0.15856296
243	0x3e8ffe67	0.2812378
244	0x3df06f53	0.117399834
245	0xbe25f7d8	-0.16207826
246	0x3dd354fa	0.10318942
247	0x3ecde586	0.40214175
248	0x3e1456ec	0.14486283
249	0xbdcfa491	-0.101388104
250	0xbe278865	-0.16360624
251	0x3e8c62ce	0.27419132
252	0xbd6ee756	-0.058326088
253	0x3e372b18	0.17887533
254	0x3eaa729c	0.33290565
255	0x3e4a2f8e	0.19744703

price_branch.lstm.bias_ih_l0 f4 [64]
0	0xbd5e3fec	-0.05426018
1	0x3dc80449	0.09766442
2	0x3da84e7b	0.08218094
3	0x3ebf9033	0.37414703
4	0xbd8025fe	-0.062572464
5	0x3d95f82f	0.07322728
6	0xbd2429f3	-0.04007907
7	0x3e187f83	0.14892392
8	0xbe2f2180	-0.17102623
9	0x3d5c4952	0.05378086
10	0x3cf757fa	0.030193318
11	0x3d5013c1	0.05080009
12	0x3e104f23	0.14092688
13	0x3e5e030d	0.21680851
14	0xbe700c02	-0.2344208
15	0xbd07f39f	-0.03319132
16	0x3e10c23a	0.14136592
17	0x3e5f8d74	0.21831304
18	0x3e56d269	0.20978703
19	0x3d942c5b	0.07235023
20	0x3e2aac17	0.1666721
21	0x3e303827	0.1720892
22	0x3e25c3a7	0.16187917
23	0x3e7016fe	0.23446271
24	0x3d398630	0.045293987
25	0x3ebd9bff	0.37033078
26	0xbdbb5408	-0.09146887
27	0x3db859ca	0.09001501
28	0x3e95d559	0.29264334
29	0x3ef48880	0.4776039
30	0x3d99faab	0.07518514
31	0x3e708cd5	0.23491223
32	0xbe17f8bd	-0.1484098
33	0x3d6e1885	0.058128852
34	0xbe3e8779	-0.18606366
35	0xbe3ca595	-0.1842254
36	0xbe1d7d44	-0.15379816
37	0x3c4c4995	0.012468715
38	0x3bf47e2e	0.007461331
39	0xbd034c25	-0.03205504
40	0xbe2636d0	-0.16231847
41	0xbc7c3efc	-0.015395876
42	0xbcac7af9	-0.021054732
43	0xbcbae1a1	-0.022812666
44	0xbdef0326	-0.116705224
45	0x3e56e6ee	0.2098653
46	0x3e173356	0.14765677
47	0x3d73b1de	0.0594958
48	0x3e6ad7dd	0.22933908
49	0x3e77ac81	0.24186899
50	0xbe2e355f	-0.17012547
51	0x3e042809	0.12905897
52	0xbbf67d2d	-0.0075222463
53	0xbe11a37e	-0.14222524
54	0xbdc8d89e	-0.098069414
55	0x3e2b7f19	0.16747703
56	0x3d8ff46b	0.07029041
57	0xbcdd7ba9	-0.027036505
58	0x3e087ead	0.13329573
59	0xbe18ffa2	-0.14941266
60	0x3e9cc736	0.30620736
61	0xbe2f8849	-0.17141832
62	0x3e38aa78	0.18033779
63	0x3dfd3a99	0.12364692

price_branch.lstm.bias_hh_l0 f4 [64]
0	0x3e01fd1e	0.12694213
1	0x3e4a68b8	0.1976651
2	0xbcb2c323	-0.021821564
3	0x3de6cc49	0.11269433
4	0x3e172fc6	0.14764318
5	0xbe148211	-0.14502741
6	0xbe097703	-0.13424306
7	0x3eec8b16	0.46199864
8	0xbe5f7115	-0.21820481
9	0x3e91d23d	0.28480712
10	0x3e4a6e2c	0.1976859
11	0xbe4166d7	-0.18886887
12	0xbdc9613a	-0.098329976
13	0xbd09933a	-0.03358767
14	0xbdffee00	-0.12496567
15	0x3d8fd9ec	0.07023987
16	0xbe13ec8b	-0.14445703
17	0xbd8c1655	-0.06840197
18	0x3e18d23f	0.14923953
19	0xbe48de46	-0.1961604
20	0x3c1f13db	0.009709324
21	0x3dc7bcd7	0.09752815
22	0x3e69117b	0.22760575
23	0x3e9b193a	0.30292684
24	0xbe3cd139	-0.18439187
25	0x3ddb4746	0.10706954
26	0x3e086173	0.13318424
27	0x3df26061	0.11834789
28	0x3d359014	0.044326857
29	0x3e729ca8	0.23692572
30	0x3e233f0b	0.15942018
31	0xbccceaef	-0.025014369
32	0xbd862947	-0.06550842
33	0x3e38e7ad	0.18057127
34	0xbe5e47ef	-0.21707128
35	0xbd85bc5c	-0.06530067
36	0xbdbee669	-0.09321291
37	0x3e01cc96	0.126757
38	0xbde20007	-0.110351615
39	0xbe480446	-0.1953288
40	0x3e87d425	0.2652904
41	0xbe25b689	-0.16182913
42	0xbdca43e1	-0.09876228
43	0x3da946aa	0.08265431
44	0x3dd6e79e	0.10493396
45	0x3ccc1649	0.02491297
46	0xbb1775a7	-0.0023110898
47	0x3d86268b	0.0655032
48	0xbda3b80b	-0.07994088
49	0xbd24031a	-0.04004202
50	0x3d4031e4	0.04692258
51	0xbd5b8841	-0.05359674
52	0x3dd4cec3	0.10390999
53	0x3d2cf7a5	0.04222836
54	0xbd84a2d8	-0.064763725
55	0x3de692b9	0.11258454
56	0xbe0b116c	-0.13580865
57	0xbe6c77ea	-0.23092619
58	0x3dffee3b	0.12496611
59	0x3dc6a3c3	0.09699204
60	0x3e8fa120	0.28052616
61	0x3e425e93	0.1898139
62	0xbe86fa27	-0.26362726
63	0x3d8a458e	0.06751548
