models/checkpoints/news_lstm/news_lstm_v8_21feat.pt (torch, 52602 bytes, 19 tensors)

sentiment_branch.lstm_layers.0.weight_ih_l0 f4 [128, 16]
0	0xbdab0376	-0.083502695
1	0xbe5165ab	-0.2044894
2	0xbdaa9598	-0.08329314
3	0x3e54bca3	0.20775084
4	0xbe5c8fa4	-0.2153917
5	0x3c03c33f	0.008042156
6	0x3d80df59	0.062926
7	0xbd2897c7	-0.04116037
8	0xbe49a04f	-0.19690059
9	0x3e4f20ab	0.20227306
10	0x3d1c9b27	0.038233902
11	0x3d8bcfb3	0.06826725
12	0x3d3866d6	0.045019947
13	0x3e31ecc7	0.1737548
14	0xbd7820e2	-0.060578234
15	0x3e101c13	0.1407321
16	0x3e040f2e	0.12896416
17	0x3d1d8e32	0.038465686
18	0xbe851a29	-0.2599652
19	0x3b639527	0.0034726353
20	0x3e154533	0.14577179
21	0x3e17378b	0.14767282
22	0xbdee06d2	-0.116223946
23	0xbe5a9d85	-0.21349151
24	0xbe19b35d	-0.15009828
25	0xbe9f311f	-0.31092164
26	0x3e57a092	0.21057346
27	0x3a8abfc2	0.0010585713
28	0x3dd5e70c	0.10444459
29	0xbe5979e9	-0.21237911
30	0x3d2d3b2c	0.04229276
31	0xbb5d458c	-0.0033763377
32	0xbe2a10fe	-0.16608045
33	0xbbbede40	-0.005824834
34	0xbd4b0703	-0.049567234
35	0x3dcffd15	0.101556934
36	0x3e1fa9f3	0.15592174
37	0xbdb77e21	-0.08959604
38	0x3dd11cc3	0.10210564
39	0x3d97f816	0.074203655
40	0x3e5f93bc	0.218337
41	0x3ca02589	0.019549148
42	0xbcfae02e	-0.030624475
43	0xbe362423	-0.17787223
44	0xbe42574f	-0.18978618
45	0x3d225f8c	0.0396419
46	0xbd730af4	-0.059336618
47	0x3dfccf2e	0.12344204
48	0xbe38990f	-0.18027137
49	0x3d2bff36	0.041991435
50	0x3e327c84	0.17430311
51	0x3d8fed22	0.07027651
52	0x3d532ffb	0.05155943
53	0x3dce0405	0.100593604
54	0xbde41622	-0.11137034
55	0xbd816fa3	-0.06320121
56	0xbd97ee7d	-0.07418535
57	0x3e6281e1	0.22119857
58	0x3d9d0aac	0.07668051
59	0x3d784f0e	0.060622267
60	0xbe7f2fb5	-0.24920543
61	0x3c9b66e0	0.018969953
62	0xbe3efed9	-0.18651904
63	0xbda9c940	-0.082903385
64	0x3e82a09e	0.25513166
65	0xbe0e67f7	-0.13906847
66	0x3e763007	0.24041758
67	0xbd65acbe	-0.056072943
68	0xbd0c57a1	-0.034263257
69	0x3d990fe3	0.07473733
70	0x3da67bb3	0.081290625
71	0xbd8b627e	-0.06805895
72	0xbe2e0cc1	-0.16997053
73	0x3d8f23e0	0.069892645
74	0x3ccaddb7	0.024763925
75	0x3e2fef9d	0.17181249
76	0xbdee5a9d	-0.11638377
77	0xbe8c3af8	-0.2738874
78	0x3e6851ba	0.22687426
79	0x3d81930a	0.063268736
80	0x3e07f2a1	0.1327615
81	0x3e0c5945	0.13705929
82	0x3db886af	0.09010064
83	0xbe2e2ac7	-0.17008506
84	0xbe712d8c	-0.23552531
85	0xbdbe29be	-0.092853054
86	0xbcecdb97	-0.028913302
87	0xbe07ad00	-0.13249588
88	0x3da33289	0.07968623
89	0xbe1768ef	-0.14786123
90	0xbe3fad05	-0.18718345
91	0xbdc7c643	-0.09754612
92	0xbd2d86ca	-0.042364873
93	0xbd4ecd34	-0.050488666
94	0xbd00b227	-0.0314199
95	0xbda942ce	-0.08264695
96	0x3dae5754	0.0851275
97	0xbcaeca12	-0.021336589
98	0x3dbd064f	0.09229719
99	0x3cf39ae8	0.029736951
100	0xbc419895	-0.011816164
101	0xbd845a25	-0.06462506
102	0x3cbecf32	0.023292158
103	0xbd1093e9	-0.035297308
104	0xbbfaeb66	-0.007657456
105	0xbe4fd7ba	-0.20297137
106	0xbe174990	-0.14774156
107	0x3e174d6d	0.1477563
108	0xbd96f806	-0.073715255
109	0xbe84082e	-0.2578749
110	0x3d57255b	0.05252586
111	0x3e47878f	0.19485305
112	0x3d97f449	0.074196406
113	0xbd8a6987	-0.06758409
114	0xbe19077c	-0.14944261
115	0xbd71c1ee	-0.059022836
116	0x3a6aba1e	0.0008954125
117	0xbcd8951c	-0.026438288
118	0xbe8160e8	-0.25269246
119	0x3db8b694	0.09019199
120	0xbe2f5b91	-0.17124774
121	0x3c0386ee	0.008027775
122	0xbe54a662	-0.20766595
123	0x3e47b14d	0.19501229
124	0x3d6f6f95	0.058456022
125	0x3b9ac334	0.004722977
126	0xbddd56cb	-0.1080757
127	0xbe9d36fc	-0.30706012
128	0xbdda103d	-0.106476285
129	0xbdf0b66c	-0.11753544
130	0x3e543736	0.20724186
131	0xbd5a70aa	-0.0533301
132	0xbe4670f5	-0.19379027
133	0xbcba8937	-0.022770507
134	0x3e6be598	0.23036802
135	0x3d83ae28	0.06429702
136	0x3e432350	0.1905644
137	0x3e276b16	0.16349444
138	0x3e118b18	0.14213216
139	0x3dde553b	0.108561
140	0xbd8c1445	-0.068398036
141	0x3ea07ba1	0.3134432
142	0x3d9c2979	0.07625098
143	0xbd93d00a	-0.07217415
144	0x3e551168	0.20807421
145	0x3d772157	0.06033453
146	0x3e8f8bf0	0.2803645
147	0x3e4e86e4	0.20168644
148	0xbe216729	-0.15762009
149	0x3ce8cbfc	0.02841758
150	0x3e558b57	0.20853935
151	0x3d3501bf	0.04419112
152	0x3e2f9cbc	0.17149633
153	0x3e2a8da3	0.16655593
154	0x3e5d7d93	0.21629934
155	0x3e05232f	0.13001703
156	0xbd21a032	-0.039459415
157	0x3d82579c	0.063643664
158	0x3d922d50	0.07137549
159	0x3db11aad	0.08647666
160	0xbcfce760	-0.030872047
161	0x3ea84926	0.32868308
162	0xbe438122	-0.19092229
163	0xbd866ef9	-0.06564135
164	0x3ba1f0eb	0.0049420497
165	0x3e81d84e	0.2536034
166	0xbd70303f	-0.05863976
167	0xbe2528bc	-0.1612882
168	0x3d8d0695	0.06886021
169	0x3e09d5d7	0.1346048
170	0xbe5f4bfb	-0.21806328
171	0x3d4da314	0.05020435
172	0x3e0bbd51	0.13646437
173	0x3de05e45	0.109554805
174	0x3d56f726	0.052481793
175	0xbdd3a739	-0.103346296
176	0x3ca18aea	0.01971956
177	0xbe823520	-0.25431156
178	0x3e9ea6aa	0.3098653
179	0x3e5a26ba	0.21303836
180	0x3e76b27e	0.24091527
181	0xbe66d91f	-0.22543763
182	0x3e175926	0.14780101
183	0x3e15f07e	0.14642522
184	0x3d0e8f86	0.034804843
185	0x3e7d107d	0.24713321
186	0x3d25cabe	0.040476553
187	0x3db9ebe3	0.09078195
188	0x3e459c55	0.19297917
189	0xbe9b39c9	-0.30317524
190	0xbdcbedb9	-0.099574514
191	0xbe337c6e	-0.17527935
192	0x3be77ce1	0.0070644473
193	0x3ec5fbf6	0.38668793
194	0x3d6be61f	0.057592507
195	0x3e036337	0.12830816
196	0x3e6c3e23	0.23070578
197	0x3b9ef5eb	0.004851093
198	0x3deb2043	0.11480763
199	0x3cddd746	0.02708019
200	0x3d8f612a	0.070009544
201	0xbdd06493	-0.10175433
202	0xbd24da62	-0.04024733
203	0x3d118cce	0.035534672
204	0x3d5ec855	0.05439027
205	0xbe32ef56	-0.17474112
206	0x3db8a5b7	0.090159826
207	0x3e633e0e	0.2219164
208	0x3e12136f	0.14265226
209	0xbd6294dc	-0.055317745
210	0x3dc5f5f4	0.096660525
211	0xbddd9dd5	-0.1082112
212	0xbe482f88	-0.19549382
213	0xbdf04b54	-0.11733118
214	0xbe8d60c6	-0.27612895
215	0xbe071afe	-0.1319389
216	0xbdaad939	-0.08342213
217	0xbe1e076f	-0.15432523
218	0xbc9ee2ed	-0.019395316
219	0xbe5f611d	-0.2181439
220	0xbecaf1ef	-0.39637706
221	0xbe2b8dec	-0.16753358
222	0xbc2ebf7a	-0.010665769
223	0x3d71b1ce	0.05900746
224	0xbd1d7d5f	-0.03844964
225	0xbd49bbff	-0.049251553
226	0xbe12b59f	-0.14327095
227	0x3d6f98f8	0.05849549
228	0xbe3d2f33	-0.18475036
229	0x3ddd159c	0.10795137
230	0xbeade936	-0.33966988
231	0x3df0dfe8	0.11761457
232	0xbe6c1473	-0.23054676
233	0x3e8b26f3	0.27178153
234	0xbe27e104	-0.1639443
235	0x3e2c1175	0.16803534
236	0x3eab7a95	0.3349196
237	0x3e0b4331	0.1359985
238	0xbe3e7277	-0.18598352
239	0x3c896e91	0.016776355
240	0x3e15a7ca	0.14614788
241	0x3e0fa455	0.14027531
242	0xbd501a80	-0.050806522
243	0xbda86354	-0.0822207
244	0xbe1d3397	-0.15351711
245	0x3df6e9b9	0.12056298
246	0x3c095d9c	0.008384135
247	0xbe403cad	-0.18773146
248	0x3ec29bb1	0.38009408
249	0xbe0b4174	-0.13599187
250	0x3e37121a	0.17877999
251	0xbe0ea2cf	-0.13929294
252	0xbe2f0327	-0.17091046
253	0xbd47dc64	-0.048794165
254	0xbeadd91f	-0.33954713
255	0x3e124ca4	0.14287049

sentiment_branch.lstm_layers.0.weight_hh_l0 f4 [128, 32]
0	0x3e167e04	0.14696509
1	0xbe99f92c	-0.30072916
2	0x3e2979d3	0.16550379
3	0x3e05d1b2	0.13068274
4	0x3c69aa3b	0.0142617775
5	0xbd8f5462	-0.069985166
6	0x3e168305	0.14698417
7	0x3e8915c1	0.2677441
8	0xbdf4788a	-0.119370535
9	0x3e9b03ac	0.3027624
10	0x3de1f88c	0.11033735
11	0xbc43ad1d	-0.011943129
12	0x3d5397a8	0.051658303
13	0x3dac4712	0.08411993
14	0xbe408ea1	-0.18804409
15	0x3c129392	0.008946316
16	0xbd807e76	-0.062741205
17	0xbd1cc5a9	-0.03827444
18	0x3e902218	0.2815101
19	0x3e4e7f31	0.20165707
20	0xbd964c9e	-0.07338832
21	0xbe2b802b	-0.16748111
22	0x3dd78384	0.105231315
23	0x3d0f8af0	0.03504461
24	0x3db7c12c	0.089723915
25	0x3dcaabcb	0.09896048
26	0xbce5fd2f	-0.028074829
27	0xbdbd4e80	-0.09243488
28	0x3e62c7e8	0.2214657
29	0x3dd3ab2b	0.10335382
30	0xbd108e16	-0.035291754
31	0x3ed62c43	0.41830644
32	0xbe48bde6	-0.1960369
33	0xbda5c0c5	-0.080934085
34	0x3dce4e7f	0.10073566
35	0x3ec2a4ea	0.38016444
36	0xbbd19980	-0.0063964725
37	0x3e355a53	0.17710237
38	0x3d696bfa	0.05698774
39	0xbd7d4372	-0.0618319
40	0x3c5d079d	0.013490585
41	0x3e8c864b	0.27446207
42	0x3d66f9e6	0.056390665
43	0xbd3ca0fd	-0.046051968
44	0x3c4e8ed2	0.012607293
45	0x3e12ec0f	0.14347862
46	0x3e305347	0.17219268
47	0xbd8d17e8	-0.068893254
48	0xbba42cf8	-0.0050102435
49	0xbd90623a	-0.07049985
50	0x3e8c3a24	0.27388108
51	0x3e5bc885	0.21463211
52	0x3dea7fd0	0.114501595
53	0xbdf46033	-0.11932411
54	0x3c831647	0.016001834
55	0x3d48abcd	0.048991967
56	0xbc23c2c0	-0.0099951625
57	0x3e425e08	0.18981183
58	0xbe6d6a90	-0.23185182
59	0xbd4cb955	-0.049981434
60	0x3dd6edda	0.10494585
61	0xbe1a55fe	-0.15071866
62	0xbd95a7e6	-0.07307415
63	0x3e745571	0.23860718
64	0xbd8cbd53	-0.06872048
65	0xbdb89486	-0.090127036
66	0xbe41ba89	-0.18918814
67	0x3e0e4324	0.138928
68	0x3d9d3a2d	0.07677112
69	0xbd88bd56	-0.06676738
70	0x3e40e102	0.18835834
71	0x3e0ae411	0.13563563
72	0x3b7ca512	0.0038550538
73	0xbe4dd3eb	-0.20100372
74	0xbe225360	-0.15852118
75	0xbe619de2	-0.22032884
76	0x3e8ca924	0.27472794
77	0xbcddebf8	-0.027090058
78	0xbeb4db75	-0.35323682
79	0x3dfa98e0	0.1223619
80	0xbe4d3e88	-0.20043385
81	0x3e8ed0d3	0.27893695
82	0x3e2ef7f9	0.17086782
83	0xbdd5e00e	-0.10443126
84	0x3e0a8dde	0.1353068
85	0xbc84e9ab	-0.016224703
86	0x3e90f559	0.28312185
87	0xbd527842	-0.051384218
88	0x3e6fd27a	0.23420134
89	0x3dcaea15	0.09907929
90	0x3dbb1d45	0.09136442
91	0x3c90137f	0.017587421
92	0x3caf4f84	0.02140022
93	0x3e23f74d	0.16012307
94	0x3e81d0cb	0.2535461
95	0x3df20483	0.11817267
96	0xbe1b8383	-0.15186886
97	0x3e79545f	0.24348591
98	0x3d856faa	0.06515439
99	0x3e60825d	0.2192473
100	0xbc632cd0	-0.013865665
101	0xbdd3d84c	-0.1034399
102	0xbd1353c6	-0.035968564
103	0xbd0b852f	-0.03406256
104	0x3da25379	0.079260774
105	0x3d53ff2f	0.051757034
106	0xbe4fc494	-0.20289832
107	0x3d814325	0.06311635
108	0x3ec0fad3	0.37691364
109	0xbd407f8d	-0.046996642
110	0x3c1bb75c	0.0095041655
111	0x3e72ce11	0.2371142
112	0xbe35dcf2	-0.17760065
113	0xbc3eefb0	-0.011653826
114	0xbbf99323	-0.007616417
115	0x3df0a90f	0.11750995
116	0xbe57b705	-0.2106591
117	0xbddc8674	-0.107678324
118	0xbe35cac8	-0.17753136
119	0xbda26fe8	-0.07931501
120	0xbce1145c	-0.027475528
121	0xbe1246de	-0.14284846
122	0xbb63145c	-0.0034649586
123	0xbd88b041	-0.06674243
124	0xbc421093	-0.011844772
125	0xbdfee100	-0.12445259
126	0x3e3a74c2	0.18208602
127	0xbde9fae2	-0.11424805
128	0xbca450c0	-0.020058036
129	0x3cfda93e	0.03096449
130	0x3c297a4e	0.010344101
131	0xbe57be7b	-0.21068756
132	0x3d97953a	0.074015096
133	0x3dda7621	0.106670626
134	0x3d86fcc9	0.06591184
135	0xbda199ff	-0.078907005
136	0x3d97cf2b	0.07412561
137	0xbe7e4074	-0.24829274
138	0xbd8e2d7b	-0.069422685
139	0x3c977b0d	0.018491292
140	0xbeac80cf	-0.33692023
141	0xbe727276	-0.23676476
142	0xbe1837ce	-0.14865038
143	0xbdee7f84	-0.116454154
144	0x3d23ba29	0.039972458
145	0xbd6bfa31	-0.057611648
146	0xbce50581	-0.027956726
147	0xbe978998	-0.29597163
148	0x3d103abd	0.035212267
149	0x3aa4bcbb	0.0012568453
150	0xbbc4dfc9	-0.0060081226
151	0x3e96626e	0.2937197
152	0x3d464d16	0.04841336
153	0x3df6d67e	0.1205263
154	0x3adbd071	0.0016770494
155	0x3e38d9ac	0.18051785
156	0x3e1697da	0.14706364
157	0xbde43535	-0.11142961
158	0x3df91cab	0.12163671
159	0xbe4b95f1	-0.19881417
160	0xbd27da4a	-0.04097966
161	0x3eb387e1	0.35064605
162	0x3e509315	0.20368607
163	0xbca5589e	-0.020183858
164	0xbde4c00e	-0.11169444
165	0x3eb0605b	0.34448513
166	0xbccf86d4	-0.025332846
167	0xbe533156	-0.20624289
168	0xbca8abdc	-0.020589761
169	0xbe8ee90b	-0.27912173
170	0x3e8a3bf3	0.26998863
171	0x3e323c0d	0.1740572
172	0xbc82418f	-0.015900401
173	0xbd3e525a	-0.046465255
174	0x3dc8b6e3	0.09800508
175	0xbe16e851	-0.14737059
176	0xbdd71930	-0.10502851
177	0x3e5c1eba	0.21496096
178	0x3e65d45b	0.22444288
179	0x3c7b492d	0.015337271
180	0xbde608aa	-0.11232121
181	0x3d81c69c	0.0633671
182	0xbe929187	-0.28626654
183	0xbd4ecf4c	-0.050490662
184	0x3de89591	0.113566525
185	0x3e80eb1a	0.25179368
186	0xbdb66cd9	-0.0890748
187	0x3e9c0783	0.3047448
188	0xbe670052	-0.22558716
189	0x3c2aa87d	0.010416147
190	0x3dacd4cb	0.084390245
191	0xbd845de1	-0.064632185
192	0xbe8b6fa0	-0.272336
193	0xbd0303ce	-0.03198605
194	0xbde2e7c4	-0.11079362
195	0x3de4a7e1	0.11164833
196	0xbe1d18e2	-0.15341523
197	0x3c59c2e7	0.013291097
198	0x3e1361c0	0.14392757
199	0x3d104fa2	0.035232194
200	0xbd6264ec	-0.055272028
201	0x3e71cf1a	0.23614159
202	0xbe3a5c65	-0.18199308
203	0xbd7c575e	-0.061606757
204	0x3e25067d	0.16115756
205	0xbdec06d0	-0.11524737
206	0x3d7ff2f3	0.062487554
207	0x3d846deb	0.06466278
208	0x3da6868e	0.08131133
209	0x3df7c51c	0.120981425
210	0xbde46b08	-0.11153227
211	0xbe5b99ff	-0.21445464
212	0x3d74dfd4	0.05978377
213	0x3e2201b9	0.1582097
214	0xbe20d180	-0.15704918
215	0x3ae78b1d	0.001766536
216	0xbba41174	-0.0050069634
217	0x3e0ccc5b	0.1374983
218	0x3e36906d	0.17828532
219	0x3d81dbf5	0.063407816
220	0xbc047c56	-0.008086285
221	0x3e38b922	0.18039373
222	0xbe81c4ee	-0.25345558
223	0xbd51f792	-0.051261492
224	0xbea53029	-0.32263306
225	0xbd04e961	-0.03244913
226	0x3ceb5258	0.028725788
227	0xbdba42ef	-0.09094798
228	0x3ea2adc8	0.3177321
229	0xbd855928	-0.06511146
230	0xbd837ffe	-0.06420897
231	0xbe8c02c2	-0.27345854
232	0xbc41fdb9	-0.011840277
233	0xbd197f7b	-0.03747509
234	0xbe332445	-0.17494304
235	0x3dd78dbf	0.10525083
236	0x3d954843	0.072891735
237	0xbd8347f2	-0.06410207
238	0x3c62c610	0.013841167
239	0x3da39bfc	0.07988736
240	0x3d8ceee3	0.068815015
241	0xbe8e5baf	-0.27804324
242	0xbe4f30e6	-0.20233497
243	0x3e24cb1a	0.16093102
244	0x3e55e646	0.20888624
245	0xbe9fdb55	-0.31222025
246	0x3e82ad8d	0.25523034
247	0x3d26edb2	0.040754028
248	0xbeb3f726	-0.35149497
249	0xbe21d3a7	-0.15803395
250	0xbc84d0b9	-0.016212808
251	0x3ddf387e	0.10899447
252	0x3e861ae0	0.2619238
253	0xbebfdd46	-0.37473506
254	0x3db733bd	0.08945415
255	0x3c868733	0.01642189

sentiment_branch.lstm_layers.0.bias_ih_l0 f4 [128]
0	0x3dd3012b	0.10302957
1	0x3d47b61b	0.048757654
2	0x3e017e15	0.12645753
3	0x3e4a7527	0.19771253
4	0x3d74e9bf	0.05979323
5	0xbe219b42	-0.15781882
6	0x3e016719	0.12636985
7	0x3bd90c71	0.0066237976
8	0x3d9065d5	0.07050673
9	0xbe46b2b3	-0.19404106
10	0x3e22fbc4	0.15916353
11	0xbcf5641c	-0.029954962
12	0x3c791a79	0.0152040655
13	0x3df86326	0.12128286
14	0xbd90b7e6	-0.07066326
15	0xbb393a6c	-0.0028263582
16	0x3d5492ea	0.05189792
17	0xbdfeea39	-0.12447018
18	0xbc9e51f7	-0.019326193
19	0x3d23646a	0.039890684
20	0x3d8d64d8	0.06904
21	0x3d935015	0.07193009
22	0xbdaac8cb	-0.083390795
23	0xbe55cf42	-0.20879844
24	0xbcd2d32d	-0.025735462
25	0x3db13f48	0.08654648
26	0x3a206e38	0.00061199395
27	0xbe2b5142	-0.16730216
28	0x3e165c31	0.14683606
29	0x3dc88abe	0.09792088
30	0xbe4b96bf	-0.19881724
31	0xbd7dc2ba	-0.061953284
32	0x3b5f1389	0.0034038743
33	0x3dc353fc	0.09537503
34	0xbe739986	-0.23789033
35	0x3e1a09b5	0.15042765
36	0xbe165570	-0.1468103
37	0x3cadd1eb	0.02121826
38	0x3df4657d	0.1193342
39	0xbdf2ce2e	-0.11855732
40	0x3d179111	0.03700358
41	0x3ca6fc45	0.020383963
42	0x3e08b88c	0.13351649
43	0xbce40394	-0.027833737
44	0xbdf8baa7	-0.12144976
45	0xbe46676e	-0.19375393
46	0xbe75b537	-0.23994909
47	0xbc5d5aad	-0.013510388
48	0x3d8f9bed	0.07012162
49	0xbbf2f7c9	-0.007414792
50	0x3d2e1aa6	0.042505883
51	0x3db8d7d5	0.09025542
52	0x3ded83a8	0.11597377
53	0x3cdc62c8	0.026902571
54	0xbd93c48d	-0.072152235
55	0xbc7434ba	-0.014905149
56	0xbe1176ff	-0.1420555
57	0xbb16852a	-0.0022967556
58	0xbdb41c1c	-0.08794424
59	0xbcff4735	-0.031161884
60	0x3e0b7c7e	0.13621709
61	0xbdad3f86	-0.08459382
62	0x3da14aa3	0.07875564
63	0xbdc38a04	-0.09547809
64	0xbd6107dc	-0.054939136
65	0x3d8d2d15	0.06893364
66	0x3d756de1	0.05991924
67	0x3d6d0f61	0.057875995
68	0x3deb9501	0.115030296
69	0x3df2b773	0.118513964
70	0x3e6a40d6	0.22876295
71	0xbdc396b3	-0.09550228
72	0xbd19df11	-0.03756625
73	0xbdeab7ee	-0.11460863
74	0xbde6c9d0	-0.112689614
75	0x3ccef05f	0.025261102
76	0xbe1fe4ea	-0.15614668
77	0xbcbc4761	-0.022983255
78	0xbd6bfdce	-0.057615094
79	0xbd5e9736	-0.054343425
80	0x3dcb16e9	0.09916479
81	0xbdd1fd74	-0.102534205
82	0x3d2d8675	0.042364556
83	0x3d7cd820	0.06172955
84	0x3e0ed7c0	0.1394949
85	0x3cf8c0b2	0.030365322
86	0x3de8b2bb	0.11362215
87	0xbd91e790	-0.07124245
88	0xbc36c477	-0.011155239
89	0xbe2c8f03	-0.1685143
90	0xbe167355	-0.14692433
91	0x3d0b2167	0.0339674
92	0x3e091b71	0.13389374
93	0xbe166177	-0.14685617
94	0x3d5e9ae6	0.05434694
95	0x3b0dd047	0.0021639036
96	0xbd89efda	-0.06735201
97	0x3d40363c	0.046926722
98	0x3e1ff528	0.15620863
99	0x3d504c39	0.05085394
100	0xbde8bb3a	-0.11363836
101	0xbd2c4658	-0.042059273
102	0xbdcf26fc	-0.101148576
103	0xbd746a53	-0.05967171
104	0x3d6dad67	0.058026697
105	0x3c34cee2	0.011035653
106	0x3d980f70	0.074248195
107	0xbd9001c1	-0.070315845
108	0x3ccc470e	0.024936225
109	0xbdf9a49a	-0.121895984
110	0x3da695df	0.081340544
111	0xbdf1d610	-0.11808407
112	0x3d38784e	0.045036606
113	0x3dd3564e	0.10319196
114	0xbdb9f0fb	-0.090791665
115	0x3e1d6cb6	0.15373501
116	0xbd9050dc	-0.07046673
117	0x3ccb13fe	0.024789806
118	0x3cb82719	0.02247958
119	0xbe2631b3	-0.16229896
120	0xbd6742f9	-0.056460354
121	0x3cf939b3	0.030423021
122	0x3da6a9da	0.08137865
123	0xbd1f2bf0	-0.03886026
124	0x3d50779c	0.05089532
125	0xbdb0f94f	-0.08641302
126	0xbdc92900	-0.09822273
127	0x3dc7d2b9	0.09756989

sentiment_branch.lstm_layers.0.bias_hh_l0 f4 [128]
0	0x3c8e3ec1	0.017363908
1	0x3e2e10f6	0.16998658
2	0xbcaa93e8	-0.02082248
3	0x3ccf22fd	0.025285238
4	0x3db05515	0.08609978
5	0xbe5b433a	-0.21412364
6	0x3e5dd070	0.21661544
7	0x3e0ea718	0.13930929
8	0xbd026988	-0.031838924
9	0xbd65c43f	-0.056095358
10	0xbcce9dab	-0.025221666
11	0x3d9b2d35	0.07576982
12	0x3dc325f7	0.095287256
13	0xbddb181e	-0.10697959
14	0x3d14a796	0.036292635
15	0x3c419c56	0.011817059
16	0xbe240a3b	-0.16019528
17	0x3e098a10	0.13431573
18	0xbb8d22f2	-0.0043071443
19	0xbe4f8434	-0.20265275
20	0x3ddad3af	0.10684907
21	0xbdfd859b	-0.12378999
22	0xbe8b773e	-0.27239412
23	0xbe7e92c6	-0.24860677
24	0x3c1df8a2	0.009641798
25	0x3e612a81	0.2198887
26	0x3dad0794	0.08448711
27	0xbe12cfb9	-0.14337052
28	0x3e7026a8	0.23452246
29	0xbb7d579c	-0.0038656956
30	0xbe285248	-0.16437638
31	0xbde0ec73	-0.10982599
32	0xbd2669ef	-0.04062837
33	0x3dad04f9	0.08448214
34	0xbe64b51b	-0.22334711
35	0x3d818133	0.06323471
36	0xbe20e576	-0.15712532
37	0xbdadacdc	-0.08480236
38	0x3e64b48f	0.22334503
39	0x3deea241	0.11652041
40	0xbcb0aff6	-0.02156828
41	0x3d56df1d	0.05245887
42	0x3e050310	0.1298945
43	0x3d4d1480	0.05006838
44	0xbcc9cc4a	-0.024633545
45	0xbd3ffc80	-0.046871662
46	0xbc6eed33	-0.01458292
47	0x3c0aae03	0.008464339
48	0x3e09aea8	0.13445532
49	0x3e003e3c	0.1252374
50	0x3cd58350	0.026063591
51	0x3e7f9987	0.2496091
52	0x3d22caed	0.039744306
53	0xbddd185e	-0.10795663
54	0x3af71645	0.0018851241
55	0x3dc12bb7	0.09432166
56	0x3dc4289b	0.095780574
57	0x3d8ec304	0.0697079
58	0xbdc4e131	-0.09613264
59	0x3e548bc0	0.20756435
60	0x3de9b2d8	0.11411065
61	0x3deb3c4a	0.114861086
62	0xbdaf85c7	-0.08570438
63	0x3e209e97	0.15685497
64	0xbd873274	-0.0660142
65	0x3ddb5893	0.107102536
66	0xbe07b05a	-0.13250867
67	0x3e0efdc9	0.13963999
68	0x3b55aeae	0.0032605338
69	0xbdb846fe	-0.08997916
70	0x3c65c5bd	0.014024195
71	0xbddd2bcf	-0.107993715
72	0x3db6b09d	0.08920405
73	0x3dcb0351	0.09912742
74	0xbe352622	-0.17690328
75	0xbd9caffd	-0.076507546
76	0xbda0d4bc	-0.07853076
77	0x3d77e69b	0.060522657
78	0x3d7b10e6	0.061295412
79	0x3de1a915	0.11018578
80	0xbe06a3f5	-0.13148482
81	0xbda0c68d	-0.078503706
82	0xbca51733	-0.020152664
83	0x3c635368	0.013874866
84	0x3e49860e	0.19680044
85	0x3df5bc52	0.1199881
86	0x3e01d4bb	0.12678806
87	0x3dbb4124	0.09143284
88	0xbc3ea181	-0.011635185
89	0xbe1e38f9	-0.15451421
90	0xbdad035b	-0.08447906
91	0x3d0641a7	0.032777455
92	0xbe02bc4e	-0.12767145
93	0xbddcf992	-0.10789789
94	0x3e26165a	0.16219464
95	0xbd2381ed	-0.03991883
96	0x3c97b42c	0.01851853
97	0x3dacc984	0.084368736
98	0x3e469702	0.19393542
99	0x3d56ac31	0.05241031
100	0x3c79049a	0.015198851
101	0x3ccc021d	0.024903351
102	0xb98453e4	-0.00025239505
103	0xbd5ee5d5	-0.054418404
104	0xbe69a8c9	-0.22818293
105	0xbe430725	-0.19045694
106	0x3d9760ea	0.07391532
107	0x3d1cba1d	0.03826343
108	0xbd3c036b	-0.045901697
109	0xbda12efa	-0.07870288
110	0xbbf58bfd	-0.0074934945
111	0xbdc2e91d	-0.09517119
112	0xbd5e3b1e	-0.054255597
113	0x3e031818	0.1280216
114	0xbcaea2d0	-0.02131787
115	0xbdba4398	-0.09094924
116	0xbc5bbde3	-0.013411972
117	0xbe39dba3	-0.18150191
118	0xbc93f654	-0.018061794
119	0x3d2c6594	0.04208906
120	0x3d0fe148	0.035126954
121	0xbdeeca36	-0.116596624
122	0xbdef724b	-0.116917215
123	0x3e2bd6be	0.16781136
124	0x3d973e48	0.07384926
125	0xbd06a6f2	-0.032874055
126	0xbd87a2e9	-0.066228695
127	0x3dd2ce73	0.10293283

sentiment_branch.fc.weight f4 [32, 32]
0	0x3ddcb2e7	0.107763104
1	0x3e0085f5	0.125511
2	0xbd92a8c8	-0.07161099
3	0xbd946421	-0.072456606
4	0x3cdfb59c	0.027308278
5	0xbd822c58	-0.06356114
6	0x3cbcba89	0.023038166
7	0xbe1ec95f	-0.15506504
8	0xbdb52c41	-0.088463314
9	0xbba48651	-0.0050208946
10	0x3d54c721	0.051947717
11	0x3c683448	0.014172621
12	0x3b14344e	0.0022614184
13	0x3e1e5d22	0.15465215
14	0xbd5c557a	-0.053792454
15	0x3d72cddf	0.059278365
16	0xbe0edc07	-0.13951121
17	0xbb0488c1	-0.0020223113
18	0x3e198b47	0.14994536
19	0x3e522a8e	0.20524046
20	0x3e1cacdb	0.15300314
21	0xbd32d297	-0.043657865
22	0xbbd90cf6	-0.0066238595
23	0xbdcab6e3	-0.09898164
24	0x3e0eb02c	0.13934392
25	0xbd29cbb0	-0.041454017
26	0xbe285bf9	-0.16441335
27	0x3d31d0df	0.043412086
28	0x3e7689d1	0.2407601
29	0xbe4911ba	-0.19635668
30	0x3e049f7d	0.12951465
31	0x3e196e7d	0.14983554
32	0xbc3e69a5	-0.011621867
33	0x3e2f27e2	0.17105058
34	0x3c85f6d9	0.016353058
35	0xbe6ce90d	-0.23135777
36	0x3e08517d	0.13312335
37	0xbb205fe6	-0.0024471222
38	0x3d57a3a5	0.052646298
39	0xbe19487a	-0.14969054
40	0xbd8d08b9	-0.06886429
41	0xbdc7e09e	-0.09759639
42	0xbdb66649	-0.08906228
43	0x3c689185	0.014194851
44	0x3de22b6f	0.110434406
45	0x3e2806e2	0.16408876
46	0xbc1fe3dc	-0.009758916
47	0x3df9f7c9	0.122054644
48	0xbd061ab5	-0.032740314
49	0x3e16b655	0.14717992
50	0xbd09f3d6	-0.033679806
51	0x3d585adc	0.052821025
52	0xbc873530	-0.016504854
53	0xbdd3b4f8	-0.103372514
54	0xbdba3d15	-0.09093682
55	0x3c5b37ec	0.013380032
56	0xbb066a6d	-0.0020510212
57	0xbc8624b1	-0.016374918
58	0xbe43d090	-0.19122529
59	0x3dde4307	0.10852628
60	0x3e27189e	0.16317984
61	0xbdd1e9c8	-0.10249668
62	0xbb716a8b	-0.0036837186
63	0xbe022cb3	-0.12712364
64	0x3e148e2f	0.14507364
65	0xbe594891	-0.21219088
66	0x3cec3037	0.028831584
67	0x3df1fc6b	0.11815723
68	0x3dd4eb9a	0.103965
69	0xbe5de92d	-0.21670981
70	0x3e3f7964	0.1869865
71	0xbe603285	-0.21894272
72	0xbe576716	-0.21035418
73	0x3be15f65	0.006877827
74	0xbc91c00a	-0.017791767
75	0x3e15afa3	0.14617781
76	0xbcb770d2	-0.022392664
77	0x3e3a3939	0.18185891
78	0x3e40d829	0.18832459
79	0x3e4ed8ff	0.20199965
80	0x3d303f04	0.043028846
81	0x3e839953	0.25702915
82	0x3d2c2b3a	0.04203341
83	0xbcb5bde5	-0.022185275
84	0x3d341ba1	0.04397166
85	0x3e95503f	0.29162785
86	0x3e205d04	0.15660483
87	0x3c9ca5aa	0.019121964
88	0xbe0d4be7	-0.13798486
89	0xbc8a8f15	-0.01691393
90	0xbd9069b2	-0.0705141
91	0xbdd8307a	-0.10556121
92	0xbd21b2e9	-0.039477263
93	0xbc6d6719	-0.014489912
94	0xbd6f0fa6	-0.058364533
95	0x3d2a6b4a	0.041606225
96	0x3d0fcbb3	0.035106372
97	0xbd376251	-0.044771496
98	0x3d28e490	0.0412336
99	0xbf0fcc97	-0.56171554
100	0x3deb6308	0.11493498
101	0x3e117d5a	0.14207974
102	0xbde8b741	-0.11363078
103	0x3ea06186	0.31324404
104	0x3c34d94d	0.011038137
105	0x3c2776d5	0.010221203
106	0x3da5ff48	0.08105332
107	0x3d25d5a4	0.040486947
108	0x3ed28303	0.4111558
109	0x3e83fe8b	0.25780138
110	0xbcb09e46	-0.021559846
111	0xbdd10517	-0.10206049
112	0xbe4ab39b	-0.19795077
113	0x3df43282	0.11923696
114	0x3e666480	0.22499275
115	0x3d144cb4	0.036205962
116	0xbdf24e42	-0.11831333
117	0xbdd707d9	-0.10499544
118	0x3bcfedaf	0.0063454728
119	0xbe877266	-0.26454467
120	0x3e5af524	0.21382576
121	0xbe6b93e3	-0.23005633
122	0x3d3ac98d	0.04560237
123	0xbe64bf4e	-0.22338602
124	0x3d3ba932	0.045815654
125	0x3d5669b0	0.052346885
126	0x3e63b9b8	0.22238815
127	0x3db61345	0.08890394
128	0xbdbae477	-0.091256075
129	0xba3db7ad	-0.00072371477
130	0xbe1e9fca	-0.15490642
131	0xbccc95a5	-0.0249737
132	0x3e3e2153	0.185674
133	0xbd5a1691	-0.053244177
134	0x3d1caca4	0.03825058
135	0xbd9861e4	-0.07440546
136	0xbe0ef64a	-0.1396114
137	0xbcbe5571	-0.023234101
138	0x3bcead23	0.0063072606
139	0xbd912c56	-0.070885345
140	0x3ceef512	0.029169593
141	0x3e3cd240	0.18439579
142	0x3e85495a	0.26032525
143	0x3dd2092b	0.10255655
144	0xbd7647a9	-0.060126934
145	0xbcef5f38	-0.029220209
146	0xbcbbe53f	-0.022936461
147	0xbe00e515	-0.12587388
148	0xbd93acc6	-0.07210688
149	0x3e1577da	0.14596501
150	0xbdfe0b11	-0.124044545
151	0x3e1e2c3f	0.15446566
152	0xbc6ab756	-0.014325937
153	0xbcc6e6f9	-0.024280058
154	0xbe287d06	-0.16453943
155	0x3e6e963e	0.232995
156	0x3ddf4865	0.1090248
157	0xbe140d38	-0.14458168
158	0x3d88d540	0.06681299
159	0x3e4983a1	0.19679119
160	0xbd5fa4f5	-0.054600675
161	0x3e769ba0	0.24082804
162	0xbe413ca7	-0.18870793
163	0x3e0d882c	0.13821477
164	0x3d14a0e4	0.03628625
165	0xbe3fc27f	-0.18726538
166	0xbdb6c39c	-0.08924028
167	0xbe0cf3ee	-0.13764927
168	0x3d95a650	0.07307112
169	0xbd8597b3	-0.06523075
170	0xbe3fc8d9	-0.18728961
171	0xbcde940e	-0.027170207
172	0x3db03845	0.086044826
173	0x3e2e6b00	0.17033005
174	0x3cddd6c1	0.027079942
175	0x3e8d35e2	0.27580172
176	0x3e87acfd	0.26499167
177	0x3e38548e	0.18001005
178	0xbe351412	-0.17683437
179	0xbe5a0c66	-0.21293792
180	0x3dda36aa	0.106549576
181	0x3de9dfa9	0.11419613
182	0xbe05e48f	-0.1307547
183	0x3cb88a6e	0.022526946
184	0xbda1a7fa	-0.07893367
185	0xbe09c618	-0.13454473
186	0xbbb90fb1	-0.0056476225
187	0xbb397fa3	-0.0028304837
188	0xbb333207	-0.002734305
189	0xbe2991fc	-0.16559595
190	0x3d1f54d5	0.03889926
191	0x3e2e87d0	0.17043996
192	0x3e70b096	0.23504862
193	0x3ca589c7	0.020207299
194	0x3d9a05fc	0.07520673
195	0xbd65baaf	-0.05608624
196	0xbd44beff	-0.04803371
197	0x3c86d79a	0.016460229
198	0xbd8181e7	-0.06323605
199	0x3db4cb7f	0.08827876
200	0x3dfbed08	0.123010695
201	0xbd688ee9	-0.056776915
202	0xbde133a5	-0.109961785
203	0x3e3f0676	0.18654808
204	0x3b1ef25f	0.002425335
205	0xbcdbb8ec	-0.026821576
206	0xbcc0dead	-0.02354368
207	0xbdd6a2ee	-0.10480295
208	0xbceec418	-0.02914624
209	0xbd45d66f	-0.048300203
210	0x3e0f71e1	0.14008285
211	0x3e7f42b1	0.24927785
212	0x3d7c67e6	0.061622523
213	0x3d67c058	0.056579918
214	0x3d83c7fc	0.06434628
215	0xbe22677c	-0.15859789
216	0x3df03d12	0.11730398
217	0x3cfb19c0	0.030651927
218	0x3dceb835	0.100937285
219	0x3db00ef8	0.08596605
220	0xbdd355a9	-0.10319073
221	0xbd85bb8b	-0.065299116
222	0xbc0ad9f5	-0.008474817
223	0xbe108139	-0.14111795
224	0x3d122838	0.035682887
225	0x3d6a3c6c	0.05718653
226	0xbe26d48b	-0.16292016
227	0x3e03ede8	0.12883723
228	0x3e1187a4	0.14211899
229	0xbd49afdb	-0.049239974
230	0x3db078c5	0.08616785
231	0xbdf5b2ff	-0.119970314
232	0xbdb7b544	-0.089701205
233	0x3ddc1885	0.10746864
234	0xbe5dba78	-0.21653163
235	0x3ced0b59	0.028936075
236	0xbe02bba9	-0.12766899
237	0x3d71ee61	0.059065226
238	0xbe1adb52	-0.15122727
239	0x3e0c9408	0.13728344
240	0xbd64144c	-0.05568342
241	0x3e4416f2	0.19149378
242	0x3e44408e	0.1916525
243	0x3e2c83f3	0.1684721
244	0xbe0e1c37	-0.1387795
245	0x3d1b720f	0.03795057
246	0x3e4e6708	0.20156491
247	0xbcad9110	-0.021187335
248	0x3df4ec3c	0.11959121
249	0xbe37d976	-0.17954049
250	0x3cf9be40	0.030486226
251	0x3d6aba70	0.057306707
252	0x3e22b148	0.1588794
253	0xbe71d372	-0.23615816
254	0xbdc75ac3	-0.09734108
255	0x3decab0c	0.11556062

sentiment_branch.fc.bias f4 [32]
0	0x3be11a08	0.0068695582
1	0x3d711f33	0.058867645
2	0xbd79aa31	-0.060953323
3	0x3c009f6e	0.007850511
4	0x3e16581c	0.14682049
5	0x3deb4389	0.11487491
6	0x3e2ff385	0.17182739
7	0x3e0aaad4	0.13541728
8	0x3d24bace	0.040217213
9	0x3d814aee	0.0631312
10	0x3e2215e0	0.15828657
11	0x3e1902a7	0.14942418
12	0xbe54470d	-0.20730229
13	0x3d28780c	0.04113011
14	0xbdee9e67	-0.116513066
15	0x3de5b565	0.11216239
16	0x3e4c15b8	0.1993016
17	0xbcec4d3f	-0.028845428
18	0xbdc5b02f	-0.09652745
19	0xbe4d2dff	-0.20037077
20	0x3e03b125	0.12860544
21	0x3e76f4f6	0.24116883
22	0x3dbbb3ff	0.09165191
23	0xbd463ab2	-0.04839582
24	0x3e024aca	0.12723842
25	0xbe1a907c	-0.15094179
26	0x3c9748e0	0.018467367
27	0xbd896620	-0.06708932
28	0x3e1274bb	0.14302342
29	0x3e4b8fd4	0.19879085
30	0xbe8fcbdb	-0.28085217
31	0x3e29a07b	0.16565125

price_branch.lstm.weight_ih_l0 f4 [64, 5]
0	0x3c1b67ce	0.009485198
1	0xbe997967	-0.29975435
2	0x3f1e3b75	0.61809474
3	0xbe5d18cc	-0.2159149
4	0xbbdfb1f8	-0.0068266355
5	0x3ea4da23	0.32197675
6	0x3e8fa82b	0.2805799
7	0xbe0174ce	-0.12642214
8	0x3d275b78	0.040858716
9	0x3ca467d2	0.020069037
10	0xbd712e8f	-0.058882292
11	0xbeac1a16	-0.33613652
12	0x3e8c7a03	0.27436838
13	0xbe264804	-0.1623841
14	0xbe41a079	-0.18908872
15	0xbd915cec	-0.070978016
16	0x3dd2468b	0.10267361
17	0x3e1fabe6	0.15592918
18	0x3d90cced	0.070703365
19	0xbda6f7d3	-0.081527375
20	0x3d9533cb	0.07285269
21	0x3d9d5e2d	0.07683978
22	0x3d7f4a7f	0.062326904
23	0x3e95428f	0.29152343
24	0xbd834afe	-0.06410788
25	0xbe6bd73e	-0.23031327
26	0x3e174748	0.14773285
27	0x3e172bb6	0.14762768
28	0x3dc47400	0.09592438
29	0xbe7d5847	-0.24740706
30	0xbe581993	-0.21103506
31	0xbea3273c	-0.3186587
32	0xbe4e6828	-0.2015692
33	0xbd92f419	-0.07175464
34	0x3dfa3a64	0.122181684
35	0x3d1cbdde	0.03826701
36	0x3d8f2c28	0.06990844
37	0x3e5c2ad7	0.21500717
38	0x3ca7bb3a	0.020475019
39	0x3d0701af	0.03296059
40	0xbe8488a8	-0.2588551
41	0xbeb789b7	-0.35847256
42	0x3cc05be9	0.023481326
43	0xbd0bbec4	-0.034117475
44	0x3dcf3e30	0.10119283
45	0xbe501a7f	-0.20322607
46	0xbe54a801	-0.20767213
47	0x3e7fec3c	0.2499246
48	0x3d20572b	0.03914563
49	0xbad1fe35	-0.0016021194
50	0xbe2df272	-0.16987017
51	0x3d95548f	0.07291519
52	0x3e229674	0.15877706
53	0xbe282c01	-0.16423036
54	0x3de07454	0.10959688
55	0xbe7564e6	-0.23964271
56	0xbdf2e964	-0.11860922
57	0x3e879a0f	0.26484725
58	0xbe14a992	-0.14517811
59	0x3c8614f5	0.016367415
60	0x3e105a02	0.14096835
61	0x3e9c514e	0.3053078
62	0x3e80d653	0.25163516
63	0x3c9f76ee	0.01946589
64	0xbcd68532	-0.02618656
65	0x3d403c8d	0.046932746
66	0xbdd0782b	-0.1017917
67	0x3e75ed49	0.24016298
68	0x3d13da3c	0.036096796
69	0x3d20e45d	0.039280284
70	0xbc21b812	-0.009870546
71	0xbe9a1be1	-0.30099395
72	0xbe4a90c7	-0.1978179
73	0xbe59d5c8	-0.21272957
74	0xbe10a1a1	-0.14124157
75	0x3e43e0b8	0.19128692
76	0xbe5b977c	-0.21444505
77	0x3e0e2279	0.13880338
78	0xbd910bd6	-0.07082336
79	0x3e8772ff	0.26454923
80	0x3da9b3db	0.08286258
81	0xbe10de24	-0.1414724
82	0x3e02bf80	0.12768364
83	0xbb19a6c3	-0.0023445345
84	0xbde4ad81	-0.11165906
85	0xbdc3c3db	-0.09558841
86	0x3e70217b	0.23450272
87	0xbd87a6d4	-0.06623617
88	0x3e10a942	0.14127067
89	0xbe0a749c	-0.13521045
90	0x3bda6c18	0.006665718
91	0xbde9a9ea	-0.11409362
92	0x3e1f8063	0.1557632
93	0x3e086c60	0.13322592
94	0xbe5de7ff	-0.2167053
95	0x3e469d27	0.19395886
96	0xbd8f6236	-0.07001154
97	0xbda99d2a	-0.0828193
98	0x3d6bb776	0.05754801
99	0xbe97a714	-0.29619658
100	0x3e0b1525	0.13582285
101	0x3e85020b	0.2597812
102	0x3e0f830e	0.14014837
103	0xbab28c13	-0.0013622068
104	0x3e7b2069	0.24524082
105	0x3d764a23	0.060129296
106	0x3d66660d	0.056249667
107	0x3e88b1a6	0.26698035
108	0xbd141933	-0.036156844
109	0xbe8f6aad	-0.28011075
110	0x3d621d72	0.055203862
111	0x3df3badd	0.11900876
112	0x3e3a9d23	0.18224005
113	0xbe0b9c3e	-0.1363382
114	0xbed6e6fc	-0.41973102
115	0xbe11047f	-0.14161871
116	0x3dcf2f96	0.10116498
117	0x3e5a635d	0.21326967
118	0xbddd2939	-0.10798878
119	0xbeb15820	-0.34637547
120	0x3d6bec3a	0.05759833
121	0xbd5dd59b	-0.05415879
122	0xbe10e219	-0.1414875
123	0x3dd4c22d	0.103885986
124	0xbe720554	-0.23634845
125	0x3e128be3	0.14311175
126	0xbe8f5ffd	-0.2800292
127	0x3e5b06b9	0.21389283
128	0x3db0d220	0.08633828
129	0x3d1112e0	0.03541839
130	0xbe07b4ba	-0.13252535
131	0xbe4df7c5	-0.20114048
132	0x3d155a9e	0.036463372
133	0xbe1a1e27	-0.15050565
134	0x3eb5028b	0.35353503
135	0x3e1021f7	0.14075457
136	0x3d31c1a8	0.043397576
137	0x3d8d0283	0.06885245
138	0xbe3bb735	-0.18331607
139	0xbe2732b3	-0.16327934
140	0xbbc73933	-0.0060798167
141	0x3e73fe5d	0.238275
142	0xbda9af49	-0.08285386
143	0xbde18291	-0.11011232
144	0x3e9f23b5	0.3108193
145	0x3e129c37	0.14317404
146	0x3ef8fdd1	0.48631147
147	0xbd9ef163	-0.077608846
148	0x3db4172a	0.08793481
149	0x3e1c3502	0.15254596
150	0x3e23a720	0.15981722
151	0x3e07e738	0.13271797
152	0x3d5283eb	0.051395338
153	0xbe1bae6b	-0.15203254
154	0x3d031f3f	0.03201222
155	0x3cd3eff3	0.025871253
156	0x3e456507	0.1927682
157	0x3dfce17b	0.123476945
158	0xbde3e6f7	-0.111280374
159	0x3df9d950	0.12199652
160	0x3d05fecf	0.032713708
161	0x3df2a107	0.1184712
162	0xbe7cf8c9	-0.24704279
163	0x3c9ee9af	0.019398538
164	0xbde741d2	-0.11291851
165	0xbe6506ff	-0.2236595
166	0xbe31f0e7	-0.17377053
167	0xbef0f535	-0.47062078
168	0x3db2ae4a	0.08724649
169	0xbe2ddcb1	-0.16978718
170	0x3e079c6e	0.13243267
171	0x3d79ca3b	0.060983878
172	0x3c8e45b9	0.01736723
173	0x3d50b4c7	0.050953653
174	0x3cc47bee	0.023984876
175	0x3c8886f0	0.016665906
176	0xbb84d948	-0.0040542223
177	0xbdf149a3	-0.11781623
178	0xbdf541f0	-0.11975467
179	0x3e0c44e0	0.13698149
180	0xbe083c42	-0.13304237
181	0xbda8b3d1	-0.08237422
182	0x3e251b98	0.16123807
183	0xbcf7c65d	-0.030245954
184	0xbe282b8a	-0.16422859
185	0x3dd139a2	0.10216071
186	0x3e18156e	0.14851925
187	0xbebae470	-0.3650241
188	0x3e7343da	0.23756352
189	0x3dc2fb84	0.09520629
190	0xbed7e45d	-0.42166415
191	0xbeb758cd	-0.35809937
192	0x3ebdb10b	0.37049136
193	0xbe76f0a3	-0.24115233
194	0x3bdfb535	0.0068270215
195	0x3e64b353	0.22334032
196	0xbdda040c	-0.10645303
197	0xbe02bfc9	-0.12768473
198	0x3da0f5a2	0.07859351
199	0x3dfabb3e	0.12242745
200	0xbe48bb09	-0.19602598
201	0xbe7d9b38	-0.24766243
202	0x3e443bf1	0.19163491
203	0x3e4d176b	0.20028464
204	0xbd46b6e7	-0.048514273
205	0xbe67dea4	-0.22643524
206	0xbe3eaa33	-0.18619613
207	0xbc3b185f	-0.011419385
208	0xbe6a1c4b	-0.22862355
209	0x3dc602c5	0.09668497
210	0xbe1a5638	-0.15071952
211	0x3d847ed3	0.06469502
212	0x3eca0b3f	0.39461705
213	0xbd6ac7cb	-0.057319444
214	0x3e29f33f	0.16596697
215	0x3d255030	0.040359676
216	0x3ebf54de	0.37369436
217	0xbd118c8e	-0.035534434
218	0x3d76f89e	0.060295694
219	0x3e1b0fc6	0.15142736
220	0xbcf12f3f	-0.029441474
221	0x3e61dcce	0.22056887
222	0x3d7d1176	0.06178423
223	0x3d027710	0.031851828
224	0x3d946406	0.072456405
225	0x3e7be503	0.2459908
226	0xbd2d7211	-0.04234511
227	0x3cd57ca7	0.026060415
228	0x3e5d7a59	0.21628703
229	0x3e60544f	0.21907161
230	0xbe2e06cc	-0.1699478
231	0xbdc79911	-0.09745992
232	0x3e4d5998	0.20053709
233	0xbe8fdd0f	-0.28098342
234	0xbea8bdf9	-0.32957438
235	0x3daff32a	0.08591302
236	0xbde575a0	-0.11204076
237	0x3eb98836	0.36236733
238	0xbdbf75a9	-0.09348614
239	0x3e934ff7	0.28771946
240	0xbdf08e01	-0.11745835
241	0xbc8a31cd	-0.01686945
242	0x3eebba52	0.4604059
243	0x3dcb5237	0.099277906
244	0xbe920e7c	-0.28526676
245	0x3e8cf283	0.27528772
246	0x3ebac224	0.36476243
247	0x3d7740e9	0.060364638
248	0x3e3a2ffe	0.1818237
249	0xbd46f306	-0.04857161
250	0x3ddf6658	0.109081924
251	0xbe0ae8e9	-0.1356541
252	0x3eba81d5	0.3642718
253	0xbda1e1d0	-0.079043984
254	0xbdeaaa62	-0.11458279
255	0x3b63a834	0.0034737708

price_branch.lstm.weight_hh_l0 f4 [64, 16]
0	0xbe415599	-0.18880309
1	0x3e14502d	0.1448371
2	0x3ba9fc2e	0.005187533
3	0x3db2c96a	0.08729823
4	0xbe3b4ae5	-0.18290289
5	0xbe9349aa	-0.2876714
6	0x3e222d4f	0.15837596
7	0x3bab39bb	0.005225388
8	0x3e42e1d3	0.19031458
9	0x3d775857	0.06038698
10	0x3e4f53a9	0.20246758
11	0x3e6a4108	0.2287637
12	0x3e795034	0.24347001
13	0xbdf63783	-0.12022307
14	0xbda77b93	-0.08177867
15	0x3df8d020	0.12149072
16	0x3c7223ce	0.014779044
17	0xbd175eeb	-0.036955755
18	0xbe885dec	-0.26634157
19	0xbd88ed31	-0.06685866
20	0xbc95fc1c	-0.018308692
21	0x3e0804eb	0.13283126
22	0xbe3dc9e9	-0.18534054
23	0xbe072ea2	-0.13201383
24	0xbe478938	-0.19485939
25	0x3ead23a0	0.33816242
26	0x3dccf2cd	0.10007248
27	0x3c890ead	0.01673063
28	0xbd0db3d5	-0.03459533
29	0xbd312608	-0.04324916
30	0x3dab109f	0.083527796
31	0x3e7f367b	0.24923126
32	0x3dcc6ed7	0.099820785
33	0xbe0cadc3	-0.1373816
34	0x3d92377f	0.07139491
35	0xbd92efc0	-0.07174635
36	0xbe7ac893	-0.24490575
37	0xbe1c62d0	-0.15272069
38	0xbd827499	-0.063698955
39	0x3d06bbba	0.032893874
40	0xbe2d9ba2	-0.169539
41	0xbc6b47a6	-0.014360344
42	0x3ce25716	0.027629416
43	0xbe563851	-0.2091992
44	0xbe19e8f4	-0.15030271
45	0x3e377db1	0.17919041
46	0xbe63b8fa	-0.22238532
47	0xbd904f85	-0.07046417
48	0xbdd308a4	-0.103043824
49	0x3d31f557	0.043446865
50	0x3e398439	0.18116845
51	0x3c91ad66	0.017782878
52	0xbd9612df	-0.07327818
53	0x3b0c556d	0.0021413222
54	0x3d796c6d	0.06089442
55	0xbdd894c1	-0.105752476
56	0xbe0f90ef	-0.14020132
57	0x3d9cb40c	0.07651529
58	0xbe0bc3fe	-0.13648984
59	0xbe53a73a	-0.2066926
60	0x3d5a74fb	0.053334218
61	0x3e27feb7	0.1640576
62	0xbe25ec5c	-0.16203445
63	0x3c987f96	0.018615525
64	0x3e3167d2	0.1732476
65	0xbcc8eaa9	-0.024525957
66	0xbe3987f4	-0.18118268
67	0x3e61e4f1	0.2205999
68	0xbe74fe2f	-0.23925088
69	0xbdce4485	-0.10071663
70	0xbd94978c	-0.07255468
71	0xbe095fde	-0.13415477
72	0xbe40d30b	-0.18830507
73	0xbe05f478	-0.13081539
74	0x3d0b6eb3	0.034041118
75	0x3dfcfa46	0.12352423
76	0x3d819483	0.063271545
77	0x3d999de7	0.075008206
78	0xbe371518	-0.1787914
79	0xbd96143a	-0.07328077
80	0xbdc8298d	-0.0977355
81	0xbe23e514	-0.16005355
82	0xbe83d21f	-0.25746247
83	0xbe780372	-0.24220064
84	0xbd970943	-0.073748134
85	0x3e0e8d73	0.13921146
86	0xbdc20566	-0.09473686
87	0xbbb83514	-0.005621562
88	0xbe83eac3	-0.25765046
89	0xbe10b47f	-0.14131354
90	0x3e884cc1	0.2662106
91	0x3e020199	0.12695922
92	0xbd304f82	-0.043044575
93	0x3e822261	0.25416854
94	0xbea8737f	-0.32900617
95	0x3d60c488	0.054874927
96	0xbdf89037	-0.12136882
97	0xbe8e7a22	-0.27827555
98	0xbe05ee89	-0.13079275
99	0xbe6fdebd	-0.23424812
100	0xbd16cc20	-0.036815763
101	0x3c63c594	0.013902087
102	0x3ea080dd	0.31348315
103	0x3dcbde64	0.09954527
104	0xbe8810eb	-0.26575407
105	0x3db3af91	0.08773721
106	0x399abb62	0.0002951278
107	0xbe3b8981	-0.18314172
108	0xbcbaa587	-0.022784008
109	0xbd78f491	-0.06078011
110	0xbea0d6db	-0.31413922
111	0x3e1923e9	0.14955105
112	0x3bd9090f	0.0066233943
113	0xbe30003a	-0.17187586
114	0xbe2c64f4	-0.16835386
115	0x3d1c3d2d	0.03814428
116	0x3e18fcb5	0.1494015
117	0x3c862964	0.016377158
118	0x3e120f61	0.14263679
119	0x3e4dd8b7	0.20102201
120	0xbe540308	-0.20704281
121	0x3d7dcc78	0.061962575
122	0xbdd40a98	-0.10353583
123	0xbdfb9647	-0.122845225
124	0xbe00aee2	-0.12566712
125	0xbd48d00b	-0.04902653
126	0xbdfd1bc0	-0.123588085
127	0x3e83f918	0.2577598
128	0x3e8345da	0.2563923
129	0x3e9b10ae	0.30286163
130	0xbc38f3ef	-0.011288627
131	0x3d59ce36	0.053175174
132	0xbdf3fd43	-0.1191354
133	0x3e2eb7e9	0.17062344
134	0xbea240c7	-0.31690046
135	0x3eb70d27	0.35752222
136	0xbc886f46	-0.016654622
137	0x3ea62e94	0.3245741
138	0xbe359e0f	-0.17736076
139	0x3d7e9673	0.0621552
140	0xbe46cfd2	-0.19415215
141	0xbe0cb9d1	-0.13742758
142	0xbe34099e	-0.17581794
143	0xbe96a4d9	-0.29422644
144	0xbe1f6463	-0.15565638
145	0x3d0abc63	0.033871066
146	0xbeae5164	-0.3404647
147	0xbe017811	-0.12643458
148	0x3c73690f	0.014856591
149	0x3e0520c1	0.13000776
150	0x3c5c7070	0.013454542
151	0x3dbeaf82	0.09310819
152	0xbe7da700	-0.24770737
153	0x3ecba49f	0.39774033
154	0x3eb48aaf	0.35262057
155	0xbead2fac	-0.33825433
156	0x3d98ad22	0.074548975
157	0xbda23b39	-0.07921452
158	0xbd8bb95b	-0.06822463
159	0x3e8a3231	0.26991418
160	0x3e19c0ab	0.15014903
161	0x3e227164	0.15863568
162	0xbe404f2f	-0.18780206
163	0x3e5eb550	0.21748853
164	0xbdac5c11	-0.08415998
165	0xbdd2e8b4	-0.10298291
166	0xbd68fe9b	-0.056883436
167	0x3ddf0dcd	0.10891304
168	0xbe679ba1	-0.22617961
169	0xbdb1bb56	-0.086783096
170	0x3ca19bf3	0.019727683
171	0xbdbb3c8c	-0.09142408
172	0xbc55ee9b	-0.013057376
173	0x3e7524f8	0.23939884
174	0xbd1c93f2	-0.03822703
175	0xbe230731	-0.15920712
176	0x3e8f7226	0.28016776
177	0xbd3960b1	-0.045258228
178	0x3dd68212	0.10474028
179	0x3e4d8873	0.20071582
180	0x3e195282	0.1497288
181	0xbe1002fd	-0.1406364
182	0x3d4b8a9b	0.04969273
183	0x3cc5e2c0	0.024155974
184	0xbe8f6b8e	-0.28011745
185	0x3e77635e	0.24159
186	0x3d9a561c	0.07535955
187	0xbc96881d	-0.01837545
188	0xbe8c62f4	-0.27419245
189	0xbe372db0	-0.17888522
190	0xbe70fb32	-0.23533323
191	0x3dab3a6b	0.08360752
192	0x3e7698d3	0.24081735
193	0x3e5d0b81	0.2158642
194	0x3e0d7f4d	0.13818093
195	0xbcc768b3	-0.024341917
196	0xbda2d69b	-0.07951089
197	0x3e820ad9	0.253989
198	0xbe28806d	-0.1645524
199	0x3ede653f	0.4343662
200	0xbdecbaa6	-0.11559038
201	0x3e8f9c1f	0.28048798
202	0x3dd5c62b	0.10438188
203	0x3eddff7a	0.43358976
204	0x3cc221aa	0.023697693
205	0x3e080a64	0.13285214
206	0xbcf5aa89	-0.029988544
207	0x3e14d090	0.14532685
208	0x3e890df8	0.2676847
209	0xbe44a7e3	-0.19204669
210	0x3e89d091	0.26916936
211	0xbd8fa354	-0.07013574
212	0xbe98c28e	-0.29835933
213	0xbe4e00ab	-0.20117442
214	0xbdf8efe6	-0.12155132
215	0x3e9bb10c	0.30408514
216	0xbe69e78c	-0.22842234
217	0x3e252b7b	0.16129868
218	0xbd9d6606	-0.07685475
219	0x3e9d657d	0.30741492
220	0xbe6fa0fe	-0.23401257
221	0x3e5a9555	0.21346028
222	0x3e2cbdb8	0.16869247
223	0x3dd76cf2	0.105188265
224	0x3e840b33	0.25789794
225	0x3e79de4d	0.24401207
226	0x3e60c6a7	0.2195078
227	0xbdb7dd7e	-0.08977793
228	0xbe55245d	-0.20814653
229	0x3d8521f4	0.06500617
230	0xbedb332b	-0.42812476
231	0x3de606f4	0.11231795
232	0xbe0a4859	-0.13504161
233	0x3e0cfa18	0.13767278
234	0xbee5ba93	-0.44868907
235	0x3d7fdd5c	0.062466964
236	0xbe946c06	-0.28988665
237	0xbeae7601	-0.34074405
238	0xbeb4f297	-0.3534133
239	0xbe91cc11	-0.28476003
240	0x3d4d3d65	0.05010738
241	0x3e2329c9	0.15933909
242	0x3e608e13	0.21929197
243	0x3e63fbbe	0.22264001
244	0xbdeee6ea	-0.11665137
245	0x3e42155e	0.18953463
246	0x3e02620c	0.12732714
247	0x3dc916b1	0.09818781
248	0xbdf2658a	-0.11835773
249	0xbcc1b3f5	-0.02364538
250	0xbc046194	-0.008079905
251	0x3e559829	0.20858826
252	0x3e20aef4	0.1569174
253	0x3e4f2241	0.2022791
254	0xbe947cd2	-0.2900148
255	0xbe14090f	-0.1445658

price_branch.lstm.bias_ih_l0 f4 [64]
0	0x3dfa4558	0.122202575
1	0xbc406707	-0.011743314
2	0x3e2ec3a8	0.17066824
3	0xbe7f9d09	-0.24962248
4	0x3ccd9e54	0.02509991
5	0x3d241f09	0.04006866
6	0x3ef73142	0.48279768
7	0xbd9ff6ba	-0.07810731
8	0x3d92b9c2	0.07164337
9	0xbde888fa	-0.11354251
10	0x3e61f111	0.22064616
11	0xbdfee458	-0.12445897
12	0xbe836de6	-0.25669783
13	0xbe5baa9f	-0.21451806
14	0xbe8f0ced	-0.2793955
15	0xbcdf42ea	-0.027253587
16	0x3c987733	0.018611526
17	0x3ccac496	0.024751943
18	0xbd4d1f0f	-0.050078448
19	0xbda5fdd7	-0.08105057
20	0xbe007690	-0.12545228
21	0x3e840a4b	0.25789103
22	0x3d8888be	0.066667065
23	0x3dfee0f5	0.12445251
24	0xbdebcd05	-0.11513714
25	0xbd7e1731	-0.062033836
26	0x3dc356c8	0.095380366
27	0xbe2cca6c	-0.16874093
28	0xbe781e6f	-0.2423036
29	0xbd5fd68e	-0.054647975
30	0x3d996be5	0.074912824
31	0x3dce9831	0.10087622
32	0xbe100596	-0.14064631
33	0x3db585c3	0.08863404
34	0xbe816899	-0.25275114
35	0xbe44cf72	-0.19219759
36	0x3e1ca5f5	0.15297683
37	0x3e20475c	0.15652221
38	0xbd48f86d	-0.049065042
39	0x3d87f8a7	0.066392235
40	0xbc85db1f	-0.016339837
41	0x3cb49a06	0.0220461
42	0xbcc7548e	-0.024332311
43	0xbda1aa05	-0.07893757
44	0x3e368724	0.1782499
45	0xbe1a6e31	-0.15081097
46	0xbd7c7351	-0.06163341
47	0xbd457f4d	-0.048217107
48	0xbe4c2abc	-0.19938177
49	0x3cf200b0	0.029541343
50	0x3dc2f3d2	0.09519161
51	0xbe1bea02	-0.15225986
52	0x3e2cf66c	0.16890877
53	0xbd947e42	-0.07250644
54	0x3e43d962	0.19125894
55	0xbdd94756	-0.106093094
56	0xba8062c6	-0.0009795062
57	0xbdf9a41d	-0.12189505
58	0x3cee9ca0	0.029127419
59	0xbe61208d	-0.21985073
60	0x3dbd74e9	0.092508145
61	0x3d9646ea	0.073377445
62	0xbc8a81f0	-0.016907662
63	0xbd418f2b	-0.047255676

price_branch.lstm.bias_hh_l0 f4 [64]
0	0xbd99a139	-0.07501454
1	0x3d81fbc3	0.06346848
2	0xbe24e496	-0.16102824
3	0x3e782126	0.24231395
4	0xbc201891	-0.009771482
5	0x3e28d03c	0.16485685
6	0x3da88fcd	0.08230553
7	0x3c5f00e7	0.013611055
8	0x3e1e8a3e	0.15482423
9	0xbd9444bb	-0.07239672
10	0x3e869c6f	0.26291224
11	0x3b75b643	0.003749267
12	0xbe8de4dd	-0.2771367
13	0x3db75c22	0.0895312
14	0xbdac2ac8	-0.084065974
15	0xbe01bb9e	-0.12669227
16	0x3e492de1	0.19646408
17	0x3df7b084	0.120942146
18	0x3e81561e	0.25261015
19	0xbdde889e	-0.108659014
20	0x3e669840	0.22519016
21	0x3d747ce0	0.059689403
22	0x3e8e453b	0.27787194
23	0xbd1df310	-0.03856188
24	0xbe91b5fe	-0.28459162
25	0x3e568f3a	0.20953074
26	0x3e274c64	0.16337734
27	0xbe05dcb0	-0.13072467
28	0x3deec729	0.116590805
29	0xbdd113ca	-0.102088526
30	0xbd9951f9	-0.07486338
31	0x3e41420c	0.18872851
32	0xbd981f61	-0.0742786
33	0xbe31277c	-0.17300218
34	0xbe93e140	-0.2888279
35	0x3d90242a	0.07038148
36	0xbd394195	-0.04522856
37	0x3e210826	0.15725765
38	0x3e54c0f5	0.20776732
39	0xbd81ae25	-0.063320436
40	0xbd4dc291	-0.05023438
41	0xbe021f5e	-0.12707278
42	0x3df0a701	0.117506035
43	0xbda9a14b	-0.08282717
44	0xbe83b20b	-0.25721774
45	0x3e5ea7ae	0.21743652
46	0x3cf0c7b4	0.0293921
47	0x3e1c16a2	0.15243009
48	0xbe6202b3	-0.22071342
49	0x3e129cfe	0.143177
50	0x3e423209	0.189644
51	0xbde440c0	-0.111451626
52	0x3c806ddd	0.015677387
53	0xbc8085a1	-0.01568872
54	0x3e889c9f	0.26681992
55	0x3e289513	0.16463117
56	0xbc57ec11	-0.013178841
57	0x3e599995	0.21249993
58	0xbe23e078	-0.16003597
59	0xbe7b456b	-0.245382
60	0x3e100764	0.1406532
61	0xbdd892cc	-0.10574874
62	0xbe28e24e	-0.16492578
63	0x3d1f60b3	0.03891058
