models/checkpoints/news_lstm/news_lstm_v13_real_1d.pt (torch, 52586 bytes, 19 tensors)

sentiment_branch.lstm_layers.0.weight_ih_l0 f4 [128, 16]
0	0xbdcb90f7	-0.09939759
1	0x3c84e91b	0.016224435
2	0x3de2ec07	0.11080175
3	0x3d5fb95f	0.054620143
4	0xbdfd632c	-0.12372431
5	0x3db418ae	0.0879377
6	0x3d5a9a54	0.053369835
7	0x3da7adae	0.08187424
8	0xbd9f5d28	-0.0778144
9	0xbcb84289	-0.022492664
10	0xbe0044a6	-0.12526187
11	0xbe3e0434	-0.18556291
12	0xbddb56e5	-0.10709933
13	0xbdfaada1	-0.12240148
14	0xbd1cccc2	-0.03828121
15	0x3d7af128	0.06126514
16	0xbd84d70f	-0.06486332
17	0x3ddaefac	0.10690245
18	0x3d0e2350	0.034701645
19	0xbe3b4c4d	-0.18290825
20	0x3aa88e8a	0.0012859863
21	0x3e206ac5	0.1566573
22	0xbd4ba671	-0.049719278
23	0x3db015e5	0.08597926
24	0x3d6eeaaa	0.05832926
25	0x3e1cb257	0.15302406
26	0xbd6e729d	-0.058214772
27	0xbd710ebc	-0.058851942
28	0x3d689bcc	0.056789204
29	0x3d91a61a	0.071117595
30	0xbe0edc34	-0.13951188
31	0xbdf6318c	-0.12021169
32	0xbd5aa922	-0.053383954
33	0xbe5a7147	-0.21332274
34	0xbe357526	-0.1772047
35	0xbcd28b65	-0.025701234
36	0x3d1b92b1	0.037981693
37	0x3e361a12	0.17783383
38	0x3ddc8933	0.10768356
39	0x3e07fcc4	0.13280016
40	0xbe2277e0	-0.15866041
41	0x3c4d1a2d	0.012518448
42	0xbe26cb0f	-0.16288398
43	0xbd378c20	-0.044811368
44	0xbd0ea937	-0.034829345
45	0x3d8b57ea	0.06803878
46	0xbe1965d0	-0.14980245
47	0x3bac3c5e	0.0052562198
48	0xbdf93446	-0.121681735
49	0x3e38e592	0.18056324
50	0x3db3f2a2	0.08786513
51	0x3d360ad3	0.044443917
52	0x3c126422	0.008935006
53	0xbe1b3efc	-0.15160745
54	0x3dbe5601	0.09293748
55	0x3e1b3993	0.15158682
56	0x3d892da0	0.066981554
57	0xbd0e5498	-0.034748644
58	0xbdb5d2e6	-0.08878116
59	0xbdd6034a	-0.10449846
60	0x3dd1d193	0.10245051
61	0xbe252012	-0.16125515
62	0x3e6e2905	0.23257835
63	0xbc53a145	-0.012916868
64	0x3c5fa905	0.013651137
65	0x3c894a4f	0.016759066
66	0xbda28756	-0.079359695
67	0xbc804f2a	-0.015662748
68	0xbe50d3b2	-0.20393255
69	0x3d8a0ef8	0.06741136
70	0xbce1a56e	-0.027544703
71	0x3d3e141e	0.046405904
72	0xbc6eeb0c	-0.014582407
73	0xbe6f4810	-0.23367333
74	0xbd9131cb	-0.070895754
75	0xbc691b70	-0.014227733
76	0xbe3194fb	-0.17341988
77	0x3e259ed6	0.16173872
78	0x3e041a1b	0.12900583
79	0xbe2b54ed	-0.16731615
80	0x3d10bebe	0.035338156
81	0x3d8a2ca6	0.06746797
82	0x3cbe4042	0.023224
83	0xbe33cc3d	-0.1755838
84	0xbe441042	-0.19146827
85	0x3c143c24	0.009047542
86	0xbd08e5f2	-0.033422418
87	0x3e29ad5d	0.16570039
88	0x3e41c25c	0.18921798
89	0x3d144bbb	0.036205035
90	0xbde48363	-0.111578725
91	0xbe78a7fc	-0.24282831
92	0xbd94159a	-0.07230683
93	0x3d8dcc93	0.06923785
94	0xbcdcb95c	-0.026943855
95	0x3c2df3c0	0.010617197
96	0x3e125cc3	0.14293198
97	0x3d276296	0.040865503
98	0x3e0438e6	0.1291233
99	0x3da40dbb	0.080104314
100	0xbd97c750	-0.07411063
101	0x3c557a77	0.013029686
102	0xbe5b7dc2	-0.21434692
103	0x3de802ae	0.11328636
104	0xbd7a7a17	-0.06115159
105	0xbd801789	-0.06254489
106	0x3e11ae20	0.1422658
107	0x3dc19ad0	0.09453356
108	0x3df9f550	0.12204993
109	0xbdec0dbf	-0.11526059
110	0x3e10d926	0.14145336
111	0xbb796176	-0.0038052476
112	0xbd348f42	-0.044081934
113	0xbe09ca31	-0.13456036
114	0xbde1c194	-0.1102325
115	0x3d90a049	0.07061822
116	0xbe103ea5	-0.14086397
117	0xbdd1a8cd	-0.10237274
118	0xbd87738a	-0.06613834
119	0x3e661aa9	0.22471108
120	0x3d75c92f	0.060006317
121	0xbe11b400	-0.14228821
122	0x3cfcfc73	0.030882096
123	0x3e40f7a0	0.18844461
124	0x3e40e229	0.18836273
125	0x3e332488	0.17494404
126	0x3d233665	0.039846797
127	0xbd447ec8	-0.04797247
128	0xbe28aa36	-0.1647118
129	0x3cc00cc3	0.023443585
130	0x3db38610	0.08765805
131	0xbd71ca5f	-0.059030887
132	0x3d903b28	0.07042533
133	0xbdcd237c	-0.10016534
134	0xbdee27ed	-0.11628709
135	0x3d533208	0.051561385
136	0xbdf6895a	-0.120379165
137	0x3d9a015f	0.07519793
138	0xbe4e67f7	-0.20156847
139	0xbdadbbf2	-0.08483113
140	0xbc9b59c8	-0.01896371
141	0xbe25ecc3	-0.16203599
142	0xbe17970b	-0.14803712
143	0xbe213e90	-0.15746522
144	0x3b8c9dfb	0.0042912937
145	0x3d187c4b	0.03722791
146	0xbe3d7d79	-0.18504895
147	0xbdc5a709	-0.09651
148	0xbd2517a5	-0.040305752
149	0xbc563d0a	-0.013076076
150	0xbcc7f7f3	-0.024410224
151	0xbe10b55a	-0.1413168
152	0xbc51b18f	-0.012798681
153	0xbe111650	-0.14168668
154	0xbd90dcc5	-0.070733584
155	0xbdca221d	-0.09869788
156	0xbe05d210	-0.13068414
157	0xbc8b0342	-0.016969327
158	0xbc90a8de	-0.017658647
159	0xbde10a4d	-0.10988293
160	0x3cef1962	0.029186908
161	0x3de10ed7	0.109891586
162	0xbe3c32e6	-0.18378791
163	0xbdad392c	-0.0845817
164	0x3e103f36	0.14086613
165	0x3dadd912	0.084886685
166	0xbe1cb113	-0.15301923
167	0x3db1e80e	0.08686839
168	0xbe23fe1d	-0.16014905
169	0xbe21e95e	-0.15811679
170	0x3e2df3ad	0.16987486
171	0xbd52cdde	-0.05146586
172	0x3d3b6ef3	0.045760106
173	0x3d796359	0.06088576
174	0x3e1eb9f4	0.15500623
175	0xbe26ce5b	-0.16289656
176	0x3dc86856	0.097855255
177	0xbcb2d3c7	-0.021829499
178	0xbd8ca2f7	-0.068670206
179	0x3db9d553	0.090738915
180	0x3c280997	0.010256193
181	0x3de482a6	0.11157732
182	0x3e156c0b	0.14591996
183	0x3d809c78	0.06279844
184	0xbcf13346	-0.029443394
185	0x3da9226d	0.08258519
186	0x3de1a776	0.11018269
187	0x3d8aec42	0.06783344
188	0x3d876353	0.066107415
189	0x3cb0307c	0.021507494
190	0x3e0612b2	0.13093069
191	0xbe1ec0b8	-0.15503204
192	0x3dc7af2c	0.09750208
193	0x3e0c08fc	0.13675302
194	0xbe769906	-0.24081811
195	0x3d6358a6	0.055504464
196	0x3c958535	0.018251995
197	0x3e4ee852	0.2020581
198	0x3d84536f	0.06461226
199	0x3d979d15	0.07403008
200	0x3db6f514	0.08933464
201	0x3d048c68	0.032360464
202	0xbd133ce4	-0.03594674
203	0xbe6f55cd	-0.23372574
204	0xbdb90bca	-0.09035452
205	0xbdf24404	-0.11829379
206	0x3d1ecfa0	0.038772225
207	0x3ddd3b32	0.10802306
208	0xbe7601d1	-0.2402413
209	0x3e12f859	0.1435255
210	0x3d0b81a5	0.034059186
211	0x3d81f125	0.06344823
212	0xbd87b492	-0.06626238
213	0x3de4e89a	0.11177178
214	0xbe391b76	-0.18076882
215	0xbdbd0fea	-0.09231551
216	0xbd8ba84e	-0.06819211
217	0x3d090723	0.03345407
218	0xbe4d69cd	-0.20059891
219	0x3d106d55	0.035260517
220	0x3dee9e53	0.11651292
221	0xbdd6d196	-0.10489194
222	0x3ccb63e9	0.024827914
223	0xbe85530e	-0.26039928
224	0xbd2923be	-0.041293852
225	0x3d8e6cd2	0.069543496
226	0xbd623054	-0.05522187
227	0xbdccd577	-0.10001653
228	0x3de079d8	0.1096074
229	0x3d8dc679	0.06922621
230	0xbe0e0216	-0.13867983
231	0x3e54311b	0.20721857
232	0x3debeb8f	0.115195386
233	0xbde39eaa	-0.11114247
234	0x3dc0b498	0.094094455
235	0x3e4fad42	0.20280936
236	0x3e274d10	0.16337991
237	0x3d88aec5	0.0667396
238	0x3d6dec7c	0.058086857
239	0x3ddbf994	0.107409626
240	0xbc7a1387	-0.015263445
241	0x3da4c476	0.080452845
242	0xbd84f609	-0.0649224
243	0xbd22114f	-0.039567288
244	0xbd4703b6	-0.048587523
245	0xbd7447fd	-0.059638966
246	0xbd9abb3e	-0.07555245
247	0xbd69a574	-0.057042554
248	0x3dd83e9c	0.10558817
249	0x3de170ff	0.110078804
250	0xbe0b643f	-0.1361246
251	0x3db7151b	0.089395724
252	0x3d8521b2	0.065005675
253	0xbe0555ed	-0.1302106
254	0x3e3d9dad	0.1851718
255	0x3d2d91b8	0.042375296

sentiment_branch.lstm_layers.0.weight_hh_l0 f4 [128, 32]
0	0x3d82f0c9	0.063935824
1	0xbba220d0	-0.004947759
2	0xbe17e3ff	-0.14833067
3	0x3ae54c84	0.0017494117
4	0x3c9aa4eb	0.018877467
5	0xbd10e717	-0.035376634
6	0xbdc5b1fa	-0.09653087
7	0xbe0c6b96	-0.13712916
8	0xbc8683e4	-0.016420312
9	0x3d46bf8d	0.04852252
10	0x3bfe664f	0.007763661
11	0x3e09ce86	0.13457689
12	0xbb49eb77	-0.0030810514
13	0xbd8c6c6c	-0.06856617
14	0x3d9f1cb8	0.077691495
15	0x3daad576	0.08341496
16	0xbd801846	-0.0625463
17	0x3c0bf070	0.0085412115
18	0xbdce4b37	-0.1007294
19	0x3e31f077	0.17376886
20	0x3d8c0890	0.06837571
21	0xbdfc28b6	-0.123124525
22	0x3e1beae3	0.15226321
23	0xbe180a92	-0.14847782
24	0xbe2af8c8	-0.16696465
25	0x3e1b2ff7	0.15155016
26	0x3e132956	0.14371237
27	0x3d4f4253	0.05060036
28	0xbdd5a835	-0.104324736
29	0x3e16d8d6	0.14731154
30	0x3e322226	0.17395839
31	0x3da9f068	0.08297807
32	0x3d145eea	0.03622333
33	0x3d192aa6	0.03739419
34	0xbde08a34	-0.1096386
35	0xbdf197e4	-0.11796549
36	0x3e4674ca	0.19380489
37	0xbe0c3221	-0.13690998
38	0xbe279e89	-0.1636907
39	0x3decf970	0.11571014
40	0xbe061e0f	-0.13097404
41	0x3bf9ca1f	0.0076229717
42	0xbd9c9182	-0.07644941
43	0xbd60d387	-0.05488923
44	0xbd1aa912	-0.037758894
45	0xbd03aa5f	-0.0321449
46	0xbe42212e	-0.1895797
47	0xbdfa0478	-0.122078836
48	0xbe3a7da8	-0.18211997
49	0xbd0f5b74	-0.034999326
50	0xbcc103bf	-0.023561357
51	0x3da1137a	0.07865043
52	0x3e3c0439	0.18360986
53	0x3d65ef56	0.05613645
54	0xbde4fed6	-0.111814186
55	0xbe36d2cb	-0.17853849
56	0x3cb69eda	0.022292543
57	0xbe219970	-0.15781188
58	0xbcae7617	-0.021296544
59	0xbcf87796	-0.03033046
60	0x3d2e3cdb	0.042538505
61	0x3d80df65	0.06292609
62	0x3b82a370	0.0039867684
63	0x3dc5dca5	0.09661225
64	0x3cf2175f	0.02955216
65	0xbc2e196c	-0.010626178
66	0xbce3b7c5	-0.02779759
67	0x3e118b44	0.14213282
68	0xbe489db0	-0.19591403
69	0xbd117fd4	-0.035522297
70	0x3e3fcdff	0.18730925
71	0xbd37f40b	-0.044910472
72	0xbe5758b2	-0.21029928
73	0x3bc505c4	0.00601265
74	0xbcd3d76c	-0.025859557
75	0x3da7cd88	0.08193499
76	0x3e35030c	0.17676944
77	0x3d9a3bee	0.07530962
78	0xbcf978b4	-0.030453064
79	0xbdfbc448	-0.12293297
80	0x3e063117	0.13104664
81	0x3dea73fc	0.114479035
82	0x3b9e7c4b	0.004836594
83	0xbd47e95a	-0.048806526
84	0xbda22cbb	-0.07918688
85	0x3d6009f4	0.054696992
86	0xbd468d12	-0.04847438
87	0x3daa62b8	0.0831961
88	0x3e3880f4	0.18017942
89	0xbe346fbb	-0.17620747
90	0xbe34a155	-0.17639668
91	0x39f3fbc6	0.00046536158
92	0x3db7b425	0.08969907
93	0xbe6e8b1c	-0.23295254
94	0xbd1e2a7f	-0.038614746
95	0x3db46373	0.08808031
96	0xbe81a4e7	-0.25321123
97	0x3e01a9be	0.12662408
98	0xbdbf617d	-0.09344766
99	0x3db2da34	0.08733025
100	0x3dd1aa7f	0.10237598
101	0x3dd2bc3a	0.102898076
102	0xbd086517	-0.03329953
103	0x3e0da787	0.13833438
104	0xbd434fff	-0.047683712
105	0xbd9504c9	-0.07276303
106	0xbc7943e3	-0.015213939
107	0xbd9e2ca1	-0.07723356
108	0x3e4b550d	0.19856663
109	0x3cac8fcc	0.021064661
110	0x3d96f0b6	0.07370131
111	0x3dd35135	0.103182234
112	0x3e4db4e1	0.20088531
113	0xbdbda55b	-0.09260055
114	0xbe0f1855	-0.13974126
115	0x3e063708	0.1310693
116	0xbc88d924	-0.016705103
117	0x3e02167f	0.12703894
118	0x3e1a2ce0	0.15056181
119	0xbe1d2156	-0.15344748
120	0x3da93d89	0.0826369
121	0xbe7a0f37	-0.24419867
122	0xbc377d10	-0.011199251
123	0x3e20ca4a	0.15702167
124	0xbc33f1c7	-0.010982937
125	0xbdc32946	-0.09529357
126	0x3d045b4e	0.032313637
127	0xbe090ceb	-0.13383834
128	0x3ddf9f17	0.10919016
129	0x3dc0e748	0.094191134
130	0xbe126d7d	-0.14299579
131	0xbe18e97f	-0.14932822
132	0xbd97df28	-0.074156106
133	0xbe149d37	-0.14513098
134	0xbe217186	-0.15765962
135	0x3d373923	0.044732224
136	0x3d92bbda	0.07164736
137	0x3dab1389	0.083533354
138	0xbe3c25b7	-0.18373762
139	0x3e2fd54e	0.17171213
140	0xbe07ce53	-0.132623
141	0xbd838469	-0.064217396
142	0xbe6364ee	-0.2220647
143	0xbe38735c	-0.18012756
144	0xbdd140bc	-0.10217425
145	0xbe5510f5	-0.2080725
146	0x3dc966b9	0.09834046
147	0xbe4bf8d8	-0.19919145
148	0x3d33dc41	0.043911222
149	0x3ccac6a7	0.024752928
150	0xbd1d3f8c	-0.03839068
151	0xbc636023	-0.013877901
152	0x3ddcd0f4	0.10782042
153	0x3cf814ec	0.030283414
154	0x3b8e6ca7	0.0043464485
155	0x3dc227f0	0.09480274
156	0xbc77989b	-0.015112068
157	0x3e4a5b96	0.197615
158	0xbd2b5509	-0.041829143
159	0x3c96a952	0.018391285
160	0x3e418837	0.18899618
161	0x3e0dca1a	0.13846627
162	0xbe45f9d1	-0.19333579
163	0xbdcca1f7	-0.0999183
164	0x3dc868a4	0.097855836
165	0x3e3e91d6	0.1861032
166	0xbcf0eb6d	-0.029409135
167	0x3e30bec9	0.17260279
168	0xbdf6c42d	-0.12049136
169	0xbdf3dc46	-0.11907248
170	0xbdc33303	-0.09531214
171	0xbe108a6f	-0.14115308
172	0xbd98edfc	-0.07467267
173	0xbdaf1324	-0.08548573
174	0xbe3e7633	-0.18599777
175	0xbd9ca58e	-0.076487646
176	0xbc0c37b9	-0.008558207
177	0x3e23323f	0.15937136
178	0xbd37316f	-0.044724878
179	0xbc4369da	-0.011927092
180	0x3df33ef4	0.11877242
181	0xbd5a873a	-0.05335162
182	0xbde0e08c	-0.10980329
183	0x3dd1109a	0.102082446
184	0x3e091ff0	0.1339109
185	0x3dd7579c	0.10514757
186	0xbce9d042	-0.028541688
187	0xbe30d9a9	-0.17270531
188	0x3e11432b	0.14185779
189	0x3d3cb7a5	0.046073575
190	0x3da76d60	0.081751585
191	0xbe330e2a	-0.17485872
192	0xbd7c215d	-0.061555255
193	0x3d77dbe5	0.060512442
194	0xbe067742	-0.13131431
195	0x3e1f0af3	0.1553152
196	0x3c974d12	0.018469367
197	0x3d3a4748	0.045478135
198	0xbde26c5a	-0.11055823
199	0xbdbe8058	-0.093018234
200	0xbd4e6afe	-0.050395004
201	0xbccb9008	-0.024848953
202	0x3e2152e5	0.15754278
203	0x3d17d908	0.03707221
204	0xbcfb66fe	-0.030688759
205	0x3e4eb444	0.20185953
206	0xbd5ec6fc	-0.054388985
207	0xbe1d88c7	-0.15384208
208	0xbe0ca0a0	-0.13733149
209	0x3dd2b273	0.10287943
210	0xbd915a99	-0.07097358
211	0xbe194247	-0.14966689
212	0xbcf19744	-0.029491074
213	0xbe5c0076	-0.21484551
214	0x3b83774a	0.004012023
215	0x3e54bc9d	0.20775075
216	0x3d6a8f9e	0.05726587
217	0x3bd16e7d	0.006391345
218	0xbd493120	-0.049119115
219	0xbe505c2c	-0.20347661
220	0xbe510289	-0.20411123
221	0x3dc0d564	0.09415701
222	0x3df3cdae	0.11904465
223	0xbb381b6a	-0.0028092512
224	0x3c5486be	0.012971578
225	0x3d8a3965	0.067492284
226	0xbe21c03a	-0.15795985
227	0xbe079b63	-0.13242869
228	0x3df10c38	0.11769909
229	0xbd435a52	-0.047693558
230	0xbd99f64a	-0.07517679
231	0xbdbdd3d6	-0.0926892
232	0x3da672d3	0.0812737
233	0x3e0e62fc	0.13904947
234	0x3e2ff9d4	0.17185146
235	0x3e2c68fb	0.16836922
236	0xbe2b9e04	-0.16759497
237	0x3e058416	0.13038668
238	0xbd36afe4	-0.044601336
239	0xbd7222d5	-0.05911525
240	0x3d2a7487	0.041615035
241	0x3e1b6a38	0.15177238
242	0xbd8b5fcb	-0.068053804
243	0xbe4d834f	-0.20069622
244	0x3e1749e0	0.14774275
245	0x3e596551	0.21230055
246	0xbde45ecf	-0.11150896
247	0x3d4d3aa2	0.050104745
248	0x3e45856d	0.19289179
249	0xbdbf7c26	-0.09349851
250	0xbe36e8ef	-0.17862295
251	0x3d857b76	0.06517689
252	0xbdffd569	-0.12491877
253	0xbe3b32b8	-0.18281066
254	0x3e4b5f9c	0.19860691
255	0xbd634637	-0.055486884

sentiment_branch.lstm_layers.0.bias_ih_l0 f4 [128]
0	0xbc3684bf	-0.011140048
1	0xbdb5f473	-0.088845156
2	0x3d26963b	0.040670615
3	0x3e125f32	0.14294127
4	0x3ce75341	0.02823794
5	0x3c8a9743	0.01691783
6	0xbd5624f0	-0.05228132
7	0x3e0e62de	0.13904902
8	0xbd0013e6	-0.031268977
9	0xbdcad971	-0.09904755
10	0x3e00e1c8	0.12586129
11	0x3c9dd22a	0.019265253
12	0x3e190c90	0.14946198
13	0x3e4b0720	0.19826937
14	0x3df2e340	0.11859751
15	0x3d36d1e1	0.04463375
16	0xbe0e7948	-0.13913453
17	0x3d2c0940	0.04200101
18	0xbd594ae1	-0.053049926
19	0x3d2c12a6	0.042009972
20	0xbdc095fb	-0.094036065
21	0x3cb8ec8d	0.022573734
22	0xbe046695	-0.12929757
23	0x3e3c846a	0.18409887
24	0x3e31dae3	0.17368655
25	0xbdd45c5b	-0.10369178
26	0x3dd7cf85	0.10537628
27	0xbdf0330a	-0.11728485
28	0xbccb2337	-0.024797065
29	0x3d87f35d	0.06638215
30	0xbd01b82f	-0.03166979
31	0x3d87e48c	0.06635389
32	0x3e24b269	0.16083683
33	0xbe473540	-0.19453907
34	0xbdf7e957	-0.12105053
35	0x3d2f7fef	0.042846616
36	0x3e18c89c	0.14920276
37	0xbe1f47e4	-0.15554768
38	0x3d50c009	0.05096439
39	0xbd75c208	-0.059999496
40	0x3db10a4e	0.086445436
41	0x3e2061a4	0.15662247
42	0x3e31c21b	0.17359202
43	0xbb5256ca	-0.0032095187
44	0x3bd2c6af	0.0064323763
45	0x3e2a4d57	0.16631065
46	0x3d81d2b9	0.0633902
47	0x3dcce79a	0.10005112
48	0xbdb48ecf	-0.08816301
49	0x3be0e086	0.006862703
50	0xbe138bb8	-0.14408767
51	0x3b96c524	0.0046011377
52	0x3e397b95	0.18113549
53	0x3dbcfcb4	0.09227887
54	0xbe076878	-0.13223445
55	0xbd19d485	-0.03755619
56	0x3e41c21b	0.18921702
57	0xbc27cace	-0.0102412235
58	0xbdf5f3c0	-0.12009382
59	0x3e53cfa7	0.20684682
60	0xbc15c0a0	-0.009140164
61	0xbe0c0069	-0.13672031
62	0xbdb46f07	-0.08810239
63	0xbe24e2a6	-0.16102085
64	0xbdafd980	-0.08586407
65	0xbd17fb98	-0.037105173
66	0xbd0e27f0	-0.034706056
67	0xbe084c28	-0.13310301
68	0xbe0a5b72	-0.13511446
69	0xbdc8674e	-0.09785329
70	0x3d3aec7f	0.045635697
71	0xbdcdf711	-0.1005689
72	0xbd12645b	-0.035740238
73	0xbd38495d	-0.04499184
74	0xbd758d69	-0.059949312
75	0x3db06889	0.086136885
76	0xbd711ab0	-0.05886334
77	0xbb309604	-0.0026944885
78	0xbd63e80d	-0.055641223
79	0x3cc5c9b0	0.024144024
80	0x3dc6179a	0.096724704
81	0xbe2a577e	-0.16634938
82	0xbdedcd17	-0.116113834
83	0x3e303e5b	0.17211287
84	0xbe35c8ca	-0.17752376
85	0x3c72ecb0	0.0148269385
86	0xbe0eb0c1	-0.13934614
87	0x3d8f1e90	0.06988251
88	0x3e28511f	0.16437195
89	0x3d915d42	0.07097866
90	0xbe04cad1	-0.12967993
91	0x3dc22636	0.094799444
92	0x3df16690	0.1178714
93	0x3d918034	0.07104531
94	0xbcef3166	-0.02919836
95	0x3c2b4d0f	0.010455384
96	0x3e110df7	0.14165483
97	0xbde2f3c9	-0.110816546
98	0x3ceab86e	0.028652396
99	0xbc67c29f	-0.014145522
100	0xbdc5642f	-0.09638249
101	0x3c3d4a3f	0.011553346
102	0x3dd7c638	0.10535854
103	0xbd7027cf	-0.058631714
104	0xbd5e39ff	-0.054254528
105	0x3d905ae7	0.07048588
106	0xbe0acf67	-0.1355568
107	0x3e20b89c	0.15695423
108	0xbddf191a	-0.108934596
109	0xbde186f7	-0.110120706
110	0x3e3c8a14	0.18412048
111	0xbd14d587	-0.036336448
112	0xbde6202f	-0.11236607
113	0xbdd26254	-0.10272661
114	0xbdfd800f	-0.12377941
115	0x3d8ddebc	0.06927249
116	0x3e4eb5d0	0.20186543
117	0x3e5af1af	0.21381257
118	0x3d55b9ef	0.052179273
119	0x3d62526e	0.055254392
120	0x3e1c4bde	0.15263316
121	0xbda1ab47	-0.07893997
122	0xbc017be5	-0.007903074
123	0x3d660fe4	0.0561675
124	0x385a4f26	5.2048963e-05
125	0xbe1524ee	-0.14564869
126	0x3e0e82b3	0.13917045
127	0xbe43d1e8	-0.19123042

sentiment_branch.lstm_layers.0.bias_hh_l0 f4 [128]
0	0xbdfd2793	-0.12361064
1	0xbd4946d3	-0.04913981
2	0x3cfa8a78	0.030583605
3	0x3c9501d1	0.018189343
4	0x3df24b92	0.1183082
5	0xbd8fd1d9	-0.07022447
6	0x3d21a245	0.039461393
7	0xbd83447a	-0.06409545
8	0x3dad345a	0.08457251
9	0x3b016a8a	0.001974734
10	0x3e013f45	0.12621792
11	0xbc7aefd9	-0.015315973
12	0xbe1b0892	-0.15139988
13	0x3dc09310	0.0940305
14	0xbdf822a3	-0.121159814
15	0x3e3ecdac	0.18633145
16	0xbd94e3cb	-0.072700106
17	0x3deeb44f	0.11655485
18	0xbc89d6c6	-0.016826045
19	0x3d93dd1c	0.07219908
20	0xbd31cd88	-0.0434089
21	0x3e60f595	0.21968682
22	0x3d851047	0.06497245
23	0x3dbf1ffa	0.09332271
24	0xbdddeab9	-0.108357854
25	0x3dde213c	0.10846183
26	0x3caa9758	0.02082412
27	0x3e1279c6	0.14304265
28	0x3ca5bb7c	0.020231001
29	0xbe4602c3	-0.19336991
30	0x3e0c60fb	0.1370887
31	0x3ce55592	0.027994905
32	0xbe2b9b07	-0.16758357
33	0xbe1272ba	-0.14301577
34	0xbdba0611	-0.09083188
35	0xbdcdd728	-0.100508034
36	0x3dd91eef	0.10601603
37	0x3e3643e0	0.1779933
38	0x3e514ea6	0.20440158
39	0x3e2d0759	0.16897334
40	0x3c0ba432	0.008523034
41	0x3e4b7912	0.19870403
42	0x3e3c95e5	0.18416555
43	0x3d8e8c16	0.06960313
44	0x3d6a35c8	0.057180196
45	0xbdba117d	-0.09085367
46	0x3e135c08	0.14390576
47	0xbd5556b6	-0.052084647
48	0x3ca046e8	0.01956506
49	0x3e1efb58	0.15525568
50	0xbd188edb	-0.037245613
51	0x3cfff723	0.031245774
52	0x3e28e917	0.16495167
53	0xbd84efd6	-0.064910576
54	0xbdf5dd76	-0.12005131
55	0x3c982a01	0.018574717
56	0xbd787ec4	-0.060667768
57	0xbdfc6f8e	-0.12325965
58	0x3dbcd393	0.09220042
59	0x3d02eb30	0.031962574
60	0xbe00b3c1	-0.1256857
61	0xbb4ebd64	-0.003154599
62	0xbd2d88d0	-0.042366803
63	0x3d3bb506	0.045826934
64	0xbe03a3b9	-0.12855424
65	0x3dec2ea5	0.11532334
66	0xbdebfc81	-0.11522771
67	0x3e1684b0	0.14699054
68	0xbcc9b878	-0.024624094
69	0xbe061cf2	-0.1309698
70	0x3d060ef2	0.032729097
71	0x3be23255	0.0069029727
72	0x3db31ba0	0.087455034
73	0xbdb21daf	-0.08697068
74	0xbd8854a4	-0.06656769
75	0x3e00fabc	0.12595648
76	0xbdb417a1	-0.08793569
77	0xbd4c5a0c	-0.049890563
78	0x3d941f80	0.07232571
79	0xbd83949d	-0.0642483
80	0x3daf4b38	0.08559269
81	0x3d57edf3	0.05271716
82	0xbe0b9074	-0.13629323
83	0xbdbd1c9e	-0.09233974
84	0x3ce7ecb5	0.028311113
85	0xbe2b2ffe	-0.16717526
86	0xbd0c5e82	-0.034269817
87	0x3d043c29	0.032283936
88	0xbde19aa5	-0.11015824
89	0xbe132dc6	-0.1437293
90	0xbd35b11f	-0.04435837
91	0xbdfcb5de	-0.12339376
92	0xbdb1e9ed	-0.08687196
93	0x3d7d39a8	0.061822563
94	0x3d9aceeb	0.07558998
95	0x3de8a6b7	0.11359923
96	0xbc21eff8	-0.009883873
97	0x3de8c737	0.11366122
98	0x3d4c25c9	0.049840722
99	0xbd08e2aa	-0.03341929
100	0x3e431929	0.19052567
101	0x3e1298de	0.14316127
102	0x3d1a6e03	0.03770257
103	0x3c92a48d	0.01790073
104	0xbd821895	-0.06352345
105	0x3e44a312	0.19202831
106	0xbe195433	-0.14973526
107	0xbdcdd450	-0.10050261
108	0xbd9805f5	-0.07423011
109	0x3d6b85cf	0.057500657
110	0xbd135582	-0.03597022
111	0x3e378248	0.17920792
112	0x3e015426	0.12629756
113	0x3d25b97f	0.040460106
114	0x3dc07fca	0.09399374
115	0xbda48ce0	-0.08034682
116	0x3e3940d8	0.18091142
117	0x3dab726e	0.08371435
118	0xbdaab75f	-0.083357565
119	0x3dbd9a58	0.09257954
120	0x3d95a725	0.07307271
121	0xbd9fac07	-0.077964835
122	0x3e273fbf	0.16332911
123	0x3de54108	0.11194044
124	0xbd7287b8	-0.059211463
125	0xbe2964a7	-0.16542302
126	0xbcab2243	-0.02089036
127	0x3de6e2de	0.1127374

sentiment_branch.fc.weight f4 [32, 32]
0	0x3d653922	0.05596269
1	0x3e6b73f6	0.22993454
2	0xbe2d9579	-0.1695155
3	0x3cc6b754	0.02425734
4	0x3d8b94f9	0.06815524
5	0xbe3f562d	-0.18685217
6	0xbdcfc5e5	-0.10145167
7	0x3dff9076	0.124787256
8	0xbe06f0f8	-0.1317786
9	0x3df4346c	0.11924061
10	0x3d4e943d	0.05043434
11	0xbd5a5333	-0.053302
12	0x3d81066d	0.06300054
13	0x3e07ceda	0.13262501
14	0x3cf5948a	0.029978056
15	0xbe3f7b7c	-0.1869945
16	0xbdb9ead8	-0.09077996
17	0x3e57a68f	0.21059631
18	0x3de887dd	0.11354039
19	0xbe442ac8	-0.19156945
20	0xbe65c1be	-0.22437188
21	0x3e628381	0.22120477
22	0x3cc1c3e7	0.023652984
23	0xbe4c0a43	-0.1992579
24	0x3dafb975	0.08580295
25	0x3e05800f	0.13037132
26	0xbbb3e1a7	-0.0054895463
27	0x3e3e9a04	0.1861344
28	0x3dd83f9f	0.1055901
29	0x3dbb5637	0.091473036
30	0xbda19c31	-0.07891119
31	0x3d81faf5	0.063466944
32	0x3b923d69	0.004462887
33	0xbd82718f	-0.06369316
34	0x3ddf2f78	0.10897726
35	0xbd5d1313	-0.05397327
36	0x3e7567ae	0.23965332
37	0xbd811308	-0.06302458
38	0x3d001704	0.03127195
39	0x3c85d8ed	0.01633879
40	0x3e1612a5	0.1465555
41	0xbd6ded33	-0.05808754
42	0x3e26451d	0.16237302
43	0x3cc188c0	0.023624778
44	0xbe47e109	-0.19519438
45	0x3e2db17c	0.16962236
46	0xbdc5ffbb	-0.09667917
47	0xbdfeabad	-0.12435088
48	0xbe3bf7ce	-0.18356249
49	0x3dc3c38c	0.09558782
50	0xbe3161d7	-0.17322479
51	0x3e0130eb	0.12616317
52	0x3cf9bd48	0.030485764
53	0xbc5ec2a8	-0.013596214
54	0xbdbaf53e	-0.091288075
55	0xbdda17bd	-0.10649059
56	0x3d7c408a	0.061584987
57	0xbdbac60f	-0.09119808
58	0x3e15dc8a	0.1463491
59	0x3d9c80b7	0.07641738
60	0x3d134900	0.03595829
61	0x3d7c5f3f	0.06161427
62	0x3de1916a	0.11014064
63	0x3df9d50d	0.12198839
64	0x3e116b3d	0.14201064
65	0xbdfab287	-0.12241083
66	0x3df4b078	0.11947721
67	0x3e25c1ad	0.16187163
68	0x3e126de6	0.14299735
69	0xbd4c3788	-0.049857646
70	0x3e60f400	0.21968079
71	0x3e0a7814	0.13522369
72	0x3d5d6486	0.054050945
73	0xbe54231a	-0.20716515
74	0xbc803c51	-0.015653761
75	0xbe11fb08	-0.14255917
76	0xbdbc4b70	-0.09194076
77	0x3dcbdafa	0.09953876
78	0x3e5b0217	0.21387516
79	0x3d9471f1	0.07248295
80	0xbe1782b3	-0.14795952
81	0xbbed7426	-0.007246512
82	0x3d9c7daa	0.07641156
83	0x3cbf6f84	0.023368604
84	0x3e0e3ffb	0.13891594
85	0x3dc2bef5	0.095090784
86	0x3ca97b4a	0.020688672
87	0x3cd9f744	0.026607163
88	0xbd104bc9	-0.035228524
89	0x3dbc0fd2	0.09182705
90	0x3de3b847	0.111191325
91	0xbcc351b6	-0.023842674
92	0x3d48a9a5	0.04898991
93	0xbdd26d5a	-0.102747634
94	0xbe044d99	-0.12920226
95	0x3daaa05a	0.08331366
96	0xbe3208f2	-0.17386225
97	0x3d832caa	0.06405003
98	0xbde56573	-0.112009905
99	0xbcb55714	-0.022136249
100	0xbdc0a5ce	-0.09406625
101	0x3de3c08f	0.11120712
102	0x3cba0568	0.022707656
103	0xbd6b291d	-0.057412256
104	0xbdc43e05	-0.09582142
105	0xbe27249a	-0.16322556
106	0x3c3b5ccc	0.011435699
107	0x3e3d8ce8	0.18510783
108	0xbddb4f7c	-0.1070852
109	0xbcf51500	-0.02991724
110	0xbe342c6b	-0.17595069
111	0x3d0182b0	0.031618774
112	0x3e49b5c4	0.19698244
113	0xbe3274e9	-0.1742741
114	0x3e06b8a3	0.13156371
115	0x3e2dddcb	0.16979139
116	0x3d5f2b63	0.054484736
117	0xbd8aa6d4	-0.06770101
118	0x3e0dca2d	0.13846655
119	0x3e41fca1	0.18944027
120	0x3b784cc5	0.0037887555
121	0x3d95f3af	0.073218696
122	0x3d66ac38	0.056316584
123	0x3dbf3a95	0.093373455
124	0xbd66b9b3	-0.05632944
125	0x3c47bda6	0.012191212
126	0x3be269b8	0.0069095753
127	0x3d2aed0f	0.041729983
128	0xbd05b1c8	-0.03264025
129	0x3d92dbc3	0.071708225
130	0xbdd566b5	-0.104199804
131	0xbe586e18	-0.21135747
132	0x3da03ba9	0.07823879
133	0x3df4d94f	0.11955511
134	0x3c96a3c2	0.018388633
135	0xbdde3f49	-0.108519144
136	0x3e206175	0.15662177
137	0x3ccea0aa	0.025223095
138	0x3ac4163a	0.0014960237
139	0x3d40a01f	0.047027703
140	0x3e3b0ff4	0.18267804
141	0xbe46540a	-0.19367996
142	0x3cc3059f	0.023806391
143	0xbd9f4f22	-0.07778765
144	0x3de23812	0.11045851
145	0x3d826159	0.06366224
146	0xbda4dcb9	-0.08049912
147	0x3e169b21	0.14707614
148	0x3d4ef63b	0.050527792
149	0x3ddf43ae	0.10901581
150	0x3b53cb88	0.003231736
151	0xbd4adf7c	-0.049529538
152	0x3de46451	0.11151946
153	0x3c54d4eb	0.012990217
154	0x3d488481	0.04895449
155	0xbe31caf2	-0.17362574
156	0xbd9a42e2	-0.07532288
157	0x3dd21560	0.10257983
158	0xbbec9a29	-0.0072205258
159	0xbe3e3d83	-0.18578152
160	0xbcfa29f3	-0.030537581
161	0xbde4b854	-0.1116797
162	0xbda21abb	-0.07915255
163	0xbdbf370d	-0.09336672
164	0xbd901956	-0.070360824
165	0xbd790551	-0.060796086
166	0x3df48cd3	0.119409226
167	0xbd38c0c9	-0.04510573
168	0xbdf4ea00	-0.119586945
169	0xbe14367d	-0.1447391
170	0xbe1245a2	-0.14284375
171	0xbddd2a25	-0.10799054
172	0xbd8bb983	-0.06822493
173	0xbe3f3862	-0.18673852
174	0xbe0629c2	-0.13101867
175	0x3d1b8bf0	0.03797525
176	0x3db1c6d8	0.086805046
177	0xbc801164	-0.015633292
178	0x3d8b4d10	0.06801808
179	0xbdb2c107	-0.08728223
180	0xbe264d22	-0.16240361
181	0xbba8cdcc	-0.005151486
182	0x3d4f4011	0.050598208
183	0x3def8847	0.11695915
184	0xbdfadd24	-0.122492105
185	0xbe2e2592	-0.1700652
186	0x3cc81534	0.024424173
187	0x3e3f66c6	0.18691549
188	0x3dd643ad	0.10462127
189	0xbe181512	-0.14851788
190	0xba0ea46a	-0.000544137
191	0x3c835541	0.016031863
192	0x3e044c0b	0.12919633
193	0xbd4af983	-0.04955436
194	0x3d773453	0.060352635
195	0x3de27bdd	0.11058781
196	0x3dba8088	0.09106547
197	0x3d8700ac	0.06591925
198	0x3d875287	0.06607538
199	0xbe3492b4	-0.17634088
200	0xbe030903	-0.12796406
201	0xbcd205c1	-0.02563751
202	0xbb9f0a42	-0.0048535177
203	0xbc623abc	-0.013807949
204	0x3d131186	0.035905384
205	0x3cb31c04	0.021863945
206	0x3cb9d324	0.022683688
207	0xbc9c438d	-0.01907518
208	0x3e20635c	0.15662903
209	0x3e0c0420	0.13673449
210	0x3db56557	0.0885722
211	0xbdd17b4b	-0.102285944
212	0xbcd86c4e	-0.026418831
213	0x3e348c6a	0.17631689
214	0x3e362ab0	0.17789721
215	0xbd8dcabb	-0.069234334
216	0x3cc56ee9	0.024100738
217	0x3ce89e06	0.028395664
218	0x3dbbd798	0.091719806
219	0xbd5a97f8	-0.053367585
220	0xbe180b93	-0.14848165
221	0xbe447169	-0.19183888
222	0x3e12932f	0.14313959
223	0x3c0ff1e0	0.008785695
224	0x3d2cde45	0.04220416
225	0xbd216182	-0.03939963
226	0xbd87a906	-0.066240355
227	0x3dc20b93	0.09474864
228	0xbddc3958	-0.10753125
229	0x3de6ce00	0.1126976
230	0x3c8e8ee8	0.017402127
231	0x3ce61d2a	0.028090078
232	0xbccfc1f5	-0.02536104
233	0x3e2a1e4b	0.16613118
234	0xbd90c665	-0.07069091
235	0xbdae24cc	-0.08503112
236	0xbda2c8a6	-0.07948427
237	0x3dde85f7	0.108653955
238	0x3e0ca0d8	0.13733232
239	0x3de255a7	0.11051493
240	0x3d7387ca	0.05945567
241	0x3d6969f8	0.056985825
242	0xba6acc00	-0.000895679
243	0x3a894ce6	0.0010475188
244	0xbe57c903	-0.21072774
245	0x3d8df11f	0.06930756
246	0xbe1017b1	-0.14071538
247	0xbd1ca1c7	-0.03824022
248	0x3dc107e7	0.094253354
249	0xbe1580aa	-0.14599863
250	0xbe4accfa	-0.19804755
251	0x3d41319a	0.047166444
252	0x3e1009c2	0.14066222
253	0x3dd6cd89	0.104884215
254	0x3bcdf652	0.006285467
255	0x3e1f1e5c	0.15538925

sentiment_branch.fc.bias f4 [32]
0	0xbd3af464	-0.045643225
1	0x3ce07617	0.02740006
2	0x3d9a70df	0.0754106
3	0x3db9b5cf	0.0906788
4	0x3e2e311e	0.17010924
5	0x3dbe827b	0.09302231
6	0x3e05e683	0.13076214
7	0x3e334dfb	0.17510216
8	0x3d435dc9	0.047696862
9	0x3d923fc1	0.07141066
10	0x3e292881	0.16519357
11	0xbd906a6b	-0.070515476
12	0x3d4dd938	0.050255984
13	0xbe254d53	-0.16142778
14	0xbe2a9d35	-0.16661532
15	0x3da87337	0.082251005
16	0x3cdf7223	0.027276104
17	0x3cc00428	0.023439482
18	0xbe115879	-0.14193906
19	0x3da29451	0.07938445
20	0x3dca54df	0.09879469
21	0xbe03e577	-0.12880503
22	0x3ca9fc89	0.020750301
23	0x3cafca5c	0.021458797
24	0xbe338e1c	-0.17534679
25	0x3e20f5f6	0.15718827
26	0x3d8e2898	0.069413364
27	0x3df304fe	0.118661866
28	0xbd9acf6d	-0.075590946
29	0xbe00dbcd	-0.12583847
30	0xbbaa446c	-0.005196145
31	0xbe25d8de	-0.1619601

price_branch.lstm.weight_ih_l0 f4 [64, 5]
0	0x3e199b11	0.1500056
1	0x3e5220c2	0.20520309
2	0x3e1a1b11	0.15049388
3	0xbe827dfc	-0.25486743
4	0xbde42c54	-0.111412674
5	0x3d674ac6	0.056467794
6	0xbe9e1dad	-0.30882016
7	0xbd28af81	-0.041183
8	0xbe8d325a	-0.27577478
9	0x3e0eface	0.13962862
10	0xbdb88bc1	-0.09011031
11	0xbd983ace	-0.07433091
12	0xbd01d7e1	-0.03170002
13	0xbd549b42	-0.051905878
14	0xbe518f5b	-0.20464842
15	0xbe671125	-0.22565134
16	0x3e042fc7	0.1290885
17	0xbe7a9d40	-0.24474049
18	0xbddd2c61	-0.1079948
19	0x3e672d06	0.22575769
20	0xbe883e69	-0.26610115
21	0x3e1b2e5d	0.15154405
22	0x3d02d157	0.031937923
23	0x3d6a7c51	0.057247464
24	0x3e213138	0.15741432
25	0xbd99558d	-0.07487021
26	0x3dcf3fd9	0.101196
27	0x3dcbfa20	0.09959817
28	0xbe637a5e	-0.22214648
29	0x3e794a0a	0.2434465
30	0x3d568bf2	0.052379556
31	0xbe2ecf4a	-0.17071262
32	0xbd99c36e	-0.075079784
33	0xba17849a	-0.0005779952
34	0x3d6092aa	0.05482737
35	0xbe20f915	-0.15720017
36	0x3e895a74	0.26826823
37	0xbe4ba751	-0.19888045
38	0xbe6cf887	-0.2314168
39	0xbdd28f78	-0.10281271
40	0x3eadd664	0.3395263
41	0x3e4efb52	0.20213059
42	0x3e164aed	0.1467702
43	0x3e57a8f0	0.21060538
44	0xbdcce212	-0.10004057
45	0x3e2f0718	0.1709255
46	0xbdcc85c4	-0.09986451
47	0xbe493989	-0.19650854
48	0xbe700190	-0.23438096
49	0x3e4409f5	0.19144423
50	0x3e65abfd	0.2242889
51	0xbe49c929	-0.19705643
52	0xbdec594c	-0.115404695
53	0x3e297671	0.16549088
54	0xbe3505a1	-0.17677929
55	0xbe626ab7	-0.22111021
56	0x3dcebc3a	0.10094495
57	0xbd63f104	-0.055649772
58	0xbe94a226	-0.2902996
59	0xbe2ba2e7	-0.16761361
60	0x3e828c73	0.2549778
61	0x3d037741	0.03209615
62	0xbd5a875d	-0.05335175
63	0x3d8fb6bf	0.07017278
64	0x3dc94659	0.09827871
65	0x3cfb34fd	0.030664915
66	0xbcfd6c7e	-0.030935522
67	0x3d94daf1	0.07268322
68	0xbb069585	-0.0020535898
69	0x3cf01dfe	0.029311176
70	0x3df20370	0.11817062
71	0x3e5cdc3a	0.21568385
72	0x3e11722f	0.14203714
73	0xbe68063a	-0.22658625
74	0x3e2397f0	0.15975928
75	0xbe28028a	-0.16407219
76	0x3e35b7fc	0.17745966
77	0x3c8a0dd5	0.016852299
78	0xbe0be176	-0.13660225
79	0xbd42a8b4	-0.04752417
80	0x3e5ea59f	0.21742867
81	0x3dd41c49	0.103569575
82	0xbe043126	-0.12909374
83	0x3dd5f8bd	0.10447834
84	0x3d438e07	0.04774287
85	0xbdcccc00	-0.099998474
86	0x3e4a9d2d	0.1978652
87	0x3e045199	0.12921752
88	0xbe16a73f	-0.14712237
89	0xbe20ab24	-0.15690285
90	0xbe2f20a2	-0.17102292
91	0xbc90cc43	-0.017675525
92	0xbd0e0503	-0.03467275
93	0xbd501d66	-0.050809287
94	0xbd8f395b	-0.069933616
95	0xbe7356a9	-0.23763527
96	0x3d67c21f	0.056581613
97	0xbe38904f	-0.180238
98	0x3cb9a223	0.02266032
99	0xbe1b5a88	-0.15171254
100	0xbe55e5a6	-0.20888385
101	0xbd00ebb8	-0.0314748
102	0x3e27c393	0.163832
103	0xbde40655	-0.1113402
104	0xbdc22bfb	-0.09481045
105	0x3d1e329a	0.038622476
106	0xbd5277b0	-0.051383674
107	0x3e4ded8d	0.2011015
108	0x3c811bab	0.015760263
109	0x3e55c842	0.20877174
110	0xbd5c57b7	-0.05379459
111	0x3e4db406	0.20088205
112	0x3b45630e	0.0030118856
113	0xbe8612d3	-0.26186237
114	0xbe06296e	-0.13101742
115	0x3d784e7e	0.06062173
116	0x3dbf7eca	0.09350355
117	0xbe72a5c9	-0.23696055
118	0x3e29447f	0.16530035
119	0x3e9cd859	0.3063381
120	0xbdd52058	-0.1040656
121	0xbe2a1e32	-0.16613081
122	0x3e62739c	0.22114414
123	0xbe8a1444	-0.26968586
124	0xbe3221e1	-0.17395736
125	0x3e099fac	0.13439816
126	0xbea85a14	-0.32881224
127	0xbd495567	-0.04915371
128	0x3e083d06	0.13304529
129	0x3d489d21	0.048977975
130	0x3e011d67	0.12608872
131	0x3ddf4974	0.10902682
132	0xbeb1e706	-0.3474657
133	0xbe1cf032	-0.15326002
134	0xbe60da1f	-0.21958207
135	0xbe9694ee	-0.294105
136	0xbe58fd40	-0.21190357
137	0xbe4fe4f6	-0.20302185
138	0xbe292f75	-0.1652201
139	0xbdca11e8	-0.098666966
140	0x3b9bf00e	0.0047588414
141	0x3dc9bc55	0.098503746
142	0xbe059dba	-0.13048449
143	0xbd9fd956	-0.078051254
144	0xbe3a5ed1	-0.18200232
145	0xbda30302	-0.07959558
146	0xbcdb780c	-0.026790641
147	0x3dbae3e3	0.09125497
148	0xbc9e7bde	-0.019346174
149	0x3d4861c1	0.04892135
150	0xbdd3525e	-0.10318445
151	0x3a27c148	0.00063993456
152	0x3d970ce3	0.07375505
153	0xbe5fc824	-0.21853691
154	0xbe76ed31	-0.24113919
155	0x3e6f3081	0.23358347
156	0x3e8b4a0f	0.2720494
157	0xbe53a1b0	-0.20667148
158	0x3d826bd6	0.06368224
159	0x3cf0bc63	0.029386705
160	0x3dfce8f6	0.12349121
161	0x3c3201fa	0.010864729
162	0x3e525003	0.20538335
163	0xbc3ba072	-0.011451827
164	0x3e2e2642	0.17006782
165	0x3e20852e	0.15675804
166	0x3e801ac9	0.25020435
167	0xbe5f8a62	-0.21830133
168	0x3d1f53b9	0.038898204
169	0xbe158629	-0.1460196
170	0xbe4403a0	-0.19142008
171	0x3e71a5fc	0.23598474
172	0x3e098a5a	0.13431683
173	0xbe8bf77e	-0.2733726
174	0x3ddf1563	0.10892751
175	0xbdd9f196	-0.10641782
176	0xbe604b4e	-0.21903726
177	0x3e8105b9	0.2519968
178	0x3c078c87	0.00827325
179	0x3e0e0699	0.13869704
180	0xbe22dcc3	-0.15904526
181	0x3e940a89	0.28914288
182	0xbdd644e8	-0.104623616
183	0xbd80022e	-0.06250416
184	0x3d7cd296	0.061724268
185	0xbe8b2201	-0.2717438
186	0xbe984783	-0.2974206
187	0x3e041263	0.12897639
188	0x3e276aa2	0.16349271
189	0x3ded7550	0.11594641
190	0xbe80ccc1	-0.25156215
191	0x3e4dc618	0.20095098
192	0xbddf14b3	-0.1089262
193	0xbe28573e	-0.1643953
194	0xbe671cf4	-0.22569638
195	0xbd856a59	-0.06514425
196	0xbdd1c2ef	-0.10242259
197	0xbe9673d4	-0.29385245
198	0x3c9c40f5	0.019073943
199	0x3e0b49bf	0.1360235
200	0x3c64e042	0.013969483
201	0xbe3b3798	-0.18282926
202	0xbe806932	-0.25080258
203	0x3e2d43e7	0.16920434
204	0xbe360178	-0.17773998
205	0x3e0642c5	0.13111408
206	0xbe55d2d9	-0.20881213
207	0xbe856129	-0.2605069
208	0xbe5e3efe	-0.21703717
209	0xbce34edc	-0.027747564
210	0xbe544b5e	-0.20731875
211	0x3dc68c00	0.09694672
212	0x3e274dc8	0.16338265
213	0xbdbb46f5	-0.09144393
214	0x3e085af8	0.13315952
215	0xbb81496d	-0.0039455206
216	0x3dc05857	0.093918495
217	0xbe1d53e4	-0.15364033
218	0x3e9b5de1	0.3034506
219	0xbe13b113	-0.14423017
220	0xbe9417f8	-0.28924537
221	0x3d2c45ca	0.042058744
222	0xbd03ffa9	-0.03222624
223	0xbd9b52dd	-0.07584164
224	0x3e53e27d	0.20691867
225	0x3bacb713	0.0052708476
226	0x3bf5f62b	0.007506152
227	0xbd8ec1eb	-0.06970581
228	0xbe41410a	-0.18872467
229	0x3e86df9d	0.26342478
230	0xbe0d78c8	-0.13815606
231	0xbdf818e8	-0.121141255
232	0x3afc3b7f	0.0019243805
233	0x3d92db2b	0.07170709
234	0xbd5c206c	-0.053741857
235	0x3deb7d14	0.11498466
236	0xbd965d57	-0.07342022
237	0x3ebfbe67	0.37449953
238	0xbe5c20b4	-0.2149685
239	0xbe1207ca	-0.14260784
240	0x3d4390ce	0.04774552
241	0xbc29de84	-0.010367993
242	0xbe81dea6	-0.2536518
243	0x3e23797b	0.1596431
244	0xbe654940	-0.22391224
245	0xbe01e4f4	-0.12684995
246	0x3d9ce0c9	0.07660062
247	0xbe196f4c	-0.14983863
248	0x3e075f23	0.13219886
249	0x3df92477	0.12165158
250	0x3cf68462	0.030092422
251	0x3c297494	0.010342736
252	0x3d165ce3	0.036709677
253	0xbe7a18ef	-0.24423574
254	0x3c978e49	0.018500464
255	0x3e838633	0.25688323

price_branch.lstm.weight_hh_l0 f4 [64, 16]
0	0x3e41d333	0.18928222
1	0xbe04c822	-0.1296697
2	0xbe25fc40	-0.16209507
3	0xbd90fe55	-0.0707976
4	0xbd94bf2f	-0.07263028
5	0xbca54fee	-0.020179715
6	0x3bf38d97	0.0074326503
7	0x3ccb12e1	0.024789276
8	0x3b942906	0.004521492
9	0x3b3b1960	0.002854906
10	0x3a016218	0.00049355766
11	0xbe892e8a	-0.2679332
12	0xbdb6a459	-0.089180656
13	0x3e3b00f1	0.18262078
14	0x3c9359db	0.017987182
15	0xbde37a0d	-0.11107264
16	0xbd9ac82b	-0.0755771
17	0xbde225e9	-0.11042387
18	0x3e07a9bc	0.13248342
19	0x3e315d54	0.17320758
20	0x3d67e5de	0.056615703
21	0x3e5f8296	0.21827158
22	0x3d332345	0.043734808
23	0xbe108931	-0.14114834
24	0x3d8bb7ad	0.06822143
25	0xbd173e9b	-0.03692494
26	0xbe80e512	-0.25174767
27	0x3dbbb040	0.091644764
28	0xbe0bdc5c	-0.13658279
29	0xbe07783c	-0.1322946
30	0x3e70cb71	0.23515107
31	0xbe22bfa6	-0.1589342
32	0xbe2497a5	-0.16073473
33	0xbd77731c	-0.06041251
34	0xbd8dbc9b	-0.06920739
35	0xbb7102a6	-0.003677526
36	0x3e007bfc	0.12547296
37	0x3bdeef81	0.0068034534
38	0xbdca4782	-0.0987692
39	0xbe5292b6	-0.20563778
40	0x3ddcdee6	0.10784702
41	0xbe58e05b	-0.21179335
42	0xbdbba4c6	-0.091622874
43	0x3e79832f	0.24366449
44	0x3d6eed7e	0.05833196
45	0xbe60ac58	-0.21940744
46	0x3e4d878d	0.2007124
47	0x3e21a6bd	0.15786262
48	0xbe267148	-0.16254151
49	0x3e5ad94b	0.21371953
50	0x3e72f651	0.23726775
51	0x3e569931	0.20956875
52	0xbe2bbd14	-0.16771346
53	0x3e9ff0bd	0.31238356
54	0xbd09fc87	-0.033688094
55	0x3d7a7940	0.06115079
56	0x3da91214	0.08255401
57	0x3e1264d0	0.1429627
58	0xbd40338b	-0.046924155
59	0xbd9c11cd	-0.07620583
60	0x3e291dc9	0.16515268
61	0x3e5dfeca	0.21679226
62	0x3d5f22f1	0.054476682
63	0xbe68e283	-0.22742657
64	0x3ded0f86	0.115752265
65	0x3e316572	0.17323855
66	0xbe8b7931	-0.272409
67	0xbe28083a	-0.16409388
68	0xbdc9ac26	-0.09847288
69	0x3e20db9e	0.15708777
70	0x3ddc33ad	0.10752044
71	0x3d94af3f	0.07259988
72	0x3ccce32a	0.025010664
73	0xbe09de72	-0.13463762
74	0xbe5516e0	-0.20809507
75	0xbe6ca642	-0.23110297
76	0xbc762e43	-0.015025678
77	0x3e894025	0.2680675
78	0xbe42bfcd	-0.19018479
79	0xbe9488b4	-0.29010546
80	0x3cc224d8	0.02369921
81	0xbd6be926	-0.057595395
82	0x3df48995	0.11940304
83	0xbeb55391	-0.3541532
84	0x3e7223d7	0.23646484
85	0x3ea189f9	0.31550577
86	0xbe80e511	-0.25174764
87	0xbd01ccd5	-0.031689484
88	0x3e1e1352	0.15437058
89	0xbe1239fd	-0.14279933
90	0x3dcf050f	0.10108387
91	0xbdd19f89	-0.10235507
92	0x3e6dd218	0.23224676
93	0xbd9f7566	-0.07786064
94	0x3e6b1a9c	0.2295937
95	0x3d102241	0.035188917
96	0x3d9a59fe	0.07536696
97	0x3d9960de	0.07489179
98	0x3e53ddcf	0.20690082
99	0x3db740f1	0.089479335
100	0x3e5c1872	0.214937
101	0x3cafa926	0.021442961
102	0xbe379d9d	-0.17931218
103	0xbd493d4f	-0.049130734
104	0xbdcd5438	-0.10025829
105	0x3e818e38	0.25303817
106	0x3d1e6ccc	0.038677976
107	0x3e2a91dd	0.16657205
108	0xbbc6d3a7	-0.0060677114
109	0x3e1671bf	0.14691828
110	0x3e67e06a	0.22644201
111	0x3d947017	0.07247942
112	0xbde3d0c6	-0.11123805
113	0xbdc58eb4	-0.09646359
114	0x3e82558f	0.254559
115	0xbe1a1b04	-0.15049368
116	0x3e93cd2b	0.28867468
117	0x3e3bae40	0.1832819
118	0x3a1c7859	0.0005968861
119	0x3e6a8b11	0.22904612
120	0xbe24ea10	-0.16104913
121	0xbbf1ab28	-0.0073751397
122	0xbdd2be61	-0.10290218
123	0xbe253add	-0.16135736
124	0x3e4d23d6	0.20033202
125	0x3be788d0	0.00706587
126	0x3ea79e4c	0.32737958
127	0xbe892b79	-0.2679098
128	0x3e006d7a	0.12541762
129	0xbe0fe46b	-0.14051978
130	0xbe205437	-0.15657125
131	0x3e1939b4	0.14963418
132	0xbc833d8b	-0.016020557
133	0x3d0ce8d0	0.034401715
134	0xbe6eb8e7	-0.23312722
135	0x3e917e01	0.28416446
136	0x3e40bdf4	0.18822461
137	0xbdae296e	-0.08503996
138	0xbe88c9ce	-0.26716465
139	0x3e38e931	0.18057705
140	0xbda7db4c	-0.081961244
141	0xbd860aab	-0.065450035
142	0xbe10d0c6	-0.14142141
143	0xbdb6e4be	-0.08930348
144	0x3d5b8529	0.05359379
145	0x3ca726a0	0.02040416
146	0xbd88bcbf	-0.066766255
147	0x3e10aef3	0.14129238
148	0x3d5653f4	0.052326158
149	0x3d8e9cdd	0.06963513
150	0xbe239414	-0.15974456
151	0x3cfcc672	0.030856345
152	0xbe291349	-0.16511263
153	0x3d747376	0.059680425
154	0x3c136ba6	0.008997833
155	0x3d028f35	0.031874854
156	0x3de4d6db	0.11173793
157	0x3e8d6d38	0.2762239
158	0xbdb60f19	-0.088895984
159	0xbd5c6072	-0.053802915
160	0xbe5f9579	-0.21834363
161	0x3cd424de	0.025896486
162	0x3dc4d416	0.09610765
163	0x3cfe1d6d	0.03101989
164	0xbe493376	-0.19648537
165	0x3e8dae36	0.27671975
166	0x3dba8c75	0.09108821
167	0x3da7a087	0.08184915
168	0xbd7f2e90	-0.062300265
169	0x3ceadc72	0.02866957
170	0xbdcc9999	-0.09990234
171	0xbe8277ca	-0.25482017
172	0x3e309806	0.17245492
173	0x3e7a9419	0.24470557
174	0x3d9373af	0.07199799
175	0xbda52eac	-0.080655426
176	0xbe0090b2	-0.12555197
177	0x3d89d0e5	0.067292966
178	0x3e7a9a41	0.24472906
179	0xbe473fe8	-0.19457972
180	0x3e1c87dc	0.15286201
181	0x3d416254	0.047212914
182	0x3d1c2771	0.03812355
183	0xbe40b54b	-0.18819158
184	0xb7d89740	-2.5819638e-05
185	0xbd52ebe3	-0.05149449
186	0xbd9d8665	-0.07691649
187	0x3e41acc6	0.18913564
188	0x3cf5af06	0.029990684
189	0x3e8f2340	0.2795658
190	0x3d9144d4	0.07093206
191	0x3e0a2d17	0.13493763
192	0xbe351a66	-0.17685851
193	0x3e4573ad	0.19282408
194	0xbd91e11b	-0.071230136
195	0x3daf1d40	0.08550501
196	0xbcd6dd97	-0.02622871
197	0xbe34e107	-0.17663966
198	0x3e7439c9	0.23850168
199	0xbe217cb0	-0.15770221
200	0x3e426d97	0.18987118
201	0xbd918bbb	-0.071067296
202	0x3cc9ef00	0.024650097
203	0xbe83336d	-0.25625172
204	0xbd240b5a	-0.04004989
205	0x3e2a2e12	0.16619137
206	0xbdf4f66d	-0.119610645
207	0x3dcf633b	0.101263486
208	0xbdd69500	-0.10477638
209	0xbe1459f9	-0.14487447
210	0xbbf666e8	-0.0075195916
211	0x3ad217a8	0.0016028779
212	0xbe46e31b	-0.19422571
213	0x3e5ab734	0.21358949
214	0x3dea9129	0.11453468
215	0x3e7310c5	0.23736866
216	0x3db67ab2	0.08910121
217	0x3e744574	0.2385462
218	0x3cd6cba5	0.026220152
219	0xbe57bd01	-0.21068193
220	0xbe2db338	-0.16962898
221	0x3e850f0e	0.25988048
222	0xbde08b7c	-0.109641045
223	0x3db17cef	0.08666407
224	0xbe542316	-0.20716509
225	0xbd779e7c	-0.060453877
226	0xbcd18282	-0.025574926
227	0xbe852baa	-0.26009876
228	0xbe26481e	-0.16238448
229	0x3d797c83	0.06090976
230	0xbc47997f	-0.012182592
231	0x3c3ccd57	0.011523566
232	0x3d4043a8	0.046939522
233	0x3dd67ff5	0.104736246
234	0xbda5729a	-0.08078499
235	0xbe51185d	-0.2041945
236	0x3e776883	0.24160962
237	0x3e9e7084	0.30945218
238	0x3ea69a01	0.3253937
239	0xbe914409	-0.2837222
240	0xbe1dcb8e	-0.15409681
241	0xbe305380	-0.17219353
242	0xbde24185	-0.11047653
243	0xbc953d27	-0.018217636
244	0x3da24158	0.079226196
245	0x3e1d9a01	0.15390779
246	0xbdfb8c31	-0.12282599
247	0xbd4bddf2	-0.04977221
248	0x3e9588f3	0.29206046
249	0x3c9ac392	0.018892083
250	0xbe5f542a	-0.2180945
251	0xbd95053d	-0.0727639
252	0x3e872922	0.2639857
253	0x3e37f9a3	0.17966323
254	0x3e4f0db7	0.20220076
255	0x3e1811ae	0.14850494

price_branch.lstm.bias_ih_l0 f4 [64]
0	0x3e7ae683	0.24501996
1	0x3e3ff26c	0.1874482
2	0x3e3797b2	0.17928961
3	0x3e8533f3	0.26016197
4	0xbe49fca5	-0.19725282
5	0xbde4d91f	-0.11174225
6	0xbe4a7a19	-0.19773139
7	0x3e58e940	0.21182728
8	0xbd1debb5	-0.038554866
9	0x3d05df42	0.03268362
10	0xbdaac233	-0.08337822
11	0xbd19ae3f	-0.03751969
12	0x3d9f56fa	0.07780261
13	0xbd7f680e	-0.062355094
14	0x3e4b9050	0.1987927
15	0x3e36b4ea	0.1784245
16	0x3d839b51	0.06426109
17	0x3e85de16	0.26146
18	0x3e112141	0.14172842
19	0x3e21541e	0.15754744
20	0xbe497eb2	-0.19677237
21	0x3ddfdfde	0.10931371
22	0x3e41321a	0.18866768
23	0xbe000cfe	-0.12504956
24	0x3e2c3166	0.16815719
25	0x3e980cd0	0.29697275
26	0x3e49276e	0.19643947
27	0xbe36b23b	-0.17841427
28	0x3dd8517b	0.10562416
29	0x3d087bc7	0.03332117
30	0x3dc626da	0.09675379
31	0x3c002b7b	0.007822867
32	0xbd9b10b6	-0.07571547
33	0x3e7a3a92	0.24436405
34	0x3ce450b1	0.027870508
35	0xbe5487f7	-0.20754991
36	0xbd56c3db	-0.052432876
37	0xbe32b0f0	-0.17450309
38	0xbe69c789	-0.22830023
39	0x3e84e52d	0.25956097
40	0x3e2c5e92	0.1683295
41	0x3e598bab	0.21244685
42	0xbe4f0da0	-0.20220041
43	0xbe82b335	-0.2552735
44	0x3e1b6d7f	0.15178488
45	0x3e06221f	0.13098954
46	0x3e85f53b	0.26163658
47	0xbc4e9b3c	-0.012610253
48	0x3e1ade97	0.15123974
49	0x3e80a7c5	0.25127998
50	0x3d85af84	0.065276176
51	0xbd8ee300	-0.069768906
52	0x3e4e85d1	0.20168234
53	0xbe03dde7	-0.12877618
54	0xbe618d7b	-0.22026627
55	0x3e8bb5d2	0.27287155
56	0x3d84aa47	0.0647779
57	0xbd829e7a	-0.06377883
58	0xbd15390a	-0.03643135
59	0x3db36ad2	0.08760609
60	0x3e469ddc	0.19396156
61	0xbd652dc0	-0.055951834
62	0x3e70cf35	0.23516543
63	0xbd8834f8	-0.06650728

price_branch.lstm.bias_hh_l0 f4 [64]
0	0xbbb40193	-0.0054933517
1	0x3e5bd315	0.2146724
2	0x3e6d5997	0.23178707
3	0x3dea4e56	0.11440723
4	0x3e3ca81f	0.18423508
5	0x3d35d896	0.044396006
6	0x3beb01ea	0.007171859
7	0xbe0b7fe3	-0.13623004
8	0x3d9500ac	0.07275519
9	0x3dc11087	0.094269805
10	0x3e1bce9a	0.15215531
11	0xbcce3043	-0.025169497
12	0x3e84b011	0.25915578
13	0x3b135d97	0.0022486204
14	0xbddfbe99	-0.109250255
15	0xbdb1ef44	-0.086882144
16	0x3e1c261f	0.15248917
17	0x3e3ed456	0.18635687
18	0xbe11663d	-0.14199157
19	0xbdaf2405	-0.08551792
20	0xbe023802	-0.12716678
21	0x3da2006f	0.07910239
22	0x3e345786	0.17611513
23	0x3d943f98	0.07238692
24	0x3e31d52b	0.17366473
25	0x3d63b332	0.055590816
26	0x3d5166af	0.051123317
27	0xbd7cbebc	-0.061705336
28	0x3d75f887	0.060051467
29	0xbd0a7639	-0.033804152
30	0x3d25cc74	0.040478185
31	0xbe147b58	-0.14500177
32	0xbe890a76	-0.26765794
33	0xbe137b04	-0.14402395
34	0xbc2c06c7	-0.010499663
35	0x3e06b9fb	0.13156883
36	0x3d177278	0.0369744
37	0x3dd1a8a2	0.10237242
38	0x3e56f1ec	0.20990723
39	0xbd94fe23	-0.07275035
40	0xbd3c6d26	-0.04600253
41	0xbe127dbe	-0.1430578
42	0xbe718af2	-0.2358816
43	0xbe60d6ac	-0.21956891
44	0x3e680a2f	0.22660135
45	0xbb894b82	-0.0041899094
46	0x3e7f5810	0.24935937
47	0xbe7912c2	-0.24323562
48	0x3dd13f10	0.10217106
49	0x3e2ae8bd	0.16690345
50	0x3e18b9f0	0.1491468
51	0x3e37414a	0.17896
52	0x3e8b1e5f	0.2717161
53	0x3d97a791	0.07405008
54	0xbe240ce9	-0.1602055
55	0x3e703aa9	0.23459877
56	0xbdf1dd49	-0.11809785
57	0xbd81ab4a	-0.06331499
58	0xbe16e8ff	-0.14737318
59	0x3ca7cc6f	0.020483224
60	0xbdfd380f	-0.12364208
61	0xbdf48376	-0.11939137
62	0xbdadcd54	-0.08486429
63	0x3e5ab247	0.2135707
