models/checkpoints/news_lstm/news_lstm_spy.pt (torch, 49898 bytes, 19 tensors)

sentiment_branch.lstm_layers.0.weight_ih_l0 f4 [128, 11]
0	0xbc34b3fd	-0.011029241
1	0xbe373707	-0.17892085
2	0xbd9f1c57	-0.07769077
3	0xbe32edb1	-0.17473485
4	0xbd1989b5	-0.037484843
5	0xbdd46eb9	-0.10372681
6	0xbd98a2fa	-0.0745296
7	0xbde5a121	-0.112123735
8	0x3d2a6e51	0.041609112
9	0xbe2b39b9	-0.16721238
10	0x3db898cd	0.090135194
11	0xbe0b7b39	-0.13621224
12	0xbdddb823	-0.10826137
13	0x3dcc8f0d	0.09988222
14	0x3dbc1f35	0.0918564
15	0xbbbf44d9	-0.0058370647
16	0x3d278cef	0.04090589
17	0x3dc4126c	0.09573826
18	0xbd0b3a47	-0.033991124
19	0xbd9064c1	-0.07050467
20	0x3d19bc38	0.037533015
21	0x3db19ee3	0.08672883
22	0xbb82b9b7	-0.003989424
23	0xbe5d0e27	-0.2158743
24	0x3da70085	0.08154396
25	0xbc7041cc	-0.014664125
26	0xbde235b4	-0.11045399
27	0xbe52776e	-0.20553371
28	0xbe617ae7	-0.2201954
29	0xbdaf1d43	-0.08550503
30	0xbe051cef	-0.12999319
31	0xbd82fcf8	-0.06395906
32	0xbdd15deb	-0.102229916
33	0x3e010b74	0.12602025
34	0xbe4f6e60	-0.20256948
35	0xbd84473b	-0.06458899
36	0xbda52736	-0.080641195
37	0x3e0225ac	0.12709683
38	0x3e28edbd	0.1649694
39	0x3d882f91	0.066496976
40	0x3e2d4afd	0.16923137
41	0xbde5efef	-0.11227404
42	0x3d771b65	0.06032886
43	0xbe2a9125	-0.1665693
44	0xbd3c0209	-0.04590038
45	0x3dd9acaa	0.10628636
46	0xbe30a9d8	-0.1725229
47	0xbd12621a	-0.03573809
48	0xbd7b0aa7	-0.061289456
49	0xbd411f10	-0.047148764
50	0x3e14b459	0.14521922
51	0x3cbd4d1a	0.023108054
52	0x3e2bcbdb	0.16776983
53	0xbe003134	-0.1251877
54	0xbde36a4d	-0.1110426
55	0x3e348b57	0.17631279
56	0xbdcc5145	-0.099764384
57	0xbe0203ae	-0.12696716
58	0xbdf57066	-0.11984329
59	0xbe991680	-0.2989998
60	0x3e046346	0.12928495
61	0x3d88310d	0.06649981
62	0x3e4b2ddb	0.19841711
63	0x3de6e598	0.1127426
64	0xbde3df8b	-0.11126622
65	0xbde1f9de	-0.110339865
66	0xbe373b60	-0.17893744
67	0xbe23e6a8	-0.16005957
68	0xbdf07e09	-0.11742789
69	0xbe34b1e2	-0.17645982
70	0xbdebb87b	-0.11509796
71	0xbbd9e916	-0.0066501005
72	0xbe44a23c	-0.19202513
73	0xbe107f76	-0.14111122
74	0xbe3a1a5f	-0.18174122
75	0x3dbc85c5	0.09205202
76	0x3d9bf7d2	0.07615627
77	0xbe6404e1	-0.22267486
78	0xbe132271	-0.14368607
79	0x3dc1c59b	0.094615184
80	0x3dc79f94	0.09747234
81	0x3e191209	0.14948286
82	0xbbf9df72	-0.0076255137
83	0x3ccd0b67	0.025029851
84	0xbd9fee3b	-0.07809111
85	0xbda720df	-0.081605665
86	0x3e463f2e	0.19360039
87	0x3e4918d0	0.19638371
88	0xbea377e7	-0.31927416
89	0x3dce9fe4	0.100890905
90	0xbd6e3181	-0.05815268
91	0x3d7880a8	0.06066957
92	0x3c5535bb	0.013013299
93	0xbe8ce18b	-0.27515826
94	0xbe33e476	-0.1756762
95	0x3e885ff5	0.2663571
96	0xbe857b12	-0.26070458
97	0x3e847d28	0.25876737
98	0xbd153276	-0.036425076
99	0x3e6a7fe1	0.22900344
100	0xbe002c88	-0.12516987
101	0xbc2394e8	-0.0099842325
102	0xbd2247d4	-0.039619282
103	0x3dc41b91	0.095755704
104	0x3e34bc01	0.17649843
105	0x3e7860fa	0.24255744
106	0xbdab45b1	-0.08362902
107	0xba910e4a	-0.001106688
108	0x3d159888	0.03652242
109	0xbe8f6aba	-0.28011113
110	0xbde9b4c8	-0.114114344
111	0xbe0463ed	-0.12928744
112	0x3dd0dcb4	0.10198346
113	0xbde6f664	-0.11277464
114	0xbd1f205a	-0.038849212
115	0xbe06cbbf	-0.1316366
116	0x3e31d51c	0.17366451
117	0x3df5ea61	0.12007595
118	0xbe090f8d	-0.13384838
119	0xbbfad7d0	-0.0076551214
120	0x3e37522c	0.1790244
121	0xbe0778e0	-0.13229704
122	0x3cddc42f	0.027071087
123	0xbe0896cf	-0.13338779
124	0xbe55f8e9	-0.20895733
125	0x3e6a7c2d	0.22898932
126	0xbb9bc341	-0.0047535007
127	0xbe3269c2	-0.17423156
128	0xbe7f4756	-0.24929556
129	0xbd068c01	-0.032848362
130	0xbe36117d	-0.17780109
131	0xbd0c6b72	-0.034282155
132	0xbe0d49fb	-0.13797753
133	0x3df16012	0.11785902
134	0x3ca8d8c7	0.02061118
135	0x3c27c976	0.010240903
136	0xbc54490d	-0.01295687
137	0xbdbce261	-0.09222866
138	0x3e46a6bf	0.19399546
139	0x3c10ccff	0.008837937
140	0x3e46f0c7	0.19427787
141	0x3cd1eb17	0.025624795
142	0xbe04e239	-0.12976922
143	0xbda09a8d	-0.07841978
144	0x3c4a3305	0.012341266
145	0xbdffc349	-0.124884196
146	0xbddf516c	-0.10904202
147	0x3d3364b3	0.043797206
148	0x3e6dbe5f	0.23217152
149	0x3e257862	0.16159204
150	0xbc0f3833	-0.008741426
151	0x3dfb520e	0.1227151
152	0x3e2ac052	0.16674927
153	0x3dc23da5	0.09484414
154	0x3d5154c3	0.051106226
155	0x3e30c6c1	0.17263319
156	0xbe379678	-0.17928493
157	0xbe4fdcb0	-0.2029903
158	0xbcdaffc9	-0.026733296
159	0x3e2194e2	0.1577945
160	0x3e71f06b	0.23626868
161	0xbd3a1e41	-0.04543901
162	0xbbd3635e	-0.0064510545
163	0xbd7500a1	-0.059815053
164	0x3c49db80	0.012320399
165	0xbde6703c	-0.11251876
166	0xbe263681	-0.16231729
167	0xbd01f439	-0.03172705
168	0x3e33d2d9	0.17560901
169	0x3da983b6	0.08277075
170	0xbe0d67bf	-0.13809107
171	0xbe6bc24c	-0.23023337
172	0xbcfb6882	-0.030689482
173	0xbe957bc8	-0.29196
174	0xbd7f3c8a	-0.062313594
175	0x3e640e34	0.22271043
176	0x3d334a74	0.043772176
177	0x3e04f193	0.12982778
178	0xbe00cd16	-0.12578234
179	0x3ce18bb4	0.027532436
180	0xbe9ec67c	-0.31010807
181	0xbd5c366b	-0.053762835
182	0xbde777ed	-0.11302171
183	0x3e824e7a	0.25450498
184	0x3d91ea24	0.07124737
185	0xbe0d4c76	-0.13798699
186	0x3e11616a	0.14197317
187	0x3e096fc6	0.13421544
188	0xbd493574	-0.049123242
189	0x3e3952c2	0.18097976
190	0xbe0955be	-0.13411614
191	0x3c556754	0.013025124
192	0x3d2a2389	0.041537795
193	0xbdcd76f7	-0.10032456
194	0x3e31773e	0.17330644
195	0xbdbea67d	-0.09309099
196	0xbddcf434	-0.107887655
197	0x3d45a3b6	0.04825183
198	0xbe2d5f23	-0.16930823
199	0x3e16319b	0.1466736
200	0xbbfb8d5d	-0.007676764
201	0xbd8acd27	-0.06777411
202	0xbe0404f9	-0.12892522
203	0xbe084fc0	-0.13311672
204	0x3de22a98	0.1104328
205	0xbe2a7c03	-0.16648869
206	0xbd2c63d0	-0.042087376
207	0xbdcb95d2	-0.09940685
208	0x3dadf7aa	0.08494504
209	0xbe0e82ca	-0.1391708
210	0xbc247c15	-0.010039349
211	0x3e04e432	0.12977675
212	0x3dd57477	0.104226045
213	0xbceda035	-0.029007057
214	0x3d70d661	0.058798198
215	0x3e702e5d	0.23455186
216	0xbda64d03	-0.081201576
217	0x3d50fdce	0.051023297
218	0xbcdc84c4	-0.026918776
219	0x3d8fc62a	0.07020219
220	0xbe26cf6f	-0.16290067
221	0xbe3e2f11	-0.18572642
222	0xbc4be643	-0.012445035
223	0x3e249de4	0.16075855
224	0x3da204cd	0.07911072
225	0xbda22912	-0.0791799
226	0x3db4da45	0.08830694
227	0x3df8975b	0.12138244
228	0x3c4a9dac	0.0123666935
229	0x3e6ac6d3	0.22927408
230	0xbd2b0127	-0.041749146
231	0x3e96953a	0.29410726
232	0xbd16bfe2	-0.036804087
233	0x3d8ef88f	0.069810025
234	0xbdcaed41	-0.09908534
235	0x3ddeec4d	0.108849145
236	0x3d628d1e	0.05531036
237	0x3eb5b441	0.35489085
238	0x3e13deb0	0.14440417
239	0x3e81db3f	0.25362584
240	0x3e4fea74	0.2030428
241	0xbe865fff	-0.26245114
242	0x3d99cd30	0.075098395
243	0x3d662589	0.05618814
244	0x3c13cd2c	0.009021085
245	0xbdbc654f	-0.091990106
246	0xbe0503d2	-0.12989739
247	0x3e40a6a2	0.18813565
248	0x3db03394	0.08603588
249	0x3c1acf0a	0.009448776
250	0x3e622364	0.22083813
251	0x3d7228a2	0.05912078
252	0xbdf38464	-0.11890486
253	0x3d582284	0.05276729
254	0xbca7b31c	-0.020471148
255	0x3e05fcc2	0.130847

sentiment_branch.lstm_layers.0.weight_hh_l0 f4 [128, 32]
0	0xbc1946c3	-0.00935525
1	0x3dbde83e	0.09272812
2	0xbe38c0aa	-0.18042246
3	0x3de30d3e	0.1108651
4	0xbe27b753	-0.16378526
5	0x3e5014b7	0.20320402
6	0x3e5fc6f6	0.21853241
7	0xbe79b65a	-0.24385968
8	0xbdb38646	-0.08765845
9	0x3e520ca6	0.20512637
10	0xbe3680eb	-0.17822616
11	0x3d97d967	0.07414513
12	0x3e1b62d2	0.15174416
13	0xbdc15ca8	-0.09441501
14	0x3b65ae00	0.003504634
15	0xbce0e250	-0.027451664
16	0x3df490a4	0.119416505
17	0xbc9fcc99	-0.01950674
18	0xbd2718f6	-0.04079529
19	0xbe1baed6	-0.15203413
20	0x3e217191	0.15765978
21	0x3cf8b3e7	0.030359222
22	0x3e14cd1a	0.14531365
23	0x3c899334	0.016793825
24	0xbe06e397	-0.13172756
25	0xbd1cb8dd	-0.038262237
26	0xbdba017a	-0.09082313
27	0x3b1c5918	0.0023856815
28	0x3c5bb635	0.013410141
29	0x3c6f13fb	0.014592166
30	0x3e2798db	0.16366903
31	0x3c4d0e2b	0.012515585
32	0xbe550bea	-0.20805326
33	0xbe46d3a4	-0.19416672
34	0x3b6b3fb8	0.0035896134
35	0x3e25d32d	0.16193838
36	0xbdcba750	-0.09944022
37	0x3e23d681	0.15999795
38	0xbe55884c	-0.20852774
39	0x3d9f3a3a	0.07774778
40	0xbd0b9f42	-0.034087427
41	0xbde3b8f8	-0.11119264
42	0x3936bc18	0.00017426943
43	0x3c6d4a6d	0.0144830765
44	0x3da25903	0.07927134
45	0x3d0ef76b	0.034903925
46	0xbc9873c2	-0.018609885
47	0x3d89ad83	0.06722548
48	0x3d7ad5cf	0.06123906
49	0xbd880855	-0.06642214
50	0xbc7e9739	-0.015538984
51	0x3e420ccf	0.18950199
52	0xbe02a61d	-0.1275868
53	0x3e286c28	0.16447508
54	0x3e4976db	0.19674246
55	0x3d75f615	0.060049135
56	0x3e06fffc	0.13183588
57	0xbddaadd7	-0.106776886
58	0xbe3a29a2	-0.18179944
59	0xbcd3ec09	-0.025869386
60	0x3dc8a055	0.09796206
61	0xbe14a21d	-0.14514966
62	0xbd31479a	-0.043281175
63	0x3d36b2ff	0.044604298
64	0x3c85a3e5	0.016313503
65	0x3dbd94e8	0.09256917
66	0x3e11c29c	0.14234394
67	0x3d7cf028	0.06175247
68	0xbe38a4da	-0.18031636
69	0x3e4bb5bb	0.19893543
70	0x3e1e8f54	0.15484363
71	0x3d4a3a3a	0.049371935
72	0x3cd55f1f	0.026046334
73	0x3dfbf978	0.12303442
74	0xbe3fd27a	-0.18732634
75	0xbc5ca3f3	-0.013466823
76	0x3d881841	0.06645251
77	0xbe6179d8	-0.22019136
78	0x3e99763f	0.29973027
79	0xbe08b702	-0.13351062
80	0x3e0fa110	0.14026284
81	0x3e479066	0.19488677
82	0x3e52e33f	0.205945
83	0x3dea7a78	0.1144914
84	0xbda92a4e	-0.08260022
85	0xbb9b7d6a	-0.004745175
86	0xbdc7db96	-0.097586796
87	0x3db9611e	0.09051727
88	0xbcb8b6f7	-0.022548182
89	0xbd84bdaa	-0.06481488
90	0x3dec4ff3	0.115386866
91	0x3c3906dd	0.01129314
92	0x3c6cf5e0	0.014462918
93	0xbdacc3eb	-0.08435806
94	0x3dfb1c90	0.12261307
95	0xbe4de147	-0.20105468
96	0x3e3e63b0	0.18592715
97	0x3e16a999	0.14713134
98	0xbe6168ed	-0.22012682
99	0xbd1fb3b8	-0.038989753
100	0x3deef46a	0.11667712
101	0xbc6e92b0	-0.01456134
102	0x3db56ab8	0.088582456
103	0xbe207c86	-0.15672502
104	0xbe196a37	-0.14981924
105	0xbdad5dcf	-0.08465158
106	0x3e281c17	0.16416965
107	0xbd7a5b03	-0.06112195
108	0x3ce910a6	0.028450321
109	0xbdcfefe5	-0.10153178
110	0xbe6f74d1	-0.23384406
111	0x3d09ca63	0.033640277
112	0xbdf3962b	-0.11893877
113	0x3cab1efa	0.020888794
114	0xbe2910c5	-0.16510303
115	0x3e537554	0.20650226
116	0x3b632efa	0.0034665451
117	0xbdf4264f	-0.11921369
118	0x3d1510d6	0.03639301
119	0x3e3d82de	0.18506953
120	0xbdb8fe66	-0.09032898
121	0x3cf3ef06	0.029777061
122	0x3cb05887	0.021526588
123	0xbe3a5829	-0.18197693
124	0xbe3cf1bf	-0.18451594
125	0xbdfc90d2	-0.1233231
126	0x3d013997	0.031549063
127	0x3e3fdcfa	0.1873664
128	0xbb843936	-0.0040351404
129	0x3d7d520e	0.06184583
130	0xbb8cd07c	-0.004297314
131	0x3d334e53	0.043775868
132	0x3d832183	0.06402876
133	0x3e33f9d4	0.1757577
134	0xbe1b3345	-0.15156277
135	0xbdfe00c1	-0.124024875
136	0x3dbbaec5	0.09164194
137	0x3e52e62a	0.20595613
138	0x3d084d47	0.033276822
139	0xbe1cba5e	-0.15305468
140	0xbdb885f9	-0.09009928
141	0xbe0b72de	-0.13618037
142	0x3e968fa4	0.29406464
143	0x3e07a483	0.1324635
144	0x3cfcdb4d	0.03086629
145	0xbdb5c834	-0.08876076
146	0x3e3d5e87	0.1849309
147	0x3de76e73	0.113003634
148	0x3e0dfc63	0.13865809
149	0xbdd13332	-0.10214843
150	0xbc0dfb63	-0.008665892
151	0xbdf9f29c	-0.12204477
152	0x3e096c20	0.13420153
153	0x3e1ea35c	0.15492004
154	0xbdca3416	-0.09873216
155	0xbe0706dc	-0.1318621
156	0xbdaab022	-0.08334376
157	0xbe18354b	-0.1486408
158	0x3d78e49c	0.060764894
159	0xbe199eb6	-0.1500195
160	0xbd367a91	-0.044550482
161	0x3dc2c274	0.09509745
162	0xbc82060b	-0.015872022
163	0xbdd698b2	-0.10478343
164	0x3d2de314	0.042452887
165	0x3dbe5082	0.092926994
166	0xbe01479a	-0.1262497
167	0x3e363c01	0.17796327
168	0xbdf23e4b	-0.11828288
169	0x3c92af2b	0.017905792
170	0x3c1f3893	0.009718078
171	0xbdc6a6c2	-0.09699775
172	0x3e1e2f99	0.15447845
173	0xbc255aed	-0.010092479
174	0x3e2d1f81	0.16906549
175	0x3d880545	0.0664163
176	0xbdee9bb4	-0.11650792
177	0x3d2a8490	0.041630328
178	0x3d7d9e32	0.061918445
179	0x3cba8f72	0.022773478
180	0xbe2e28f2	-0.17007807
181	0xbe1ccc62	-0.15312341
182	0xbd1536f4	-0.03642936
183	0xbdbe2049	-0.09283502
184	0x3e45f5c4	0.19332033
185	0xbdaa8a91	-0.08327211
186	0x3e15c313	0.14625196
187	0xbdf1a56f	-0.11799132
188	0x3e352cad	0.17692824
189	0xbe373f8b	-0.17895333
190	0x3def258b	0.11677083
191	0xbe1dce73	-0.15410785
192	0xbd334d6f	-0.04377502
193	0xbd179d23	-0.03701509
194	0xbbc65b23	-0.006053345
195	0x3d93917a	0.07205482
196	0xbddf4273	-0.10901346
197	0x3c9d5014	0.019203223
198	0x3def4113	0.11682334
199	0x3d93809d	0.072022654
200	0x3e11654d	0.141988
201	0xbd1c237e	-0.038119785
202	0xbdbdb935	-0.09263841
203	0x3db38f30	0.08767545
204	0x3e05c388	0.1306287
205	0x3e029751	0.12753035
206	0xbe2d0d7e	-0.16899678
207	0xbe2bad84	-0.1676541
208	0x3a3b3e24	0.00071427436
209	0xbdf53dc6	-0.11974673
210	0xbccba7a4	-0.02486021
211	0x3d6f47b3	0.058417987
212	0xbd8a3ba4	-0.06749657
213	0x3e120ea6	0.142634
214	0xbd2cec10	-0.042217314
215	0x3d556d9c	0.052106485
216	0x3d22f349	0.039782796
217	0xbe1642bd	-0.14673896
218	0xbd0afee0	-0.033934474
219	0x3d956b47	0.07295852
220	0xbe522bbb	-0.20524494
221	0xbe3e301a	-0.18573037
222	0xbdeab708	-0.11460692
223	0xbe339428	-0.17536986
224	0xbc537848	-0.012907095
225	0x3d962c73	0.07332697
226	0xbc397002	-0.011318209
227	0x3dd7145b	0.105019294
228	0xbdbb2c21	-0.09139276
229	0xbbb695f3	-0.0055720746
230	0xbb8a43ef	-0.004219524
231	0x3ba01e82	0.0048864493
232	0xbe89786d	-0.2684969
233	0x3e3f8c90	0.18705964
234	0x3d30d98e	0.043176226
235	0x3dc594c5	0.09647516
236	0xbd8b4bc3	-0.0680156
237	0xbe2656a0	-0.16243982
238	0xbe4604ea	-0.19337812
239	0xbda803f0	-0.08203876
240	0x3e550db8	0.20806015
241	0xbe2b01f6	-0.16699967
242	0x3e3469d0	0.1761849
243	0x3e269bfd	0.16270442
244	0x3d256140	0.040375948
245	0xbd4d2649	-0.05008534
246	0xbe1d1fa5	-0.15344103
247	0x3e0e8a3f	0.13919924
248	0x3e0d1f23	0.13781409
249	0x3d929c14	0.07158676
250	0xbe3f90ea	-0.18707624
251	0x3d96de4b	0.07366618
252	0x3b9ed249	0.0048468453
253	0x3dc9ad0d	0.0984746
254	0x3e0c04bd	0.13673683
255	0xbe4576c6	-0.1928359

sentiment_branch.lstm_layers.0.bias_ih_l0 f4 [128]
0	0x3e4f0625	0.20217188
1	0x3e539c87	0.20665179
2	0x3d0a93ad	0.03383224
3	0x3d736e98	0.059431642
4	0x3d7629fc	0.060098633
5	0xbdb39646	-0.08768897
6	0x3e0131fa	0.12616721
7	0xbdaadc1e	-0.08342765
8	0xbe23fe19	-0.160149
9	0xbe1ea235	-0.15491565
10	0x3d9fcceb	0.07802757
11	0xbe1e7f2e	-0.15478203
12	0x3d8ca854	0.068680435
13	0xbd8c02e9	-0.068364926
14	0xbd87b70f	-0.066267125
15	0xbe0f17de	-0.13973948
16	0x3ccac7f5	0.02475355
17	0x3d064279	0.032778237
18	0x3e23a229	0.15979828
19	0xbda71361	-0.08157993
20	0x3dad52e1	0.084630735
21	0x3d4d485f	0.050117847
22	0x3bc530cc	0.00601778
23	0x3dd3b0cf	0.10336458
24	0x3e44cee1	0.19219543
25	0x3d9e49eb	0.077289425
26	0x3e2576c8	0.16158593
27	0x3d9e4a02	0.077289596
28	0xbe116ec5	-0.14202411
29	0xbd108845	-0.035286207
30	0x3e467ff0	0.19384742
31	0xbce8f87b	-0.028438797
32	0x3e29ae40	0.16570377
33	0xbdfead78	-0.1243543
34	0x3d5ec7fb	0.054389935
35	0x3e0ebf64	0.13940197
36	0x3d74c8a1	0.059761647
37	0x3d7a1b4d	0.061061192
38	0x3da89c31	0.08232916
39	0x3e541097	0.20709454
40	0x3d0776c4	0.033072248
41	0x3dc82127	0.09771948
42	0x3d5d4ef1	0.054030363
43	0xbe20d3d5	-0.15705808
44	0x3da4657e	0.080271706
45	0x3d763dc2	0.06011749
46	0x3e7ead51	0.24870802
47	0x3e69b713	0.22823744
48	0xbe26da98	-0.16294324
49	0x3de00d62	0.109400526
50	0x3c9f8d27	0.019476486
51	0x3ddb8915	0.10719506
52	0xbd7cc07a	-0.061706997
53	0x3d4942ff	0.049136158
54	0x3e39faa7	0.18162023
55	0x3e212233	0.15735702
56	0x3e425d3f	0.18980883
57	0xbd6b568f	-0.057455596
58	0x3e487c57	0.19578682
59	0x3d6e8284	0.05822994
60	0x3e1fb10e	0.15594885
61	0xbe019bb0	-0.12657046
62	0xbc4b85bd	-0.012422022
63	0xbe0c1e35	-0.13683398
64	0xbc886836	-0.016651254
65	0xbd89266c	-0.066967815
66	0x3e1841c1	0.14868833
67	0x3c212ebc	0.0098378025
68	0x3def3371	0.116797335
69	0x3e205991	0.15659167
70	0xbdb70e41	-0.089382656
71	0xbdf1ad47	-0.11800628
72	0xbdba91a2	-0.091098085
73	0x3e3845e8	0.17995417
74	0x3b36ebde	0.0027911584
75	0x3b688322	0.0035478552
76	0x3c258b82	0.010104062
77	0xbc44b346	-0.012005633
78	0x3daa5fa8	0.08319026
79	0xbe37c561	-0.17946388
80	0xbbd5a8cc	-0.0065203663
81	0x3e274701	0.1633568
82	0x3d46e9be	0.048562758
83	0xbdd8fd20	-0.10595155
84	0xbd5eda88	-0.054407626
85	0x3de1593f	0.110033505
86	0x3e026df0	0.1273725
87	0x3d40c07b	0.047058564
88	0x3e4e3adf	0.20139645
89	0x3c2f03db	0.010682072
90	0xbdc7a737	-0.097486906
91	0x3e3da02b	0.1851813
92	0x3d8efe7c	0.06982133
93	0xbe69494a	-0.22781864
94	0x3e297890	0.16549897
95	0xbd812ca0	-0.0630734
96	0x3d26692d	0.040627647
97	0x3cf0a97c	0.029377691
98	0xbd3d2cce	-0.046185307
99	0x3e3ac534	0.1823929
100	0xbe2705f4	-0.16310865
101	0x3c01ecfd	0.007930038
102	0x3e3c8109	0.18408598
103	0xbb3ba84d	-0.002863425
104	0xbdff886e	-0.12477194
105	0x3ddd6f05	0.10812191
106	0x3dd3f38c	0.10349187
107	0x3c5d5604	0.013509277
108	0x3e315a94	0.17319709
109	0xbd4c786f	-0.049919542
110	0xbd790991	-0.06080014
111	0x3cb0088d	0.021488452
112	0x3e2f2cfc	0.17107004
113	0xbd1e1390	-0.038592875
114	0x3b8ca09a	0.004291606
115	0xbb786c1c	-0.0037906235
116	0x3dfe7a98	0.12425727
117	0x3dcc0e87	0.09963708
118	0x3ddbc564	0.10731009
119	0xbdca2b06	-0.09871487
120	0x3cf18f46	0.029487263
121	0x3e0387b2	0.12844732
122	0xbd844dfc	-0.06460187
123	0xbd3dfd78	-0.046384305
124	0xbe2e2c4f	-0.1700909
125	0x3c1869ca	0.009302566
126	0xbd9891f3	-0.074497126
127	0xbbd75e3c	-0.006572513

sentiment_branch.lstm_layers.0.bias_hh_l0 f4 [128]
0	0x3dcece03	0.10097887
1	0xbb93536b	-0.004496028
2	0x3ddf650e	0.109079465
3	0xbdd7d5d4	-0.10538831
4	0xbe22e320	-0.15906954
5	0xbd05ddc8	-0.03268221
6	0xbdb77ed2	-0.08959736
7	0x3cb7485a	0.022373367
8	0xbe06b239	-0.13153924
9	0xbd8f6260	-0.070011854
10	0x3da05063	0.078278325
11	0xbbb3853a	-0.0054785283
12	0xbd4d58b7	-0.050133433
13	0x3e3e0563	0.18556742
14	0xbe0c1990	-0.13681626
15	0xbddadb0e	-0.106863126
16	0xbc00626f	-0.007835968
17	0xbda18c0f	-0.07888042
18	0x3d169293	0.036760878
19	0x3e03be8d	0.12865658
20	0xbd616c65	-0.055035014
21	0xbd652309	-0.055941615
22	0x3de0a2d8	0.1096856
23	0xbb5a7cbd	-0.003333851
24	0xbdaebe65	-0.085324086
25	0x3e59c976	0.21268257
26	0xbd3799d3	-0.044824433
27	0xbdacc074	-0.08435145
28	0xbe39d1cd	-0.18146439
29	0x3d891410	0.0669328
30	0x3e4b2d7c	0.1984157
31	0xbc409d89	-0.011756309
32	0x3e3fa6cd	0.18715973
33	0x3da4c67a	0.08045669
34	0x3c2c485f	0.0105153015
35	0x3e15d546	0.14632139
36	0x3dff85ce	0.12476693
37	0xbd9009bd	-0.070331074
38	0x3dffc81b	0.12489339
39	0xbdf3882f	-0.11891209
40	0x3e452de2	0.19255784
41	0xbd1e7d7e	-0.038693897
42	0x3dfe519c	0.124179095
43	0xbdaa9011	-0.0832826
44	0xbd8c26ec	-0.06843361
45	0xbe4dc7aa	-0.20095697
46	0x3e32bc3e	0.17454621
47	0x3d7ba81a	0.06143961
48	0xbd526803	-0.051368725
49	0x3d77d9c0	0.060510397
50	0x3e1bdc42	0.1522074
51	0xbd0bb510	-0.03410822
52	0x3e15f1dd	0.14643045
53	0x3cc99f1f	0.024612008
54	0xbde85409	-0.113441534
55	0x3d93fa71	0.07225502
56	0x3d856581	0.06513501
57	0xbe449191	-0.19196154
58	0x3e432f99	0.19061126
59	0x3c64a724	0.013955865
60	0x3d8fdbde	0.07024358
61	0xbdaddfba	-0.08489938
62	0xbde53416	-0.11191575
63	0x3c82e2ed	0.015977347
64	0x3d3316fb	0.043723088
65	0xbdf45e66	-0.119320676
66	0x3d927185	0.071505584
67	0x3e5c4243	0.21509652
68	0xbdd7ecf2	-0.105432406
69	0x3e047960	0.12936926
70	0xbda88a8b	-0.0822955
71	0xbccdd96e	-0.025128093
72	0x3dba4806	0.09095769
73	0xbe21ba0a	-0.15793625
74	0xbe38cffb	-0.18048088
75	0x3ccfc988	0.025364652
76	0xbe191a92	-0.14951542
77	0xbe25f42a	-0.16206422
78	0xbdaf9b54	-0.08574548
79	0x3c795da6	0.015220081
80	0x3ce2d70e	0.027690437
81	0x3d426bd6	0.04746612
82	0x3dd6a31f	0.10480332
83	0x3dd21506	0.10257916
84	0x3e4d118a	0.20026222
85	0x3e0afdc1	0.13573362
86	0xbd968064	-0.07348707
87	0xbe701fcd	-0.23449631
88	0x3dec3cc6	0.11535029
89	0x3d85b336	0.065283224
90	0xbe60f485	-0.21968277
91	0xbd9c6b37	-0.07637637
92	0x3cb4daa5	0.022076914
93	0xbd34a301	-0.044100765
94	0xbd45ff99	-0.04833946
95	0xbe1c7ee5	-0.15282781
96	0x3e475bbd	0.19468589
97	0xbde34fe0	-0.11099219
98	0xbdb1e6f5	-0.0868663
99	0x3d7e1692	0.062033243
100	0xbdc61583	-0.09672072
101	0xbd5fda5d	-0.054651607
102	0x3e121389	0.14265265
103	0xbcfff2b8	-0.031243667
104	0xbdd16dab	-0.10225996
105	0xbdc3cbc3	-0.09560349
106	0xbc89a6c8	-0.01680316
107	0xbc8aa407	-0.016923917
108	0x3e0be2f0	0.13660789
109	0x3c8c4bdb	0.017126014
110	0x3e09b818	0.13449132
111	0x3db6870d	0.08912478
112	0x3de9a3c8	0.11408192
113	0xbe1f59a7	-0.15561543
114	0xbd774d0a	-0.060376205
115	0xbdc947ad	-0.09828124
116	0xbe37b1ee	-0.17938969
117	0xbd1d3e01	-0.03838921
118	0x3d62d3a3	0.055377614
119	0x3df35c32	0.11882819
120	0xbd91dc30	-0.071220756
121	0xbd758d71	-0.059949342
122	0x3e213970	0.15744567
123	0xbcad0499	-0.021120356
124	0xbc9304c4	-0.017946608
125	0x3d36bb3d	0.044612158
126	0x3d312322	0.043246396
127	0xbe0b930a	-0.1363031

sentiment_branch.fc.weight f4 [32, 32]
0	0x3e2f01ef	0.17090581
1	0x3cab2d94	0.020895757
2	0xbda8f092	-0.0824901
3	0x3e5d4b75	0.21610816
4	0x3da245dd	0.079234816
5	0xbcfc4fdf	-0.030799804
6	0x3e671f04	0.22570425
7	0xbe07ff49	-0.13280977
8	0x3b34bcdc	0.002757839
9	0xbe21f213	-0.15815
10	0x3c5d2da3	0.01349965
11	0x3d582090	0.05276543
12	0xbe84c012	-0.25927788
13	0xbd57457c	-0.0525565
14	0xbe07c531	-0.13258816
15	0xbe245f0d	-0.16051884
16	0xbd8f7505	-0.070047416
17	0x3e5d8e9e	0.21636435
18	0xbe071343	-0.13190942
19	0xbda2d369	-0.079504795
20	0xbdb709fc	-0.08937451
21	0x3d5e36bb	0.054251414
22	0x3e2bbc48	0.16771042
23	0xbd80256b	-0.06257137
24	0x3d794b93	0.06086309
25	0x3d8de117	0.06927698
26	0xbd0bd6fb	-0.03414057
27	0x3b7bfc5b	0.0038449976
28	0xbc957aff	-0.018247126
29	0x3da9371f	0.08262467
30	0x3e0178f4	0.12643796
31	0x3d9caa8b	0.07649716
32	0xbd289bfd	-0.041164387
33	0x3dbcdbbf	0.09221601
34	0xbdeb229d	-0.11481211
35	0xbd4b3bba	-0.049617507
36	0xbc87e890	-0.016590387
37	0x3e029982	0.12753871
38	0xbdcb1a16	-0.09917085
39	0x3cf1fe1e	0.029540118
40	0x3debaf37	0.11508029
41	0xbdd54014	-0.104126126
42	0x3c871385	0.0164888
43	0xbdbf428e	-0.09338866
44	0x3d2f493c	0.04279445
45	0xbd8cfa11	-0.06883634
46	0x3d361508	0.04445365
47	0x3d1e7f79	0.038695786
48	0xbdff0f95	-0.12454144
49	0xbe105e18	-0.14098394
50	0x3bf530d0	0.0074826255
51	0xbca734b4	-0.020410873
52	0x3c6f62de	0.014610974
53	0x3e23533a	0.15949717
54	0xbd8f5e4e	-0.07000409
55	0x3e331ee2	0.1749225
56	0xbdf95b15	-0.12175576
57	0xbe04dcc9	-0.12974848
58	0xbe0aaea5	-0.13543184
59	0x3dd6033e	0.10449837
60	0xbe0abf5d	-0.13549562
61	0x3e392715	0.18081315
62	0xbdbd2c48	-0.092369616
63	0xbd389f87	-0.045074012
64	0xbdd5639d	-0.1041939
65	0xbe2e2e6f	-0.170099
66	0x3d199919	0.03749952
67	0x3e807d7c	0.25095737
68	0x3de97b4c	0.1140047
69	0x3e64b41f	0.22334336
70	0xbceda414	-0.029008903
71	0xbc52a33c	-0.012856301
72	0xbccbddb3	-0.024885988
73	0x3d023896	0.031792246
74	0xbe4f578e	-0.20248243
75	0xbe4385ee	-0.19094059
76	0xbd89398f	-0.067004316
77	0x3d2b13cb	0.041766923
78	0x3ce8bf2a	0.028411467
79	0xbba33d8c	-0.004981702
80	0x3decafaa	0.11556943
81	0x3e0438fc	0.12912363
82	0x3ce66eee	0.028129067
83	0xbe0c5bbf	-0.13706873
84	0x3e3e1f13	0.18566541
85	0xbd376a7d	-0.04477929
86	0x3aaf5987	0.0013378122
87	0x3df0a682	0.11750509
88	0x3e5a99be	0.2134771
89	0x3d9bfc60	0.07616496
90	0xbe14e301	-0.1453972
91	0x3da78832	0.08180274
92	0x3e414ee0	0.18877745
93	0xbe64801c	-0.22314495
94	0x3e450c47	0.19242965
95	0xbe6548b6	-0.22391018
96	0xbda16dd1	-0.07882274
97	0x3da6489b	0.08119317
98	0xbd8dbc10	-0.06920636
99	0xbda74e08	-0.0816918
100	0xbcb3354a	-0.021875996
101	0x3e2ceb6d	0.16886683
102	0x3d69cd42	0.057080515
103	0xbdc1d68f	-0.09464752
104	0x3ddcb56a	0.107767895
105	0x3ca9a72a	0.020709593
106	0xbd9856ca	-0.07438429
107	0xbe5e67e2	-0.21719316
108	0xbd289b78	-0.04116389
109	0x3cf68e46	0.030097138
110	0xbdeb5f25	-0.11492757
111	0x3d3395a3	0.043843877
112	0x3e01ed6c	0.12688226
113	0xbe14ddbf	-0.14537714
114	0x3d3e1e17	0.046415415
115	0xbdf95aff	-0.12175559
116	0x3bfc4272	0.0076983506
117	0xbd9db26a	-0.077000454
118	0xbd1126e0	-0.035437465
119	0x3d9bcf00	0.076078415
120	0x3d0cd755	0.034385044
121	0x3dc9b291	0.09848512
122	0xbdc1e271	-0.094670184
123	0xbbbfc7bd	-0.005852668
124	0xbd3ee23c	-0.046602473
125	0xbe04620d	-0.12928028
126	0x3ddac0ce	0.10681306
127	0xbdec5924	-0.1154044
128	0xbc42656b	-0.011865
129	0xbbbe329d	-0.0058043734
130	0xbd9c9000	-0.07644653
131	0x3cb21ede	0.021743234
132	0x3e22e257	0.15906654
133	0xbe165ed7	-0.14684616
134	0x3dba3b1d	0.09093306
135	0x3e138dd7	0.14409576
136	0xbdb01690	-0.085980535
137	0xbbb19d84	-0.0054203887
138	0xbda5527c	-0.08072373
139	0xbd9ebbc2	-0.07750656
140	0x3d42fc44	0.04760386
141	0x3e3d2e7b	0.18474762
142	0xbdd8d336	-0.1058716
143	0xbaaa8c37	-0.0013011758
144	0xbe002cca	-0.12517086
145	0x3d1c38a4	0.038139954
146	0xbda544d4	-0.080697685
147	0x3e0af892	0.13571385
148	0xbc4bcbd1	-0.01243873
149	0xbdbb84e2	-0.09156205
150	0x3e0163fc	0.12635797
151	0xbcc65bed	-0.024213756
152	0x3d48e3b5	0.049045283
153	0xbe31b82a	-0.1735541
154	0xbe054eb8	-0.1301831
155	0xbd51e519	-0.051243875
156	0xbd1b1e32	-0.037870593
157	0xbd66d226	-0.056352757
158	0xba2a4304	-0.00064949715
159	0xbd73aa29	-0.05948845
160	0xbda8fb86	-0.08251099
161	0xbd9f9217	-0.07791536
162	0x3d974c0e	0.07387553
163	0x3df81c3c	0.1211476
164	0x3d453949	0.048150335
165	0x3dc2cbb3	0.09511509
166	0x3cd810ba	0.026375163
167	0x3d2dcd6a	0.042432226
168	0xbdd8c4fa	-0.10584445
169	0xbe240c81	-0.16020395
170	0x3d803242	0.06259586
171	0x3dcbf609	0.09959037
172	0xbdadabf0	-0.0848006
173	0x3d804340	0.06262827
174	0xbd779302	-0.060442932
175	0xbd3c477e	-0.045966618
176	0x3d627e43	0.055296194
177	0xbe089a8b	-0.13340203
178	0xbe4c7d75	-0.19969733
179	0x3d5b6fe6	0.05357351
180	0xbdc29507	-0.09501081
181	0x3da45057	0.08023136
182	0xbe179023	-0.14801078
183	0x3d693032	0.05693073
184	0x3cef5aea	0.029218156
185	0xbe485a44	-0.19565684
186	0x3e188ff7	0.14898668
187	0xbdda3186	-0.10653977
188	0x3d0c4023	0.034240853
189	0xbdccd648	-0.100018084
190	0x3d1e2229	0.038606796
191	0x3cf028b1	0.029316278
192	0x3c6d5bf7	0.014487258
193	0xbccff0c9	-0.02538337
194	0xbe56cf65	-0.20977552
195	0xbdca89a9	-0.09889538
196	0xbd83d0e6	-0.064363286
197	0x3e4dfd14	0.20116073
198	0x3e53a867	0.20669709
199	0xbe1f849f	-0.15577935
200	0x3d0ccb00	0.034373283
201	0x3dc4978d	0.095992185
202	0xbdf57466	-0.11985092
203	0x3d9ef70a	0.07761963
204	0xbe7913d7	-0.24323975
205	0x3c176a4d	0.009241653
206	0x3b62baee	0.0034596282
207	0xbc3e2c8c	-0.0116073005
208	0x3d052f9a	0.0325161
209	0x3d97fdd0	0.07421458
210	0xbdd50e16	-0.10403077
211	0xbcf4e248	-0.029893056
212	0x3d43818a	0.04773096
213	0x3e66205a	0.22473279
214	0xbc37270c	-0.011178743
215	0xbe06e674	-0.13173848
216	0x3e14efd7	0.14544617
217	0x3c9a5f0e	0.018844154
218	0xbe194d48	-0.14970887
219	0xbcbacff6	-0.022804242
220	0xbddd9e62	-0.10821225
221	0xbd8859b4	-0.066577345
222	0x3e42317e	0.18964192
223	0x3cc3d7f1	0.02390668
224	0x3db56015	0.08856217
225	0xbcee0328	-0.02905424
226	0xbcbe6ccd	-0.02324524
227	0xbcb32688	-0.02186896
228	0xbc85537d	-0.016275162
229	0x3d1c0653	0.03809197
230	0x3c891453	0.016733324
231	0xbc37065b	-0.011170949
232	0x39d207f6	0.00040060253
233	0x3e066d25	0.13127573
234	0x3c5c4aa2	0.013445528
235	0xbe341c55	-0.17588933
236	0xbdcccfd3	-0.10000577
237	0xbe1068c2	-0.14102462
238	0x3dabcbc1	0.08388472
239	0xbdeaca5a	-0.11464377
240	0xbe069a00	-0.13144684
241	0xbdf2c3fc	-0.11853787
242	0x3e0199d0	0.12656331
243	0x3e1050eb	0.14093368
244	0xbd88aa2c	-0.06673083
245	0xbe7b5d0d	-0.24547215
246	0x3deffa9b	0.11717721
247	0xbe36b0f8	-0.17840946
248	0x3cb72080	0.022354364
249	0x3e2e5ab2	0.17026785
250	0x3c5f8492	0.013642447
251	0xbdf05f68	-0.11736947
252	0x3df0c022	0.117553964
253	0xbe3000f6	-0.17187867
254	0xbd2544ad	-0.040348697
255	0x3de0d284	0.10977653

sentiment_branch.fc.bias f4 [32]
0	0x3e1d69b7	0.15372358
1	0xbe191529	-0.14949478
2	0x3e77d7fc	0.24203485
3	0x3d9f5db7	0.077815466
4	0xbdee5f60	-0.11639285
5	0xbdeb3543	-0.11484768
6	0xbcdf392a	-0.027248938
7	0x3e404b6b	0.1877877
8	0x3b8ddc42	0.0043292353
9	0x3e0cf190	0.13764024
10	0x3e0abe28	0.13549101
11	0xbc8b351e	-0.016993102
12	0xbcf0a9d7	-0.029377861
13	0x3d984af5	0.07436172
14	0x3e730fd1	0.23736502
15	0x3db8762e	0.09006916
16	0xbd9a5f20	-0.07537675
17	0xbdc95c76	-0.09832089
18	0xbe3dd441	-0.18538
19	0x3e006ea3	0.12542205
20	0xbdd7fac1	-0.105458744
21	0x3e06d958	0.13168848
22	0xbd90b8cd	-0.07066498
23	0xbcd7c642	-0.026339654
24	0x3e181b55	0.14854176
25	0x3b19fb88	0.0023495872
26	0xbd188b76	-0.037242375
27	0x3e0540af	0.13012956
28	0x3d43c681	0.04779673
29	0x3e1220f9	0.1427039
30	0xbddeb820	-0.10874963
31	0x3e19bb9f	0.15012978

price_branch.lstm.weight_ih_l0 f4 [64, 5]
0	0xbe7fad5c	-0.24968475
1	0xbd8c0104	-0.06836131
2	0x3e1983e7	0.14991723
3	0x3e13bbde	0.14427134
4	0x3b88016a	0.004150559
5	0x3e8d56ee	0.27605385
6	0x3d91743f	0.0710225
7	0x3e4e0d8b	0.20122354
8	0x3d2155ed	0.039388586
9	0x3d9b3705	0.075788535
10	0xbd827365	-0.06369666
11	0xbee51ce0	-0.44748592
12	0x3e76933c	0.24079603
13	0xbe19f0ac	-0.15033215
14	0xbe96fb17	-0.2948844
15	0xbea6c646	-0.32573146
16	0xbe7b79ec	-0.24558228
17	0xb9e0c7ac	-0.00042873377
18	0xbe5ebde1	-0.2175212
19	0xbe27092f	-0.16312097
20	0xbd1cd8e1	-0.03829277
21	0x3e56f6e4	0.20992619
22	0x3d448edf	0.047987815
23	0x3e55088f	0.20804046
24	0x3d7e3211	0.062059466
25	0x3ebe23fe	0.37136835
26	0x3d92e2ab	0.0717214
27	0xbcfba908	-0.030720249
28	0xbe064ba2	-0.13114789
29	0x3d66d18e	0.05635219
30	0x3df24635	0.11829797
31	0x3e5c365d	0.21505113
32	0xbe0971cc	-0.13422316
33	0x3e1f3ba7	0.155501
34	0x3db7fa6f	0.08983313
35	0xbdd6bce3	-0.10485246
36	0xbea40d7f	-0.32041547
37	0xbc8bff4e	-0.017089512
38	0xbd871a2b	-0.06596788
39	0x3e04ee42	0.12981513
40	0x3e921784	0.28533566
41	0x3e892c1d	0.26791468
42	0x3e74efaf	0.23919557
43	0x3c580665	0.013185118
44	0xbe33cf9e	-0.17559668
45	0x3ce6e320	0.028184474
46	0xbd9d5b32	-0.0768341
47	0x3db301aa	0.08740552
48	0xbd36f058	-0.044662803
49	0xbe7fa6a0	-0.24965906
50	0x3d8f7466	0.07004623
51	0xbd846873	-0.064652346
52	0xbd601bda	-0.05471406
53	0xbd118a11	-0.03553206
54	0x3d48d934	0.049035266
55	0xbe390ffa	-0.18072501
56	0xbeabb988	-0.33539987
57	0xbea1eb37	-0.31624767
58	0xbe0c6c6d	-0.13713236
59	0x3dc12059	0.09429998
60	0xbe93e247	-0.28883573
61	0xbc9ba4d8	-0.018999502
62	0x3ecd802d	0.40136853
63	0x3d00cf1b	0.03144751
64	0x3dd5af0b	0.104337774
65	0x3d569bfe	0.05239486
66	0xbbe5ce1b	-0.007013095
67	0xbda51756	-0.080610916
68	0xbdb9a729	-0.090650864
69	0xbe2d9be6	-0.16954002
70	0xbeb372a1	-0.35048392
71	0xbea96f3a	-0.33092672
72	0x3da89a83	0.08232596
73	0x3e1b1464	0.15144497
74	0xbd38de30	-0.04513377
75	0x3c201bc6	0.009772247
76	0xbd8096f7	-0.06278794
77	0x3e5b4692	0.21413639
78	0x3e401bee	0.18760654
79	0x3dcb53cf	0.099280946
80	0x3eb43bd4	0.35201895
81	0x3d861c7d	0.065484025
82	0x3e190ef3	0.14947109
83	0xbe7bdb1a	-0.245953
84	0xbe82dcc4	-0.25559056
85	0x3de6d9b5	0.11271993
86	0x3d647ad2	0.055781193
87	0x3e1c019c	0.15234989
88	0xbe15862f	-0.14601968
89	0x3e36d282	0.1785374
90	0x3dde4b0d	0.108541586
91	0x3db82d70	0.089930415
92	0xbbc9908b	-0.006151264
93	0xbd18cb49	-0.037303243
94	0xbe908868	-0.2822907
95	0x3e96a7c6	0.29424876
96	0x3e2874e2	0.16450837
97	0xbe1fe0ac	-0.1561305
98	0xbc77dad5	-0.015127857
99	0xbe4f7141	-0.20258047
100	0x3e6adc64	0.22935635
101	0x3d883633	0.06650963
102	0xbcd0be78	-0.025481448
103	0x3e5564e1	0.20839263
104	0xbe295660	-0.16536856
105	0x3d0ada6c	0.03389971
106	0x3d2069ea	0.039163508
107	0xbe6ad344	-0.22932154
108	0xbe166d72	-0.14690188
109	0x3e8df3b4	0.27724993
110	0x3ea5932d	0.3233885
111	0x3dc79d13	0.097467564
112	0x3de791f9	0.11307139
113	0x3e03f6c1	0.12887098
114	0x3ddacde6	0.10683803
115	0xbe8ec07e	-0.27881235
116	0xbd88daae	-0.06682335
117	0x3e94c9a9	0.29060104
118	0x3ca72c75	0.020406941
119	0xbde95649	-0.11393411
120	0xbdc1bc31	-0.09459723
121	0x3d3719e4	0.044702426
122	0x3e655904	0.22397238
123	0x3e5a889e	0.21341178
124	0x3e012286	0.12610826
125	0xbdee879d	-0.1164696
126	0xbc7357f3	-0.014852512
127	0xbdabd4a0	-0.083901644
128	0xbd3e35d8	-0.04643807
129	0xbeb81415	-0.3595282
130	0xbdd84c3a	-0.10561414
131	0xbe05b9a7	-0.13059102
132	0xbd561eba	-0.052275397
133	0xbeb5bfeb	-0.35497984
134	0xbe37d8e0	-0.17953825
135	0x3edc3a72	0.4301334
136	0x3eab181f	0.3341684
137	0xbea0361d	-0.31291285
138	0x3d8df27b	0.06931015
139	0x3de08f07	0.1096478
140	0xbd4778d2	-0.048699208
141	0x3d986347	0.07440811
142	0x3cd820b2	0.026382778
143	0x3c2fea26	0.010736978
144	0xbe790683	-0.2431889
145	0x3d9827d4	0.074294716
146	0xbe70d494	-0.23518592
147	0xbccc257c	-0.024920218
148	0x3e674e38	0.22588432
149	0x3e524846	0.20535383
150	0xbe1a5f51	-0.15075423
151	0x3e76e30e	0.24110052
152	0xbe1b504f	-0.15167354
153	0x3e3f9e79	0.18712796
154	0x3dd3c118	0.10339564
155	0x3e9fb928	0.3119595
156	0x3da7d7f1	0.081954844
157	0x3e213608	0.15743268
158	0xbe402a15	-0.18766053
159	0x3e6f0b1d	0.23344083
160	0x3cda7e37	0.026671512
161	0xbedae020	-0.4274912
162	0x3eb217c3	0.34783754
163	0xbe8be625	-0.27324024
164	0xbe235ec4	-0.15954119
165	0xbd69b5ad	-0.057058025
166	0x3d083aac	0.03325908
167	0xbe3c95e7	-0.18416558
168	0xbe01b2fb	-0.12665932
169	0x3c987f35	0.018615345
170	0x3e976be5	0.29574504
171	0xbda0d012	-0.07852186
172	0x3d1584d8	0.036503643
173	0x3e8338b5	0.25629202
174	0x3e6dc658	0.23220193
175	0xbe048f39	-0.1294526
176	0xbef10e4b	-0.47081217
177	0x3df868a3	0.12129333
178	0xbea24c7f	-0.31698987
179	0xbe78c2c6	-0.2429305
180	0x3e5c624d	0.21521874
181	0xba94721a	-0.0011325509
182	0x3ea100ad	0.31445828
183	0x3e81905f	0.2530546
184	0xbe01c626	-0.12673244
185	0x3e4971bb	0.19672291
186	0xbe17a536	-0.14809117
187	0x3e540286	0.20704088
188	0x3e358094	0.1772483
189	0x3e77f578	0.24214733
190	0x3a0466ae	0.0005050701
191	0xbda2be13	-0.0794641
192	0xbd800b21	-0.06252123
193	0xbc87539c	-0.01651936
194	0xbcb79860	-0.022411525
195	0xbd986fff	-0.074432366
196	0x3e86d964	0.2633773
197	0xbca6baea	-0.0203528
198	0x3e12bea0	0.1433053
199	0x3e1aeed4	0.15130168
200	0xbd120649	-0.035650525
201	0xbe636983	-0.22208218
202	0xbea07c00	-0.31344604
203	0xbc1ab2a1	-0.0094420025
204	0xbe2d50e6	-0.16925392
205	0xbe3fae9b	-0.1871895
206	0x3e03b483	0.12861829
207	0xbd90d2d9	-0.07071466
208	0xbe8cce07	-0.27500936
209	0xbd6e8cc4	-0.058239713
210	0xbc0d97fc	-0.008642193
211	0xbce8028c	-0.028321527
212	0xbdbbccdc	-0.09169933
213	0x3d8145c1	0.063121326
214	0xbdfb1b9b	-0.12261125
215	0xbe6c47b9	-0.23074235
216	0xbebaa6eb	-0.36455473
217	0x3ec5584c	0.38543928
218	0xbe5b5f51	-0.21423079
219	0x3e8a8c39	0.27060106
220	0x3e98ce8d	0.29845086
221	0x3d01d286	0.03169491
222	0xbe067328	-0.13129866
223	0x3e5af74f	0.21383403
224	0x3e8463c1	0.25857356
225	0x3d2e28eb	0.04251949
226	0xbe04158f	-0.12898849
227	0x3e5bd8b4	0.21469384
228	0x3d3781cc	0.04480152
229	0xbd4b6a8c	-0.049662158
230	0x3e6e0b9f	0.2324662
231	0x3e22196e	0.15830013
232	0xbdfec2e3	-0.124395154
233	0x3e2a7edd	0.16649957
234	0x3db550a4	0.088532716
235	0xbd064a7c	-0.032785878
236	0xbe765626	-0.240563
237	0x3e9152d2	0.283835
238	0x3ddc7867	0.107651524
239	0xbd9d7aeb	-0.0768946
240	0xbe2cf466	-0.16890106
241	0x3e16b3cb	0.14717023
242	0x3df72cbd	0.1206908
243	0xbe2ac87f	-0.16678046
244	0x3e03dffc	0.12878412
245	0x3e91ba88	0.28462625
246	0x3e39596c	0.18100518
247	0xbd16196b	-0.036645334
248	0x3e594f18	0.21221578
249	0xbd8baa26	-0.068195626
250	0xbe1278ba	-0.14303866
251	0x3df466f6	0.11933701
252	0x3d29e304	0.041476265
253	0xbdf5ba7b	-0.11998459
254	0xbea28041	-0.31738475
255	0xbd187b51	-0.03722698

price_branch.lstm.weight_hh_l0 f4 [64, 16]
0	0x3e498c66	0.19682464
1	0x3db0e34a	0.08637102
2	0x3bdb1563	0.006685899
3	0x3d1721b5	0.03689738
4	0x3e3ff63c	0.18746275
5	0xbcd2d91f	-0.025738297
6	0xbd915b2c	-0.07097468
7	0xbd1bb24d	-0.038011838
8	0xbe491a64	-0.19638973
9	0x3e9ca7c5	0.30596748
10	0x3e48920a	0.1958696
11	0xbe0baad8	-0.1363939
12	0xbe080ca0	-0.13286066
13	0x3d18842f	0.037235435
14	0x3d6f8ccd	0.058483887
15	0x3e4ee0cb	0.20202939
16	0xbe57c2fa	-0.21070471
17	0x3e6e87d3	0.23294
18	0x3dd9d9c9	0.10637242
19	0x3daadb96	0.08342664
20	0x3e8be4cc	0.27322996
21	0x3d89b6dc	0.06724331
22	0xbddcdccc	-0.10784301
23	0x3dc41537	0.09574359
24	0x3cf75eb9	0.030196534
25	0xbcd2f72f	-0.025752632
26	0x3d7b97ee	0.06142419
27	0xbd017da5	-0.031613965
28	0x3d89474d	0.06703053
29	0x3dd26fba	0.102752164
30	0x3e22222c	0.15833348
31	0xbd82d8d7	-0.06389015
32	0xbd5f433a	-0.05450747
33	0xbe680315	-0.22657426
34	0xbe05076d	-0.12991114
35	0xbdef2699	-0.11677284
36	0x3cb818eb	0.02247282
37	0x3ea0b0c5	0.31384864
38	0x3de8b3ad	0.113623954
39	0xbd467365	-0.048449893
40	0xbe8cc21a	-0.27491838
41	0xbdbc4a8d	-0.09193907
42	0x3e9e396a	0.30903178
43	0x3ea4c0b9	0.32178286
44	0xbe9f2553	-0.31083164
45	0xbb32b0c0	-0.0027265996
46	0x3ded7e38	0.1159634
47	0x3d8a3819	0.06748981
48	0xbe8963ba	-0.26833898
49	0x3d369dad	0.044583965
50	0xbea94b1e	-0.33065122
51	0x3c7304ce	0.0148326885
52	0xbd609415	-0.054828722
53	0xbdb4ccad	-0.08828101
54	0xbe70d666	-0.23519287
55	0x3d3dfebe	0.04638552
56	0x3eb1f18a	0.34754592
57	0xbcb8b5cc	-0.022547625
58	0x3d4640e7	0.04840174
59	0xbeb80c18	-0.35946727
60	0x3df28153	0.11841073
61	0x3daa117e	0.083041176
62	0xbdee9d14	-0.11651054
63	0x3e57abec	0.21061677
64	0x3e7891b2	0.24274328
65	0xbe931d3f	-0.2873325
66	0xbdd13fbd	-0.10217235
67	0x3e6c639c	0.23084873
68	0x3e0c91f2	0.13727549
69	0xbd36e376	-0.044650517
70	0x3c8f9bc9	0.017530339
71	0xb9841ef5	-0.00025200067
72	0x3c3c3d62	0.011489244
73	0x3e6575c3	0.22408204
74	0xbe23964c	-0.15975302
75	0xbe21ae24	-0.15789086
76	0xbdb87e14	-0.090084225
77	0x3d00ae17	0.031416025
78	0xbc91bf32	-0.017791364
79	0x3e34bc9b	0.17650072
80	0x3cc9caf4	0.024632908
81	0xbe2059e2	-0.15659288
82	0x3e0f4669	0.13991703
83	0xbe6a94aa	-0.22908273
84	0xbdf8e440	-0.1215291
85	0x3e4827f7	0.19546495
86	0xbe2ae8f9	-0.16690435
87	0xbe8d8999	-0.2764404
88	0x3d25a75e	0.040442817
89	0x3d33a75b	0.043860774
90	0xbd6b13d8	-0.05739197
91	0x3e0b5b5c	0.1360907
92	0x3d3f83e8	0.046756655
93	0xbe0974f2	-0.13423517
94	0xbe8d4b5a	-0.2759655
95	0xbe26e3f5	-0.16297896
96	0x3dcaa546	0.09894805
97	0x3e293c60	0.16526937
98	0xbe15f38a	-0.14643684
99	0x3e08363c	0.13301939
100	0x3e552fb4	0.20818979
101	0xbe14a995	-0.14517815
102	0x3dd8c2d9	0.10584039
103	0x3d450834	0.048103526
104	0xbe7381ef	-0.23780034
105	0xbe842bce	-0.2581467
106	0x3d88c282	0.066777244
107	0x3e01d812	0.1268008
108	0xbe598cbd	-0.21245094
109	0xbde1960d	-0.11014948
110	0xbe50e309	-0.20399107
111	0x3e153247	0.1456996
112	0xbd91e29c	-0.071233004
113	0x3e616501	0.22011186
114	0x3d980f80	0.074248314
115	0xbd0a32fe	-0.033740036
116	0x3d50492f	0.050851043
117	0xbd807512	-0.062723294
118	0x3e2516e9	0.16122021
119	0xbd4019ac	-0.046899483
120	0xbdc41f31	-0.09576262
121	0x3b1734f9	0.0023072346
122	0x3e003c71	0.12523057
123	0x3e611f4b	0.21984594
124	0xbc561f58	-0.013068996
125	0x3d082b94	0.033244684
126	0x3c5472f6	0.012966862
127	0x3e6dca27	0.23221646
128	0xbe099258	-0.13434732
129	0x3de6e7ed	0.11274705
130	0x3e05764b	0.13033406
131	0x3e8504a6	0.2598011
132	0xbe44bfba	-0.19213763
133	0x3cf19245	0.029488692
134	0x3cb1e186	0.021713983
135	0xbdf5aa2b	-0.119953476
136	0xbd4807f1	-0.0488357
137	0x3e8609c3	0.26179323
138	0xbe431465	-0.19050749
139	0x3e215737	0.15755926
140	0xbd9af846	-0.07566886
141	0x3dde7c55	0.10863558
142	0x3dca1ccd	0.098687746
143	0xbde00d24	-0.109400064
144	0xbe02f461	-0.12788536
145	0xbd64cc24	-0.055858746
146	0x3dd68ae9	0.10475714
147	0xbe03de16	-0.12877688
148	0x3e8f9a4c	0.28047407
149	0xbe288d47	-0.16460143
150	0x3e23f7b5	0.16012461
151	0xbde473f7	-0.11154931
152	0x3e148f22	0.14507726
153	0x3e3d28de	0.18472621
154	0x3e592c1e	0.21208236
155	0xbe0813a8	-0.13288748
156	0x3cc68323	0.024232453
157	0x3dc6a4a7	0.09699374
158	0xbe9365f8	-0.28788733
159	0xbc3b4ec1	-0.011432351
160	0x3d2369dd	0.03989588
161	0xbe37e0be	-0.17956826
162	0xbe9ae833	-0.3025528
163	0x3e8166dc	0.25273788
164	0x3e46414c	0.19360846
165	0xbc48e811	-0.01226236
166	0xbe1048f4	-0.1409033
167	0x3dfc6540	0.123239994
168	0xbd8a06aa	-0.06739552
169	0xbd53d461	-0.051716212
170	0x3e6f99ec	0.2339856
171	0xbbd53d06	-0.0065075187
172	0xbe81a90d	-0.25324288
173	0xbdb2f398	-0.08737868
174	0xbd482353	-0.048861813
175	0x3e28b94c	0.16476935
176	0xbea799f1	-0.32734635
177	0x3ea10419	0.3144844
178	0xbdbd96bd	-0.09257267
179	0xbe871144	-0.2638036
180	0xbe583993	-0.21115713
181	0xbe15dbea	-0.14634672
182	0x3dd6067a	0.10450454
183	0xbec4a4a1	-0.38406852
184	0xbe569f9c	-0.20959324
185	0x3ebcfb63	0.36910543
186	0x3e900cce	0.2813477
187	0xbe6807d2	-0.22659233
188	0xbdbb9df4	-0.091609865
189	0x3dbf3eeb	0.093381725
190	0xbe90c145	-0.28272453
191	0x3d4133ff	0.047168728
192	0x3e174e05	0.14775856
193	0xbdca91b0	-0.09891069
194	0xbea3f690	-0.3202405
195	0xbe129eab	-0.1431834
196	0x3e1ed3aa	0.15510431
197	0xbd23a0c7	-0.03994825
198	0xbe2c83e2	-0.16847184
199	0x3d3f77bc	0.046745047
200	0x3dd7efaf	0.10543763
201	0x3dd158a5	0.10221986
202	0x3e0d7a28	0.1381613
203	0xbe2596db	-0.16170828
204	0xbc75f8f0	-0.015012965
205	0x3e3417f7	0.17587267
206	0xbdaa4f1e	-0.08315872
207	0x3eae86ba	0.34087163
208	0x3db91005	0.090362586
209	0xbe58466c	-0.21120614
210	0x3d80c651	0.06287826
211	0xbbcbeaf1	-0.0062230756
212	0x3e3449d6	0.17606291
213	0x3db40003	0.08789065
214	0xbda6310a	-0.08114822
215	0xbe7bdf10	-0.2459681
216	0xbea4c807	-0.3218386
217	0xbe3405e0	-0.17580366
218	0x3e9e3003	0.30896005
219	0x3dbd2534	0.092356116
220	0xbdd078a6	-0.10179262
221	0xbdfc87e9	-0.1233061
222	0xbdf62e4a	-0.12020548
223	0x3e8b0abe	0.27156633
224	0x3c89b7ac	0.016811214
225	0x3e12ffae	0.14355347
226	0xbdeb5577	-0.114909105
227	0x3b979c0a	0.0046267556
228	0x3de06c56	0.109581634
229	0x3e0e0528	0.13869154
230	0xbe52875a	-0.20559445
231	0xbdaea4b0	-0.085275054
232	0xbe5be31b	-0.21473353
233	0xbe2b7d11	-0.16746928
234	0xbe0b36b1	-0.13595082
235	0x3cf5b4d9	0.029993461
236	0x3d994dc7	0.07485538
237	0xbe3e0494	-0.18556434
238	0x3e0ee7a2	0.13955548
239	0x3c721ab6	0.014776876
240	0xbe1d5030	-0.1536262
241	0xbd7eaa1a	-0.06217394
242	0x3e13d7c0	0.14437771
243	0xbe337323	-0.1752439
244	0x3e7463d5	0.23866208
245	0x3e70570d	0.23470707
246	0x3e0c95ef	0.1372907
247	0x3dcb8f0b	0.09939393
248	0xbe14ab4a	-0.14518467
249	0x3daa4770	0.08314407
250	0x3d964625	0.07337598
251	0xbdf684ef	-0.12037074
252	0x3ddaf1e1	0.10690666
253	0x3842f2d8	4.647937e-05
254	0xbe605557	-0.21907555
255	0xbd4209b7	-0.047372546

price_branch.lstm.bias_ih_l0 f4 [64]
0	0xbcff1ae3	-0.03114075
1	0xbe9bca40	-0.30427742
2	0xbc95c4d1	-0.018282326
3	0xbd95771f	-0.07298111
4	0x3dead5a3	0.11466529
5	0x3e668084	0.22509962
6	0x3cc21c44	0.023695119
7	0x3eba7760	0.364192
8	0x3e76071f	0.24026154
9	0x3e954803	0.29156503
10	0x3c26cff0	0.010181412
11	0x3e83b7e3	0.25726232
12	0xbdb80909	-0.08986098
13	0xbd89b1af	-0.067233436
14	0xbe205b8e	-0.15659925
15	0xbd9b8a1c	-0.07594702
16	0x3e3405ab	0.17580287
17	0xbdf17dec	-0.11791596
18	0x3c877dbe	0.01653945
19	0xbe40e715	-0.18838151
20	0x3e61b13d	0.22040267
21	0x3db2d26d	0.08731542
22	0x3e1d7272	0.15375689
23	0xbcc8103b	-0.024421802
24	0x3e800e56	0.25010937
25	0x3e70225f	0.23450612
26	0x3e5f9da9	0.21837486
27	0x3e1de744	0.15420252
28	0x3da33f8b	0.07971104
29	0x3da5eb07	0.081014685
30	0x3bdbaf98	0.006704282
31	0x3d9dd0bc	0.077058285
32	0xbe031287	-0.12800036
33	0x3dffd922	0.12492587
34	0xbe4486d5	-0.1919206
35	0xbcfc278a	-0.030780572
36	0x3d96aa64	0.07356718
37	0xbe49c98d	-0.19705792
38	0xbdb11158	-0.08645886
39	0xbe3842a6	-0.17994174
40	0xbd24c270	-0.040224493
41	0x3e89965e	0.26872534
42	0x3e9e872d	0.30962506
43	0xbe378075	-0.17920096
44	0xbe1504b9	-0.14552583
45	0x3e0ed2ce	0.13947603
46	0x3e3dbb8a	0.18528572
47	0x3e362b78	0.1779002
48	0xbde651c8	-0.11246067
49	0xbc8fd807	-0.017559065
50	0xbded9646	-0.11600928
51	0x3e84655b	0.25858578
52	0xbe0e3f9d	-0.13891454
53	0xbe4d622c	-0.20056981
54	0x3dc1113b	0.094271146
55	0xbe284e9e	-0.1643624
56	0xbe248580	-0.16066551
57	0xbe145b7f	-0.14488028
58	0x3df8b67d	0.12144182
59	0x3d07f03e	0.033188097
60	0x3e060cf5	0.1309088
61	0x3ceaa0d7	0.028641148
62	0x3e8028ab	0.25031027
63	0x3b2ac2d2	0.0026056063

price_branch.lstm.bias_hh_l0 f4 [64]
0	0x3e23b3de	0.15986583
1	0x3e03bc83	0.1286488
2	0xbda8a1d0	-0.08233988
3	0x3e361103	0.17779927
4	0xbd0e3bff	-0.034725185
5	0xbe15dd42	-0.14635184
6	0xbe96cdf6	-0.2945401
7	0x3ea6b4ae	0.32559723
8	0xbe3a7cb9	-0.1821164
9	0x3e87bbc2	0.26510435
10	0x3eb1fc8a	0.34762985
11	0x3c814b08	0.015782848
12	0xbe276bd3	-0.16349725
13	0x3e67b16a	0.22626272
14	0xbd149916	-0.036278807
15	0xbd8c81c2	-0.06860687
16	0xbd4b17b5	-0.049583156
17	0x3dd7e346	0.10541396
18	0x3e77beab	0.24193828
19	0x3e07a89b	0.13247912
20	0xbe028a4f	-0.12748073
21	0x3d9ddaf3	0.07707777
22	0x3d8d793c	0.06907889
23	0x3d2961aa	0.041352905
24	0x3e08c6f9	0.13357152
25	0x3e31740f	0.17329429
26	0xbd45ad88	-0.048261195
27	0x3e605319	0.21906699
28	0x3e8666e7	0.26250383
29	0x3e6c5bf4	0.23081952
30	0xbe4d6305	-0.20057304
31	0xbda775b9	-0.08176751
32	0xbda56df0	-0.080776095
33	0xbe491906	-0.19638452
34	0xbe776961	-0.24161293
35	0xbcff0ece	-0.03113499
36	0xbe0068a8	-0.12539923
37	0x3e3fa52e	0.18715355
38	0xba2a9b82	-0.0006508158
39	0xbe1bbd34	-0.15208894
40	0x3d40afc8	0.047042638
41	0x3e8ac05b	0.2709988
42	0x3ebba89a	0.3665207
43	0x3e0030c1	0.12518598
44	0x3de10639	0.10987515
45	0x3e727c52	0.23680237
46	0xbe8c0eae	-0.2735495
47	0x3cbe9bfb	0.023267737
48	0xbc87874b	-0.016544005
49	0xbe445f1a	-0.19176903
50	0xbdf57f0e	-0.119871244
51	0x3db58239	0.088627286
52	0x3e0c4a4b	0.13700216
53	0x3cc2b505	0.023767957
54	0x3e289901	0.16464616
55	0xbd7d7ef8	-0.061888665
56	0xbe50d902	-0.20395282
57	0xbddb8078	-0.10717863
58	0x3df8f20f	0.12155544
59	0xbcf1840a	-0.029481906
60	0xbd925568	-0.07145196
61	0x3e1bf69b	0.15230791
62	0x3d8cd92e	0.06877361
63	0xbd0a7c23	-0.033809792
