models/checkpoints/news_lstm/news_lstm_v11_real_sentiment.pt (torch, 52882 bytes, 19 tensors)

sentiment_branch.lstm_layers.0.weight_ih_l0 f4 [128, 16]
0	0xbe04e3e6	-0.12977561
1	0xbe2817e7	-0.16415368
2	0xbe2ad56e	-0.1668298
3	0xbde5c0f5	-0.11218444
4	0xbe1c3627	-0.15255032
5	0xbe24028f	-0.16016601
6	0x3e2cacff	0.16862868
7	0xbdb5da59	-0.08879537
8	0xbd8a8745	-0.06764082
9	0xbd09a25a	-0.033602096
10	0x3d512dbc	0.051069006
11	0xbe1cb30d	-0.15302677
12	0x3defbc36	0.1170582
13	0xbd82365e	-0.06358026
14	0x3d80990b	0.06279191
15	0xbe1a20b3	-0.15051536
16	0x3e227e94	0.15868598
17	0x3c5524ad	0.0130092325
18	0xbde7ce07	-0.113185935
19	0xbd2b1df2	-0.041776605
20	0x3e347f02	0.17626575
21	0xbd94963e	-0.07255219
22	0x3d7afcbb	0.06127618
23	0x3e02ff23	0.1279264
24	0x3d27cb51	0.040965382
25	0x3b20921a	0.0024501146
26	0xbbc78485	-0.0060887956
27	0xbe140afc	-0.14457315
28	0xbddaa647	-0.10676246
29	0x3e188799	0.14895476
30	0x3dfec08a	0.12439068
31	0x3d903cb7	0.070428304
32	0x3e1365cf	0.14394306
33	0x3d80801e	0.062744364
34	0x3e1d19b0	0.1534183
35	0x3dcfaf75	0.10140888
36	0x3c7138ab	0.014722983
37	0xbd9e293a	-0.07722707
38	0x3dfc60f2	0.12323178
39	0x3d352a1d	0.044229615
40	0x3deb0aed	0.11476693
41	0x3d1e1a04	0.03859903
42	0x3cb72e4d	0.022360945
43	0xbe055b1f	-0.13023041
44	0x3ab32839	0.0013668603
45	0xbe0d7736	-0.13815007
46	0xbe06fd62	-0.13182595
47	0xbe1ee438	-0.15516746
48	0x3e06a578	0.13149059
49	0x3e1f1245	0.15534313
50	0x3e216042	0.15759376
51	0x3d596d68	0.053082854
52	0xbc8ae93c	-0.016956918
53	0xbde0c69f	-0.10975384
54	0xbe1dbaf1	-0.15403344
55	0x3d931f7c	0.071837395
56	0x3e2a599d	0.16635747
57	0xbe338050	-0.17529416
58	0xbe28ea2d	-0.16495581
59	0x3dcce3f1	0.10004414
60	0x3de3bf09	0.111204214
61	0xbde6667d	-0.11250017
62	0x3d50dd53	0.05099232
63	0xbd2c68d9	-0.042092178
64	0xbddaf5fe	-0.106914505
65	0x3dd16569	0.102244206
66	0x3ddf9da5	0.1091874
67	0xbca1a3d7	-0.019731445
68	0x3c2e5c99	0.010642194
69	0xbe149a31	-0.14511944
70	0xbabaa530	-0.0014239904
71	0x3e08f974	0.13376409
72	0xbdfde121	-0.123964556
73	0xbdcab458	-0.09897679
74	0xbd97642a	-0.07392152
75	0x3d57997a	0.0526366
76	0x3e06e70d	0.13174076
77	0xbe0320a3	-0.12805419
78	0x3ce3fde4	0.027831025
79	0x3e010cb8	0.12602508
80	0x3cdabe7f	0.026702164
81	0x3e038763	0.12844615
82	0xbdfa9442	-0.12235309
83	0xbb1fb740	-0.00243707
84	0xbda9527e	-0.08267687
85	0x3db35aa0	0.0875752
86	0xbd96d853	-0.07365479
87	0x3d05db7f	0.03268003
88	0xbd34a16b	-0.044099253
89	0x3e31881e	0.17337081
90	0x3e171b13	0.14756422
91	0x3e2b200a	0.1671144
92	0xbddd1bc2	-0.1079631
93	0xbe248fd1	-0.16070487
94	0x3d7cf694	0.061758593
95	0x3dd22733	0.10261383
96	0x3d426a68	0.04746476
97	0x3e0bc0b1	0.13647725
98	0x3db0c51e	0.08631347
99	0xbe329ab1	-0.17441823
100	0xbe2bfcf6	-0.16795716
101	0xbe077bf4	-0.13230878
102	0xbccda72e	-0.025104132
103	0xbd782def	-0.06059068
104	0x3d894687	0.06702905
105	0xbe2c7ef4	-0.16845304
106	0xbdca5f45	-0.098814525
107	0xbe1508fa	-0.14554206
108	0x3df07ad7	0.1174218
109	0xbe2ffd4e	-0.17186472
110	0x3d7ad89a	0.061241724
111	0xbb938e64	-0.0045030583
112	0x3cc6e12e	0.024277296
113	0x3db9207b	0.09039398
114	0xbd9d486f	-0.07679831
115	0xbe1c15e3	-0.15242724
116	0x3d36ec3b	0.04465888
117	0xbc9ae981	-0.018910171
118	0xbe31f9b1	-0.17380406
119	0xbe01cca4	-0.1267572
120	0x3dc6ba3e	0.09703492
121	0xbe301328	-0.17194808
122	0x3d0c40de	0.03424155
123	0xbe0fc9ff	-0.14041899
124	0xbe0d07a3	-0.13772444
125	0xbdfaecfd	-0.12252233
126	0xbe00967d	-0.12557407
127	0xbd48719f	-0.048936483
128	0x3c138f19	0.009006285
129	0xbdd95aef	-0.10613047
130	0xbd8c2dee	-0.06844698
131	0x3e33bfce	0.17553636
132	0xbdeb344a	-0.11484583
133	0x3c27f18c	0.01025046
134	0xbd6ddaed	-0.058070112
135	0xbe2f203c	-0.1710214
136	0xbe0c9a25	-0.13730676
137	0xbccc70ce	-0.024956133
138	0x3c1c7045	0.0095482515
139	0x3ca92003	0.020645147
140	0x3dd2b4d8	0.102883995
141	0xbdd67baf	-0.104728095
142	0xbd858896	-0.06520192
143	0xbe3185fb	-0.17336266
144	0xbe02226d	-0.12708445
145	0x3e1a2a23	0.15055136
146	0xbdb3202e	-0.08746372
147	0xbd8371df	-0.064182036
148	0xbdbe950f	-0.093057744
149	0xbbbbf921	-0.0057364856
150	0x3d6ebe3d	0.058286894
151	0xbbffa7a7	-0.007801968
152	0xbd22f6d5	-0.03978618
153	0xbdf29964	-0.11845663
154	0xbcb12a17	-0.021626515
155	0xbbc038b2	-0.0058661336
156	0xbd5e956b	-0.054341715
157	0xbde8a3b5	-0.1135935
158	0x3de0c2b5	0.109746374
159	0xbe13d2ba	-0.14435855
160	0xbdf6075d	-0.12013123
161	0xbdc6f683	-0.09714987
162	0xbc5e4c47	-0.013567991
163	0xbe27aceb	-0.16374557
164	0x3e1948c8	0.1496917
165	0x3dafed40	0.08590174
166	0xbdfb2acb	-0.122640215
167	0xbd91d2e1	-0.071203
168	0x3a698cdb	0.0008909234
169	0xbe2adc5f	-0.16685627
170	0x3da9993f	0.082811825
171	0x3e2da5f7	0.16957842
172	0xbddee5dd	-0.10883687
173	0x3e2764f3	0.16347103
174	0x3d81536e	0.06314741
175	0xbb0195c7	-0.0019773112
176	0x3d2b13a6	0.041766785
177	0xbd37f13e	-0.0449078
178	0x3e0e1214	0.13874084
179	0x3e055ee2	0.13024476
180	0xbd7da360	-0.061923385
181	0xbd0cf86d	-0.034416605
182	0xbe2d77e0	-0.1694026
183	0x3e049c3c	0.12950224
184	0x3cb7846f	0.022402016
185	0xbcb728e9	-0.022358375
186	0x3dfbb3d1	0.12290157
187	0x3de7a1ea	0.113101795
188	0x3e07d4ab	0.1326472
189	0xbde6e1ca	-0.112735346
190	0x3e045059	0.12921275
191	0xbdcded54	-0.10055032
192	0xbe141c03	-0.1446381
193	0xbc996ed9	-0.018729614
194	0xbe0be7e9	-0.13662685
195	0x3d6083d2	0.054813214
196	0x3d60ff25	0.054930825
197	0x3d4ddb82	0.050258167
198	0xbe0d3910	-0.13791299
199	0xbc58dee7	-0.013236738
200	0x3d244e77	0.040113892
201	0xbdfa0cec	-0.12209496
202	0xbe2ebe11	-0.17064692
203	0x3d81e09c	0.06341669
204	0x3d077527	0.03307071
205	0x3bd6d662	0.006556318
206	0xbe1468e0	-0.14493132
207	0xbde92732	-0.11384429
208	0x3dbca870	0.092118144
209	0x3dd00592	0.101573125
210	0xbd8f8818	-0.0700838
211	0x3dc762ca	0.097356394
212	0x3c8967bb	0.016773095
213	0xbe2defca	-0.16986004
214	0x3c671a9f	0.014105468
215	0xbd0bc624	-0.03412451
216	0xbe0a6665	-0.13515623
217	0xbdede9ad	-0.11616836
218	0xbb8e3a35	-0.004340435
219	0x3e20d433	0.15705948
220	0xbd9bd912	-0.07609762
221	0x3e34c6d2	0.17653969
222	0xbe129d7e	-0.14317891
223	0xbc9900b8	-0.0186771
224	0xbe1b0bab	-0.1514117
225	0x3d93ef1c	0.07223341
226	0x3e2fae8b	0.17156427
227	0xbc16e21a	-0.00920918
228	0x3e2ebeec	0.17065018
229	0xbd17010f	-0.036866244
230	0xbdb41eb2	-0.08794917
231	0xbd5a2355	-0.05325635
232	0xbd4a495a	-0.04938636
233	0x3dd27e5a	0.10278006
234	0x3e2c4a70	0.1682527
235	0x3dcd5d52	0.10027565
236	0xbc3a792c	-0.011381429
237	0xbd13dad3	-0.03609736
238	0x3e170980	0.14749718
239	0xbddca6c7	-0.10773998
240	0x3bc989f2	0.0061504776
241	0xbe2a246a	-0.16615453
242	0x3d776885	0.060402412
243	0xbe2543a7	-0.16139089
244	0xb90e7a8d	-0.00013587829
245	0xbbe0c3b9	-0.0068592695
246	0xbd09a61c	-0.03360568
247	0xbc600b9d	-0.013674644
248	0x3d8f13df	0.06986212
249	0x3d79a4fd	0.06094836
250	0xbe0d44ef	-0.13795827
251	0x3e171b35	0.14756472
252	0x3df883a1	0.12134481
253	0xbcbb4713	-0.02286104
254	0x3da1a1cf	0.07892191
255	0xbe16332a	-0.14667955

sentiment_branch.lstm_layers.0.weight_hh_l0 f4 [128, 32]
0	0xbe0f57f0	-0.13998389
1	0xbe1eea74	-0.15519124
2	0x3e13ac35	0.1442116
3	0x3d0a1616	0.03371247
4	0x3d4a6a11	0.04941756
5	0xbe0d8102	-0.13818744
6	0x3e3bfbeb	0.18357818
7	0x3c8cacee	0.017172303
8	0xbd365f52	-0.0445245
9	0xbdd294cf	-0.10282289
10	0x3e1dab7f	0.15397452
11	0x3dfbfe0f	0.12304317
12	0xbe064544	-0.1311236
13	0x3d89550b	0.06705674
14	0xbd8fd605	-0.07023243
15	0x3d9192bf	0.07108068
16	0x3e32719a	0.17426148
17	0x3ce331b5	0.027733663
18	0x3db5b406	0.08872227
19	0x3e1a8dc2	0.15093139
20	0x3de72994	0.11287227
21	0xbcc82c0b	-0.024435064
22	0xbe09fd57	-0.13475548
23	0x3dc3e638	0.09565395
24	0xbdd7cb76	-0.10536854
25	0xbe1ffcbe	-0.15623757
26	0x3e10b33e	0.14130875
27	0xbd7dbb97	-0.061946478
28	0x3d934707	0.07191282
29	0xbd87eff9	-0.06637568
30	0xbc8863ca	-0.016649146
31	0xbda4bbda	-0.08043642
32	0xbda08d85	-0.07839493
33	0xbd2b4154	-0.04181035
34	0xbdf84630	-0.12122762
35	0xbdefeae0	-0.11714721
36	0xbc16e282	-0.009209277
37	0xbd63a788	-0.055579692
38	0x3d871189	0.065951414
39	0xbdb0d100	-0.086336136
40	0xbd7f54fc	-0.062336907
41	0x3db51807	0.088424735
42	0x3da80dba	0.08205743
43	0x3ce1d66b	0.027568063
44	0x3e0031be	0.12518975
45	0xbe18a291	-0.14905764
46	0xbca0bffe	-0.019622799
47	0x3a981dd3	0.0011605568
48	0x3df9e23d	0.12201355
49	0xbdf6172a	-0.12016137
50	0x3e3736fb	0.17892067
51	0x3ab3c8d7	0.0013716471
52	0xbe3b8032	-0.18310621
53	0x3e27f0ac	0.16400403
54	0xbd96a533	-0.07355728
55	0xbb169cc4	-0.0022981623
56	0x3d8be9ab	0.06831678
57	0xbdf29b57	-0.11846035
58	0xbd6e335f	-0.05815446
59	0xbce55009	-0.027992265
60	0x3dc49517	0.09598749
61	0xbdba9c3a	-0.09111829
62	0x3b6831eb	0.0035430144
63	0x3c067ead	0.008208913
64	0x3dc0b336	0.09409182
65	0x3d91d9db	0.07121631
66	0xbe08fc75	-0.13377555
67	0xbe0a1c76	-0.1348742
68	0x3dda002a	0.106445625
69	0xbb235b24	-0.002492615
70	0xbda8e05d	-0.08245919
71	0xbd8c9002	-0.06863405
72	0xbded60b3	-0.115907095
73	0xbe33de59	-0.17565288
74	0x3dd5c09c	0.10437128
75	0x3db9427a	0.090458825
76	0x3dd87fa4	0.105712205
77	0xbe239d5a	-0.15977994
78	0x3d204809	0.039131198
79	0xbe2f9b0b	-0.17148988
80	0xbd91738a	-0.071021155
81	0xbd30b5f0	-0.04314226
82	0x3c8de4a2	0.017320935
83	0x3e3b8704	0.18313223
84	0xbe0f713a	-0.14008036
85	0xbded59a6	-0.11589365
86	0xbda9924d	-0.08279858
87	0x3ce21cdc	0.027601652
88	0xbd9d0892	-0.0766765
89	0xbdedd748	-0.11613327
90	0x3dc3f6b7	0.095685415
91	0xbd9ca3e6	-0.07648449
92	0x3c5c4a40	0.013445437
93	0x3d8f49bd	0.06996486
94	0xbe0d9abc	-0.13828558
95	0x3e19fe0e	0.1503832
96	0xbe0a10db	-0.13482992
97	0xbd2dcafd	-0.042429913
98	0xbe0faa1f	-0.1402974
99	0xbdfa58ae	-0.122239456
100	0x3e1dc588	0.15407383
101	0xbe24c50d	-0.16090794
102	0x3dfdc910	0.12391865
103	0xbe26c113	-0.1628459
104	0xbdd6871c	-0.10474989
105	0xbde72c65	-0.112877645
106	0x3d590653	0.052984547
107	0xbcc05c69	-0.023481565
108	0x3ddd5595	0.10807339
109	0xbdb383b3	-0.08765354
110	0x3e35de49	0.17760576
111	0xbe3e04f6	-0.1855658
112	0x3cbe0937	0.023197753
113	0x3c8b0f0c	0.016974948
114	0xbe088170	-0.13330626
115	0xbcec75c2	-0.028864745
116	0x3e1291bc	0.14313406
117	0x3e0f3799	0.13986053
118	0x3d922704	0.07136348
119	0xbcfd14fd	-0.030893797
120	0xbccebb33	-0.025235748
121	0x3dc1fe75	0.09472362
122	0x3ccf6178	0.025315031
123	0xbc9041c5	-0.017609486
124	0xbafb3b62	-0.0019167478
125	0xbd4be53a	-0.049779154
126	0xbe23f7f6	-0.16012558
127	0xbc982dab	-0.018576464
128	0xbdd66c82	-0.10469915
129	0x3c6b967a	0.014379138
130	0xbd6876d6	-0.056753956
131	0x3dbdc5f0	0.09266269
132	0xbe172237	-0.14759146
133	0x3e58434e	0.21119425
134	0x3d07bfe3	0.03314198
135	0x3d0930d9	0.03349385
136	0xbe14b895	-0.14523537
137	0xbd78f38d	-0.060779143
138	0xbe407379	-0.1879405
139	0xbd925374	-0.07144824
140	0xbe35dc74	-0.17759877
141	0xbd342830	-0.04398364
142	0x3d247b6d	0.04015677
143	0x3d4a02ed	0.049319196
144	0x3e0efedc	0.13964409
145	0x3c8775ee	0.016535725
146	0x3ddb013e	0.10693596
147	0xbd317de3	-0.043332946
148	0x3c46ac8e	0.012126101
149	0xbdf32d8e	-0.11873923
150	0xbdd4bb5e	-0.103873
151	0x3cc485f9	0.023989664
152	0x3dd19f99	0.10235519
153	0xbdd76edb	-0.10519191
154	0xbc96ab58	-0.01839225
155	0xbdb46b99	-0.08809585
156	0x3e483af4	0.19553739
157	0xbded5e3b	-0.11590239
158	0xbd06b347	-0.032885816
159	0x3db0d263	0.08633878
160	0x3d4a5bb7	0.049403872
161	0x3e15d75f	0.14632939
162	0x3d704667	0.05866089
163	0xbdc2f901	-0.0952015
164	0xbe03b71c	-0.1286282
165	0x3e088798	0.13332975
166	0xbde6d5ff	-0.11271285
167	0xbccae330	-0.024766535
168	0xbd6dd86c	-0.058067724
169	0x3d4642b9	0.048403475
170	0x3e29c8f0	0.16580558
171	0xbb2a61ee	-0.0025998312
172	0xbd2c6f36	-0.042098247
173	0xbdf22d94	-0.118250996
174	0xbd01ae44	-0.031660333
175	0x3d2d6c22	0.04233945
176	0x3e0bf6b8	0.13668334
177	0xbdf4826a	-0.11938937
178	0x3d40d359	0.047076557
179	0xbddef9b9	-0.108874746
180	0x3d4d2acc	0.050089642
181	0x3ce01000	0.02735138
182	0x3b84ebd5	0.0040564337
183	0x3e0f7c1f	0.14012192
184	0xba04af5d	-0.00050615316
185	0x3dee175b	0.116255485
186	0x3c38f1f6	0.011288157
187	0x3e29276e	0.16518947
188	0x3bb3aad6	0.0054830117
189	0x3da7bdc3	0.08190491
190	0x3e0a3e26	0.1350027
191	0x3dc3100e	0.095245466
192	0xbe0c640d	-0.13710041
193	0xbdf4ae57	-0.11947315
194	0xbe0962a9	-0.13416542
195	0xbe2a8d05	-0.16655357
196	0xbda5798c	-0.08079824
197	0xbc610c9b	-0.0137359155
198	0x3db24ae9	0.08705694
199	0x3ce6e308	0.028184429
200	0x3e189ef9	0.14904393
201	0x3d7c2261	0.061556224
202	0x3c32f2b4	0.010922123
203	0x3e207b58	0.15672052
204	0x3e106b87	0.14103518
205	0xbd86d666	-0.06583862
206	0x3e465cd6	0.19371352
207	0x3dba7ec4	0.0910621
208	0xbe16dc8f	-0.14732574
209	0xbcf1858c	-0.029482625
210	0xbd7c5b82	-0.061610706
211	0x3e1e3c53	0.154527
212	0xbe003874	-0.12521535
213	0xbe2b2e0b	-0.16716783
214	0x3e3c2789	0.18374456
215	0xbe4be70b	-0.19912355
216	0x3d643c69	0.055721674
217	0x3d43afde	0.047775142
218	0xbdfef43b	-0.12448927
219	0xbcc1ab6e	-0.023641314
220	0x3cc13e9e	0.023589429
221	0x3d495616	0.049154364
222	0xbcb30421	-0.021852555
223	0xbdd7562c	-0.10514483
224	0xbc94bba2	-0.018155877
225	0x3d84a7c0	0.06477308
226	0xbdb6ed61	-0.08931995
227	0x3c201658	0.009770952
228	0x3dcb6639	0.09931607
229	0xbd83e8b6	-0.064408705
230	0x3e1757a2	0.14779523
231	0xbe3165be	-0.17323968
232	0x3d3ce42c	0.04611604
233	0xbe003bda	-0.12522832
234	0x3cfbd30b	0.030740282
235	0xbe188d77	-0.14897715
236	0x3c5848d7	0.01320096
237	0xbe2ddc23	-0.16978507
238	0x3c548a10	0.01297237
239	0xbdb0e1e6	-0.08636837
240	0xbd9a3d94	-0.07531276
241	0x3ba8e56c	0.0051543023
242	0xbc569235	-0.013096382
243	0x3e0bbfd6	0.13647398
244	0x3e21850b	0.15773408
245	0xbbaf5534	-0.005350733
246	0xbe1b1056	-0.1514295
247	0x3d85c265	0.065312184
248	0xbd8a76c9	-0.06760938
249	0x3d96a967	0.0735653
250	0x3cc833ae	0.024438705
251	0x3b689e6d	0.003549482
252	0x3e08f7c0	0.13375759
253	0x3d811f10	0.06304753
254	0xbd05ae90	-0.03263718
255	0xbe106fb9	-0.14105119

sentiment_branch.lstm_layers.0.bias_ih_l0 f4 [128]
0	0xbe11b970	-0.14230895
1	0x3e4cb315	0.1999019
2	0x3db202a9	0.08691914
3	0xbe173ab6	-0.1476849
4	0x3df0aa7a	0.11751266
5	0xbd6fb508	-0.058522254
6	0x3d05c061	0.03265417
7	0xbdf724a2	-0.12067534
8	0x3d4f5afc	0.05062388
9	0x3ddffb02	0.10936548
10	0x3c5fef82	0.013667943
11	0x3e012a98	0.12613904
12	0x3dd16f32	0.10226287
13	0x3c2eef5f	0.010677188
14	0xbe1627c0	-0.14663601
15	0x3e20b970	0.15695739
16	0xbdba2f94	-0.09091106
17	0x3d119954	0.035546616
18	0xbcb6e0fa	-0.022324074
19	0xbccee010	-0.025253326
20	0xbd7e6d90	-0.062116206
21	0xbe2f79ed	-0.17136355
22	0x3d67c2fa	0.05658243
23	0x3bd083f4	0.0063633863
24	0x3e0d7836	0.13815388
25	0x3ddb4623	0.10706737
26	0xbe0acca7	-0.13554631
27	0xbe0ac298	-0.13550794
28	0x3e07745e	0.13227984
29	0x3e12f1d5	0.14350064
30	0x3d2ffba3	0.04296459
31	0x3d94470c	0.072401136
32	0x3dfeac1c	0.12435171
33	0xbe0e4e6b	-0.13897102
34	0x3d66ab19	0.056315515
35	0x3e1d3837	0.15353476
36	0x3d3fbbf6	0.046810113
37	0x3e12a3e8	0.14320338
38	0x3a568e16	0.00081846246
39	0xbc436cb2	-0.01192777
40	0xbe23d3f6	-0.15998825
41	0x3b1fa6fb	0.0024361003
42	0xbd551cfc	-0.052029595
43	0xbcee9718	-0.029124781
44	0xbdbdad9f	-0.09261631
45	0x3bdb3ec6	0.006690833
46	0xbe4b771d	-0.19869657
47	0x3ce5af7c	0.028037779
48	0xbd606735	-0.054785926
49	0x3e1a1169	0.15045704
50	0x3d772841	0.060341123
51	0x3dded492	0.10880388
52	0xbc52d214	-0.012867469
53	0x3de690a5	0.112580575
54	0x3e3fa375	0.18714698
55	0x3e266d26	0.16252574
56	0x3ddd7eae	0.10815178
57	0xbdb52433	-0.08844795
58	0xbe188617	-0.14894901
59	0x3e05274c	0.13003272
60	0xbd618d04	-0.055066124
61	0x3e5f9b91	0.21836688
62	0xbe3743a0	-0.1789689
63	0x3d1f9a68	0.038965613
64	0x3dce5c6c	0.10076222
65	0xbe31ad96	-0.17351374
66	0x3e304809	0.17214979
67	0xbc7e043a	-0.015503937
68	0x3da3c507	0.07996564
69	0xbdb9c5c9	-0.09070928
70	0xbe5a0886	-0.21292314
71	0xbe16c8bf	-0.14725016
72	0xbb57d744	-0.0032934705
73	0x3da5429c	0.08069345
74	0x3dbeca53	0.09315934
75	0x3dd8c807	0.10585027
76	0x3e3978ac	0.18112439
77	0x3d6e18a0	0.058128953
78	0x3b3699fd	0.002786278
79	0xbdbcb436	-0.0921406
80	0xbe0b8892	-0.13626316
81	0xbd576f79	-0.052596543
82	0x3dc924b5	0.098214544
83	0x3e020994	0.12698966
84	0xbe19b596	-0.15010676
85	0xbd2b66a3	-0.04184593
86	0x3c3db043	0.011577669
87	0xbe3f2257	-0.18665443
88	0xbe3b46ab	-0.18288676
89	0x3e10734b	0.14106481
90	0xbb024c02	-0.001988173
91	0x3e082163	0.13293986
92	0x3e011ed8	0.12609422
93	0xbc89a6cb	-0.016803166
94	0x3e214885	0.1575032
95	0x3de4078f	0.11134254
96	0x3e0d01da	0.13770238
97	0xbda8406c	-0.082154125
98	0xbdb31a3f	-0.087452404
99	0x3d01fd4a	0.031735696
100	0xbe4e0e63	-0.20122676
101	0x3e2cc665	0.16872557
102	0x3d8fbcf5	0.070184626
103	0x3e0b87cb	0.1362602
104	0x3972f819	0.00023171342
105	0xbcf5807e	-0.029968496
106	0xbc692e55	-0.014232238
107	0xbe46aae2	-0.19401124
108	0x3e3bf629	0.18355621
109	0x3d7f247c	0.062290654
110	0xbd9196fb	-0.07108875
111	0xbda32c4f	-0.079674356
112	0xbdbdc9e7	-0.092670254
113	0x3deef41c	0.11667654
114	0x3d6cace0	0.057782054
115	0x3c15c0af	0.009140178
116	0x3e296764	0.16543347
117	0x3dee3944	0.11632016
118	0x3da76f50	0.08175528
119	0xbd306ed0	-0.04307443
120	0x3d0805ef	0.033208784
121	0x3df0e29e	0.11761974
122	0x3d65ca4c	0.05610113
123	0xbd952d17	-0.07283991
124	0x3e0b0e19	0.13579597
125	0xbd21362f	-0.039358314
126	0xbe2301c2	-0.1591864
127	0xbe41c9f1	-0.18924691

sentiment_branch.lstm_layers.0.bias_hh_l0 f4 [128]
0	0x3e163512	0.14668682
1	0x3d69dcd6	0.05709537
2	0xbd900e18	-0.07033938
3	0xbdcdd139	-0.10049672
4	0xbdd5febf	-0.104489796
5	0x3ca135bf	0.019678948
6	0xbddd3723	-0.10801532
7	0x3e28f4f0	0.16499686
8	0x3cfefb34	0.031125642
9	0x3cc76bc7	0.024343384
10	0x3db91375	0.09036914
11	0x3d36a5d0	0.044591725
12	0xbdde31e1	-0.108493574
13	0xbddbd115	-0.107332386
14	0xbd5f5dc5	-0.054532785
15	0xbcf9d02d	-0.030494774
16	0x3d6c9813	0.057762217
17	0x3e1e0f58	0.1543554
18	0x3dfc052e	0.123056754
19	0x3de2ecb5	0.110803045
20	0x3e434db7	0.19072615
21	0xbd2ae0bc	-0.04171823
22	0xbdef4470	-0.11682975
23	0x3e420373	0.18946628
24	0x3e22ae26	0.15886745
25	0x3d96e0bd	0.07367084
26	0x3dedfee5	0.11620883
27	0x3d341f1b	0.043974977
28	0x3bc12ca7	0.0058952156
29	0xbcbd3c6f	-0.023100106
30	0x3d079b1d	0.033106912
31	0xbd64dad7	-0.055872764
32	0xbd599294	-0.053118303
33	0x3e51a9a7	0.20474873
34	0x3d837d29	0.06420357
35	0x3d57faf3	0.05272956
36	0xbe55a449	-0.20863451
37	0x3c2ee73a	0.010675246
38	0x3e000904	0.12503439
39	0x3e2a7363	0.16645579
40	0xbe451437	-0.19245993
41	0xbdfed1d1	-0.12442363
42	0xbd1f1057	-0.038833942
43	0xbd3c7f31	-0.046019737
44	0xbe05fc1a	-0.1308445
45	0xbdb57c05	-0.088615455
46	0xbd37b0e6	-0.044846438
47	0x3da779ab	0.08177503
48	0x3d3cd4e7	0.046101477
49	0x3e4af9bc	0.19821829
50	0x3e3980ca	0.18115535
51	0x3e4104b3	0.18849449
52	0x3ccf26e8	0.025287107
53	0xbdd6c89c	-0.10487482
54	0xbdf66a43	-0.120319866
55	0xbd8aa1da	-0.06769152
56	0xbb53ce1f	-0.0032318903
57	0xbe4022f5	-0.18763335
58	0xbe158a44	-0.14603525
59	0xbda0a907	-0.078447394
60	0x3d8d3b67	0.06896096
61	0x3e16292a	0.1466414
62	0xbe2c99a9	-0.16855492
63	0x3e055946	0.13022336
64	0xbdbb1a9d	-0.091359355
65	0xbd2435c9	-0.040090356
66	0x3d9af85a	0.075669006
67	0xbe46fbc3	-0.19431977
68	0x3d49a123	0.049225938
69	0xbdc62c8f	-0.096764676
70	0xbdf2db6b	-0.11858257
71	0x3da5055d	0.080576636
72	0xbb8ee3fb	-0.0043606735
73	0xbe44ebad	-0.19230528
74	0x3d16e313	0.03683765
75	0xbc4b05bb	-0.012391503
76	0x3d8eb4ed	0.069681026
77	0xbbed80d7	-0.007248025
78	0x3dc34a81	0.09535695
79	0xbe04080b	-0.12893693
80	0xbd8254a1	-0.06363798
81	0x3e29b3b6	0.1657246
82	0x3e0c07e6	0.13674888
83	0x381a1318	3.6734244e-05
84	0xbd833333	-0.0640625
85	0xbdad1890	-0.084519506
86	0x3d89f5b7	0.067363195
87	0xbdfdb76d	-0.12388501
88	0xbe134956	-0.14383444
89	0x3e03cd80	0.12871361
90	0xbcf67acb	-0.03008785
91	0xbb45b98e	-0.0030170414
92	0xbe3b73ae	-0.18305847
93	0x3e4a1bb8	0.19737136
94	0xbbd99f50	-0.006641306
95	0xbd94acb0	-0.072595
96	0xbe186590	-0.14882493
97	0xbd33f8ec	-0.043938562
98	0x3ceea81f	0.0291329
99	0xbc0b42b5	-0.008499791
100	0xbdc90f68	-0.09817392
101	0xba8780a2	-0.0010338018
102	0xbdf2a04c	-0.118469805
103	0xbd5bfcb5	-0.053707797
104	0xbe39fa1c	-0.18161815
105	0xbd3e0d07	-0.046399143
106	0xbd3a26d9	-0.045447204
107	0x3e0b3f7a	0.13598433
108	0xbe0acfd2	-0.1355584
109	0x3e1501f4	0.14551526
110	0xbdb11589	-0.08646686
111	0xbe0fe220	-0.14051104
112	0xbccaf416	-0.024774592
113	0x3d0bd7d5	0.03414138
114	0xbc1c9e11	-0.00955917
115	0x3cc8f5bc	0.024531238
116	0x3b8b64e6	0.0042539714
117	0xba97dc56	-0.0011586051
118	0xbc437bda	-0.011931384
119	0xbe1c53d8	-0.15266359
120	0x3dd1d63e	0.102459416
121	0x3b9c6767	0.0047730687
122	0xbd390456	-0.04517015
123	0x3ded07ce	0.11573754
124	0x3d6d375b	0.05791412
125	0x3deff221	0.11716104
126	0xbd950b70	-0.07277572
127	0xbdb01737	-0.08598178

sentiment_branch.fc.weight f4 [32, 32]
0	0x3de44275	0.11145488
1	0x3db6a5f9	0.089183755
2	0xbcef16d3	-0.029185688
3	0xbbde66cb	-0.006787156
4	0xbe285193	-0.16437368
5	0xbd2e48d8	-0.042549938
6	0x3d8afb69	0.06786234
7	0x3e21a325	0.15784891
8	0x3c62f74a	0.013852904
9	0x3c7be2a1	0.015373857
10	0x3d1e9fc5	0.038726587
11	0xbcae1c13	-0.021253621
12	0xbdc4e9a1	-0.09614874
13	0x3c0ac3c2	0.008469524
14	0x3e2ff718	0.17184103
15	0x3dd60966	0.10451011
16	0xbe21afe1	-0.15789749
17	0x3e21c698	0.15798414
18	0x3c88606c	0.01664754
19	0xbc31b432	-0.010846185
20	0xbcb9f7d1	-0.022701176
21	0x3e196b0a	0.14982238
22	0x3e05bf1c	0.13061184
23	0x3d152314	0.036410406
24	0x3c8146e4	0.015780874
25	0x3d088838	0.033333033
26	0xbdeefbc7	-0.116691165
27	0x3e01fc9b	0.12694018
28	0x3c8f7ea2	0.017516438
29	0xbde7d739	-0.11320347
30	0xbdcadea3	-0.09905746
31	0x3d019326	0.031634472
32	0xbe01e2bc	-0.12684149
33	0x3d32bdc7	0.043638017
34	0x3d1d61db	0.0384234
35	0xbccb6079	-0.024826275
36	0xbbbcdde6	-0.005763757
37	0xbcc99094	-0.024605073
38	0x3e3d3c67	0.18480073
39	0x3dc4a3e8	0.09601575
40	0xbc8376a8	-0.01604779
41	0x3dd46293	0.10370364
42	0xbdd1fa92	-0.102528706
43	0xbd985dfb	-0.074398
44	0xbdb09894	-0.08622852
45	0xbdd141b9	-0.10217614
46	0xbe49948b	-0.19685571
47	0x3e16bd47	0.14720641
48	0xbd1aa9a4	-0.03775944
49	0xbcc28803	-0.023746496
50	0xbe274917	-0.16336475
51	0x3d7a5b30	0.06112212
52	0x3e2915ce	0.16512224
53	0x3e1e3e02	0.15453342
54	0xbe2c89be	-0.1684942
55	0xbd543282	-0.05180598
56	0x3d8c84e6	0.06861286
57	0x3e00b305	0.1256829
58	0x3c56d8c9	0.013113209
59	0xbd2fc2fe	-0.04291057
60	0xbe194964	-0.14969403
61	0xbd828b4c	-0.06374225
62	0xbda5befb	-0.08093067
63	0x3c3abf3e	0.011398135
64	0x3c337300	0.010952711
65	0xbd065787	-0.032798316
66	0xbe02e7e0	-0.12783766
67	0xbd5b4b36	-0.053538524
68	0x3d1e6fb5	0.03868075
69	0xbdc713cd	-0.097205736
70	0xbcc3ed80	-0.02391696
71	0x3e07ec83	0.13273816
72	0x3c36bc1a	0.011153245
73	0x3d58cec5	0.052931566
74	0xbe1d26f5	-0.15346892
75	0xbde7d83a	-0.11320539
76	0x3d6ea1d2	0.058259793
77	0xbd960817	-0.07325762
78	0x3df18248	0.11792427
79	0xbe1a24db	-0.15053122
80	0x3a233344	0.0006225596
81	0xbe12672a	-0.14297166
82	0x3de0ba61	0.10973049
83	0x3e177151	0.1478932
84	0x3dd609ad	0.10451064
85	0x3ce67d07	0.02813579
86	0xbe33a3db	-0.17542975
87	0xbde332e2	-0.110936895
88	0x3dd12eb0	0.10213983
89	0xbda9c63f	-0.082897656
90	0xbdb56c81	-0.08858586
91	0xbdc6d955	-0.097094215
92	0x3df9088d	0.12159834
93	0xbde00cf0	-0.10939968
94	0x3d05ebfb	0.03269575
95	0x3d927c17	0.071525745
96	0x3d671245	0.056413908
97	0xbe05f003	-0.13079838
98	0xbdf81cf7	-0.121148996
99	0x3d2ed649	0.042684827
100	0x3d8c81b6	0.06860678
101	0x3dcfdb90	0.101493
102	0xbd45c1ac	-0.048280403
103	0x3e220af2	0.15824488
104	0x3d97e1eb	0.07416137
105	0x3caf8770	0.021426886
106	0x3e01401e	0.12622115
107	0x3d0c91cf	0.03431874
108	0x3c98a49e	0.018633183
109	0xbe083f63	-0.1330543
110	0xbe338f9b	-0.1753525
111	0x3e2ca83b	0.1686105
112	0x3d9cc7c3	0.07655289
113	0x3d0f0799	0.034919355
114	0x3ccf5b28	0.025312021
115	0x3d17a702	0.037024505
116	0x3b857f38	0.0040740035
117	0x3e29d33b	0.16584484
118	0xbd05d8ee	-0.032677583
119	0x3df977b3	0.12181034
120	0xbd6b6f8b	-0.057479423
121	0xbdc512ee	-0.09622751
122	0x3da42f4e	0.08016835
123	0xbe0ee67f	-0.13955115
124	0x3ce65404	0.028116234
125	0xbd44de56	-0.0480636
126	0xbe2c547a	-0.168291
127	0xbdf87e2b	-0.1213344
128	0xbdbc8fba	-0.09207101
129	0xbdfe5b4a	-0.12419756
130	0xbdc8b33d	-0.09799812
131	0xbe395659	-0.18099345
132	0x3c4b89fb	0.012423034
133	0xbd67cfd9	-0.056594703
134	0xbd3d2f94	-0.046187952
135	0xbe350b67	-0.17680131
136	0x3dbc608d	0.09198103
137	0xbda438c2	-0.08018638
138	0x3e359b6d	0.17735071
139	0x3ca6c32e	0.02035674
140	0x3e2108b2	0.15725973
141	0xbe0aab14	-0.13541824
142	0xbba62de7	-0.00507139
143	0xbd9362c0	-0.071965694
144	0x3ddfbb79	0.109244294
145	0x3e220399	0.15821685
146	0x3d0dd1d6	0.034623943
147	0x3e1dbfdc	0.1540522
148	0x3cbbb879	0.022915112
149	0xbe0f97cc	-0.1402275
150	0x3c621395	0.013798614
151	0xbdf832da	-0.12119074
152	0xbdeb55f9	-0.11491007
153	0xbd92ac0a	-0.0716172
154	0xbe2f6da6	-0.17131671
155	0xbe1a4e5f	-0.15068959
156	0xbd02a6c5	-0.031897325
157	0xbd4608af	-0.048348125
158	0x3d81d301	0.06339074
159	0x3de6df2c	0.112730354
160	0xbe2cc818	-0.16873205
161	0x3e283299	0.16425551
162	0x3e02f859	0.1279005
163	0xbc61f6f8	-0.013791792
164	0x3e0ac079	0.13549985
165	0x3d5568e0	0.05210197
166	0xbdd3e394	-0.103461415
167	0xbdf45c25	-0.11931638
168	0xbcb713ff	-0.022348402
169	0x3d756f92	0.059920855
170	0x3da75d4e	0.08172093
171	0xbd838785	-0.06422333
172	0xbdc1c125	-0.094606675
173	0x3e243899	0.16037215
174	0x3e2bd628	0.16780913
175	0xbe35be38	-0.17748344
176	0x3dbb16cd	0.09135208
177	0xbcef5bcc	-0.029218577
178	0x3c0a7ffe	0.008453367
179	0x3dc823cb	0.09772452
180	0xbde817f8	-0.11332697
181	0xbdfb9b59	-0.122854896
182	0x3e34a8d7	0.17642532
183	0xbd88a430	-0.06671941
184	0x3cc5d0fb	0.024147501
185	0x3de16ad0	0.11006701
186	0xbe04d3b7	-0.12971388
187	0xbd532065	-0.051544566
188	0xbe1eee80	-0.15520668
189	0x3d824b00	0.06361961
190	0x3e34bdc6	0.17650518
191	0xbda65685	-0.08121971
192	0xbe1c9fef	-0.15295385
193	0xbd963a70	-0.07335365
194	0xbd4fe790	-0.050757945
195	0xbdb1f430	-0.08689153
196	0xbd25004d	-0.04028349
197	0x3e170dd8	0.14751375
198	0xbe064620	-0.13112688
199	0x3de9ee42	0.11422397
200	0x3df231ef	0.1182593
201	0x3d806adc	0.06270382
202	0xbdefe09d	-0.117127635
203	0xbd37e018	-0.044891447
204	0xbdd4afd1	-0.10385097
205	0x3d9a370f	0.07530033
206	0x3df26d3e	0.118372425
207	0xbd99cee2	-0.07510163
208	0x3e244683	0.16042523
209	0xbe117ac5	-0.14206989
210	0xbda51d48	-0.080622256
211	0x3e085d52	0.13316849
212	0xbdb1ed98	-0.086878955
213	0x3e2298f2	0.15878657
214	0xbdec180e	-0.115280256
215	0x3d5886fa	0.0528631
216	0x3d89ebf0	0.06734455
217	0xbdc4faca	-0.09618147
218	0xbccf217c	-0.025284521
219	0xbde7b27c	-0.1131334
220	0x3dda5d61	0.10662342
221	0xbdaf66a5	-0.085645
222	0x3d05c6d6	0.032660328
223	0x3d3d2848	0.046180993
224	0x3d40ec5e	0.047100417
225	0xbe25fde9	-0.1621014
226	0xbe29a983	-0.1656857
227	0x3daaee6f	0.08346259
228	0x3d86a5b2	0.065745726
229	0x3e27eee2	0.1639972
230	0x3e280295	0.16407235
231	0x3e244fb7	0.16046034
232	0x3e374e90	0.17901063
233	0xbdf2ee1d	-0.11861823
234	0x3da0507d	0.07827852
235	0x3dad19d5	0.08452193
236	0xbe002aa6	-0.12516269
237	0x3d0f8168	0.03503552
238	0xbd9d7f06	-0.076902434
239	0xbdaafb50	-0.08348715
240	0xbbf7fe6d	-0.0075681717
241	0x3ded75fd	0.1159477
242	0xbe11d4c4	-0.1424132
243	0x3bf5c903	0.007500769
244	0xbd82db6a	-0.06389506
245	0xbd2a8bfa	-0.0416374
246	0x3e11a2ea	0.14222303
247	0x3e181d7a	0.14854994
248	0xbc653796	-0.0139903035
249	0xbdc50337	-0.09619754
250	0x3dee8904	0.116472274
251	0x3e00ed30	0.1259048
252	0xbe0c6f77	-0.13714395
253	0xbd7c4def	-0.06159776
254	0x3e288715	0.1645778
255	0xbe1e89d4	-0.15482265

sentiment_branch.fc.bias f4 [32]
0	0xbd9dcf29	-0.07705528
1	0x3d0cd938	0.034386843
2	0xbd78a1e1	-0.060701255
3	0xbdfd6102	-0.123720184
4	0x3e17fa1a	0.148415
5	0xbe0ea2ee	-0.1392934
6	0xbda4eb2a	-0.080526665
7	0x3e0da9e1	0.13834335
8	0x3dc10e5b	0.09426566
9	0xbc960dc5	-0.018317113
10	0xbb9f81b2	-0.004867756
11	0xbdef959b	-0.11698457
12	0x3daccaa0	0.08437085
13	0xbdc53d42	-0.096308246
14	0xbbcf4677	-0.0063255387
15	0x3e32cbbc	0.17460531
16	0x3e391798	0.18075407
17	0x3da0a3ed	0.07843766
18	0xbe317846	-0.17331037
19	0xbd5b0ac2	-0.053477056
20	0x3ca6c95e	0.020359691
21	0xbda434aa	-0.080178574
22	0x3e6b36a3	0.22970061
23	0x3c83d100	0.01609087
24	0xbe147975	-0.14499457
25	0xbd92b1d5	-0.07162825
26	0xbe002e8c	-0.12517756
27	0xbce17426	-0.027521204
28	0xbe296bee	-0.16545078
29	0xbdd11fc0	-0.10211134
30	0x3db376fe	0.0876293
31	0xbd72dc4b	-0.05929212

price_branch.lstm.weight_ih_l0 f4 [64, 5]
0	0xbe6ca1ec	-0.23108643
1	0x3e00ea32	0.12589338
2	0x3e1e5374	0.15461522
3	0xbe3efd27	-0.18651257
4	0x3d7cfbb5	0.061763484
5	0xbd60f0ca	-0.054917134
6	0x3ea4c1ef	0.3217921
7	0xbdfa2b9d	-0.1221535
8	0x3ea64c85	0.32480255
9	0xbd8616c0	-0.06547308
10	0x3e389f26	0.1802946
11	0x3dae5038	0.08511394
12	0xbe017df4	-0.12645704
13	0x3df7b78c	0.12095556
14	0xbda24f49	-0.07925279
15	0xbd72266c	-0.059118673
16	0x3e7056de	0.23470637
17	0x3da1b324	0.078954965
18	0x3dfd7f6a	0.12377818
19	0xbe44b87b	-0.19210999
20	0xbd87b2d2	-0.06625904
21	0xbe64a251	-0.22327544
22	0xbe0fed35	-0.14055331
23	0x3e1b882c	0.15188664
24	0xbd5c243d	-0.053745497
25	0xbd954b79	-0.07289786
26	0x3c1b6014	0.009483356
27	0x3e560e67	0.20903932
28	0xbd6b81bf	-0.057496782
29	0x3e56896a	0.20950857
30	0xbe970c25	-0.29501453
31	0x3d65ac73	0.056072664
32	0x3c13dd63	0.009024951
33	0xbdc3485c	-0.09535286
34	0xbe8ff00a	-0.28112823
35	0x3da725db	0.08161517
36	0x3e21614c	0.15759772
37	0xbe436ca6	-0.19084415
38	0x3e4869de	0.19571635
39	0xbe2911f1	-0.1651075
40	0x3d7db65d	0.061941493
41	0xbe4f3373	-0.2023447
42	0x3e8b552e	0.27213424
43	0x3dbee271	0.09320534
44	0x3e36b555	0.1784261
45	0x3ea13807	0.31488058
46	0x3e81c5f6	0.25346345
47	0x3e03808f	0.1284201
48	0x3e4e1315	0.20124467
49	0xbc223019	-0.009899163
50	0xbe08b534	-0.13350374
51	0xbe4026a2	-0.18764737
52	0xbe19edbb	-0.15032093
53	0xbd98d9b2	-0.07463397
54	0xbe650262	-0.2236419
55	0xbe2dc567	-0.16969834
56	0x3dfb3405	0.12265781
57	0xbe267fad	-0.16259642
58	0xbea6c3da	-0.32571298
59	0xbe7eeca3	-0.24894957
60	0x3e947906	0.28998584
61	0x3dfdafbe	0.12387036
62	0xbd04cc39	-0.032421324
63	0xbd03bda8	-0.032163292
64	0xbe08ec68	-0.13371432
65	0xbb0e9e54	-0.0021761851
66	0x3ad3c75b	0.0016157435
67	0x3bb4c71b	0.0055168993
68	0xbebe1cb0	-0.37131262
69	0x3de131dd	0.10995839
70	0x3e7440bb	0.23852818
71	0x3e49eeac	0.19719952
72	0x3e951f38	0.2912538
73	0x3e5f1f6c	0.2178933
74	0x3db2d1af	0.087314
75	0x3c9ab16b	0.018883428
76	0x3e0465b1	0.12929417
77	0x3d02016e	0.031739645
78	0x3da7cd54	0.0819346
79	0x3e2fe44a	0.17176929
80	0x3e62271e	0.22085235
81	0x3e0a1f48	0.13488495
82	0x3e52f61e	0.20601699
83	0xbca7272e	-0.020404425
84	0x3e16c299	0.1472267
85	0xbe0b448c	-0.13600367
86	0x3bab5f6f	0.0052298824
87	0x3ca3512e	0.01993617
88	0x3c70502e	0.014667554
89	0x3eaf8d68	0.34287572
90	0xbe03364d	-0.12813683
91	0xbe18dc0b	-0.1492769
92	0x3e83bb5d	0.25728884
93	0xbdcfd306	-0.101476714
94	0xbe19302f	-0.14959787
95	0xbdc62060	-0.09674144
96	0xbdd1c116	-0.10241906
97	0xbcec5b8b	-0.028852245
98	0x3db569fb	0.08858105
99	0xbda3aeb9	-0.0799231
100	0x3cf0ecbf	0.029409764
101	0x3d8866da	0.066602424
102	0x3e911930	0.2833953
103	0x3e4a23d7	0.19740234
104	0x3e5e21fe	0.21692654
105	0x3d22075a	0.039557792
106	0xbe461be1	-0.19346572
107	0xbde49593	-0.111613415
108	0x3e070210	0.1318438
109	0x3e7d83b4	0.24757272
110	0xbe3ea881	-0.18618967
111	0xbe633820	-0.22189379
112	0x3da6a7fc	0.08137509
113	0x3a3fb583	0.0007313119
114	0xbe2f37db	-0.17111151
115	0xbc8037d8	-0.015651628
116	0xbdfa0809	-0.12208564
117	0xbd4229eb	-0.047403257
118	0x3caae636	0.020861726
119	0xbe128eb0	-0.14312243
120	0x3e1e14f4	0.1543768
121	0x3e00f5c4	0.12593752
122	0x3e581be3	0.21104388
123	0xbe26ded0	-0.16295934
124	0xbe145dba	-0.14488879
125	0x3cd265c0	0.025683284
126	0xbda6105f	-0.08108591
127	0x3d112c5a	0.035442688
128	0xbe234358	-0.15943658
129	0xbd8895a1	-0.066691644
130	0xbd4efae3	-0.050532233
131	0x3e9248f2	0.28571278
132	0x3d684c44	0.056713358
133	0xbddcca73	-0.107808016
134	0xbe85ffee	-0.2617182
135	0x3e172bf9	0.14762868
136	0xbdbb72d5	-0.09152762
137	0x3d8e1986	0.06938462
138	0xbd129582	-0.035787113
139	0xbe39f94f	-0.1816151
140	0xbd012e97	-0.031538572
141	0x3e5f93a0	0.21833658
142	0x3e67d21c	0.22638744
143	0x3dea2ca9	0.114342995
144	0xbe0ae3f7	-0.13563524
145	0x3d9a2213	0.075260304
146	0xbdcd7681	-0.100323685
147	0x3e0d4e5a	0.1379942
148	0xbe99fc4a	-0.30075294
149	0xbd83a3cb	-0.064277254
150	0xbd8b391a	-0.06798001
151	0x3e26fb40	0.16306782
152	0x3e828b7e	0.2549705
153	0x3c571b52	0.013129072
154	0xbc8d5253	-0.01725117
155	0xbdf49b15	-0.11943642
156	0xbc9b8d3e	-0.018988248
157	0x3e324cf0	0.17412162
158	0x3e5ad52d	0.21370383
159	0x3e2f2efa	0.17107764
160	0x3e3dbbae	0.18528625
161	0x3e2b1637	0.16707693
162	0x3df996ec	0.12186989
163	0x3e56d6e4	0.20980412
164	0x3d9ddc9d	0.07708094
165	0xbce3fb79	-0.027829872
166	0x3e2301c0	0.15918636
167	0x3de895c0	0.113566875
168	0xbcbe55e8	-0.023234323
169	0x3e99de6a	0.300525
170	0x3e557b6b	0.20847861
171	0x3e4533e7	0.1925808
172	0xbdbfae27	-0.09359389
173	0xbe5bbba8	-0.21458304
174	0x3db7c7f3	0.08973684
175	0xbd993a7c	-0.07481858
176	0xbdc6e647	-0.09711891
177	0xbdde9e4f	-0.10870039
178	0x3e86acd8	0.26303744
179	0x3e20b44e	0.15693781
180	0x3daf756c	0.08567318
181	0xbe3f959e	-0.18709418
182	0xbe1004aa	-0.14064279
183	0x3e8f7bd6	0.28024167
184	0x3e9daf41	0.3079777
185	0x3c5e1e27	0.013556994
186	0x3e7d9477	0.24763666
187	0x3e0d004e	0.13769647
188	0xbdbe3074	-0.092865855
189	0xbe8eb382	-0.2787133
190	0x3d694f34	0.0569603
191	0x3e16f5ca	0.14742199
192	0xbe115434	-0.14192277
193	0x3e5d03ed	0.21583529
194	0x3d6bded6	0.05758556
195	0x3d2e9f18	0.042632192
196	0xbde712b0	-0.11282861
197	0xbd50285c	-0.05081974
198	0xbd86bfd8	-0.0657956
199	0xbe094441	-0.13404943
200	0xba20afeb	-0.00061297294
201	0xbe29618d	-0.16541119
202	0x3eb2113c	0.34778774
203	0x3eaadc01	0.33370975
204	0x3e63885b	0.22219984
205	0x3e386937	0.18008886
206	0xbe0d1c03	-0.13780217
207	0xbe0676cc	-0.13131255
208	0x3eadd9ea	0.33955318
209	0xbdbb01e7	-0.09131222
210	0xbb76b7bc	-0.0037646135
211	0x3e5c370a	0.2150537
212	0x3d07c244	0.03314425
213	0x3e0492f0	0.12946677
214	0x3db68ade	0.089132056
215	0x3d8c22fa	0.06842609
216	0x3dc7f9bb	0.09764429
217	0x3e871b7d	0.2638816
218	0x3e537699	0.2065071
219	0x3d112d20	0.035443425
220	0xbdae93f3	-0.08524313
221	0xbcc81c94	-0.02442769
222	0xbe7a63ac	-0.24452084
223	0xbcaae6fc	-0.020862095
224	0xbe1ff32e	-0.1562011
225	0xbd67ba38	-0.056574076
226	0xbe68ec51	-0.22746398
227	0x3dbc0d2d	0.091822006
228	0xbeb31217	-0.3497474
229	0x3e2cd28a	0.1687719
230	0x3d09e2a9	0.033663426
231	0xbd8f6363	-0.070013784
232	0x3e1f72bb	0.1557111
233	0xbd64a972	-0.05582566
234	0xbe7562e3	-0.23963504
235	0xbda2d514	-0.07950798
236	0x3e5959a0	0.21225595
237	0xbd424687	-0.04743054
238	0x3d632006	0.05545046
239	0xbe58e1cb	-0.21179883
240	0xbe3f1708	-0.1866113
241	0xbddf9441	-0.10916949
242	0x3d762002	0.06008912
243	0x3d65e001	0.05612183
244	0xbe8bcb9d	-0.27303782
245	0x3e7cf5d4	0.24703151
246	0x3e9c77ce	0.30560154
247	0xbe0b16a7	-0.1358286
248	0x3e7189b0	0.2358768
249	0xbe21ec84	-0.1581288
250	0xbd2f6a29	-0.04282585
251	0x3e90324d	0.28163376
252	0xbd8f6e00	-0.07003403
253	0xbdc877e7	-0.097884946
254	0x3da7f441	0.082008846
255	0x3e50937f	0.20368765

price_branch.lstm.weight_hh_l0 f4 [64, 16]
0	0xbe1653b7	-0.14680372
1	0x3a09aa04	0.00052514696
2	0xbe15d57d	-0.1463222
3	0x3e788fea	0.24273649
4	0xbd3ae488	-0.0456281
5	0x3e2401bc	0.16016287
6	0x3c876d40	0.016531587
7	0xbc9d652a	-0.019213278
8	0xbd9bc7da	-0.07606478
9	0xbc40ab7a	-0.011759633
10	0x3b9707a3	0.0046090647
11	0xbc6b9edd	-0.014381138
12	0x3d8804c3	0.06641533
13	0x3e3ef395	0.18647607
14	0xbe745075	-0.23858817
15	0x3e1ab115	0.15106614
16	0x3c969bbe	0.01838481
17	0xbdd81ab9	-0.10551972
18	0x3dc5231c	0.09625837
19	0xbe2ee1c7	-0.17078315
20	0x3e2239e3	0.15842395
21	0x3d4d7f12	0.05017001
22	0xbdc0f8f3	-0.09422483
23	0xbab3f6a7	-0.0013730124
24	0xbcf56cbc	-0.029959075
25	0xbd72f37d	-0.05931424
26	0x3e33b715	0.17550309
27	0x3e3de0b9	0.18542756
28	0x3e30b3d4	0.17256099
29	0x3ba190f8	0.0049306117
30	0x3e04fa63	0.1298614
31	0xbea0fe68	-0.31444097
32	0x3e6580b8	0.22412384
33	0xbe2f77c3	-0.17135529
34	0x3e1cf14a	0.1532642
35	0x3c15bdc4	0.009139482
36	0x3e0f7d50	0.14012647
37	0x3d9cffda	0.07665987
38	0xbe4244b6	-0.18971524
39	0x3e870343	0.26369676
40	0xbe771cda	-0.241321
41	0x3e44ae05	0.19207008
42	0xbdb8ea0f	-0.09029018
43	0xbe5438e1	-0.20724823
44	0xbc6cce89	-0.014453539
45	0xbde87207	-0.11349874
46	0x3e87bac4	0.26509678
47	0xbcfd0462	-0.030885879
48	0xbddfc084	-0.10925391
49	0xbd2a025c	-0.041506156
50	0xbd021eb3	-0.03176756
51	0xbd843809	-0.06456
52	0xbebdd759	-0.3707836
53	0x3e526b42	0.20548728
54	0x3da9b016	0.08285539
55	0x3e81ab23	0.2532588
56	0xbe977b7b	-0.29586396
57	0xbdfd992a	-0.12382729
58	0x3d3ccedd	0.046095718
59	0x3dd914d1	0.105996735
60	0x3d0b33a8	0.03398481
61	0xbe0fd7b3	-0.14047126
62	0x3d4ad297	0.04951724
63	0x3d600a46	0.054697298
64	0xbd9da172	-0.07696809
65	0x3e9d3f17	0.30712196
66	0x3e32545a	0.1741499
67	0xbd049024	-0.032364026
68	0xbe044349	-0.12916292
69	0xbe829fc8	-0.25512528
70	0xbdfe35fe	-0.12412642
71	0xbcc525d9	-0.024065899
72	0x3dcab2f5	0.098974146
73	0x3d085dd4	0.033292606
74	0x3d745cde	0.059658878
75	0x3e0c79bb	0.13718311
76	0xbda2fdb2	-0.07958545
77	0x3e086318	0.13319051
78	0xbe1639e3	-0.1467052
79	0xbe49ddfb	-0.19713585
80	0x3eb7f08c	0.3592571
81	0x3e56e6de	0.20986506
82	0xbdcbc8a8	-0.099503815
83	0x3e7cbcf2	0.24681452
84	0xbe178331	-0.1479614
85	0xbdc50b11	-0.096212514
86	0xbd5b3328	-0.053515583
87	0xbe25802c	-0.16162175
88	0x3c8221ab	0.015885195
89	0x3e5a2cef	0.21306203
90	0xbda46eb9	-0.08028931
91	0x3e2ff4f6	0.17183289
92	0xbe2e04c1	-0.16994001
93	0x3e92fc84	0.2870828
94	0xbe580a39	-0.2109765
95	0xbd4a9bd6	-0.049465023
96	0xbe1c5231	-0.15265729
97	0x3cae4109	0.021271246
98	0x3dfb8614	0.12281433
99	0xbe4598e9	-0.19296612
100	0x3b483fcc	0.0030555604
101	0xbea7802d	-0.32714978
102	0xbe244957	-0.16043602
103	0x3e13667c	0.14394563
104	0x3e22cc84	0.15898329
105	0x3d94e6a7	0.07270556
106	0xbd2d1a8c	-0.042261645
107	0xbe0409e0	-0.12894392
108	0xbe2f0fda	-0.1709589
109	0x3e704705	0.23464592
110	0x3da1c371	0.078986056
111	0x3c0c2943	0.008554759
112	0xbdeb89c0	-0.11500883
113	0xbde0bac8	-0.10973126
114	0xbdf21e23	-0.118221544
115	0x3dced3d2	0.10098995
116	0x3b7ee119	0.0038891493
117	0x3dcd1acd	0.100148775
118	0xbd07d921	-0.033166055
119	0xbd850387	-0.064948134
120	0xbe51993f	-0.20468615
121	0xbd842f01	-0.06454278
122	0xbd32fd2e	-0.043698482
123	0xbe6f3a72	-0.23362139
124	0x3dfe7ff6	0.1242675
125	0x3e332831	0.174958
126	0x3c97f596	0.018549722
127	0x3d9a86b5	0.075452246
128	0xbdbb28b7	-0.09138625
129	0xbcc2d5f1	-0.023783656
130	0x3e46ec2a	0.19426027
131	0xbe546f6c	-0.20745629
132	0x3d0c8fe7	0.034316923
133	0x3e45de16	0.19323
134	0x3d0bf0bc	0.03416513
135	0x3e4825fd	0.19545741
136	0xbea23104	-0.3167802
137	0xbe08b74d	-0.13351174
138	0xbe5de763	-0.21670298
139	0xbe2c4bcf	-0.16825794
140	0x3cd162af	0.025559751
141	0x3cbe3c3d	0.023222083
142	0x3e4dbc1c	0.2009129
143	0x3d7c15df	0.061544295
144	0xbe219aed	-0.15781756
145	0xbd99fee8	-0.07519323
146	0x3c2ac17a	0.010422105
147	0xbe34db22	-0.17661718
148	0x3e452cb2	0.19255331
149	0x3e9292a4	0.28627503
150	0x3dc87579	0.09788031
151	0xbe07695a	-0.13223782
152	0xbdd2d7b5	-0.10295049
153	0x3e2b86a9	0.16750588
154	0xbdf15494	-0.1178371
155	0xbca8c27a	-0.020600546
156	0xbea045a7	-0.3130314
157	0x3e69bf57	0.22826897
158	0x3e0f6479	0.14003171
159	0xbc29517b	-0.010334368
160	0xbe63674c	-0.22207373
161	0xbdc2dd1e	-0.09514831
162	0x3e6e9e6e	0.23302624
163	0xbc829e9d	-0.015944773
164	0xbe2eba13	-0.17063169
165	0xbd16346f	-0.0366711
166	0x3d759481	0.059956077
167	0x3debc557	0.11512249
168	0xbe790d57	-0.24321495
169	0x3dc954da	0.09830637
170	0xbe83bebd	-0.2573146
171	0x3c905370	0.017617911
172	0x3dbcf97e	0.09227274
173	0xbd604a6b	-0.05475847
174	0x3e474043	0.19458108
175	0xbe117edf	-0.14208554
176	0xbe4cda0c	-0.20005053
177	0x3dc387aa	0.0954736
178	0xbd95a10c	-0.07306108
179	0x3e43804d	0.19091912
180	0xbafbec6c	-0.001922024
181	0xbdf60a3b	-0.1201367
182	0x37c681b8	2.3663844e-05
183	0xbd0d12fb	-0.03444193
184	0xbd1d5168	-0.038407713
185	0x3d24c47f	0.040226456
186	0xbe09ead2	-0.13468483
187	0xbe6ec476	-0.23317131
188	0xbeacbcba	-0.33737737
189	0x3e205ced	0.15660448
190	0x3df54ebe	0.119779095
191	0x3e01aec4	0.12664324
192	0x3e7846f5	0.24245818
193	0xbd6df9f2	-0.058099695
194	0x3cc6675f	0.024219213
195	0xbdf6d31b	-0.12051984
196	0xbd154929	-0.036446724
197	0x3e0f1eca	0.13976589
198	0xbe162722	-0.14663365
199	0x3d12a4a4	0.035801545
200	0xbe351484	-0.17683607
201	0xbc70213c	-0.014656361
202	0x3ded58c5	0.11589197
203	0x3e035281	0.12824441
204	0xbe8710bb	-0.26379952
205	0x3e48f9d8	0.19626558
206	0xbe2208a5	-0.1582361
207	0xbc6578cf	-0.014005854
208	0xbd924108	-0.0714131
209	0x3e9de031	0.30835107
210	0xbe5ce404	-0.21571356
211	0xbe337707	-0.17525874
212	0xbc9b252b	-0.018938622
213	0xbeb5433c	-0.35402858
214	0xbd550072	-0.052002378
215	0x3df41ce2	0.119195715
216	0xbe0048b3	-0.12527733
217	0x3e3c487b	0.18387024
218	0xbe87fd44	-0.26560414
219	0xbd5944ee	-0.053044252
220	0xbe79e4d7	-0.24403702
221	0x3d226499	0.03964672
222	0x3d4e495b	0.050362926
223	0x3d556a30	0.05210322
224	0x3dbe0787	0.092787795
225	0xbd7fbf0e	-0.062438063
226	0x3e073564	0.1320396
227	0x3d0e1f29	0.034697685
228	0x3e0ccd0f	0.13750099
229	0xbd2fbbbc	-0.042903647
230	0x3e886fee	0.26647896
231	0xbe3cb54c	-0.18428534
232	0xbe58077f	-0.2109661
233	0xbd6f9cbb	-0.05849908
234	0xbe60313e	-0.21893784
235	0xbda839c7	-0.08214145
236	0xbd598a6c	-0.053110525
237	0xbc4afd29	-0.01238946
238	0xbe31190c	-0.17294711
239	0x3bc4f8bc	0.0060110968
240	0x3c0f4a97	0.008745811
241	0x3e8f0901	0.27936557
242	0x3e222430	0.15834117
243	0x3e38de7b	0.1805362
244	0x3e91ce4c	0.28477705
245	0xbeaf5d50	-0.3425088
246	0xbea49ba7	-0.32150003
247	0xbe7484bf	-0.23878764
248	0x3eb25185	0.3482782
249	0x3e2ac81d	0.166779
250	0xbe524bdb	-0.20536749
251	0x3e960b7c	0.29305637
252	0xbe6fa1e3	-0.23401599
253	0xbd9336fe	-0.07188223
254	0xbe8d6c4f	-0.27621695
255	0xbe63a214	-0.22229797

price_branch.lstm.bias_ih_l0 f4 [64]
0	0x3e86bdca	0.26316673
1	0x3e61c35e	0.22047183
2	0xbbe6646d	-0.0070310147
3	0x3c373c73	0.011183846
4	0xbdedbc40	-0.116081715
5	0xbdda1261	-0.10648037
6	0x3c524e99	0.012836122
7	0x3e431f0b	0.1905481
8	0x3d5157e2	0.051109202
9	0x3e0c678b	0.13711374
10	0x3e899d31	0.2687774
11	0x3e1ef792	0.15524128
12	0xbe188127	-0.14893018
13	0xbe00ebc2	-0.12589934
14	0x3d5f6cf8	0.05454728
15	0x3e82d85c	0.25555694
16	0x3e0d37d2	0.13790825
17	0xbe0b3dbe	-0.13597772
18	0x3d3363c9	0.043796334
19	0x3d95e786	0.0731955
20	0x3e907e3f	0.28221318
21	0x3da44107	0.080202155
22	0x3e21deb7	0.15807615
23	0x3e4a2ffc	0.19744867
24	0xbd3c694a	-0.04599885
25	0xbda15970	-0.07878387
26	0xbe0e5519	-0.1389965
27	0x3e2e100c	0.16998309
28	0xbddbf1dd	-0.10739491
29	0x3dd17186	0.10226731
30	0x3c1df880	0.009641767
31	0xbd1a264a	-0.03763417
32	0x3e373ea7	0.17894994
33	0xbce10180	-0.027466536
34	0x3e40b906	0.18820581
35	0x3e3233b0	0.1740253
36	0xbd800d32	-0.06252517
37	0x3d724a1c	0.059152707
38	0xbdb9be79	-0.09069533
39	0x3e80cb0d	0.25154915
40	0x3e2115ad	0.15730925
41	0x3e80cc0b	0.25155672
42	0x3c361186	0.011112576
43	0xbb2d23b0	-0.0026418976
44	0xbe7f73b7	-0.24946485
45	0x3dd8fc2e	0.105949745
46	0xbdc1a3da	-0.0945508
47	0xbe4a671f	-0.197659
48	0x3e5ce779	0.21572675
49	0xbdadfc4c	-0.084953874
50	0x3cfeea6c	0.03111764
51	0x3daebd8b	0.08532246
52	0x3e94bb67	0.29049227
53	0x3e22a711	0.15884043
54	0x3d8bebfd	0.068321206
55	0xbd91a4ea	-0.07111533
56	0x3e9767e7	0.2957146
57	0x3e0138ef	0.12619375
58	0xbc8c09cd	-0.017094517
59	0x3edcc72d	0.4312071
60	0xbd9a217f	-0.0752592
61	0xbdb93d0b	-0.09044846
62	0xbe8f916c	-0.28040636
63	0x3e5e2f89	0.2169782

price_branch.lstm.bias_hh_l0 f4 [64]
0	0x3e14ab50	0.14518476
1	0x3e1a3f15	0.15063126
2	0x3e167788	0.14694035
3	0x3d5d143a	0.053974368
4	0xbdbe3361	-0.092871435
5	0x3d3c74ed	0.046009947
6	0xbd8b2db0	-0.067958236
7	0x3e6881ae	0.22705719
8	0x3e213ee9	0.15746655
9	0x3e34e343	0.17664818
10	0x3dd36aac	0.103230804
11	0x3d161279	0.03663871
12	0x3cd1f109	0.02562763
13	0xbd153c5a	-0.03643451
14	0xbe857d5a	-0.26072198
15	0x3e8a6c1a	0.270356
16	0x3e5e6508	0.21718228
17	0x3e63ba40	0.22239017
18	0x3e362883	0.17788891
19	0x3dc71178	0.09720129
20	0x3e8addbb	0.27122292
21	0x3e273223	0.1632772
22	0x3d42e287	0.047579315
23	0x3c8aebc6	0.016958129
24	0x3e9b69a7	0.30354044
25	0x3e1bc295	0.15210946
26	0x3e901d55	0.2814738
27	0x3e665fb1	0.22497441
28	0x3d82b04a	0.06381281
29	0x3e3522ad	0.17689009
30	0x3e3b26aa	0.18276468
31	0xbe07a226	-0.13245448
32	0x3e4b7a16	0.19870791
33	0x3e5adb99	0.21372832
34	0xbe630470	-0.22169662
35	0x3e704c72	0.23466662
36	0x3d443361	0.04790056
37	0x3d9fe57f	0.07807445
38	0xbdb7650d	-0.08954821
39	0x3e05ba49	0.13059343
40	0x3d2bedb3	0.041974735
41	0x3e29ba20	0.16574907
42	0x3d275bee	0.040859155
43	0x3e112d6d	0.14177485
44	0xbcdcc90c	-0.026951335
45	0x3df21b8c	0.118216604
46	0x3df32f22	0.11874224
47	0x3e8f2428	0.27957273
48	0x3e0b2f16	0.1359218
49	0xbe32b86d	-0.17453165
50	0xbe19ba0b	-0.15012376
51	0x3e4a6a7f	0.19767188
52	0xbd9396ef	-0.07206523
53	0xbd56221a	-0.052278616
54	0x3e20113b	0.15631573
55	0x3d89fc47	0.06737571
56	0x3e21367f	0.15743445
57	0x3d1a594b	0.037682813
58	0x3eaeb0ff	0.34119412
59	0x3d822ef8	0.06356615
60	0x3e32f345	0.17475612
61	0xbda86e1a	-0.08224125
62	0x3d8eb5ee	0.06968294
63	0xbe09c69b	-0.13454668
