models/checkpoints/news_lstm/news_lstm_v6.pt (torch, 49874 bytes, 19 tensors)

sentiment_branch.lstm_layers.0.weight_ih_l0 f4 [128, 11]
00000000: 5335 debd 400c 45bd 588f 78be fcc2 8cbd
00000010: 51a6 5c3c 4d31 55be 5ac0 9bbe ccea 96be
00000020: d444 45be 318b 18be 1bb7 22be 5681 b93d
00000030: 2582 53bc d2cc d6be 4e07 d0be cbbe e13e
00000040: c822 40be 99de 6dbe 5f18 bdbe 9caa 353c
00000050: 6e72 8bbe c9bf 9c3e 8b9e cf3d 70fb ad3d
00000060: 3763 953e ddf2 7b3e 56ce a73e 62c3 863e
00000070: 05f8 18be 224e 63be 7356 86be 5981 ff3c
00000080: 5e42 183d 22a4 64be f372 ecbb b0f5 01bf
00000090: dc31 303e d61f ddbd 7cb8 3dbe 7384 36bd
000000a0: c140 253e c022 95be 4de9 30be 9155 fb3e
000000b0: 3f90 e83e c48a 263f 72b7 c8bd 7530 0fbe
000000c0: 8173 ba3e 69b7 d43d 4d57 7f3d 1da4 7dbd
000000d0: 56ac be3d d67e 323e 22ef 27be 2734 6bbe
000000e0: b745 87be e59f 68be af1c cebd 425e a6be
000000f0: a6fe 363d 9a9d 01be 0715 61bc f806 bbbe
00000100: 9bb7 b6be 09af 40bd 596b ab3d 5815 94bd
00000110: 869a 12bd f64c 60be c4c5 cd3d 41ad 1c3e
00000120: 4d02 8b3d 02ea ad3b d695 113f 1c43 8dbe
00000130: 1411 41be c671 a23d e68f 673e de53 05be
00000140: 3a13 333e 60af 233e 6c21 b9bd 572c 9ebd
00000150: 2f06 bfbe a070 993d 54f4 c0bc d540 383f
00000160: c83c 86be 3f23 103e 0a72 c03d de1a 923d
00000170: dd3f b8be 8af4 9dbc e686 9bbe 27c1 1abe
00000180: e67a a3bc 07b1 debd 01a9 debe 49ac 2cbe
00000190: f2b7 adb9 eefe f0bd 7920 eabd 8ce8 15be
000001a0: 87f5 9dbe 40a9 85be 209c 2cbe ae31 57be
000001b0: adad 4bbd 1e5c 913e 945c 82bd 5324 fcbe
000001c0: ec6b 9c3d d18e 72bd 00f7 133e 2cab f1bd
000001d0: 10d5 0fbd 26ed 3dbe 0bfe dabd ae07 ccbb
000001e0: 54da 033e e350 c3be 04ba 61bd 6d00 f8bd
000001f0: c7da 243e 683c e1bd 939c 68be 5c2b 513d
00000200: 13a8 1d3d eba5 6a3e b0d9 543d e6b8 3e3e
00000210: db95 b9be 5c54 0a3e f950 b93d 0a1c 11be
00000220: da25 dabc 235e 88be 18e8 5fbe cce6 acbd
00000230: 2d93 93be 90f0 e9bd 864a f03d 2d29 913b
00000240: c77b 41be 614b c43e 9aba 253d bb2b 113e
00000250: ea15 51be 8085 9b3e c2fa 953e 6cfb a93d
00000260: ad08 eb3d 9a19 2ebe 5f6f 7d3e bb70 f43c
00000270: 6f63 6d3e 647c f03e 2060 a1be 372a 633e
00000280: 6239 12be 8878 bb3e 4f28 a9be 0733 ec3e
00000290: f961 09be c517 adbd 0eb7 2cbd 87c4 46bd
000002a0: f86a 8c3d 59ba ecbe 510a 05be 227c cebd
000002b0: d70f e0bc 8b88 47be 3bf4 ccbd 8201 573d
000002c0: 1961 c8bd 24a1 efbd 0a3c 533e e163 933e
000002d0: 71ef 683d 35f1 c13b 1c67 69bd 2990 b6be
000002e0: 738a 173e 3905 af3e eade 00be 125d d53d
000002f0: 4d3b 033e e192 d53d 93fa 583e 33b3 61bc
00000300: 7149 6e3e 6c0c b83e 8ad0 2c3e 9a75 e13c
00000310: 67bf 23be d984 cc3e 5b9a d53d ffec a1bd
00000320: 7ce8 833e e81d e03e 6639 24be 8c3f 76be
00000330: 8612 7fbe d6b3 493e 74b5 9cbe b01f c93e
00000340: 330f 2abe 75dd bf3e 02e4 9e3e c167 3ebd
00000350: fb09 6abd f29b 0b3f a333 c03e df5c d1bc
00000360: 099b b13d e20f 81bc f991 98bc bc41 143e
00000370: a6b7 56be f1c7 14be 1bc3 8d3b a68b 8a3d
00000380: e0dd 92be b457 b6bd f1e9 9a3e b24b 1f3d
00000390: 8a01 b23e 274f 0a3e 02be 52be a02b 003f
000003a0: 5349 a83e 6e03 523e dd78 0bbe 8cf0 af3c
000003b0: 3094 f73e 63f0 9d3e 43b0 9d3d 0c6f 9c3d
000003c0: 5cfa 7b3e b1c7 c23d b4df c1ba 3c99 63bd
000003d0: 669a 233f d5a7 683e 3de8 043d 500b 503e
000003e0: b2f0 08bd 7aea 28bd 4457 7b3e 4f37 c83e
000003f0: 3f84 0d3d 41bd e9be a491 dfbe e472 11be
-0.108500145 -0.048107386 -0.24273431 -0.06873128 0.013467387 -0.20819588 -0.3042019 -0.2947601
-0.19264537 -0.14896847 -0.15890162 0.09057872 -0.012909447 -0.4195314 -0.40630573 0.44090876
-0.18763268 -0.23229446 -0.36932656 0.01108804 -0.2723574 0.3061507 0.101376615 0.084952235
0.29177257 0.24604364 0.3277461 0.2632094 -0.14938362 -0.22197774 -0.2623783 0.031189607
0.037172668 -0.22328237 -0.0072158515 -0.50765514 0.1720652 -0.10797088 -0.18527406 -0.044559907
0.16137983 -0.29128075 -0.17276497 0.4908872 0.4542255 0.6505549 -0.098006144 -0.13983329
0.36416247 0.10386545 0.062339116 -0.06192409 0.09310214 0.17431197 -0.16399816 -0.22969113
-0.26420376 -0.22717245 -0.10064065 -0.32493788 0.044676445 -0.12657776 -0.0137379235 -0.36528754
-0.35686955 -0.047041927 0.08370084 -0.072306335 -0.035791896 -0.21904358 0.100474864 0.15300466
0.06787548 0.005307437 0.56869256 -0.27590263 -0.18854171 0.07931857 0.22613487 -0.13020274
0.17487803 0.15984869 -0.09039578 -0.07723301 -0.37309405 0.07492185 -0.023554005 0.71973926
-0.26218247 0.14075945 0.09396751 0.07134031 -0.35986224 -0.019281644 -0.30376357 -0.15112744
-0.019956063 -0.10873609 -0.43488315 -0.16862597 -0.0003313418 -0.11767374 -0.11431975 -0.14639491
-0.30851385 -0.2610569 -0.16856432 -0.21015045 -0.049726177 0.28390592 -0.06365314 -0.49246463
0.07637772 -0.05921823 0.14449692 -0.118002266 -0.0351153 -0.18547496 -0.10692986 -0.0062265014
0.12876254 -0.3814765 -0.05510904 -0.12109456 0.16099082 -0.1099785 -0.22715978 0.05106674
0.038490366 0.22914855 0.051965415 0.1862522 -0.36247143 0.13508743 0.090486474 -0.14170852
-0.026629377 -0.2663432 -0.2186588 -0.084424585 -0.28823224 -0.11422837 0.11732964 0.0044299574
-0.18894874 0.3833876 0.04046116 0.14176838 -0.20418516 0.3037529 0.29292876 0.08299908
0.11476264 -0.17001954 0.24749516 0.02983891 0.23182462 0.46969903 -0.3151865 0.22184072
-0.14279702 0.36615396 -0.33038566 0.4613268 -0.1341628 -0.08451799 -0.042166762 -0.048527267
0.0685634 -0.46235922 -0.12992217 -0.1008227 -0.027351303 -0.19485681 -0.10007521 0.052491672
-0.09784145 -0.11700657 0.20628372 0.2878714 0.056868974 0.0059186467 -0.0569831 -0.3565686
0.14798908 0.34183672 -0.12585035 0.104181424 0.1281559 0.104284056 0.21189336 -0.013775635
0.23270203 0.35946977 0.16876426 0.027521897 -0.15990983 0.39945105 0.104298316 -0.079065315
0.2576331 0.43772817 -0.16037521 -0.24047679 -0.2490941 0.19697508 -0.30607188 0.39281988
-0.1660736 0.37473646 0.3103333 -0.046485666 -0.057138424 0.5453483 0.37539396 -0.02555698
0.08672149 -0.015754644 -0.018624293 0.144782 -0.20968494 -0.14529397 0.004326237 0.06764917
-0.28684902 -0.08903447 0.30256608 0.038890548 0.347668 0.13506757 -0.20580295 0.50066566
0.32868442 0.20509121 -0.13620324 0.021477006 0.48355246 0.30847463 0.07699635 0.07638368
0.24607223 0.09510744 -0.00147914 -0.055566058 0.6390747 0.22720273 0.032448042 0.20316815
-0.03343267 -0.04123924 0.24545008 0.39104697 0.034549948 -0.45652202 -0.43665802 -0.14203984

sentiment_branch.lstm_layers.0.weight_hh_l0 f4 [128, 32]
00000000: b281 d8bd 2645 263d 2b95 6d3e 4b1a 15bf
00000010: 3b01 51bd 88b4 a6bc 11d9 533e 14b3 e93b
00000020: 94de eebb 4641 653d dcc7 b7be cea8 e2be
00000030: 1f8e 803d 0046 fbbd c9f3 d9bd beee df3e
00000040: c7f6 a0be 8680 e7be 9f1a aa3e cd15 ee3d
00000050: ec04 62be f76e acbe 7247 e63d 4a61 40be
00000060: 65b8 6cbe 423c 18be 8eba 803c df15 6cbe
00000070: 1966 a0be 5e0d cbbd 591c e23e cc8f 04be
00000080: bc73 e0bc 04b5 c53e 17dc 90bd e9b0 13be
00000090: 4996 1bbe 4c05 3d3d 706c 27be dada 14be
000000a0: 9f1a f53c 8165 ec3d 78f3 3b3e a31b 0cbc
000000b0: fe90 0abe 60fe a13e 7859 ce3e 09e9 223e
000000c0: 15d9 b83e 2755 75be cacb d8bd 6e78 17be
000000d0: afd3 9c3e da98 1cbf 015e a6bd 48e8 1ebd
000000e0: 8804 3b3d 8e65 6c3e a03e 493d e435 2dbd
000000f0: 9899 5c3e a01c 1d3e b173 b1bb 0d72 f0be
00000100: 5ec5 563f de2b 86be 7300 8b3e d7e0 2bbf
00000110: 9887 033e 8391 8f3e 174b 603c b359 25bf
00000120: 762d e0be 3132 68be 5505 debd 8978 5cbe
00000130: ff92 083d 726f 8f3e c594 12bf 1030 eebd
00000140: d1e6 d6be 07e2 5ebd da42 fb3c 0c58 09be
00000150: e8d6 dabd da27 8b3d d3b0 3fbe e64b dbbd
00000160: 8251 353e b77f 39be 30ff e83e fde2 813e
00000170: 9f9e dcbd 68fa ddbe 6de1 2d3e 808b 06be
00000180: 0a63 09be 3c13 25be bd64 9abe e8da dc3d
00000190: f3a6 08be 9b98 08bf 8778 02bf d29d 6bbe
000001a0: a28b a83e 0804 13bf 8ded 603e 04b4 4b3c
000001b0: 3e32 45be 5e92 b33d 7cd1 8ebe d6d5 afbe
000001c0: 707b 603e f4e1 d23e 4909 ebbd 1814 1ebb
000001d0: 184a f13d 2d16 1bbe c42e 28bf d14f 15be
000001e0: 422a 6dbd 6b84 f33e 6f59 613a a13d 19bf
000001f0: ebb8 9cbe c748 05be 3e45 e4be 4cca e6be
00000200: acbb 57be 4f05 bfbd 47bf a6be 1788 513e
00000210: 4dec c6bd ff4f 473d 8bc3 0b3f 4865 b0be
00000220: fe6a f5bd 7684 553f 17f1 63be 0123 4bbe
00000230: 95f6 8d3d e3c2 f4be fbba 27be c020 ab3d
00000240: bb9d a5be 70cc 0e3e 09f3 a5bd ab76 12be
00000250: a29c bcbe 2700 013b dc39 06be 38c5 843e
00000260: cc40 83bd 7fd5 16be d7b8 c7bd 2913 53be
00000270: 1a3f 1a3e 3188 6a3e 6c9c dbbe 77a4 5bbe
00000280: 7b38 4fbc 19ae 1e3e 87f4 f7bd 4eed 94be
00000290: 5e37 73bd ede7 2f3d c6a8 06be 20b3 debd
000002a0: 7513 4fbe 185e 963e 2af6 b13b 8428 fabd
000002b0: 5f44 0c3e c31c 183e 54c1 40be a506 053e
000002c0: 35a8 eabb ba11 bcbd 7ead 6d3e 138a d0be
000002d0: fb07 5ebe 8e6d edbe 82f4 15be 7417 b93d
000002e0: a03d 633e 66d0 40be 28a2 403e 71f0 82be
000002f0: 45bb 443e b450 8b3e 9a73 c33e 22fc dd3b
00000300: 1d40 b8be 3395 c03e f71b f4be 322f 86bd
00000310: cd51 65be 9910 adbe 656a ac3d 71e0 11be
00000320: 7ba6 ce3d 3246 d33e f2d4 f6bb 6c62 cebe
00000330: 534a 7b3e ef1b e8be dd05 aebe ff3e 393d
00000340: 7739 b8bd 0ba3 ecbe 4d60 253e 827e febe
00000350: 6f15 5bbe 24b3 bfbe edec 39be 8581 abbd
00000360: 8fe6 41be e9d7 5f3e dd5e 603e 6660 90be
00000370: 792b b53e 9171 043f 1b1e d33d 8e0c f7bd
00000380: 92d1 9ebe 8dd5 6c3d f259 4cbe d9b0 3d3e
00000390: bd41 debe 0505 113e ac6f 5bbd b486 e4be
000003a0: 57f3 bebe 7a3e 883e d4b5 1fbe fa0d 2abe
000003b0: adca 1d3e 8eaf c7bd c8af 59be 1fee c2bd
000003c0: ca74 95be 5d27 ba3e f031 8f3b c242 04bf
000003d0: 6e2b 513e 8443 a0bd f47c e5bd cb9f febc
000003e0: a43a 91bd 16ec 3f3e 0c32 77be b017 72be
000003f0: 2836 45be 6238 a83e 0cc5 19bc ad24 5e3d
-0.105716124 0.04059329 0.23201434 -0.58243245 -0.051026564 -0.020349756 0.20688273 0.0071319435
-0.007289717 0.055970453 -0.35894668 -0.44269413 0.062771074 -0.12269211 -0.106422015 0.43736833
-0.31438276 -0.45215243 0.33223435 0.11625252 -0.2207219 -0.3367841 0.11244096 -0.18787113
-0.23117216 -0.14866737 0.015713956 -0.23055218 -0.31327894 -0.09914659 0.44162253 -0.12945479
-0.027398936 0.38614666 -0.07073229 -0.14422955 -0.15194048 0.04614763 -0.1634996 -0.1453661
0.02991992 0.11542798 0.18354595 -0.008551511 -0.13531873 0.31639385 0.40302634 0.15909208
0.3610312 -0.23958264 -0.10585745 -0.14792034 0.30630252 -0.6117073 -0.081233986 -0.03879574
0.04565862 0.23085615 0.04913199 -0.042287722 0.21542966 0.15342951 -0.005415403 -0.46962014
0.8389491 -0.26205343 0.2714878 -0.67139953 0.12844694 0.28040704 0.013689778 -0.64589995
-0.43784684 -0.22675397 -0.10840861 -0.21530356 0.03334331 0.28014714 -0.57258254 -0.11630261
-0.41972974 -0.054414775 0.030671526 -0.13412493 -0.10685521 0.067947105 -0.18719797 -0.10707836
0.17706874 -0.18115126 0.45507193 0.2536849 -0.10772442 -0.43355107 0.16980524 -0.13139153
-0.13416687 -0.16120619 -0.30154982 0.107839406 -0.13344936 -0.5335786 -0.5096516 -0.23009422
0.3291903 -0.57428026 0.21965618 0.012433056 -0.19257447 0.08768152 -0.278942 -0.3434283
0.21922088 0.41188014 -0.114763804 -0.0024120864 0.117817104 -0.15145178 -0.6569636 -0.14581229
-0.05790163 0.47561964 0.00085963955 -0.59859663 -0.3060983 -0.13016044 -0.44584078 -0.45076215
-0.21067685 -0.093271844 -0.32567808 0.2046207 -0.097130395 0.048660275 0.5459525 -0.3445227
-0.11983298 0.83405244 -0.22259937 -0.19837572 0.069317974 -0.47804937 -0.16379921 0.08355856
-0.323469 0.13945174 -0.08102996 -0.1430308 -0.3683825 0.0019683929 -0.13108009 0.25931716
-0.064088434 -0.1472988 -0.09752052 -0.20612778 0.15063134 0.22903515 -0.42892778 -0.21449457
-0.012647743 0.154961 -0.12107187 -0.290873 -0.059378974 0.04294579 -0.1315032 -0.10874009
-0.20222266 0.29368663 0.0054309564 -0.12214759 0.13697957 0.14854722 -0.18823749 0.12990816
-0.007161165 -0.091830686 0.23210713 -0.40730342 -0.21682732 -0.46372646 -0.14644054 0.090376765
0.22191477 -0.18829498 0.18811858 -0.25574067 0.19212063 0.2721001 0.38174134 0.0067744413
-0.35986415 0.3761383 -0.47677585 -0.065519705 -0.22394486 -0.33801726 0.08418731 -0.14245774
0.100903474 0.41264492 -0.0075327093 -0.40309465 0.24540071 -0.45333812 -0.33988848 0.045226093
-0.089953355 -0.46218142 0.16150017 -0.49705893 -0.21394895 -0.3744136 -0.18156786 -0.08374313
-0.18935607 0.21859707 0.21911187 -0.28198546 0.3538473 0.5173579 0.103084765 -0.120629415
-0.31019264 0.057820845 -0.19956186 0.18524493 -0.4340953 0.14162071 -0.053573295 -0.4463402
-0.3729503 0.26610166 -0.15596706 -0.16606894 0.15409346 -0.09750281 -0.21258461 -0.09518074
-0.29190665 0.36358157 0.0043699667 -0.51664364 0.20426723 -0.078253776 -0.112054735 -0.031082055
-0.07091263 0.18742403 -0.24140185 -0.23641849 -0.1925894 0.32855517 -0.009385359 0.054234196

sentiment_branch.lstm_layers.0.bias_ih_l0 f4 [128]
00000000: d299 36bd ffd9 3f3e 2023 cdbd 44bf d0bd
00000010: 8fc5 0cbd d80d 22be 3373 863e 570c bbbd
00000020: 47de 13be 2fd7 843e f365 b5bd f45d ef3c
00000030: d34b 4b3d 5dea 7f3e 1318 9abd 9a9f 2c3e
00000040: 0b59 023d 3742 38be eaa3 2dbe c9ed 143e
00000050: 9f6e babc 0c81 10be 05a6 ffbd 2cda 03bd
00000060: a9c3 1ebe 709f c03e 8edf 9b3d fc1c 063d
00000070: f7be 0fbe df9a 9ebd 58a0 28be feeb a8bd
00000080: 824a 8c3e 51d2 963c b82c b23d 1151 4d3b
00000090: 0fc7 983d 6f46 6e3e 83ca cc3d 6515 5dbd
000000a0: c8ab 6ebd 3cee c33d 7009 6dbd 96c2 2d3e
000000b0: 5479 d2bd a52e 2abe fe68 a33e bc8f e7bd
000000c0: ac07 04be b011 29be 298b c33e 691f aa3e
000000d0: b096 473e fb58 1dbe 9fe5 36be 9d4d 03ba
000000e0: be1b 6b3e b31d ff3d bb37 bd3d c1c6 2e3d
000000f0: 999f 27be d06f 29be e891 673e ba8b c9bc
00000100: 641b 82bd 214a 873a c6a2 a7bd fdac 9dbc
00000110: e032 ad3d 976c 903c 8b44 f3bd 27a4 11bd
00000120: e93d bdbd 7e5b 35bc 33b3 253d 6c0a c6bd
00000130: 15da 713d 81eb 1e3d 1bf5 70bd 7077 d1bd
00000140: b190 c93d a95b 36bd 7118 aebd c45f d13a
00000150: 734e 953c e180 bdbb 5a5d d33d c3a3 7dbd
00000160: 605b c2bc 595e 52bd 1fe2 f03b daae 08be
00000170: 5524 dfbc 9157 823d 0b3a ae3d 4a65 f43d
00000180: ed80 c43d 9e42 0b3e 028e fcbd 4dad 0dbe
00000190: b1da ac3e 3e13 493d 8741 aa3c 9f31 1f3c
000001a0: 5255 81be e8d3 51bc 19d3 c83d 2d08 be3d
000001b0: 68fd 23bd c43b 4a3e a675 4e3e 2384 173d
000001c0: 6576 5c3d 87b4 7abd 2297 bcbc ea98 72bd
000001d0: ccc0 a03d 8bcc ca3d 3e85 393e 8775 a03e
000001e0: a80d e23d 1c2b 1c3e c01c 45be 7dd8 313e
000001f0: 42ed 9f3e 5116 363d e906 453e 221e a93c
-0.04458029 0.18735503 -0.10016465 -0.10192731 -0.034368094 -0.15825593 0.26259765 -0.09133213
-0.14440261 0.25945422 -0.08857336 0.029219605 0.04963286 0.24991746 -0.07524123 0.16857758
0.0318232 -0.17994009 -0.1695706 0.14543833 -0.022757826 -0.14111727 -0.124828376 -0.032190487
-0.15504326 0.3762164 0.07610999 0.032742485 -0.14037691 -0.07744383 -0.16467416 -0.08248137
0.27400595 0.018410834 0.08699936 0.0031328837 0.074598424 0.23269056 0.099995635 -0.05397548
-0.058269292 0.09566924 -0.05787033 0.1696876 -0.10277048 -0.16619356 0.3191604 -0.11306712
-0.12893552 -0.16510653 0.38192108 0.3322709 0.19491076 -0.15365975 -0.17861031 -0.00050088187
0.22959802 0.124568366 0.09239145 0.042670015 -0.16369475 -0.1654656 0.22614253 -0.02460276
-0.063528806 0.0010321775 -0.081853434 -0.019247526 0.08456969 0.017629905 -0.11878308 -0.03555694
-0.09240324 -0.011069177 0.0404541 -0.096699566 0.05904587 0.038798813 -0.0588275 -0.10227859
0.09842051 -0.044521008 -0.085007556 0.0015973975 0.018225884 -0.005783186 0.1032054 -0.061923753
-0.023725212 -0.05135951 0.0073511745 -0.1334795 -0.027239004 0.06364358 0.085071646 0.11933382
0.09594903 0.13599631 -0.12331773 -0.1383564 0.33760598 0.049090616 0.020783199 0.00971642
-0.25260407 -0.01280687 0.09805889 0.09278903 -0.04003659 0.19749361 0.20162067 0.03699125
0.053823847 -0.06120732 -0.023021284 -0.05922786 0.07849273 0.09902295 0.18117234 0.31339666
0.11037761 0.1525082 -0.19249249 0.1736774 0.312357 0.044454876 0.19240917 0.020644251

sentiment_branch.lstm_layers.0.bias_hh_l0 f4 [128]
00000000: 2394 85bd d1ed 0a3d 4207 863c 0712 013e
00000010: d8fb 9d3b b49b fa3d 35ed 383e ff0b 89be
00000020: ec2a 983d dea8 3dbd 84dd 1fbc 2bb3 983d
00000030: c3b3 4d3d 6485 5d3e 7a41 303e bf35 803e
00000040: da9a 2d3d 1df2 5d3d 83ae 99bd 0e03 033d
00000050: 8968 02bd 383e 47be 63be 1c3e 33be c43d
00000060: e953 523d 09a1 c53e c026 233e 06ad b0bd
00000070: 0a1c d43d e39a 643e d27f 243e 5ee3 303c
00000080: 3186 a93b ccf8 bf3a 45ff 4e3d cc31 44be
00000090: e812 9f3d e67e 833e 8118 d63d c4ef f43d
000000a0: 7a75 f93d 0650 963d 072e 133c de98 c13e
000000b0: 9921 0dbd deb5 44be 8121 223e a66b 48bd
000000c0: 3287 743c 880d d6bd 0791 dc3e 8ef3 2f3d
000000d0: 5be3 373e 90fc 4bbe 5738 4bbe af49 8b3e
000000e0: 12d5 4b3b 9c7f df3d 17be 21be 3798 6dbd
000000f0: f5f2 153e 2540 f2bd 3ce0 18bd 92d2 4ebe
00000100: 72ad a1bc 8225 7fbd afbb 473e 954b b4bc
00000110: a00e a23d cbe6 fbbd 1936 bfbc 2131 39bd
00000120: 3820 193e f5f9 893c 7d11 0d3d df22 3b3d
00000130: 3a43 0ebe c1a9 7ebd 9217 0fbc 33a8 163e
00000140: e240 dabc 9908 13be 03a5 1d3e a161 e0bd
00000150: 5dd0 81bb 10d0 cfbd 588c c9bd 77ca 9e3d
00000160: f241 02bd ecfa c4b8 e8a0 113d f54c 883d
00000170: e439 253e e4f3 15be 0564 12be 306c 00bd
00000180: 91f0 f2bd 22f1 a83e f8d3 16be d0b0 f6bc
00000190: 4af2 d63d 8485 a33d be88 123e 87eb 69be
000001a0: 0202 3dbd 833c 663e 37f9 c23d 7d66 0d3e
000001b0: e405 c23d 7e21 6e3e 675d 6cbd 9934 4f3e
000001c0: f55e 663d 308e 5cbe 2c6a 87bd 6088 31bd
000001d0: f8a1 b1bd dde8 5a3d fc69 7c3e 358c fe3d
000001e0: 400a 8bbd 06c1 4b3d 8e90 44be 93a2 acbd
000001f0: aa13 3c3e f6aa e3bc f934 833e 9b46 d43d
-0.065223955 0.033918206 0.016360883 0.12604533 0.004821282 0.12236729 0.18059237 -0.26766965
0.07430062 -0.046303622 -0.009757403 0.074560486 0.050220262 0.21632916 0.17212477 0.25041005
0.042384006 0.054185975 -0.075039886 0.031985335 -0.031837974 -0.19457328 0.15307002 0.0960659
0.051349554 0.38599423 0.1593275 -0.086267516 0.103569105 0.2232471 0.16064385 0.010796396
0.0051734676 0.0014646291 0.050536413 -0.19159621 0.07767278 0.25682753 0.104538925 0.11959794
0.1218061 0.07339482 0.008983142 0.3781194 -0.03445587 -0.19210002 0.15833093 -0.048930787
0.014924811 -0.104518 0.43079397 0.04295688 0.17957823 -0.19920564 -0.1984571 0.27204654
0.0031102342 0.109130114 -0.1579517 -0.05800649 0.14643462 -0.11828641 -0.03732322 -0.20197514
-0.019736025 -0.06229163 0.1950519 -0.022008697 0.07912946 -0.1229988 -0.023341225 -0.04521287
0.14953697 0.016842822 0.034440506 0.045687553 -0.13892832 -0.06217361 -0.008733647 0.147126
-0.026642267 -0.14358748 0.15394978 -0.10956121 -0.0039616064 -0.10147107 -0.098412216 0.07753461
-0.03180117 -9.392746e-05 0.035553843 0.066553034 0.16135365 -0.14643818 -0.14295967 -0.031353176
-0.11862291 0.3299647 -0.14729297 -0.030113608 0.10495432 0.079844505 0.14309976 -0.22843753
-0.046144493 0.22484021 0.0952019 0.13808627 0.0947378 0.23254964 -0.057706263 0.20234908
0.0562429 -0.21538615 -0.066120476 -0.043342948 -0.08673471 0.053444732 0.24649805 0.12429086
-0.067890644 0.04974463 -0.19195768 -0.08429446 0.18366876 -0.027791481 0.25626352 0.103650294

sentiment_branch.fc.weight f4 [32, 32]
00000000: 2fe2 5f3d 9873 cc3c 8d08 1c3c eb8d 2c3e
00000010: 57e9 9a3d ca90 90be 10b8 fbbd 01d5 03bc
00000020: d4b6 55be 131b ca3a 5bbf 3fbe 2afc 823e
00000030: 00d5 3cbe 7598 afbe 1615 893e 8254 57be
00000040: af21 373e b713 bc3e 7f6b 893d 64b1 663d
00000050: e493 673e 5c24 ba3e c00f 7d3c 0b0c 2d3d
00000060: e9ef c53e 3f90 4dbe 4929 a5be c413 49bd
00000070: 06eb b0bd 6bbf 5b3e 49f4 94bc 4a3b 133d
00000080: 6e9e 7cbe 7915 473e 6e6c e2bd e905 9ebe
00000090: 6aed d3bd de9a 33be 8e34 49bd d559 a93d
000000a0: 4626 db3d f871 dabd eddb f1bd 10f9 b93c
000000b0: 4f73 1f3d 90b5 083e 49cc c0bd 5bb1 de3d
000000c0: 498c fe3c eebe 2c3e b938 08bd f42a 1cbe
000000d0: 4649 a73e ccb6 0b3e 96a1 283e 5c0d 01be
000000e0: 2be5 39bc 0263 0d3e ad2f 1bba d6b2 42bd
000000f0: e090 893d d162 d83d 4a71 00be 1b9f 383e
00000100: 2d9a 3abe 2240 0f3e b9b1 8f3d 7daf 8abe
00000110: 483f 73be c359 603d 96b1 9ebd fe0e 893e
00000120: 3511 7d3d 430e fabd 14e8 1ebd 4328 233d
00000130: 088e 8bbd 0a48 c2bc 8609 84be 76b0 753e
00000140: 958b 613e 22a6 9f3e 3cf0 2e3e 9072 0cbd
00000150: 666e a0bb e4fd 643d 06a0 013e 14e6 de3a
00000160: 962d 5abe 06ea b8bd 9f47 323d 041c c5be
00000170: b687 28be 9270 993d e378 65bd 1d13 273e
00000180: 65f1 153e 6d7d c63c 9836 babc 34f9 ddbc
00000190: 8917 a5bd 20ac 80be abf3 0bbe 4a6b bdbd
000001a0: fbb2 9dbe e13f 2b3d b2a6 6ebe 9651 a53d
000001b0: f1de 023e 8a61 d83d 019b 4f3d 38fe f43e
000001c0: 5329 afbe e17d 03be 27c4 85be be5d 77bd
000001d0: b60e 823c cf40 aa3e c6bf e43b 24ce 30bd
000001e0: cb86 cdbd ca16 88bc 238e b53d da5b 6f3e
000001f0: a163 a6bd 7455 cbbd 4035 0bbe def1 613e
00000200: 2bad 79be 4b2a 623e b573 ac3e 009c cc3d
00000210: bfa9 36be a00c 1fbd 0fc6 c9bd 85a3 153f
00000220: 16d1 413d 581c 04bd 366d 1cbe 02b8 36bd
00000230: ef24 1d3e c0f8 5ebe c6c4 ecbc 6ec5 d73d
00000240: 7b2d 2b3e 0f1d 6139 206d 943c 460e 213c
00000250: 810f 523c 918b fd3d cd6d 543d a1a3 ca3e
00000260: b7e1 bfba 3845 babd c2fc 82bb a82f c5be
00000270: af42 cebe ae8b 223e eb44 ab3e 514c bb3d
00000280: b3dd cd3d 4d85 a0be 4ace dbbd dae6 c53d
00000290: 410b d6bd 9959 5abe 6f72 85be d6af 113e
000002a0: f1e0 673e 4319 d53c 3930 0cbd 395b 9d3e
000002b0: 1d99 23be 346b 113e 0a67 94bd 2a2c 1fbd
000002c0: 96c5 693d 164e 8a3d 36b0 c7be 2707 ab3e
000002d0: 5216 fa3d e980 e6bd adce 97bd c26c 963e
000002e0: 5708 04bd b358 e2bb 5aa3 d5bd df0f 1abd
000002f0: 1015 e5bd 6efc 13be 2a08 563e 5632 323e
00000300: a145 603e 25c0 82bc 323c ac3e 7efe 663d
00000310: d9d6 dabd eb54 4abe b0d4 66be 67da e4bd
00000320: 87d1 12bc 5ee2 b63d 2e68 49be 99d7 1dbe
00000330: e7a3 bd3e d8b3 ee3d 716a 2dbe 5041 d63e
00000340: 1f44 98bd 212e 8d3e 1b63 0f3e 41de 40be
00000350: 851b 01bd f397 83bd 06d9 c5bb c5c3 adbe
00000360: b6e0 0f3e 380b 5d3e ff85 293e c5ea 833d
00000370: 8319 52be c406 80be 750c 4c3d 1622 de3e
00000380: da21 803e 6e5e b83c 790b 81be 8bf7 823d
00000390: 0c70 61bc 8925 723e b49f 10be 045f 3ebe
000003a0: 868e 81be bfc3 d33e 4cbf a8bd 2efd 49bd
000003b0: d3a5 c73e 2b36 853d 3df3 243e 93d5 4b3e
000003c0: 9449 aebe 5170 96be 3db7 49bd 2db1 33be
000003d0: 036b dcbc 59db 2f3e 41f3 90be 413f 23be
000003e0: 688d a53c 4cfd 8d3e cd0c 603e 0870 013f
000003f0: 5c68 d6be b4fd 123d 94ce ad3e f6e7 50be
0.054659065 0.024957463 0.009523523 0.16851012 0.07564037 -0.28235465 -0.122909665 -0.00804639
-0.20870525 0.0015419446 -0.1872534 0.2558301 -0.18440628 -0.34296003 0.267739 -0.21028331
0.17883943 0.3673379 0.067099564 0.056321517 0.2261501 0.36355865 0.01544565 0.042247813
0.386596 -0.20074557 -0.3225806 -0.049091116 -0.08638577 0.21459739 -0.01818289 0.035945214
-0.24669811 0.19441785 -0.110558376 -0.30863884 -0.103480175 -0.17539546 -0.049122386 0.08269087
0.107006595 -0.10666269 -0.11809526 0.02270177 0.038928326 0.1335051 -0.09413964 0.108736716
0.031072753 0.16869709 -0.03325722 -0.1525076 0.3267309 0.1364395 0.1646789 -0.12602752
-0.011346142 0.138073 -0.0005919885 -0.047533832 0.06717086 0.10565723 -0.12543216 0.18029444
-0.18222876 0.13989308 0.0701632 -0.27087012 -0.23754609 0.054773103 -0.077487156 0.2676925
0.061783988 -0.122097515 -0.038795546 0.03983332 -0.068142 -0.023715992 -0.25788516 0.23993096
0.22025903 0.31181437 0.1708383 -0.034288943 -0.004895973 0.05590619 0.126587 0.0017005824
-0.21306452 -0.090290114 0.043525334 -0.38497937 -0.1645802 0.07492174 -0.05602349 0.16315885
0.14642866 0.02422973 -0.02273111 -0.027096368 -0.080611296 -0.2513132 -0.1366717 -0.092489794
-0.30800614 0.041808967 -0.23305777 0.08072202 0.12780358 0.10565479 0.050684933 0.47850204
-0.34211215 -0.12840988 -0.26126215 -0.060392134 0.015876155 0.3325257 0.006980869 -0.04316534
-0.10035475 -0.01661243 0.08865001 0.23374882 -0.081244715 -0.09928408 -0.13594532 0.22064921
-0.24382465 0.22086446 0.33682027 0.09990692 -0.1783819 -0.0388304 -0.0985223 0.58452636
0.04731854 -0.032253593 -0.15276036 -0.044609077 0.1534612 -0.21774578 -0.028902423 0.105357036
0.16716568 0.00021468497 0.018118441 0.009830063 0.012821079 0.12380136 0.051862527 0.39577964
-0.0014639412 -0.09095234 -0.0039974162 -0.3851292 -0.4028525 0.15873596 0.33451018 0.091454156
0.100520514 -0.313517 -0.10732706 0.09663172 -0.10451365 -0.21323241 -0.26063868 0.14227232
0.22644402 0.026013022 -0.034225676 0.3073366 -0.15976377 0.14201051 -0.07246216 -0.038860478
0.0570732 0.06753175 -0.39001626 0.33403894 0.122112885 -0.112550564 -0.07412467 0.2937985
-0.032234516 -0.0069075464 -0.104315475 -0.037612792 -0.11185658 -0.14451763 0.20901552 0.17402014
0.21901561 -0.015960762 0.33639675 0.056395046 -0.1068551 -0.19758956 -0.22542071 -0.111744694
-0.008961088 0.08929895 -0.19668648 -0.15414275 0.3703911 0.11655396 -0.16935135 0.41846704
-0.07434868 0.27574256 0.1400265 -0.18834783 -0.031520385 -0.064254664 -0.006037834 -0.33938423
0.14050564 0.21586311 0.16555022 0.06441263 -0.20517544 -0.25005162 0.049816567 0.4338538
0.25025827 0.022505965 -0.25204065 0.06394871 -0.013759624 0.23647131 -0.14123422 -0.18590933
-0.2530405 0.4136028 -0.08239612 -0.049313717 0.389937 0.06504472 0.16108413 0.19905691
-0.3404051 -0.29382566 -0.049247015 -0.17548056 -0.026906496 0.17173518 -0.28310588 -0.15942098
0.02020903 0.27732313 0.21879883 0.5056157 -0.41876495 0.03588648 0.3394667 -0.20400986

sentiment_branch.fc.bias f4 [32]
00000000: 74b5 42be 4ffb 2dbd e494 173d a272 11be
00000010: 15fb 55be 040f d0bd 418e 50bd cf02 a6bd
00000020: 1a5e fd3d dabc efbe bbcd 0c3e 9d4b e43d
00000030: 122b 313d 5958 8c3c cbc7 01be dfdf bf3d
00000040: 957d 2bbd 37e1 40be 0f95 673d 6c5f f83d
00000050: 731e dabc 3033 7d3d 98c9 8abd 3437 f03d
00000060: 6e64 973d 459e c13d 9063 1c3d 3a6b 4bbe
00000070: 3323 cbbc 36d4 a0be 0662 dc3d 7243 fbbb
-0.19014531 -0.042475995 0.037007228 -0.14203885 -0.20896561 -0.10159114 -0.050916914 -0.081060044
0.12371464 -0.4682377 0.13750355 0.111472346 0.043253966 0.017131971 -0.12673871 0.09368872
-0.04186781 -0.18835913 0.056538638 0.12127575 -0.026625847 0.061816394 -0.06776732 0.11729279
0.07392202 0.09454016 0.038180888 -0.19865122 -0.024797058 -0.31411904 0.10760884 -0.007667952

price_branch.lstm.weight_ih_l0 f4 [64, 5]
00000000: 98ba 173e 1e31 963e ef29 2cbe 60ad 873e
00000010: 8412 c83c 65f7 b43d 8498 5abb ae9b 3b3c
00000020: 985e 37bd 9c68 cbbd 5a83 7dbe f7e1 6fbe
00000030: 8262 f33d 2145 0e3e e189 85be bf95 74be
00000040: 3827 a0be 0ee5 43be 26e0 e8bd a4bb ddbc
00000050: b979 0b3d db11 1dbe 4e1b 1a3e 6e27 e73d
00000060: 080c 3fbd a0d8 97be 8aad abbe 8152 25bd
00000070: 9360 e4bd 52f0 f13c 9638 a3bd 0870 803e
00000080: 4a4e 353e 4194 84be e2ae c7bd f189 f93d
00000090: 5d97 cb3c 57d2 363e adcc c93d 2105 c4bd
000000a0: 96ae 133e b2a1 723e e12c d13e 9cb4 5fbe
000000b0: 6ad1 29bd 983b bdbe 1776 c9be afe5 573e
000000c0: f741 9abe 6c47 353e b85c a0bb 237c 3d3e
000000d0: af1d 8f3c b1c9 0f3d 047c 203e 891b 4cbe
000000e0: 7b60 a63d 0b50 1fbe 4d23 e4bb f7f8 babe
000000f0: 278f 8dbe ae58 aabe 8aa0 16bd 1be7 bebe
00000100: fcc6 6fbe aecb 61bc a29c 7b3e 18b7 47bc
00000110: d881 5bbe 531d 5dbe ce0b c4bd b5f5 b7be
00000120: e5c4 a0bc d762 b83d fb55 3e3d 1588 56be
00000130: 51d6 a3bc 5d6e be3e 0513 eabd 314a 353e
00000140: 5692 0f3f 35e3 db3e dca2 a4bb 647e e73d
00000150: 7a66 383e 48c9 113e b461 b53e bf4d ce3c
00000160: 9d34 62be 1f84 0bbf 4293 0cbe 9d49 4a3e
00000170: 86d6 e53e 5640 e13c 031d 41be eb0b 333c
00000180: 3602 07be 3dae bb3e a397 a63d d0a0 bdbd
00000190: 92a7 b03e 991d 103f 1331 823e d666 883e
000001a0: 5d3b 53be b336 14be 6656 84bd f793 ab3d
000001b0: 06d3 a23e d9c1 973d a5f6 233e 06a1 503c
000001c0: b1af 88bc c9d6 f4bd 1d0e 59be cfc3 a73e
000001d0: 29fd 55bd b298 133e bce2 52bc 170c 3a3e
000001e0: 3e5c a2be c4f6 0d3c 559f b23e f30f 8b3c
000001f0: e8cd f03d a3bf a9be 2e34 a5be 8c31 dfbd
00000200: fca6 423b 563d 8c3e c78a 633e 7396 7b3e
00000210: 786b bfbe 6fb9 06be 5af4 8f3e 0d87 4bbd
00000220: 3bd5 993e 815b 08be d8f3 523d 1dea f8be
00000230: f349 eebc 515e d73d 64c9 c6bd 454d 463e
00000240: 53a8 dd3d 6fab bd3e 4b7b d13e 1bd0 2d3d
00000250: dc90 70bc 1995 403d be8c 40be efeb 5ebe
00000260: 4a58 a43d 4a02 86be b872 203e 149b 103e
00000270: af8f b6be 3cc3 893e ef09 12be c651 5f3e
00000280: b38d 493e 198d 913d c0ef 64be 4e86 a3be
00000290: 19c0 723d bda3 afbe dbf0 4cbe 1256 8c3e
000002a0: f096 95bd b563 7cbe 4dac 7b3e 4a3a 793e
000002b0: 0366 bebc 614c 7b3e d485 a0be 4742 87be
000002c0: f885 13be 4b87 12be 3f3d 44be 2422 533d
000002d0: e659 17bd 4ab6 babe d26b cdbd ff77 5bbe
000002e0: 0247 fcbc f1fe 05bf 68a9 e5be a087 a03e
000002f0: d90b 6cbe 97e1 193e 8d76 ae3d 5a7b 58be
00000300: 20d5 033f f46c 69bc a5d0 81be c6b7 ca3c
00000310: ac3a e7bd 8b00 6d3d 22cb 9c3e 813a eabc
00000320: fc6e 76be 2482 26be 24b4 89be fd23 25be
00000330: 5df5 393e 4127 fcbd 6537 823e bed0 d6bc
00000340: 988d 963e 70fd 91bd ec66 26be c9a7 52be
00000350: f005 3bbe b64b a83d 024d 96be 1498 03bf
00000360: 60f0 09bf 1d74 c63d 812c 83be e920 bbbe
00000370: c5df b9be ce2c a6bd a35d c03e a4b2 ca3d
00000380: b487 30be 122a a73d 82e9 8c3d fac7 09be
00000390: c720 89be c1ab 82be 485b 243e 76eb 863d
000003a0: 8ad0 d8be 1508 e3bd 94b9 7fbe bbb2 643d
000003b0: 1223 83bd 95d8 f43d 37d5 61bd d454 223e
000003c0: 59f3 3d3e e88e 763d 3f66 de3d 45de 9a3e
000003d0: 905e 993e 2887 febc b244 ba3e 4dc3 47bd
000003e0: 14f1 6a3e fb1a 9039 8b93 85be 93b7 15bf
000003f0: b45a 563d 7e07 0abe ae03 48be e380 0abf
0.14817274 0.29334348 -0.16812871 0.26499462 0.024422891 0.08836249 -0.0033355067 0.011450691
-0.044767946 -0.09932062 -0.24757138 -0.23426042 0.11884023 0.13893558 -0.26081756 -0.23885249
-0.31279922 -0.19130346 -0.11370878 -0.027067013 0.03405163 -0.15338843 0.15049478 0.112868175
-0.046642333 -0.2965746 -0.33530837 -0.040361885 -0.111512326 0.029533539 -0.07969777 0.25085473
0.17705646 -0.2589436 -0.09750153 0.12184513 0.02485245 0.17853676 0.09853492 -0.09571291
0.14422068 0.23694494 0.40854552 -0.21846241 -0.04145948 -0.3695953 -0.39347908 0.21083711
-0.30128452 0.17703027 -0.0048938654 0.18504386 0.017470209 0.035104457 0.15672308 -0.19932379
0.08123871 -0.15557878 -0.006962216 -0.3651807 -0.2764828 -0.33270782 -0.036774196 -0.37285694
-0.2341575 -0.013781471 0.2457147 -0.012189649 -0.2143625 -0.21593218 -0.09572564 -0.35929647
-0.019625137 0.09003227 0.046468716 -0.20950349 -0.019999655 0.37193576 -0.11429409 0.17704083
0.56082666 0.42946783 -0.005024297 0.11303404 0.18007842 0.14236939 0.35426104 0.025183557
-0.22090383 -0.54498476 -0.1372805 0.19754644 0.4489023 0.027496498 -0.18858723 0.010928134
-0.13184437 0.3665637 0.08134391 -0.09259188 0.34502846 0.5629516 0.25428066 0.26640958
-0.20628114 -0.14473991 -0.06461792 0.083778314 0.31801623 0.074100204 0.16012056 0.0127337035
-0.016685339 -0.119550295 -0.2119679 0.32766578 -0.052243385 0.14413717 -0.0128714405 0.18168674
-0.31711 0.008664791 0.34887186 0.016975379 0.117580235 -0.3315402 -0.32266372 -0.10898122
0.0029701581 0.27390546 0.22220908 0.2456911 -0.3738668 -0.13156675 0.28116113 -0.04968934
0.30045494 -0.13316156 0.05150208 -0.48616114 -0.029087996 0.10516036 -0.09706381 0.19365413
0.10823121 0.37044856 0.40914378 0.042434793 -0.014682975 0.04701719 -0.18803689 -0.21769689
0.08024652 -0.2617362 0.15668762 0.14121658 -0.35656497 0.26906765 -0.14261602 0.21808538
0.1968296 0.0710699 -0.22357082 -0.31938404 0.05926523 -0.3430461 -0.20013754 0.27409416
-0.0730418 -0.2464741 0.24577446 0.24338642 -0.023242002 0.24540855 -0.31352103 -0.26417753
-0.14406574 -0.14309423 -0.19163989 0.05154623 -0.03695097 -0.364672 -0.10030331 -0.21432494
-0.030795578 -0.52342135 -0.4485581 0.31353474 -0.23051395 0.15027462 0.085187055 -0.21140805
0.5149708 -0.014247168 -0.25354496 0.024745833 -0.11290488 0.057861846 0.30623728 -0.02859235
-0.24065775 -0.16260582 -0.2689525 -0.1612701 0.18160005 -0.123121746 0.25432888 -0.026222583
0.29404902 -0.071284175 -0.16250199 -0.20571817 -0.18263984 0.08217566 -0.29355627 -0.5140393
-0.5388241 0.096901156 -0.2561989 -0.36548546 -0.36303535 -0.081140146 0.3757144 0.09897354
-0.17239267 0.08162321 0.068804756 -0.13455191 -0.2678282 -0.25521663 0.16050446 0.06587879
-0.42346603 -0.11085526 -0.24973136 0.055834513 -0.064031735 0.11955372 -0.05513498 0.15852672
0.18549861 0.06019488 0.10859346 0.30247703 0.29954958 -0.031070307 0.36380535 -0.048770238
0.22943527 0.00027485922 -0.2608913 -0.5848324 0.052332595 -0.1347942 -0.19532654 -0.54102916

price_branch.lstm.weight_hh_l0 f4 [64, 16]
00000000: e529 833d eaa8 86be a7af 26be c99d 0c3d
00000010: 962b 2fbe 5841 c4be a398 9abe c137 27be
00000020: 4194 da3d 48fd 19be 2cad 4f3e fa7c 8bbe
00000030: a14a adbe 1e2d 053e 2e79 7e3e ccaf 9bbe
00000040: a1f9 253e 7a44 1abd 139f c4bd b11d 5bb8
00000050: d355 90bd 005d 96bc 20f0 763e 786a 463d
00000060: 2e99 9abe 22a3 e2bc e657 ce3e b1ac e3bd
00000070: 8c0e 523e a9e5 c73e 525f 653e 173d 243e
00000080: 440a b93e 1f9f 85be 38e3 b93e a36d 9d3d
00000090: 2a97 8e3c 9e91 8fbe 7b26 1ebe adb8 37be
000000a0: b7cf 21be bae4 9ebe 93b7 71bd 8671 9cbe
000000b0: 9542 8fbe 7cbb a5bd 18ee fa3d e2cb e1bd
000000c0: d14d 7bbd 155b a1be c9d1 4cbe 5876 843e
000000d0: 59af 933e 7013 c7be 41e7 2f3e ef43 c83d
000000e0: 03dc 4d3d 9e95 85be 1364 1bbe cc21 09be
000000f0: 4f61 8dbd 93a6 adbd 313d 983e bf2e 3fbe
00000100: dadf 50be 8efe bf3e ed78 2d3e 2d67 843c
00000110: ad21 7ebe 32a2 6dbe f6ff 973d 7b9f 7c3e
00000120: 27da 64be 56ee 2e3d ca4c 9a3d 6c45 033e
00000130: 470e 9e3d 8b6d 493b 4de1 47bd 4a5c 3f3d
00000140: 62ea 27be 3fc6 a9be b7c2 773e d89b c43c
00000150: f172 003e 419d 2dbe 27a4 93bd e2e6 54be
00000160: cf75 073e 7314 8cbd 892b b63e 147f 2abe
00000170: 57a5 0c3d 2a3f 413e 6b0d bbbe 39a3 ea3d
00000180: f9de 913d 0a24 893e b8fa 693d 9edc 963e
00000190: 678e 0b3e 083d 143e 5934 883e 888f 803d
000001a0: b41f 423e 73e6 86bd 7ad4 5f3e b67c 3d3e
000001b0: c08f b13d c7fa 4c3e f48d 0bbe 852b 5cbd
000001c0: fbf3 a93d 87c1 a5be 5355 773d 9dab 073d
000001d0: b11e 0b3e 9489 9dbe cbf1 2dbe 993c 373e
000001e0: 2cca 7bbd 3044 753e 30bc ff3d 1e31 9cbe
000001f0: 2c88 ee3c 375b 74be daba 273e 39a7 60be
00000200: 3dff b83c 60f1 74bd 559d 1ebe bbf2 883e
00000210: 886d 0c3e f885 443e 1f19 af3e a018 c8bd
00000220: 253e 843c 72fe 24be 976e 9c3d 598f e43e
00000230: ad54 8a3e 7fe0 f9bd 4688 45be 2527 b23d
00000240: 03dd 65bd 1f17 4cbd d90d 19be 4b86 84be
00000250: 92bb a43c 1282 03bd f4c8 363e 0a82 bbbd
00000260: 0d78 d4bd 4eb2 213e d644 c53d e11a b4be
00000270: 3250 d4bd 4378 a6be ae7b 74be 0b1d 343d
00000280: 30b2 053f 78e6 b5be bf20 b6bd cbb8 27be
00000290: 1bbe ea3c 65ec c9be bfaf 7cbe b793 63be
000002a0: 9edc 1e3e b5f4 8abe ed02 dc3e c165 55be
000002b0: 3149 a4be ac17 16bd 1ca6 943e 145d c1be
000002c0: 214b 133e 4822 af3d 5a0c f63d 7c92 ca3d
000002d0: 1633 ec3d ca24 26be 026d 29be 079e 59be
000002e0: d444 4ebe dc7f 043e 24cb 7e3e b64c e1bc
000002f0: 0344 063c 6033 8d3e e09d a5bd 4632 ebbe
00000300: b16f 0cbe 1d5e 143d 4fd7 84be d30f ac3e
00000310: 01aa ce3d 96b5 533d ce6b b7be 863e b5bd
00000320: dacf 873d a75e 49be 50a6 3a3d 8cac 5ebd
00000330: db6d c63d bc0f 9a3c 9ee9 803d e476 1ebe
00000340: 27c4 9a3e 6065 46be 034a b7bd 6b60 d4bd
00000350: 8e25 b13e acc9 a2bc a39d c83d e25d e2be
00000360: b726 bfbd af44 f93d 52a4 4f3e d9ad 993d
00000370: ca14 1dbe 5f15 273e 4777 4f3e ed87 0ebe
00000380: 1f40 fabd 4a7f 64be 94fb 59bb f0cf a03e
00000390: 227e 1f3d fa1d cd3e 8c53 d53d 56af a1bd
000003a0: 2bdf c6bc 8a00 90bd fb89 403e 31f2 4d3d
000003b0: d79d 03be f6b7 2f3d 9eb4 b63d 5735 3d3e
000003c0: b372 8bbd 786f 3bbe 5cc4 c8bc 6bfb c6bd
000003d0: 7abe e3bc b301 f3bc 9481 a03e 460e 963d
000003e0: 4e34 69be 478b 353d cd50 b33d 14ab 76be
000003f0: cca5 a83d 451f 91bc f5fc 703e 196b 173e
0.06404475 -0.26300746 -0.16277944 0.034330163 -0.1710647 -0.38331103 -0.30194578 -0.16329862
0.106728084 -0.15038025 0.20280904 -0.27243787 -0.33846 0.13005492 0.24850914 -0.3040756
0.16208507 -0.03766296 -0.096006535 -5.224132e-05 -0.0704762 -0.018354893 0.24115038 0.04844138
-0.30194992 -0.027665678 0.40301436 -0.11116923 0.20513362 0.39042404 0.22399643 0.16038929
0.36140645 -0.26097962 0.36306167 0.07686927 0.017406065 -0.28040785 -0.15444367 -0.17941542
-0.15801893 -0.3103388 -0.05901296 -0.30555362 -0.27980486 -0.080924004 0.12252444 -0.11025216
-0.06135351 -0.31514803 -0.20001902 0.2587154 0.28844717 -0.38882017 0.1717806 0.09778582
0.050258648 -0.2609071 -0.15174894 -0.13391799 -0.06903326 -0.08479037 0.29734185 -0.18670176
-0.20397893 0.37498897 0.16940661 0.01616248 -0.24817534 -0.23206404 0.074218675 0.24670212
-0.22348844 0.042707764 0.075341776 0.12819451 0.07717567 0.0030735459 -0.048798848 0.046718873
-0.16398004 -0.33159062 0.24195372 0.024000093 0.12543847 -0.16954519 -0.07209044 -0.207912
0.13228534 -0.06839838 0.3558009 -0.16650039 0.034337368 0.18871751 -0.36533675 0.114569135
0.07122607 0.26785308 0.05712387 0.29465193 0.13628541 0.14476407 0.26602438 0.062773764
0.18957406 -0.065869235 0.21858397 0.18504605 0.08669996 0.20017539 -0.1362837 -0.05375244
0.08298489 -0.32374212 0.060384106 0.033122648 0.13585927 -0.30769026 -0.16986768 0.1789421
-0.061472103 0.23951793 0.12487066 -0.30506223 0.029117666 -0.2386292 0.16379872 -0.2193879
0.022582645 -0.059800506 -0.15489705 0.2674769 0.13713658 0.1919173 0.34198853 -0.09770322
0.016142914 -0.16112688 0.07638281 0.44640616 0.27017727 -0.12201022 -0.19290265 0.086988725
-0.056118976 -0.049826737 -0.14946689 -0.25883707 0.020108972 -0.032106467 0.17850095 -0.09155662
-0.1037446 0.15790674 0.0963227 -0.35176757 -0.103668585 -0.32513627 -0.23875305 0.04397301
0.5222502 -0.35527396 -0.088929646 -0.16379087 0.028655102 -0.39438167 -0.24676417 -0.22224317
0.15513846 -0.27139822 0.42970982 -0.20839597 -0.3208709 -0.03664367 0.2903298 -0.37766325
0.14384128 0.085514605 0.120140746 0.09891221 0.11533181 -0.16224971 -0.1654549 -0.21251689
-0.20143443 0.129394 0.2488218 -0.027502399 0.008194926 0.2757826 -0.08086753 -0.45936793
-0.13714482 0.036222566 -0.25945517 0.33605823 0.100910194 0.051686846 -0.35824436 -0.08849816
0.066314414 -0.19665013 0.045568764 -0.054363772 0.09688922 0.01880633 0.06294559 -0.1547504
0.30227777 -0.19374609 -0.089496635 -0.10369953 0.34598964 -0.019871555 0.09795692 -0.44212252
-0.09333556 0.121713035 0.20277527 0.07503862 -0.15339962 0.16316746 0.20260344 -0.13919039
-0.122192614 -0.22314182 -0.0033261525 0.31408644 0.03893865 0.40061933 0.10416326 -0.07894771
-0.024276337 -0.07031353 0.18802635 0.0502798 -0.1285318 0.04290005 0.08921169 0.18477379
-0.068089865 -0.1830424 -0.024507694 -0.09715923 -0.027800787 -0.029663896 0.3134886 0.07326941
-0.22773859 0.04432228 0.08755646 -0.24088699 0.08234748 -0.017715106 0.23533995 0.14786948

price_branch.lstm.bias_ih_l0 f4 [64]
00000000: aaee 4fbe 0648 8c3e 6fa3 22be 9294 8abe
00000010: 30f5 4c3e 1de3 d83c d3a1 48be 1883 103e
00000020: 0fe6 75be 9a91 75ba 5945 533c 79b3 de3e
00000030: 94a4 8a3d f112 73be ab50 463e 00cc 20be
00000040: 10d9 c83c 5f77 d8bd b8e9 e13d 1890 b93d
00000050: f166 6cbe bcd1 963e 7e3d 933e 4411 e73d
00000060: ed5e c83c 237f 4dbe d7e1 46bd 6789 a83e
00000070: 54f0 203e 2e25 173e 187e a33e 9883 1cbc
00000080: 8247 71bc 1237 66bd c68f 593e c6b9 7abd
00000090: f421 f7bd 82e4 01bc b104 1fbe 0da4 753d
000000a0: 08fe 6cbd dc04 ed3d 679e 143e 7ed6 d03d
000000b0: 1547 8bbc d343 7ebb 65c5 1bbe 77cb 843d
000000c0: 6fc9 953b eb96 21be 4edf 913d 39c4 97be
000000d0: 7a71 463e 06b6 b73d ffd7 15be 94b6 fc3b
000000e0: bd2d 823c e183 10be 41eb 6f3e 85ab 063e
000000f0: 507f a93c 925b 0cbe 58f8 0f3d aa79 d1bb
-0.20305887 0.273987 -0.15882657 -0.27066475 0.20015407 0.026475484 -0.19592981 0.14112508
-0.24013542 -0.00093677046 0.012894952 0.43496302 0.06769672 -0.23737694 0.1936671 -0.1570282
0.024517566 -0.10569643 0.110309064 0.09060687 -0.23086144 0.2945689 0.28757852 0.1128259
0.024459327 -0.2006803 -0.04855522 0.3291733 0.15716678 0.14760277 0.3193214 -0.009552859
-0.014726521 -0.056204863 0.21246251 -0.061212324 -0.12067023 -0.007928016 -0.15529133 0.059970904
-0.05785945 0.115731925 0.1451355 0.10197161 -0.017001668 -0.003879775 -0.15212019 0.0648412
0.004571132 -0.15780227 0.0712267 -0.29641894 0.19379225 0.08970265 -0.14633177 0.0077121947
0.01589095 -0.14112808 0.23429586 0.13151367 0.02069059 -0.13706806 0.03514895 -0.0063926773

price_branch.lstm.bias_hh_l0 f4 [64]
00000000: 5637 4f3d 5e5e c43d 854d 25be 8a91 9dbe
00000010: ea1e 703e 6cc7 5ebc 6832 2abe e739 82be
00000020: 3c49 28be c2b6 1d3e f1ad 923d a80c 963e
00000030: dbaf acbc d34b 3dbd 78aa a93c d5ba 69be
00000040: 2c45 01be 1480 3abd 8255 c3bd aec7 8f3d
00000050: 004e 23be d728 153d 2c02 56bd faa6 30be
00000060: f741 a4bd a332 8abd 0ff7 733e 9d4c b5bd
00000070: d440 98bd c227 ecbd 6ff7 a73c 4d3d 143d
00000080: 0e55 743c 6181 a23a d0ed 3e3e 3466 1abe
00000090: 1d3f c03c a1de 303e b7b6 c1bc fa3a a8bd
000000a0: 0583 eebd d293 a03d 8bfb 11be 2029 13be
000000b0: 8b3e 423e 6716 433e 53c6 eabd 2237 41be
000000c0: 956e 91bd 8bb8 1abe ac77 8abe 2208 e4bb
000000d0: bcc3 76bd a0b0 933e b945 8c3e 9402 b1bd
000000e0: 8613 81bd f5ad 13be a909 27be 7aa1 c03e
000000f0: 302e e1bb bcbf 9aba a0bb b83c 37f6 b73d
0.05058988 0.095883116 -0.16142853 -0.307751 0.23449293 -0.013597351 -0.16620791 -0.254348
-0.16434187 0.15401748 0.07162083 0.2930653 -0.021079948 -0.04621489 0.020711169 -0.22825177
-0.12624043 -0.0455323 -0.09537794 0.07020508 -0.15947723 0.0364159 -0.052248165 -0.17251197
-0.08020394 -0.067479394 0.23824714 -0.088525034 -0.0743424 -0.11531021 0.020503728 0.036191273
0.014912857 0.0012398177 0.18645406 -0.1507805 0.023467595 0.17272426 -0.023646696 -0.08214374
-0.11646084 0.078406945 -0.14256112 -0.14371157 0.18969171 0.19051515 -0.114636086 -0.18868688
-0.0710117 -0.1510946 -0.27044427 -0.0069589773 -0.06024526 0.28845692 0.27396944 -0.0864307
-0.06302552 -0.14421828 -0.16312279 0.37623197 -0.006871961 -0.0011806409 0.022550404 0.08982509

price_branch.fc.weight f4 [16, 16]
00000000: a3fe 23bd f098 993e 30cb 853c dad5 cd3d
00000010: aab5 f8bd 326e b83e c1e2 b33d 280b 283e
00000020: 5b3f 8abe 69c2 203c 7f58 693d c26a 133e
00000030: 7ead b3bd d0d3 e9bd d458 83be fa59 733d
00000040: 7ca4 aa3e b285 a6be c9eb fc3b b734 8abe
00000050: 5a5e 6f3e 8467 94be 199f 8ebe 2433 12be
00000060: 1f01 1ebe a024 40bc 740f 6a3e 89f1 a2be
00000070: e615 d9bd dfe4 e4bd f18e e63d 25bc 913d
00000080: 4714 f3bc a345 e13d cb9a f7be 9263 a43e
00000090: 541b ee3e e606 783e c7bb 543e fe13 88be
000000a0: 132f f33e 39a6 c3be 8e3b a4bd 0612 adbe
000000b0: 8ed2 b13e 5c9f bebd cb8e c03c 1eab 0dbd
000000c0: 18cc 14be e629 7cbe a8b8 15bd 697a b23e
000000d0: 36ac 543e e8b7 753e 9c4d 113e 4aa6 d53c
000000e0: 901e cb3d 3fa4 bebe 0108 b03c 0d1e f63d
000000f0: 74a8 06be b890 a4bd 88cf 6dbe 64ed 03be
00000100: d174 1e3e 5300 773e 89d0 4cbd b53b 60bd
00000110: eeca 56be c522 ca3d 64a5 843e 80f4 33be
00000120: f048 88be 3811 64be c9e1 c4bd da67 e53d
00000130: 4a08 873d ee64 253e b1b1 0abe cfbf 953d
00000140: dbfc 8a3e d9da 91bd fd16 98bd ae42 313e
00000150: 7862 893e 6f9a d6be 7bbe 703d 0d48 66be
00000160: 2cb6 093e b994 123d 10f4 1d3f c5ec 3bbe
00000170: d751 17be fd3e 10bd 1d03 fe3d 34ee 4fbe
00000180: a987 31be db1f 9c3e 153d cabd e76e f63d
00000190: 7673 aabe 66cf ea3d a130 cdbd a864 903c
000001a0: f38e 12be 26a9 7abd 6815 efbd 906a d33e
000001b0: 3c64 223e 5efd 613e 51ce c3bd d608 3dbe
000001c0: dea3 1ebd 337c 123e 36f8 23be 03e6 a9be
000001d0: e6ad 94be b4dc cabe cbce c8bd ef3b 09be
000001e0: b646 77be 12b7 a13e d6b6 8f3e 6e47 e7be
000001f0: 0a67 433c 44d2 8c3d 58a2 dbba a1e4 44be
00000200: 0708 9fbd 76a7 183c e809 0dbf e0bd c23c
00000210: c87e 0b3d 230f 0b3e bd3e 24be c336 273e
00000220: 9ac1 67be 7dbd dbbe c3b8 193e c716 e7bd
00000230: b8c1 753d cbec d6bd 131a c3be 7640 833e
00000240: 3b51 373e 5de5 163e 51d5 e9bd ef34 183e
00000250: 8e2b 083c cad6 953e 39ab 233e f0c0 72bd
00000260: 8639 093e 3339 84be 6b2c 03be 7854 6a3e
00000270: a343 22be ac0b aa3d 92a3 84be 30a8 74be
00000280: 74c0 d5be 9b62 8bbe e1d6 82be 387a 3b3e
00000290: 05d3 9b3d db35 ecbe abae 103e f720 513e
000002a0: 56db dfbb 8e3c e93d f092 98be b19e c93d
000002b0: 5ce8 b0be b45f b5be 3101 cd3d 55cc 383d
000002c0: 5343 8fbd 3d4d a93e ac2b 88be c883 463d
000002d0: 4b94 c1be be1b 1d3e 34d9 a03e 886a 203e
000002e0: 1c50 22be 85d0 b4be 140c b1be 2e04 40bd
000002f0: 0c74 cebd 688d 233e 84e0 41be 5447 62be
00000300: 408c 263e 6465 6c3d 3496 84bd a861 bdbd
00000310: e8da 023e 3c43 a3bc 7c82 0bbe 8003 fd3d
00000320: bc0d a4bb f0e8 a23d e41b 6abe b841 a0bd
00000330: 14ba 90bd d05c eabd 3453 4fbd 24e5 85bd
00000340: 3b94 463e 7490 0abe 0275 70be caff 6cbd
00000350: 6675 91bd 8d0b 253e 2ea8 f43d 6350 3abe
00000360: 032e 463d 5bb2 febd 3d6d 89bd 09f0 993e
00000370: 6444 913d 5f8e 4b3e 03a1 bcbe 36a1 393e
00000380: 132c e2be de60 2e3d 97e1 623e 8ff2 56be
00000390: 8b05 89be 4ff4 85be f63d 10be 5abf 643e
000003a0: 4f8f 98bd d916 2dbe 1f00 3fbe a117 73be
000003b0: f20f 35be a6a3 a3be 2d8b 693e d3e1 2e3d
000003c0: 1c96 82be 2e3e 693e 48b9 2d3e 6dd2 02bd
000003d0: 8bcf 6abe 88e0 35be fa91 323e b248 ee3e
000003e0: a6dd 41be 1adf 69ba 0a8a 1b3c 2b4b cebd
000003f0: cb53 1d3c b533 45be f38c fd3d 7c21 0d3e
-0.040037762 0.29999495 0.016332239 0.100505546 -0.12144025 0.36021572 0.08783484 0.16410506
-0.2700146 0.009811976 0.056969162 0.14396194 -0.087733254 -0.11417353 -0.25653708 0.05941198
0.33328617 -0.32523876 0.0077185375 -0.26993343 0.23375836 -0.28985226 -0.27855757 -0.14277321
-0.15430115 -0.011727482 0.22857457 -0.31824902 -0.1059988 -0.11176466 0.11257733 0.07115964
-0.029672755 0.1099961 -0.48360285 0.32107216 0.46505225 0.24221382 0.20774756 -0.26577753
0.47496852 -0.38212755 -0.08019172 -0.33802813 0.34730953 -0.09307739 0.023505589 -0.03458702
-0.1453098 -0.24625358 -0.036553055 0.34859017 0.20768818 0.23995936 0.14189762 0.02608027
0.09917939 -0.37234685 0.021488192 0.120174505 -0.13150197 -0.080354154 -0.23223698 -0.12883526
0.1547425 0.24121217 -0.050003562 -0.05474444 -0.20975849 0.09869913 0.25907433 -0.17573738
-0.26618147 -0.22272193 -0.096133776 0.11201449 0.06593378 0.16151783 -0.13544346 0.07311975
0.27146038 -0.0712182 -0.0742626 0.17310593 0.26832938 -0.41914698 0.058775406 -0.22488423
0.134484 0.035786364 0.61700535 -0.18352039 -0.14777313 -0.03521632 0.124029376 -0.20305711
-0.17336906 0.30493054 -0.09874932 0.12032872 -0.33291215 0.11465339 -0.10019041 0.017626122
-0.14312343 -0.06119647 -0.11674005 0.41292238 0.15858549 0.22069308 -0.09560836 -0.18460402
-0.038730495 0.1430519 -0.16012654 -0.33183298 -0.29038924 -0.39621508 -0.09805068 -0.13401769
-0.24148068 0.31584984 0.2806918 -0.45171684 0.011926422 0.068760425 -0.0016756756 -0.1922784
-0.07765203 0.00931727 -0.5509324 0.02377218 0.034056455 0.13579993 -0.16039558 0.16329484
-0.22632447 -0.42918006 0.15011887 -0.11283641 0.059999198 -0.104943834 -0.3810583 0.25635117
0.1790208 0.14735933 -0.1141764 0.14863943 0.0083111655 0.29265434 0.15983285 -0.05926603
0.1340085 -0.2582489 -0.12809913 0.22883785 -0.15846114 0.083030075 -0.25906044 -0.23892283
-0.41748393 -0.27223668 -0.25554565 0.18308342 0.07608608 -0.46134838 0.1412913 0.20422731
-0.006831567 0.11388503 -0.29799604 0.09844721 -0.34552276 -0.35424578 0.10009993 0.04511674
-0.06995263 0.3306674 -0.2659582 0.04846552 -0.3780845 0.15342614 0.31415713 0.15665638
-0.15850872 -0.35315338 -0.34579527 -0.046878986 -0.10080728 0.15971911 -0.18933302 -0.22097522
0.16264439 0.05771388 -0.064739615 -0.09247142 0.12778819 -0.01992952 -0.13623995 0.12354183
-0.00500652 0.079545856 -0.22862202 -0.07825035 -0.070667416 -0.11443484 -0.050616458 -0.06537846
0.19392483 -0.13531667 -0.23482135 -0.057861127 -0.0710247 0.16117688 0.1194614 -0.18194728
0.048383724 -0.12436362 -0.06710289 0.30065945 0.070931226 0.19878529 -0.36841592 0.18127903
-0.4417425 0.04257285 0.22156368 -0.20990966 -0.2676204 -0.26162955 -0.14086136 0.2233862
-0.07449209 -0.16903247 -0.1865239 -0.23739482 -0.17681864 -0.3196079 0.22806998 0.04269583
-0.2550515 0.22777626 0.1696521 -0.03193896 -0.22930734 -0.17761433 0.17438498 0.46539837
-0.18932208 -0.00089214894 0.00949336 -0.10072931 0.009602497 -0.19258006 0.123803996 0.13782305

price_branch.fc.bias f4 [16]
00000000: 4c1e 943d cb88 9c3c 55c1 cabd 7bbe 7ebe
00000010: ee24 d43d e27c cdbc 9bd3 0b3e f0f4 713d
00000020: 4781 a7bd 2c72 f23d caad 27be d6fc 1f3e
00000030: aeb2 50be 9734 713c f74b 88be 2d3b febd
0.07232341 0.019108197 -0.099001564 -0.2487735 0.10358606 -0.025083963 0.1365494 0.05907148
-0.081789546 0.11838183 -0.16374889 0.15623793 -0.20380661 0.014722011 -0.26620457 -0.12413631
