models/checkpoints/news_lstm/news_lstm_v11_real_sentiment.pt (torch, 52882 bytes, 19 tensors)

sentiment_branch.lstm_layers.0.weight_ih_l0 f4 [128, 16]
00000000: 7b72 88bd ea62 a83d ba3f 1abe 9640 4f3c
00000010: 29e9 133e da24 f0bc 8efd 81bb a63e 64bd
00000020: 16f7 8e3d b2f3 b23d b3e0 34be 4a11 ccbd
00000030: db1c b93d 6e3f e13d 60eb c8bd 3aa8 f5bc
00000040: 6530 24bc b731 3f3d b0c7 bdbd c171 1bbe
00000050: 0282 c03b c862 ff3d c06d 283e 9f1d 36be
00000060: 4dc6 39bd 3ad6 073d d971 2d3d 0b43 f93c
00000070: 7f86 d1bd aed8 ebbc 78ea 9f3d 2f87 183d
00000080: e0e9 1fbe 3be2 bc3d a46a 79bc d679 a3bd
00000090: 5f27 9bbd 58f3 fa3d e7ab 0dbe 7ee1 8d3d
000000a0: 69ee ed3d 44b1 963b beb1 b13d bb0f ec3d
000000b0: 4449 2a3e 2e39 c53d 5e7f 373e e8bd 493e
000000c0: 24cc 15be 2d4f 193d 3af5 e63c 75c7 003e
000000d0: c4dd 0e3c 0820 3cbe 990e 293e d4ec b13d
000000e0: 8282 c4bd bc21 0f3d 103a f3bd eac8 5b3d
000000f0: 9775 3ebb f618 363e 1ec5 cbbd 55b0 d73d
00000100: 4201 2f3d 5ecd 2f3d 31c2 c13c 0a0e d73d
00000110: c4fe 323e a530 1d3e 0ac9 acbd da14 ffbd
00000120: c9d8 d73d 1b1c 7fbc 0515 e0bd ee8d 7d3c
00000130: f3e0 40be 27fd 87bd 0860 c9bd 0539 46be
00000140: d0bd 0e3d 99c9 683c 832e a3bd 8f6f aabc
00000150: 4c82 edbd 2900 44be f352 033c 6587 8d3d
00000160: 39d7 4fbe e6f8 d53d b2ce 88bb 407e 38bd
00000170: 4c7b 4bbe 0e85 57bc 2af4 eebd e465 33be
00000180: 7010 2ebe d253 bb3d 5983 10be 38b6 963c
00000190: f4e3 c13d 8af8 1abd fc48 763e d8b1 6bbe
000001a0: 567c 12be b63e 02be 05f9 76bd 2459 82bd
000001b0: 44cc 8bbb 4ba2 093e 0f75 48be ebdc 15be
000001c0: 0628 613d c30b 59be cb9f e0bb a49d fdbd
000001d0: ded2 01be 309e b6bb d915 c53d 80fa c6ba
000001e0: 42c2 babd 3a85 eabd 3105 4b3e 2a92 0fbe
000001f0: 7295 c9bb 5d5b 91bd cc09 36bc ec35 6d3d
00000200: 6a56 243e daaa 943d 87f4 d43d edc8 f83c
00000210: c5bf 973d e0c8 2fbe e567 94bd e06c 053e
00000220: 95a3 25be dba7 3abd 76cf fb3d 4b6b 8a3b
00000230: 11b8 573e 1106 b5bc 12cc 253e 1208 d6bd
00000240: 42d3 b9bc 7a13 e3bd 391b 96bb 6b19 473e
00000250: 1590 e43d 909e 563d 6997 253e 8555 46bd
00000260: 2742 1dbe b535 c83d a1b7 6e3d 4a72 da3d
00000270: 9fd3 bdbd d05e e33d c263 743d 741e 2abe
00000280: c4b1 693d b4d4 053e 2f30 893d d9ae db3d
00000290: 5587 e13c d22d 11be 9f5c 043d e0a0 fa3d
000002a0: 87a6 8f3d 6664 9a3d e353 c03d 948f 73bd
000002b0: 7cc9 6abd c4a7 64be 7770 80bd 4214 5a3b
000002c0: 1368 18be 69c7 e33d 3261 07be 8818 b7bd
000002d0: ba49 923c b983 1b3e b83a aabc b511 aabd
000002e0: 6257 dcbd 4cb4 2ebd 8b16 033e 5cb6 f03d
000002f0: c3d2 6fbe 3db9 4abe 109f 133e 0e0e c13d
00000300: 01e0 71be 6a5d 7dbd 33af 04be 6994 25be
00000310: 6cb6 a53c 48ee 263b b844 9fba 5677 f5bd
00000320: f916 bdbc df82 abbd ff5f fd3d 61e1 21be
00000330: c7d3 80be 2081 98bd e7bd 373d 2193 19be
00000340: 43a0 0b3e 3399 733d e916 3f3e 15ae 1c3e
00000350: ce1e 15bc 6ba3 8ebc 3a8b e03d 8953 083e
00000360: 0420 283e 5f8d 953d 954f af3d 896d 3a3e
00000370: 9b3f 0ebe ea76 14be b8bb 583d 927c 8b3d
00000380: c74d 0b3e 7cf2 67bd 0fcc 39be 9841 d83d
00000390: 649e 873c 7896 e3bd 50d4 44ba 1e37 093d
000003a0: 320d 18be c73c dbbd eb38 863c 7196 bbbd
000003b0: 1bb0 62be 0a8a c4bd 7a48 0a3d 43a6 2d3d
000003c0: 0fe8 c5bd a36b d7bd 8d1a 9dbb da40 41be
000003d0: 2b31 3bbe ccd2 043e e58b dbbd 3836 a2bd
000003e0: f869 07be f64d bebc a3ea ad3c d66d a1bd
000003f0: 2ab4 f3bc 4e01 f43d b8fb b5bd 15a5 55bd
-0.066624604 0.08221991 -0.15063372 0.012649676 0.14444412 -0.029314447 -0.0039669937 -0.05572381
0.06980722 0.087378874 -0.17663841 -0.09964235 0.09038707 0.109984264 -0.09810519 -0.029987443
-0.010021304 0.04667827 -0.09266603 -0.15180112 0.005874873 0.12470013 0.16448116 -0.17784737
-0.04535513 0.033163287 0.0423449 0.030427476 -0.10230731 -0.028789844 0.07808393 0.037238296
-0.1561656 0.092228375 -0.015223179 -0.07982223 -0.07575869 0.122534454 -0.13835107 0.06927775
0.11617739 0.0045987684 0.0867648 0.11526438 0.16629511 0.09630047 0.1791968 0.1970135
-0.14628655 0.037429024 0.028193105 0.12576087 0.008719865 -0.18371594 0.16509475 0.086877495
-0.09595205 0.03494428 -0.11876309 0.053658403 -0.0029061788 0.1778296 -0.099497065 0.105316795
0.04272581 0.042920463 0.023652168 0.105007246 0.17479998 0.15350588 -0.08436783 -0.12455149
0.10539395 -0.015570666 -0.10941509 0.015475733 -0.18835811 -0.06640082 -0.0983277 -0.19357689
0.034848988 0.014208221 -0.07967856 -0.020805148 -0.11597118 -0.19140686 0.008015382 0.0691059
-0.20296945 0.10447864 -0.0041750306 -0.045042276 -0.19871253 -0.013154281 -0.11667664 -0.17519337
-0.16998458 0.09146847 -0.14112605 0.018397436 0.09467307 -0.03783468 0.24051279 -0.23017061
-0.14305243 -0.12719235 -0.060296077 -0.063646585 -0.0042662937 0.13440816 -0.19575904 -0.14635055
0.05496981 -0.21195893 -0.0068549863 -0.12383583 -0.12678096 -0.0055730566 0.09623308 -0.0015180856
-0.09119083 -0.11451192 0.19826199 -0.14020601 -0.0061518485 -0.07097504 -0.011110734 0.057912752
0.1604859 0.0725915 0.103982024 0.030369246 0.07409624 -0.17166471 -0.07246379 0.13029814
-0.16175683 -0.045570236 0.122954294 0.004224216 0.2106631 -0.02209762 0.16191128 -0.10450758
-0.022683743 -0.11087699 -0.004580882 0.1944329 0.11160294 0.05239731 0.1617104 -0.0484214
-0.15357266 0.09775869 0.05828059 0.1066633 -0.09268879 0.111020684 0.05966545 -0.1661318
0.057054296 0.13069421 0.066986434 0.10726709 0.027530352 -0.14177635 0.032314893 0.12237716
0.070141844 0.07538681 0.09391 -0.0594631 -0.057321057 -0.22329623 -0.06271451 0.0033276235
-0.14883451 0.11122019 -0.13220671 -0.08940226 0.017857421 0.15186967 -0.020779952 -0.083041586
-0.107588544 -0.042652413 0.12801568 0.11753532 -0.23420243 -0.19797225 0.14416146 0.09426509
-0.23620607 -0.061856665 -0.12957458 -0.16169895 0.020228587 0.0025471617 -0.0012151217 -0.11985652
-0.023082243 -0.08374571 0.123718254 -0.15808631 -0.25161573 -0.07446504 0.04485884 -0.14997531
0.13635354 0.059472274 0.18661083 0.15300782 -0.009101583 -0.017411908 0.10964055 0.13313116
0.16418463 0.07302355 0.08560101 0.18205847 -0.13891451 -0.14498487 0.052913398 0.06810869
0.13603888 -0.056627735 -0.18144248 0.10559386 0.016555019 -0.11112684 -0.00075084437 0.03349983
-0.14848784 -0.10704952 0.016384562 -0.09159554 -0.22137491 -0.09596641 0.033760525 0.042394888
-0.09663402 -0.10518577 -0.004794425 -0.18872395 -0.18280475 0.12971038 -0.10720042 -0.07920498
-0.13224018 -0.023230534 0.021230048 -0.07882278 -0.029748995 0.11914311 -0.08885902 -0.052159388

sentiment_branch.lstm_layers.0.weight_hh_l0 f4 [128, 32]
00000000: e20e 92bd 48b7 05bc c085 893c 0d9d a43d
00000010: c80b e23d d8a7 413e c37d aa3d 3355 aebd
00000020: 439c 29be 3606 e83d 8182 203c 94e2 9fbd
00000030: 2d0c 5e3d 2951 b1bd 5104 973d 0dbb 85bd
00000040: fbe4 a9bd 6041 8abd 8615 b2bd 3c6b fabd
00000050: 7abf ecbd 668b d9bd 2393 41be 7b05 cbbd
00000060: 8361 3dbe 9893 8fbe b532 b0bd 8cf8 efbd
00000070: 1ddf 003e 672a bcbd 6083 14bd 6048 813d
00000080: 89b6 80bd 660d 153e 575f 2f3d ed68 ebbd
00000090: 058f af3d 0c6d d03c a40f b4bd b249 44be
000000a0: 667d 1b3d 84e9 293e 9659 fdbc 4c86 4c3d
000000b0: e96f 69bd 9e5d 8fbb d8bf 083e 04e1 45be
000000c0: a75a 13be e4cc d5bd c004 ddbc 9580 803b
000000d0: 0a90 86bd a9b3 293e b3fc 38be 0c15 2cbe
000000e0: 40f6 f2bd e0fd 3d3d f933 533d 1faf 43be
000000f0: 3d86 ea3d 6239 383e 2413 5cbd bfa3 d73d
00000100: e1d6 0e3d 0f0c 2c3e 39ba a5bd c964 133e
00000110: c0d8 423d 6b0e 43be 4d97 603c 0d16 84bd
00000120: d20f d03c bc9c 153e a84e d23d 3c3e a3bd
00000130: 921f 1ebc 41cc c23d 81db 123e a7cf e23d
00000140: b273 f63d 9f3c 22be 2178 3abe b106 293d
00000150: 52bf 203d 6d2f de3d dd06 903d 501d 2e3e
00000160: 0ace 103d 1dfb e23d df32 923d beb7 b3bd
00000170: d1fa 863d 352b 07bd a206 fa3d 90b1 d23d
00000180: 06dd c0bd 92d1 a63c 206f dd3c 825f de3d
00000190: c613 923d c46a a639 e503 e5bd c592 04bd
000001a0: 53be cbbd 6ca9 353e 4097 20be 1237 6ebe
000001b0: 1388 55be 55c0 9e3d 42bc 46be 5ddb 863d
000001c0: 7db5 2dbe b04e a6bd 98d1 d33d 15fc 303e
000001d0: 9c67 bc3d 796e 1f3d 0516 4abe 7018 98bc
000001e0: e1d7 903d f1f3 2bbe eb31 0dbe cfbf 67be
000001f0: cc8d 14be 6859 0fbe 9bfa ce3d be96 6e3c
00000200: 6617 c13a f899 893d 694c 22be c437 1ebe
00000210: e995 e53c f463 81be 1520 963c 4743 c6bc
00000220: 3071 1b3e aad0 283d 9e73 f4bd 67ec be3d
00000230: d3e2 503b 23f1 52bc 91e4 8fbd 5d3b dfbd
00000240: 6733 63be 6cc5 f13d 4604 513d 183e 49be
00000250: ca5e ecbd 2c93 463e ee5b 6dbc 99ac 44be
00000260: bf97 953d 3071 8bbc 307c 273e 4b59 2dbe
00000270: 8983 80be ef49 f03d 8238 823e 1f57 5ebe
00000280: 0283 083d 1ecb 373e 7268 d0bc 909a 4cbe
00000290: 488f 8fbd c4a1 2ebe 786a 23be e02f 61bc
000002a0: 1d12 a7bc 2fbe 493e 885c 24be f3d0 333d
000002b0: 5b4f e63c 456f 96bd 41ac 523e 8a01 e43d
000002c0: e8d0 8d3d 924e 9abd 1653 e5bd 6e2c b9bd
000002d0: 4dc5 32be 4179 acbd 31d0 2ebd da2b b9bd
000002e0: 2fea 4abe 1064 a8bd 5bca 1a3e 3df5 093e
000002f0: 4aa3 24bd 2c35 76bc 2f0d ea3d 390e b1bd
00000300: fb51 d63d 6165 58bd f5ef 42be a83d c7bd
00000310: 5800 c8bd fdca 54bd 5875 5dbe 73f8 2fbd
00000320: 0aeb 8ebd c025 d43d 6cda 65bc 2236 0ebe
00000330: 3fbc f9bd 4832 df3d 3869 233d d01e ebbd
00000340: 9627 14be 6428 553d 8e01 43bd 202f e93d
00000350: 157b e53d a119 9abc 7629 c83d 0543 4dbe
00000360: 7b07 803d b170 39bd 69c5 05be 7f21 46be
00000370: b308 d1bd c20f 2dbe ecc8 fbbd cbf4 2e3d
00000380: 7d71 663e 53b2 103e 0baa c4bc 1cbe 62be
00000390: a402 dabd 7dd6 bc3c 1b37 51be 31c1 33be
000003a0: 2db9 9ebd 91e0 4bbd 2f87 51be 54b8 c53d
000003b0: 26c4 e6bb b038 8d39 d9af c4bd 6cab e93d
000003c0: c216 5fbe 1600 9bbd e667 55bd 3b92 0f3e
000003d0: 3ed0 fbbd 9439 b53d 4698 a4bc ed55 ee3d
000003e0: 3556 e73d e40f 593e 28c3 0dbe 6a87 88bd
000003f0: 9bcd 1dbe 250a a13d b681 81bd 7a46 fe3c
-0.07131745 -0.008161373 0.01678741 0.080377676 0.11037403 0.18911684 0.083247684 -0.08512344
-0.16563515 0.1132931 0.00979674 -0.07806888 0.05421083 -0.08658058 0.0737387 -0.06529818
-0.08295628 -0.067507505 -0.086955115 -0.122274846 -0.11559959 -0.10622291 -0.18903784 -0.09913155
-0.18494229 -0.28042293 -0.086034216 -0.117173284 0.12585111 -0.09187775 -0.0362581 0.063126326
-0.06284816 0.14555892 0.042815533 -0.114946224 0.08572201 0.025442623 -0.08792046 -0.19168738
0.037961386 0.16592985 -0.030926507 0.049932763 -0.05699149 -0.0043751737 0.13354433 -0.19324118
-0.1439005 -0.104394704 -0.026979804 0.003921578 -0.06570442 0.16572441 -0.18065147 -0.16804904
-0.11863375 0.046384692 0.051563237 -0.19109772 0.11451385 0.1799064 -0.05372919 0.10529279
0.034872893 0.16801475 -0.0809216 0.14393915 0.04756999 -0.19048469 0.013707948 -0.06449518
0.025398169 0.1461057 0.10268909 -0.07970855 -0.009651082 0.095116146 0.14341547 0.11074763
0.12033786 -0.15843438 -0.18209888 0.041266147 0.039244957 0.108488895 0.07032559 0.1700337
0.035352744 0.11083052 0.07138609 -0.087752804 0.06590808 -0.03300019 0.12208296 0.102877736
-0.09417157 0.020363603 0.027030528 0.108580604 0.07132678 0.00031741534 -0.111823834 -0.032366533
-0.09948411 0.1774041 -0.15682697 -0.23263195 -0.2085269 0.07751528 -0.19407752 0.06584809
-0.16963764 -0.08120477 0.10342711 0.17283662 0.091994494 0.038923714 -0.19734962 -0.01856634
0.07072426 -0.16792275 -0.13788573 -0.22631763 -0.14507216 -0.1399895 0.10106393 0.014562307
0.0014731705 0.0671882 -0.1584946 -0.1545096 0.028025584 -0.2527157 0.018325845 -0.024202002
0.15179896 0.041214623 -0.11936115 0.09322434 0.003187348 -0.012874874 -0.070260175 -0.108999945
-0.22187577 0.11805233 0.051029466 -0.19652593 -0.11541517 0.19392079 -0.01448725 -0.19206466
0.07304334 -0.017021745 0.16355968 -0.16928594 -0.25100353 0.11732852 0.25433737 -0.21712922
0.033328064 0.17948577 -0.025440428 -0.19980836 -0.070097506 -0.17053896 -0.15958583 -0.013744324
-0.02039438 0.19701456 -0.16050923 0.04390044 0.028114012 -0.07345442 0.20573522 0.11133106
0.06924611 -0.07534517 -0.11197488 -0.090416774 -0.17458077 -0.08421565 -0.042679016 -0.09041567
-0.19815896 -0.082222104 0.15116255 0.13472457 -0.040194787 -0.015027326 0.11428296 -0.08645291
0.10464855 -0.052831057 -0.19036849 -0.09728557 -0.097656906 -0.051951397 -0.21626794 -0.04296155
-0.06978424 0.10358763 -0.014029127 -0.13887838 -0.12194108 0.10898262 0.039895266 -0.114804864
-0.14468226 0.052040473 -0.047608905 0.113859415 0.11205117 -0.018811049 0.09773533 -0.20045097
0.06251427 -0.045273487 -0.13063587 -0.19348715 -0.10206737 -0.16900542 -0.12294182 0.04271392
0.2250423 0.14130525 -0.024006864 -0.22142833 -0.10645035 0.023051495 -0.20431177 -0.17554165
-0.07750163 -0.04977471 -0.20461725 0.096542984 -0.0070424257 0.0002693585 -0.09603853 0.11409649
-0.21786025 -0.07568376 -0.05210104 0.14020626 -0.122955784 0.08848873 -0.02009214 0.11637483
0.112957396 0.21197468 -0.13843977 -0.06666453 -0.15410464 0.07863263 -0.063235685 0.031039465

sentiment_branch.lstm_layers.0.bias_ih_l0 f4 [128]
00000000: fa3b a83b ce1c cfbd e789 4a3d c380 b7bd
00000010: 1b25 033e b190 10be 0baa dfbd 90bf c23d
00000020: a54c 7d3d da11 06be 2e58 2b3e 15c0 c03b
00000030: 562f 4c3e a50f 103d 9fe7 3c3e 9d3c f3bc
00000040: 549c 9c3d 95dd 2b3d 74c3 3e3e a582 dbbc
00000050: cb07 22bd d266 babd 66d6 603e 296f ba3d
00000060: fc15 1abe 3194 bbbd bb60 e5bd 487a 8fbd
00000070: a741 9a3d a052 a83c 68fb 9f3b d52e 2bbd
00000080: 7273 44bd 2689 d33d edea dbbd b791 bfbd
00000090: 3e2c 383d 9580 56bd 2d47 033e 323a 293d
000000a0: adf3 1b3e 3276 06bc a0f8 223e 2e44 0c3e
000000b0: 8996 07be c50a b2bc 3180 093e 26ea fa3d
000000c0: 9b6e a93c 4734 263e f1ab 013e 97ca ec3d
000000d0: d356 253e 1a1f 413e 6296 453e 107d 383e
000000e0: 4722 48be 1c65 b6bd 2f73 903d f812 ba3c
000000f0: 9889 0bbe 922b afbd 9c36 f53d 29ed 3a3d
00000100: a540 11be c7a8 bebd a3ec 1ebe fec7 25be
00000110: 0523 983b cfc0 283b 17b3 133e 4f9a 0dbe
00000120: e3db 273e dfb7 063e fbac 30be e2a8 fc3d
00000130: 63ab ecbd ebf3 3e3e 2208 4abd e6cd 11be
00000140: e77c 1cbe 68b8 0abe 98c5 d73d 7e61 473b
00000150: b34e 23be a100 cd3d 7461 18be ace5 a63c
00000160: 8acf a9bd 9811 31bd ca06 1cbe 3075 06bd
00000170: f674 2cbe 8377 afbd 599f e33d 6ef7 ac3d
00000180: 911f 33bd 2dfd 003d 1179 72bd 869c dfbb
00000190: 0188 713e ac47 2e3e bda5 babc 0c74 303d
000001a0: 67fc 073e ce07 4cbd 32d9 8d3d 6785 3e3e
000001b0: 63a5 723e 15e1 ecbc b822 403e aa72 2f3e
000001c0: 2f8b 153e dc96 d1bd 5997 693e 0c85 15bd
000001d0: 304d 85bd bc09 c0bd 18c7 393d 8199 f43c
000001e0: 3a55 82ba bd12 483e 67b1 bcbd 9823 4dbd
000001f0: 704a 8bbd 9c96 34bd 279b efbc 2492 3d3e
0.005134103 -0.10112916 0.04944792 -0.08960106 0.12807123 -0.14117695 -0.10921105 0.09509194
0.061840672 -0.13092747 0.16732857 0.005882273 0.19939932 0.03517117 0.18447731 -0.029691989
0.07647005 0.041959364 0.18629247 -0.026795695 -0.039558213 -0.09101643 0.21956787 0.09103233
-0.15047449 -0.09159125 -0.112000905 -0.07005745 0.075320534 0.020547211 0.004882265 -0.04179271
-0.04796166 0.10328893 -0.10738168 -0.09353965 0.044964068 -0.05236872 0.1282012 0.041315265
0.15229674 -0.008206891 0.15915155 0.13697883 -0.13241018 -0.021733651 0.13427807 0.122516915
0.020682624 0.1623088 0.12663247 0.115620784 0.16146402 0.1885952 0.19295648 0.18016458
-0.19544326 -0.08906004 0.070532195 0.022714123 -0.13626707 -0.08553232 0.119733065 0.04563633
-0.14184816 -0.093095355 -0.15519957 -0.16189572 0.0046428465 0.0025749689 0.14423786 -0.13828395
0.16392474 0.13156079 -0.17253487 0.12336899 -0.11556127 0.18647735 -0.049324162 -0.142387
-0.15282021 -0.13546908 0.10535735 0.00304231 -0.1594799 0.100098856 -0.14880925 0.020373188
-0.08291538 -0.04322967 -0.15236965 -0.032826602 -0.16841492 -0.08567717 0.111143775 0.08445631
-0.043731276 0.031491447 -0.05919749 -0.006824079 0.23587038 0.17019528 -0.022784108 0.04307942
0.13279878 -0.04981213 0.06926192 0.18605576 0.23695903 -0.028915921 0.18763244 0.17133585
0.14603876 -0.10233852 0.22811641 -0.036503837 -0.06508863 -0.09376857 0.045355886 0.029858353
-0.0009943612 0.19538398 -0.09213524 -0.050082773 -0.06801307 -0.044088945 -0.029248787 0.1851278

sentiment_branch.lstm_layers.0.bias_hh_l0 f4 [128]
00000000: 2485 ed3b 04ec e13d facd 11be c9f1 593b
00000010: c969 a43c d0b7 dc3c 27f7 473d 789b b3bd
00000020: ab9a da3d 1fe4 c8bc 65ce 033e 0cb9 a63d
00000030: b567 f5bd 934b b2bd 8716 1c3e 877a cf3d
00000040: b351 203e f777 2e3e 60c4 ce3d 9e18 d0bc
00000050: de1c 8f3b 47ff 25be fda7 78bd 8051 483e
00000060: c004 ec3d 0e9a 75bd affe 053e cc70 523d
00000070: d26a db3d 3d5e 283e 4c7d 813d 59b5 713e
00000080: df9c e33c 73ed 5fbd 185a 3d3e f9c5 1e3e
00000090: f455 9fbd 8d0e 873c be73 be3d c382 bb3d
000000a0: beb7 49bb 7744 d63d a71c cdbc 2c05 99bd
000000b0: 185a 013e 6736 95bb 9996 79bd f39f b73d
000000c0: c15d 2d3e 0618 95bc 08d3 8f3c 8a38 723d
000000d0: a1cd 87bd 98a4 0dbe a6ce 4a3d 5b01 b8bd
000000e0: 02e2 743d 5060 103e 96ad acbd 287c 7c3d
000000f0: f8eb 283e 5138 873d 053b 04be 0454 bc3d
00000100: 7823 c53d 96f2 1cbd 375d 58bd 4e24 013e
00000110: e62a 86bc 656d 31be 9406 0dbd b175 09bc
00000120: ba60 8bbc a94f 103e 3f99 d53d 4609 ebbd
00000130: 12b4 213b e054 1abd c02c e23b 10bd 13be
00000140: ed84 1c3d 197d 46be b9e0 9ebd b9bc 3bbc
00000150: 6f62 a9bd 0fc5 fcbd 50c8 5c3d 44ec 79bc
00000160: 9c05 b7bd a7e1 de3d 8239 1fbe a27d 9cbc
00000170: c3f6 21be b00c 0fbe 4300 cabd 7137 40bd
00000180: 83ab 233e c5ac 163e c4b0 f23d 2d0b 5bbc
00000190: ad8f 273e cc99 a13d 6ad3 42bd 880a df3d
000001a0: e39e 05be b0c7 db3d 24a7 563e 8dd2 093d
000001b0: f9fb 2abd 9a0b 373e d336 86bd 753f ddbd
000001c0: d0f3 083c 80fa a23d 0028 443c 1b7e 4c3e
000001d0: 09f4 d2bd 2597 083e bef1 d13c 2be6 623e
000001e0: c4ed 6fbd a820 ddbc 0c98 8d3d 3a63 4ebd
000001f0: f2b9 ea3d 23d3 403e 3622 00be 7d6b f73d
0.0072485376 0.110313445 -0.1423873 0.0033255687 0.020069974 0.026943117 0.048819687 -0.08769888
0.10674032 -0.02452284 0.12871702 0.08140764 -0.11982671 -0.08705821 0.15242968 0.10130792
0.15656166 0.1703795 0.10096049 -0.025402363 0.004367455 -0.16210662 -0.06070708 0.1956234
0.115243435 -0.05996137 0.13085435 0.051377103 0.10713734 0.16442199 0.063227266 0.23604335
0.027784763 -0.05466981 0.184914 0.15505208 -0.07780066 0.01648643 0.0929942 0.091558
-0.0030779685 0.104622774 -0.025038077 -0.074716896 0.12632024 -0.0045536044 -0.060934637 0.08966055
0.16930296 -0.018199932 0.017556682 0.05913595 -0.066310175 -0.13832319 0.04951348 -0.089846335
0.05978585 0.1409924 -0.084315464 0.061641842 0.16496265 0.066025384 -0.12913139 0.09195712
0.09625906 -0.038317285 -0.05282327 0.12611505 -0.016377877 -0.17326887 -0.0344301 -0.008389876
-0.017013896 0.14092888 0.1042962 -0.11476378 0.002467398 -0.0376786 0.0069023073 -0.1442759
0.038212705 -0.19383658 -0.07757706 -0.011458569 -0.08270728 -0.123422734 0.05390197 -0.015254084
-0.08936617 0.108828835 -0.15549281 -0.019102875 -0.15816788 -0.13969684 -0.09863331 -0.046927873
0.15983395 0.14714344 0.118501216 -0.013369364 0.16363402 0.078906626 -0.0475649 0.108906806
-0.13048892 0.10731447 0.20962197 0.033648062 -0.041744206 0.1787552 -0.06553426 -0.10803119
0.008358911 0.07957935 0.011972427 0.1996998 -0.10300452 0.13338907 0.025627967 0.22158115
-0.05857636 -0.02699311 0.06913766 -0.0503876 0.114612475 0.18830542 -0.1251305 0.12081049

sentiment_branch.fc.weight f4 [32, 32]
00000000: 5858 023e bd39 56be 9ec7 d03d a984 96bd
00000010: c8e3 f63d 33c1 fcbd 4fc0 353d 0813 e23c
00000020: 43c8 b7bc 82d3 843d 8581 5bbe 4e94 7bbc
00000030: 2960 f33d e244 85bd 833c f33d 8d57 563d
00000040: efeb f23d 3940 553c 824b 373e a640 c93d
00000050: 48f2 45bd 7a87 6dbd 10c4 50be 6407 64be
00000060: d2d4 39bd 7e79 b0bd 3429 f1bd c706 0c3e
00000070: 5c77 85bd df30 29bd 25c5 6a3d dbfb 95bb
00000080: 3c61 4c3d 6204 153e 71c1 52be 87b8 99bd
00000090: 1903 2dbe aab0 143e c2b8 0cbd ba10 0e3e
000000a0: 6cb9 86bd 0918 28be 0c98 71bc a461 5ebd
000000b0: c842 043e 72f5 e3bc b3fd 533e 4ff2 f73d
000000c0: 80f3 30be 4cdd 6e3d a3d2 54be 2109 01be
000000d0: 2722 f33d 3143 e9bd 39c1 403e c642 dfbd
000000e0: 14a6 11be f771 843e 4971 efbd 7526 1dbe
000000f0: 3401 6d3d 230e 84bd a14b abbd 80c7 ff3b
00000100: ae8d f23b 2667 93bd fbf8 15bb 2cfa 5cbc
00000110: c956 cbbc 26f0 883d 3573 c93d b4e7 443e
00000120: 3c85 86bd dda6 0b3e 299c 03be f5f2 4cbe
00000130: 08e6 113e 843c f43b 0f5b b5bd 9f47 75bc
00000140: 8d42 acbd 37f8 94bd bc41 ee3d b69c 463e
00000150: 3a7e 1f3e 5d9f 1c3e fd29 84be da53 ddbd
00000160: 2821 293e bbb5 ea3b 9bb6 8ebc b253 1abe
00000170: 8272 663d 97f8 4b3e 3182 d0bd 4b0d 8fbc
00000180: 7057 0a3e 48ed f23d 1880 ff3c 8681 36be
00000190: 1249 ac3d 70f0 4cbe d6cd 503d 8280 12bd
000001a0: f099 393e 5f50 0c3d 364c 05be ad29 9e3c
000001b0: 6e9b 053e c0b6 02be 292d ce3c b2a0 a13d
000001c0: 4b56 fd3d d152 3cbe 7ddf 14be c581 80bc
000001d0: 95c6 82bd 9983 01be a430 123e ed22 3fbd
000001e0: 5d5d f1bd 7406 853e 989a d0bc 210b e23d
000001f0: 5f3c 0cbe 9b07 38be 06e9 b53c 41c3 cc3d
00000200: ccb7 03bc 10f0 813d 66be de3d d9e9 803e
00000210: 6c6e 6bbd 3d4a 143e 4df4 b83d f980 1e3d
00000220: 72b9 ed3d d318 fa3d 4902 ea3d 7187 cc3d
00000230: 962e b23d 7a22 78bd 062d 6fbd 99ee 143e
00000240: 1e63 e8bd b847 5f3d 9479 2a3e cef1 08be
00000250: 84e1 243d 0beb 28bc 622b 24be 6eb4 03be
00000260: 8147 86bd 8b84 52bd 235f 643d b008 9cbd
00000270: 5766 64bc 5abc 1abe b72e 0fbe f435 eabc
00000280: 90a4 a73d 0120 12be 0d40 233e 1a9f f43c
00000290: 9c1d 95bd a853 f4bc 4aec f5bd 77b6 373c
000002a0: f5eb 6c3d 1866 0a3e 3777 2dbe 85e7 b53c
000002b0: 8420 f9bd 7913 edbd d279 86bd cc47 52bd
000002c0: ef33 613d f3b1 09bd e22b 913c 19e4 4dbd
000002d0: 2cdd f0bd 571f b1bd abf3 533e cb73 013d
000002e0: 1ef4 c1bd f9fb fc3d ccca 813d c4f5 0dbe
000002f0: 929b debd 99b5 99bd fb18 de3c 1a61 103e
00000300: 64e8 6dbc 5c35 0b3d 1c8e 9cbd 8c00 ac3c
00000310: f706 3ebe 9a11 fb3d 151b bb3d fe7c 98bd
00000320: 7218 c9bd 6ef2 9cbd 1755 31bd 8446 a93d
00000330: 6b3a eabd 878f a73d 3164 2a3e 94d2 e53c
00000340: ab03 43be 1255 8fbd d9af 2ebe 1000 383d
00000350: 1bed 34be 1a17 29be bd36 f4bd 7884 393e
00000360: 6230 29be 672a 363e 903f 143d 90e3 24be
00000370: 9832 1fbe 19ee 0f3e 2081 f13d 7e3a 40be
00000380: 7f92 103e d70f 5ebd 23b1 e33d 95cf 943d
00000390: aa30 8f3d 5496 fb3c f711 9fbc 5547 fcbd
000003a0: 005d bf3d d3a7 d5bc 618e fb3d 5ee3 173d
000003b0: 2c78 503e 92f9 56bd 7a54 423e 8003 06be
000003c0: 275a 2d3d 5af7 70bd 7fda a5bd 958b dfbd
000003d0: e4fc 863d ab5c 23bd e342 033e 1042 1cbd
000003e0: 9565 02be 04eb b93c 2afe 493c b83d 25be
000003f0: 4ebf 113d 6dfa 06be 8572 f03d e343 b03c
0.12729013 -0.20920463 0.10194324 -0.07349522 0.120551646 -0.12341537 0.044372853 0.027596965
-0.02243436 0.064856544 -0.21436127 -0.015355183 0.118835755 -0.06507279 0.11876776 0.05232959
0.11861407 0.0130158 0.17899898 0.09826784 -0.04832676 -0.05799053 -0.20387292 -0.22268444
-0.045368977 -0.08616923 -0.11775437 0.1367446 -0.065169066 -0.041306373 0.057316918 -0.0045771427
0.049897417 0.14552453 -0.20581605 -0.07505899 -0.16895713 0.14520517 -0.034355886 0.13873568
-0.06578335 -0.16415419 -0.014745723 -0.054292336 0.129161 -0.027826998 0.20702247 0.121067636
-0.17280388 0.058316514 -0.20783477 -0.12601139 0.118717484 -0.11389769 0.18823709 -0.10901408
-0.1422351 0.25868198 -0.11691529 -0.15346701 0.057862476 -0.06448009 -0.083640344 0.0078057647
0.0074021434 -0.071974084 -0.0022884 -0.01348738 -0.024821656 0.0668643 0.09836427 0.19229013
-0.06568381 0.13637872 -0.12852539 -0.20014556 0.14247906 0.007453503 -0.08855259 -0.014970689
-0.08411131 -0.07273906 0.116336316 0.19395718 0.15575495 0.15295167 -0.25813285 -0.10807009
0.16516554 0.0071627772 -0.017421057 -0.1507099 0.056261547 0.19919048 -0.10181082 -0.017462393
0.13509917 0.11861664 0.03118901 -0.17822847 0.084123746 -0.20013595 0.05097755 -0.035767086
0.18125129 0.034256335 -0.13017353 0.019306982 0.13047573 -0.12765026 0.025168018 0.07891978
0.12369975 -0.18390967 -0.14538379 -0.015686879 -0.06385533 -0.12647857 0.14276367 -0.046664167
-0.11785386 0.25981486 -0.025464341 0.11037279 -0.13694905 -0.17971651 0.02220584 0.09998179
-0.008039426 0.063446164 0.10876159 0.25178412 -0.057478353 0.14481445 0.09030972 0.038697217
0.116076365 0.12211766 0.11426217 0.09986771 0.08700292 -0.060579754 -0.058392547 0.14544143
-0.1134703 0.054511756 0.16647941 -0.13373491 0.04025413 -0.010309945 -0.16032174 -0.12861797
-0.06556607 -0.051395934 0.055754792 -0.076188445 -0.013940415 -0.15110913 -0.13982664 -0.02859018
0.08185685 -0.14270021 0.15942402 0.029861022 -0.07281038 -0.029825047 -0.12007959 0.011212937
0.057842214 0.13515508 -0.16940008 0.022205124 -0.12164405 -0.1157598 -0.06566204 -0.051338002
0.05498117 -0.03361697 0.01772112 -0.05026636 -0.11760935 -0.08648556 0.2069842 0.03160457
-0.0947039 0.123527475 0.063375086 -0.13863283 -0.108695164 -0.0750534 0.027111521 0.14099541
-0.014520738 0.033986434 -0.07644293 0.020996355 -0.18557344 0.122592166 0.09136025 -0.07445715
-0.09819116 -0.07663427 -0.04329404 0.08265403 -0.114369236 0.081816725 0.16639782 0.028054513
-0.19044368 -0.06998648 -0.17059268 0.044921935 -0.17668574 -0.16512719 -0.11924503 0.18116939
-0.16522363 0.17789613 0.03619343 -0.16102433 -0.15546644 0.14055671 0.11792207 -0.18772313
0.14118384 -0.054214325 0.111177705 0.07266156 0.06991704 0.03071133 -0.019417746 -0.12318293
0.0934391 -0.026081001 0.12283016 0.03708207 0.20358342 -0.052484103 0.18977538 -0.13087273
0.042322304 -0.058829643 -0.080983154 -0.10915295 0.06591204 -0.039883297 0.12818484 -0.03814894
-0.12734063 0.022695072 0.012328664 -0.16136825 0.035582833 -0.13181467 0.11740593 0.021516746

sentiment_branch.fc.bias f4 [32]
00000000: 8435 453b dabd a8bd 76ee d13d 60f9 e63d
00000010: 21a3 073e fba5 873c 6b57 df3c 583b 20be
00000020: c8a5 843c 0b76 babd e36f 0b3e 6166 fbbc
00000030: 38cc 6c3d 53b6 513e 55bd bdbc 13aa 22bd
00000040: c023 2ebe a51f 863d f0d6 a33b abfa 2a3e
00000050: 6151 03bc 5a13 ac3d d19f ec3d d720 30be
00000060: d469 183e dc67 133e e32f 393d 70fe ed3d
00000070: 29ba 83bd 2153 d23c f8a2 aabd 1106 003e
0.0030091712 -0.08239336 0.10250561 0.11278033 0.13245822 0.016558638 0.027263364 -0.15647638
0.016192332 -0.09104546 0.136169 -0.030688467 0.057811946 0.20479707 -0.02316157 -0.039712977
-0.17005825 0.065490045 0.004999988 0.16697185 -0.008015008 0.084021285 0.1155392 -0.17200027
0.1488412 0.14395088 0.045211684 0.11620796 -0.064319916 0.025674405 -0.08331865 0.12502314

price_branch.lstm.weight_ih_l0 f4 [64, 5]
00000000: f43f 0bbe 3d83 c5bd 37d9 73be 2e63 87be
00000010: 1881 2fbb 59a8 c8bd 2a82 7cbe 0668 18be
00000020: 312c 1f3e 8274 93bd 54af d8bd 37ec a83d
00000030: cf18 893e 74aa 373d ac4d e03a 9f35 8ebe
00000040: 2e1a 98bd fa43 54be 60df 2fbd 20ea 07be
00000050: a11a 04be fe66 193e 5ce6 4d3e 41ec cf3d
00000060: 1e4e 633e a0cb 8abe 4a6e c6bc 3f3a 45be
00000070: c7cf fb3d bd23 acbd ae31 cfbd 5764 563e
00000080: 4389 e93c 99bf 863d 785e 25be 75f5 1f3d
00000090: 41e1 633e 0b8a 19be 3925 a93e b6f5 80be
000000a0: 9965 1abe 19c6 4bbe 5383 473e 076d 01be
000000b0: 0dc0 713e c520 7f3e f24b 8d3d f683 a13e
000000c0: 8a86 163d 65dd 11be fd60 91be 16fb 953c
000000d0: b80e c8b8 db6d 9dbd d3ef 89bc d5b4 f63d
000000e0: 9db4 5ebe 3f4b 1dbe ceb3 a6be bcfb 073e
000000f0: 6cc4 05be 808b 973d a534 5abd ed4e 04be
00000100: 6a15 b73b 1e88 833b fde1 cf3d ef8b 96be
00000110: 3833 853d e260 f93d 4ade c9bd ccbd 853c
00000120: 78b2 03be 4997 5dbe 8bc7 273e 8763 673d
00000130: 1103 48bd 112b 65bc ed10 1dbe 66f7 37be
00000140: b0eb e63d f38a 643e 2bd5 28be 491e c5bd
00000150: a9ce 4e3e 1279 42be 60b4 cbbd 1b14 7f3e
00000160: a0b9 37bb 7057 1d3e baf8 e03b 6956 9e3d
00000170: 6d89 0bbe 087b 34bd e69d 3ebb 8706 f53d
00000180: 6e02 c23e 54d7 063e a244 18be 1bbd 21bd
00000190: 688b a3bd 9515 d03d ca3d b5bc 1a48 47be
000001a0: 3a9b 21be 81ae febd e0b5 14be 1035 a0be
000001b0: 3c41 c9bd 536f 89be b25f 523e 9cb4 993e
000001c0: edb9 ac3d 0670 cebd e944 ccbc 9c21 743e
000001d0: 3659 c73d 2c43 83be c728 2dbd 8e9e 483e
000001e0: 5661 8b3d 140c 79be a39b e23d d6ea 67be
000001f0: 92ca 163e d158 8bbd 4b6b 3d3e b565 233e
00000200: 8ea7 71be c1b6 0ebe 8da6 93be a884 343e
00000210: 79fb cdbd cbdc 933d 9748 eabd 7a20 06be
00000220: ec07 743d 5a62 5ebe 28e1 86bd 2a6e 06be
00000230: 0565 73be 3077 c9bd eba8 e83d 57ea 0ebd
00000240: 9dff a2bc fbaf 903e 6110 e6bd a514 033e
00000250: c1f3 3a3e f3c7 e2bd 83b9 1dbe 397e bdbd
00000260: dc8e 5d3e a5a2 29be 37ef 7bbe a799 88be
00000270: 09e6 1b3e a1d9 183e 877b a7bd 4697 e23d
00000280: 37e5 a83d 80b4 033e 7ae4 4bbe b317 523e
00000290: 1fcc 1c3d 0779 1e3e 70c6 e33d 3f6e 0fbe
000002a0: 11dc 873e 414b 6b3e b4a7 d53d ba08 f2ba
000002b0: 74c9 28bd 566f 21be ea26 373c fc03 87be
000002c0: 5449 9cbe 11ee 533e 6335 d93d f60f f9bc
000002d0: d57f cc3d 9746 92bc 005b 4cbe 418f 75bc
000002e0: d1e0 25be 1988 10be a8dc 39bd b38e 4ebd
000002f0: 4e61 38be 41c1 55bd e8a1 783e e6d7 863e
00000300: 3f06 91bc daad 143c b953 b13b 1dc5 55be
00000310: ebaf ae3d 517e 093e 87dd 603e 7f88 123e
00000320: eea0 4ebe 820c 91be cde1 f63d 4778 023b
00000330: 40b4 f4bd 029b dd3c 1abb d6bd 5d00 4a3e
00000340: e3b9 8f3e 1e99 f9bd c34c 233e e17c 793d
00000350: 9837 0cbe c5ad a93e e676 a1bd 4852 0d3e
00000360: 5d00 c6bd a56a 1d3e d11d 663d 86ca 98be
00000370: 3a75 ebbd 588c 463e 7bf9 453d 8a24 7dbe
00000380: c535 6bbe d474 463e c0d8 193d fe99 5cbe
00000390: d149 823e f8a4 21be 30a2 b3bc ea49 153e
000003a0: 6678 06be 4ca7 b33e d10c 703d 742a 593e
000003b0: 4ced 293e 959e 6c3e aa40 3cbc 037a f9bd
000003c0: 716d d8bd 7ce9 29bd 2632 1fbe 0a33 37be
000003d0: 8c55 16be db21 ae3b b22a a2bd d0ac a8bc
000003e0: 1290 dfbd 9c66 95be 1a81 a73d bfa4 54be
000003f0: ee7f 6dbe c4d7 773c 3693 f7bd 3358 8a3c
-0.13598615 -0.09644172 -0.2381333 -0.26442856 -0.0026779827 -0.09797735 -0.24659029 -0.14883432
0.15544201 -0.071999565 -0.10580316 0.082481794 0.2677674 0.04484029 0.0017112992 -0.27775285
-0.074268684 -0.20729056 -0.042937636 -0.13272905 -0.12900783 0.14980695 0.20107406 0.10152484
0.22197768 -0.2710848 -0.024222512 -0.192605 0.1229549 -0.08405254 -0.101168975 0.20936714
0.028507834 0.06579513 -0.16149318 0.039052445 0.22253896 -0.14994065 0.3303621 -0.25187463
-0.15077819 -0.19899787 0.1948369 -0.12639247 0.23608418 0.24914844 0.06899251 0.3154599
0.0367494 -0.14244612 -0.2839431 0.018308204 -9.539485e-05 -0.07686969 -0.01683799 0.1204621
-0.21748586 -0.15360735 -0.32559055 0.13279623 -0.1306321 0.073996544 -0.053272862 -0.12920733
0.0055872696 0.004014029 0.10150526 -0.29403636 0.0650391 0.12176682 -0.098568514 0.016325854
-0.12861049 -0.21639742 0.16384713 0.0564914 -0.04883105 -0.013987319 -0.15338488 -0.17965469
0.112754226 0.2231863 -0.16487567 -0.09624917 0.20196022 -0.18991497 -0.09946513 0.24910013
-0.0028034225 0.15365386 0.006865588 0.07731325 -0.13626643 -0.044062644 -0.0029085814 0.119641356
0.3789248 0.13168079 -0.14869931 -0.039486986 -0.07985574 0.101603664 -0.02212419 -0.19461098
-0.1578187 -0.12435628 -0.14522505 -0.31290483 -0.098268956 -0.26842746 0.20544317 0.30020607
0.084339 -0.100799605 -0.024935203 0.23840946 0.097338125 -0.25637186 -0.042275216 0.19591734
0.06805675 -0.24321014 0.110648416 -0.22648177 0.14725712 -0.0680405 0.1849796 0.15956767
-0.23599073 -0.13936903 -0.28838006 0.1762873 -0.1005773 0.07219847 -0.11439627 -0.13098326
0.059577867 -0.21717206 -0.06585914 -0.13127962 -0.23769005 -0.09837186 0.113603435 -0.034891453
-0.019897277 0.28259262 -0.11233593 0.12800844 0.18257047 -0.110732935 -0.15402798 -0.09252591
0.21636528 -0.1656595 -0.24602972 -0.26679727 0.1522447 0.14926769 -0.08177858 0.11064009
0.08246844 0.12861824 -0.19911376 0.20516853 0.038280603 0.15475856 0.11121833 -0.140069
0.26535085 0.22977926 0.104323775 -0.0018465735 -0.041207746 -0.15765128 0.011178711 -0.26370227
-0.30524695 0.20696284 0.10605886 -0.030403119 0.099853195 -0.017855925 -0.19956589 -0.014987768
-0.16199042 -0.14114417 -0.04537645 -0.050429057 -0.18005869 -0.052186254 0.24280512 0.26336592
-0.017703174 0.009074653 0.005411592 -0.20875974 0.085296474 0.13427092 0.21959506 0.14309882
-0.20178577 -0.28329855 0.12054787 0.0019908117 -0.119484425 0.027051453 -0.104849055 0.19726701
0.28071508 -0.12187408 0.15947251 0.06091011 -0.13693082 0.33140388 -0.07884006 0.13800919
-0.09668038 0.15372713 0.05618078 -0.29842013 -0.114969686 0.19389474 0.048333626 -0.2472097
-0.2296973 0.19380504 0.037560225 -0.21543118 0.25446942 -0.15785587 -0.021927923 0.14578977
-0.13131866 0.35088575 0.058605973 0.21207601 0.16594428 0.23107369 -0.0114900265 -0.12181475
-0.10567749 -0.041482434 -0.15546474 -0.17890564 -0.14681071 0.0053140945 -0.079183 -0.020590216
-0.10916151 -0.29179847 0.08178921 -0.2076597 -0.23193333 0.015127126 -0.12088625 0.01688776

price_branch.lstm.weight_hh_l0 f4 [64, 16]
00000000: 4a77 6ebe 55f8 803d 863c 43bd 5a4b 9abd
00000010: 042a 95bd 2e06 7fbd b3fe 553e d2a0 3ebe
00000020: ec95 0bbe 027a 42be 64af 59be fcad edbd
00000030: 6d96 1f3e 534f 27bd 1f41 17be b045 893d
00000040: 23a0 8bbe 0dfe 0fbe 7d00 b7bc ae21 243e
00000050: 1c5e 2bbe 71fa c33d 1eb7 2abe c323 85be
00000060: cf30 a3bc 25de 22be 06a5 8bbe 48d8 25bd
00000070: a2d1 103e d4d6 2bbe 4789 81be a6d0 103e
00000080: 2629 3fbe bbc2 bfbd 38f9 333e cb06 16be
00000090: a105 5abd b6fb 36bb 70fb 553e 51aa 5f3b
000000a0: 9bb2 0a3e aa0a a2bd f4b9 89be 18a8 9b3d
000000b0: 6d50 c2bd 2605 013e fa63 843d 2740 1d3e
000000c0: d087 913e 6652 23be d430 6f3e 5f1d 223e
000000d0: a773 053e 0950 2abe c05f f9bc 9d40 ba3d
000000e0: a14a 43be 22f9 523b 0633 5a3e 907d ff3d
000000f0: b3e1 16be a107 503a 68ee b9bd 0323 1a3e
00000100: 34db 2f3d 715d 883e df76 db3c e55e d5bd
00000110: 3ca4 573e 96ed 533e 61b4 81bc 3a8c 02be
00000120: 78d7 2fbd b7a7 c8bb 1c37 593e 20fe 13be
00000130: bf6e 3b3e 2b3b 14be 07e6 ff3b 32ea 703d
00000140: 32de 8dbe c580 60be edbd 3a3d 70c6 dfbb
00000150: 9a7f 59bd d85d 943d 2970 863e 7103 81bd
00000160: 730a b7bd 8daa 7abd 5b94 8ebe 4271 bebd
00000170: ce66 31be 8408 40be 9b96 463e 6b0b d13d
00000180: 9442 a63d 3880 52be 0f14 1a3e 1dba a13d
00000190: bd7b ed3a 8866 163e 903f 2abe a6ce 75be
000001a0: 0dba 593e bbe2 8a3e 7fd3 a53c 8e9f afbd
000001b0: a112 e13c 1cf9 2ebd c61f 4e3d d8bb 4d3e
000001c0: 1f34 ef3d c8d7 8bbd 99a2 6d3c be0b 95bd
000001d0: ab68 bebd b374 333c 2854 1b3e 508e 413e
000001e0: 1a00 5dbd b415 853c e5c1 2fbe a07c 2b3e
000001f0: 1663 16bc 931a b0bd a6c3 3f3d 6c5d 093e
00000200: e16d 003e 9134 00be 7cad b2bd 0bae 10be
00000210: 92b6 25be ce13 323e fef2 86bc c980 2dbe
00000220: 2df8 e9bc 3973 8a3e 524a 1e3e b0fa 68be
00000230: 8d7c 6ebe 25b4 193e eea1 763d 1c99 cfbd
00000240: 3536 10bd 20d5 a7bc 91e2 fa3d c36d 7a3e
00000250: 6ca0 db3c 1d1e 793e 2deb 8d3d b1f0 8cbd
00000260: 5c02 503e fac5 353e daaa 7dbe 3a69 573d
00000270: ad6f 27bc 4aa5 8dbe 2a0e 57bb 2514 843d
00000280: 75c3 30be 6f9a e33d 694f 8fbe 5537 883e
00000290: dc66 e53c 228b c2bd 52f3 363e 09da d33d
000002a0: 9821 983e b0f7 7ebe 0da3 ed3d 8e79 74bc
000002b0: d590 37bd 6bd3 3ebe 13a5 89be 90ec 02be
000002c0: ed2e 80be 1850 4bbe c5d0 c1bd 629c 753e
000002d0: 2099 753e c172 a1bd bf21 973c 52ac 13be
000002e0: ff2c febc 82df 6ebd 77d4 e83d 9aa8 07bd
000002f0: 6e0f 21be c096 e8bd 0fe0 a0bd 8572 af3c
00000300: 2db1 423c 839b 9bbc 8301 2c3d e827 34be
00000310: 0a65 d63d fe9a 18be 47f2 03bd 9dab ec3d
00000320: e48c 72be b0f4 d1bd 899b 473d a7ec 50bd
00000330: b4a7 ae3d d7e0 493e abc6 c33c c465 96bd
00000340: 3d97 3f3e 85bb 9d3e 4c17 61bd cf98 08be
00000350: d149 8a3d 6865 9fbc 22a4 083e 25fc c73d
00000360: 3628 b73d 7fa9 21bd c7ac bbbd 8a36 04be
00000370: f8db ab3c e3db 25be 04de 2fbe 4992 bb3d
00000380: ea91 53be 892e aa3d 6b76 fe3d 0b0d 33be
00000390: 9ba3 843d 40e8 8b3c 163b fb3c 239e 9ebe
000003a0: dcba 5bbd bea7 90bd 8f38 87be f0a6 9e3e
000003b0: 0b38 a03d d12f c2bc 985f 193d e953 38be
000003c0: 8ccb 35be cb0c 953e 374e c2bd 5066 8b3d
000003d0: 5592 17be aec4 25be dea5 45be 05c1 2f3d
000003e0: babc 91bd 36c9 2dbe 0339 c53d 5588 333e
000003f0: b5cd 963d 3b7e 1c3e 4a2c 023e b828 c9bc
-0.23287693 0.062973656 -0.04766514 -0.075339034 -0.072834045 -0.062261753 0.20897941 -0.18616036
-0.1363141 -0.18991855 -0.21258312 -0.116054505 0.15584727 -0.040847134 -0.14770935 0.06702745
-0.27270612 -0.14061756 -0.0223391 0.16028473 -0.16735119 0.09569252 -0.16671416 -0.26003847
-0.019920735 -0.15905054 -0.2727434 -0.040489465 0.14142469 -0.16781169 -0.25300047 0.14142093
-0.1866804 -0.09363314 0.17575538 -0.14651029 -0.053228024 -0.0027921028 0.20896697 0.0034128616
0.13544695 -0.0791219 -0.26899683 0.07600421 -0.09487996 0.1259962 0.064643815 0.15356503
0.2842393 -0.15949401 0.2335847 0.15831517 0.13032399 -0.16632093 -0.030441165 0.09094355
-0.19071437 0.0032191952 0.21308526 0.12475121 -0.14734535 0.0007935707 -0.090786755 0.15052418
0.042933658 0.2663379 0.02679008 -0.1041849 0.21058744 0.206961 -0.015833082 -0.12748805
-0.042930096 -0.006123509 0.21212429 -0.1445241 0.18303965 -0.14475696 0.007809404 0.058817096
-0.27708584 -0.21924122 0.045591284 -0.0068290755 -0.053100206 0.07244462 0.26257446 -0.062994845
-0.0893754 -0.061197806 -0.2784756 -0.09298946 -0.17324373 -0.18753248 0.19393389 0.10207256
0.081181675 -0.20556724 0.15046714 0.078968264 0.0018118542 0.1468755 -0.1662581 -0.24004611
0.21262379 0.27126107 0.02024245 -0.085753545 0.027474703 -0.042718038 0.05032327 0.20091188
0.11679863 -0.068282664 0.014504098 -0.0727763 -0.092973076 0.010953116 0.15168822 0.18901944
-0.053955175 0.0162457 -0.17163809 0.1674676 -0.009178897 -0.08598819 0.046817444 0.13414544
0.12541915 -0.12520052 -0.08724496 -0.14128892 -0.16182926 0.17390367 -0.01647329 -0.16943659
-0.028560722 0.27041033 0.15458038 -0.2275188 -0.232897 0.15010126 0.060213022 -0.10136625
-0.035207946 -0.020487368 0.12250245 0.24455933 0.026809894 0.24327894 0.06929622 -0.06881846
0.203134 0.17751303 -0.24772206 0.052590586 -0.010219497 -0.27665168 -0.003281484 0.06449155
-0.17262061 0.1111344 -0.27990273 0.26604715 0.028003149 -0.09499194 0.17866257 0.10344321
0.2971313 -0.24899173 0.11603365 -0.014921559 -0.044815857 -0.18635337 -0.26883754 -0.12785554
-0.25035802 -0.19854772 -0.09463648 0.23985437 0.23984194 -0.07883216 0.018448709 -0.14421204
-0.031027315 -0.058318622 0.113686495 -0.033119775 -0.15728542 -0.11356878 -0.07855236 0.021416912
0.011883062 -0.018995052 0.04199363 -0.17593348 0.104684904 -0.14902875 -0.032213476 0.1155617
-0.23686558 -0.102517486 0.048732314 -0.05100694 0.085280806 0.19714676 0.023898443 -0.07343629
0.18710037 0.3080713 -0.05495386 -0.13339542 0.067523606 -0.019457534 0.13343862 0.0976489
0.089432165 -0.039468285 -0.09163814 -0.1291143 0.020978913 -0.16197161 -0.17174536 0.09158761
-0.2066113 0.08309657 0.1242493 -0.17485444 0.06476518 0.017078519 0.030667823 -0.30980024
-0.053645 -0.07063244 -0.26410338 0.30986738 0.07823189 -0.023704441 0.03744468 -0.18000759
-0.17753428 0.29111323 -0.094875745 0.06806624 -0.14801915 -0.16188309 -0.19301555 0.042908687
-0.07116075 -0.16971287 0.09630015 0.17532475 0.07363454 0.15282528 0.12712207 -0.024555549

price_branch.lstm.bias_ih_l0 f4 [64]
00000000: 8617 813e b6c6 3b3e 9aa0 8f3e 1300 e8bc
00000010: 6840 efbd 8c86 1e3e 4f28 903d e39b 513d
00000020: bed5 fdbd 6a66 4d3e 1dae 6a3e b112 1ebe
00000030: bf4b 06be 651a 9f3e 6194 44bd b83d 123e
00000040: cad1 16be c141 ab3d d0f8 6dbe ed39 b83c
00000050: 344b 80be e519 8cbd 3d11 bf3d fb60 e53c
00000060: f176 41bd 7f44 13be ce4c 11be 26ca 793c
00000070: ca86 c7bd 25ea 9a3e ca37 54be 8bc2 7f3e
00000080: 87cd 7e3d 7d93 24be e80c 35be 744b a0bd
00000090: b442 98bd bc34 9abd 5d63 543e 2783 4fbe
000000a0: 9703 bb3d 55ba b4bd 3e08 5bbe 6c3e 713e
000000b0: 1fee 89bc 559b 72be 03c0 32bd 915f 35be
000000c0: 3a6d 1cbe aea6 123c b949 d53d a628 37be
000000d0: ed61 3bbe ba8e c03e c56b 40be 873f 45be
000000e0: ce90 35be 4128 8b3d 0221 2cbd 2adc ba3d
000000f0: c3fa 4abe 892f 133d 30ef 7e3e 13cb 27bd
0.2521326 0.18337521 0.28052217 -0.028320348 -0.116822064 0.15481013 0.07038938 0.051174056
-0.12394284 0.20058599 0.22917981 -0.15436818 -0.13114832 0.31074825 -0.047993068 0.14281356
-0.14728466 0.08362151 -0.23239446 0.022488559 -0.25057375 -0.068408765 0.0932946 0.028000345
-0.047232572 -0.14381598 -0.14189455 0.01524595 -0.09742506 0.30256763 -0.20724407 0.24976556
0.062207725 -0.16071887 -0.17680705 -0.078268915 -0.074345976 -0.075295895 0.20741029 -0.20264874
0.09131544 -0.088246025 -0.21389863 0.23558968 -0.016837178 -0.23692067 -0.043640148 -0.17712237
-0.15276042 0.008950872 0.10414452 -0.178866 -0.18299074 0.37608892 -0.18791111 -0.19262515
-0.1773102 0.06794787 -0.042023666 0.09124024 -0.1982222 0.035934005 0.2489593 -0.04096515

price_branch.lstm.bias_hh_l0 f4 [64]
00000000: 918d debd 5743 dabd 8046 153e ff05 e0bd
00000010: b353 e9bd 1d12 ac3e b5f9 503e 5c97 03be
00000020: 2738 1ebe 6c44 01bd 006d 79bd d909 47be
00000030: 5d63 e23d d975 7bbd 2edd a63e ba36 1d3e
00000040: b4db 013c 6e3f 4c3e 1608 433e 0ee0 903e
00000050: 04c9 113e c8c9 363d bc5c fb3c 8478 0f3d
00000060: 78e1 abbc 8539 3dbd 998e 31bd df4a 193e
00000070: eaee 893e fcc1 39bc 0cbd 463d 16ff 4d3e
00000080: cc97 a8bd 20b6 c13c 404c 863d cbf6 14be
00000090: 3420 63be 1ec7 043e c049 6a3d 621e 6ebe
000000a0: 1bc2 043e 053a 5c3e c628 43be f11c ec3d
000000b0: fbea 25be 7174 d83d 68f2 d43d d6d1 4a3e
000000c0: daf0 8fbd 14dd 9d3e ad71 ff3b 9fba 88bd
000000d0: 8b8e 3dbe 463d f7bc cd79 39be 7321 883e
000000e0: fd55 893d 9ed4 e23d b545 32be 75bc 0d3e
000000f0: 3595 25be 327b 423e 3dba 043e a287 5abc
-0.108668454 -0.10657375 0.14577675 -0.10938644 -0.113929175 0.3360757 0.20407756 -0.12850708
-0.15451108 -0.031559393 -0.060894966 -0.1943735 0.11054108 -0.061391685 0.32590622 0.15352908
0.007925916 0.19946072 0.19046053 0.2829594 0.14236838 0.044626027 0.030683868 0.035027042
-0.020981535 -0.046197433 -0.043348882 0.14969967 0.2694009 -0.011337753 0.048520133 0.20116839
-0.08232078 0.023646414 0.06557512 -0.14547269 -0.22180253 0.12966582 0.05719924 -0.23253778
0.1296467 0.21506508 -0.19058523 0.11528958 -0.16202919 0.105690844 0.10397798 0.19806609
-0.07028361 0.30832732 0.0077955336 -0.0667622 -0.18511407 -0.030180585 -0.1811287 0.2658802
0.06705854 0.1107571 -0.17409404 0.13841422 -0.16170199 0.18992308 0.1296167 -0.013338001

price_branch.fc.weight f4 [16, 16]
00000000: eadb 48be b709 af3c 670a 3fbc a7c5 b93c
00000010: 9e3c d33b 336d babd a61e dfbd 1b13 063e
00000020: edd1 143e d3c8 143e 326f e7bd 4e5f 6abd
00000030: a782 a8bb 363e 70be 142f 603e 41e3 0c3e
00000040: da61 14be 9ead ddbd e747 18bc faaa 093e
00000050: 8fb9 093e d13e 7d3d ab22 933d 0693 a3bd
00000060: 7776 2abe 745c 3bbe b695 acbd e176 8d3d
00000070: 736d e03d 4cde a1bd b1f6 61be 8121 8dbe
00000080: 1eaf d63d c6ce 5ebe 6edf e13c c14a 97bd
00000090: 6794 56be 197f f83d 208e 873d 1725 afbd
000000a0: 3be4 8ebc 5752 45be 3da6 31bd 3bd1 35bd
000000b0: a984 d43d 242b 23be d720 c73d d09c ae3c
000000c0: 19a4 803e 4993 843e d182 5abe 87be 95be
000000d0: 5710 463e ed74 9cbd beb6 283d 9143 5ebe
000000e0: 2c14 93bd 01ba b13d 28ab 55be dc3b 59bd
000000f0: bd0d 89bc 6494 fc3d 3a36 4c3e c5c7 773e
00000100: 9a61 7c3c 0f0b 16be 954c 8abc b21f 8a3d
00000110: 0315 c6bd 72da a13e 701c 3d3e 0f01 e93d
00000120: a276 133e 5f83 893d 847a 67be 7c31 143e
00000130: 616b 9abd 72d1 84be 0b8d 243e 53f5 083e
00000140: 0a1a 00bd 2259 7bbe 0648 993d f8b2 95bd
00000150: ce6a c0bd 59b5 393e db77 14be 347f 22be
00000160: 047b 04be d214 dd3d 7614 14be 4199 153e
00000170: f89c 8c3e b7f3 4abe 9aee 8dbe 5fc6 76be
00000180: 2fd6 3ebe fe5c d1bd 6f60 29bd 477f 1abe
00000190: 9aa2 e7bd bb4b 89bd 3b1c 993d ffbf 113d
000001a0: dfe8 b1bd 987c 643e e72c bf3c 0bf8 8d3d
000001b0: 1e15 79be 3fc7 b63d 70bf 493e 8f73 25be
000001c0: 20be 453e 231e 833e 8f36 df3d ad49 ae3b
000001d0: cc95 6f3e 0fc9 6ebe e862 22be b949 cebd
000001e0: 6952 e23d 773f 723e 261e 043e c7e5 0fbe
000001f0: 48cd 8e3d a663 1ebb 4dda 0d3e 96fc 223e
00000200: f354 6cbe 424c 9bbe b246 613e ec20 8a3d
00000210: f208 d1bb dbec 863e 18ab ecbb 1f54 3d3d
00000220: f336 0d3d 834a 86be 7df4 ea3d 4fed 4c3e
00000230: b75e 0bbe a72b 393e ef66 30be e0d3 11be
00000240: 528e 16bd 37d2 173e a40c 2abe 7da0 8f3d
00000250: da9f 3dbd a7ab 513e 4bc1 213e 6e12 493e
00000260: 00f4 2b3e 7c46 78bc 2263 b6bd 55c6 9ebc
00000270: 25ba e53d 9942 2dbe 292e 0d3d 0f42 86be
00000280: ccc2 a0bc a0e6 4abe 8e24 d13d f66c 623d
00000290: 6498 02be 298f d53d 0c67 733c 2fce e4bb
000002a0: e4bc 723e 5920 07be 2dd4 84be 9069 0b3d
000002b0: 95c7 fbbd bbf3 a5bd 48eb 02be 49e1 42be
000002c0: 9eea bf3c d589 cc3d 5442 5a3e 0280 6c3d
000002d0: 97fd 0fbe 374c 183e e57a 45bd 14e8 c5bd
000002e0: b025 2cbe 885e 833e b89f dabd c44f 9dbd
000002f0: addb bbbd e5bc 1b3e 1889 55be 3e7f 383c
00000300: d2d9 ccbd 48e7 38bc 7db4 02be 4b7e af3d
00000310: 0cd7 2b3c 9b44 19be a47d 7e3e 2abe 1bbd
00000320: 97f5 64be 2a3f b33d 2d34 c23d 7110 503d
00000330: 9752 95be 8c70 023e 054b 05be e790 36bd
00000340: 3492 b0bd 4ed0 fbbd 671e 483e 926d a5bc
00000350: 2c77 e2bd c4a9 153e a106 44be 15a3 3c3d
00000360: d751 933b 3e84 3d3e 751d a23d eb0f 0cbd
00000370: cf76 b1bd d56f fe3d 0f36 1cbe 4fba 70be
00000380: 66b4 67be 73e6 bbbd 35d5 3b3e 30cd 743e
00000390: 8b4c a1bd 170d 8f3c cbbc 0d3e aaf6 e13d
000003a0: 3274 d6bd 219a 35be 0665 6c3d 1649 e2bd
000003b0: e44e 56be 2195 38be aec8 ea3d 2bc4 a43d
000003c0: c5d5 86bd 7911 423e 85fe 94bd 081c 693e
000003d0: 5fdb 38be dd5a c7bd 603c 33be eb3c d63d
000003e0: 1e1f 583e 1e26 64be ac08 413e 80bb ff3c
000003f0: 83c7 6fbe 2b28 173d 7721 20bb a96a 88bd
-0.1961514 0.021366937 -0.011660195 0.022677256 0.006446435 -0.09102859 -0.108945176 0.13093226
0.14533205 0.14529733 -0.11300506 -0.057219796 -0.005142528 -0.23461232 0.21892959 0.13758565
-0.14490452 -0.108241305 -0.009294487 0.13444129 0.13449691 0.061827485 0.07184347 -0.07987027
-0.16646753 -0.18296987 -0.084269926 0.0690744 0.10958376 -0.07903728 -0.22066762 -0.27564624
0.1048262 -0.21758565 0.02757236 -0.07387305 -0.20955049 0.12133617 0.06618905 -0.08551996
-0.017442813 -0.19269691 -0.043371428 -0.04438899 0.103768654 -0.15934426 0.097230606 0.021315008
0.25125197 0.2589362 -0.21338965 -0.29246923 0.1934217 -0.07639489 0.0411899 -0.21705462
-0.07181582 0.086780556 -0.20866072 -0.053035602 -0.016730184 0.12332991 0.19942561 0.241973
0.015404129 -0.14652656 -0.01688222 0.06744327 -0.096719764 0.31611973 0.1846788 0.11377155
0.14400724 0.0671451 -0.2260533 0.14472002 -0.07540012 -0.25941044 0.16069429 0.13374834
-0.031274833 -0.2454572 0.074844405 -0.07309526 -0.093953714 0.18135585 -0.14498846 -0.15868837
-0.12937552 0.10794987 -0.1446093 0.14609243 0.27463508 -0.19819532 -0.277211 -0.2409911
-0.18636392 -0.10222815 -0.041351732 -0.15087615 -0.11310311 -0.067038976 0.07476088 0.035583492
-0.08686995 0.22313154 0.02333684 0.06932076 -0.24324462 0.08924722 0.19701934 -0.16157363
0.19310808 0.2560893 0.10899078 0.0053188414 0.23396987 -0.23318885 -0.15858042 -0.10072655
0.11050875 0.23657022 0.12902126 -0.14052497 0.06972748 -0.0024168282 0.13852806 0.15916666
-0.2307928 -0.30331618 0.21999624 0.067445606 -0.00637924 0.2635258 -0.0072225444 0.046222802
0.03447623 -0.26228723 0.11472414 0.20012401 -0.1361035 0.18083058 -0.17226766 -0.1424098
-0.03675682 0.14826284 -0.16606385 0.070130326 -0.046295024 0.20475636 0.15796392 0.19635937
0.16792297 -0.015153524 -0.08905627 -0.019381681 0.11217145 -0.16919936 0.03446785 -0.26222274
-0.019624136 -0.19814539 0.102120504 0.055279694 -0.12753445 0.10427696 0.014856111 -0.006982587
0.23704869 -0.13195933 -0.25943127 0.03403622 -0.122939266 -0.081031285 -0.12785065 -0.19031252
0.023427304 0.09987227 0.21314365 0.057739265 -0.1406158 0.14872824 -0.048212904 -0.09663406
-0.16811252 0.2565806 -0.10674995 -0.0768123 -0.09172759 0.15208776 -0.20853078 0.011260806
-0.100024834 -0.0112856105 -0.12764163 0.0856901 0.010488283 -0.14967577 0.24852616 -0.03802315
-0.2235931 0.08752282 0.09482608 0.05079693 -0.29164574 0.12738246 -0.13016899 -0.044571783
-0.08621636 -0.1229559 0.19542848 -0.020193849 -0.110578865 0.14615542 -0.19143154 0.046053965
0.00449584 0.18507478 0.07915775 -0.034194868 -0.08665239 0.12423674 -0.15254997 -0.23508571
-0.2262741 -0.09174814 0.18343051 0.23906398 -0.078759275 0.017462296 0.1384155 0.110333756
-0.10471381 -0.17734577 0.05771353 -0.11049096 -0.20928532 -0.18025638 0.11464058 0.080452286
-0.06583742 0.18951978 -0.07275108 0.227646 -0.18052433 -0.09734128 -0.175035 0.10460838
0.2110562 -0.22280166 0.18850964 0.031217337 -0.23415951 0.03690354 -0.002443401 -0.06660969

price_branch.fc.bias f4 [16]
00000000: e858 63be 316c 833d 9a6c 4fbe 836e 183e
00000010: 9c7a 31bc c722 bf3d a7ed 24be c28c 733e
00000020: 9a48 d23d 10af 3f3d da7d 0c3d 3a44 23be
00000030: d4b4 ea3d d593 963d 43e0 3dbe 50a6 41be
-0.22201884 0.0641712 -0.20256272 0.14885907 -0.010832455 0.09332805 -0.16106282 0.23784164
0.10267754 0.046797812 0.03429971 -0.15943995 0.114602715 0.073524155 -0.1854258 -0.189111
