models/checkpoints/news_lstm/news_lstm_v15_real_regularized.pt (torch, 33986 bytes, 19 tensors)

sentiment_branch.lstm_layers.0.weight_ih_l0 f4 [64, 16]
-0.03483679 -0.19733723 -0.13433431 -0.2390136 0.2566257 0.25626007 0.18208764 -0.10748819
-0.17704447 -0.15781888 -0.23245753 -0.04953233 0.19410959 0.07186985 0.22730963 0.1751576
0.056467023 0.04514722 0.04164964 0.09173842 -0.09737331 -0.028253132 -0.2226385 0.16679507
-0.1283865 0.17310205 -0.114819534 -0.2180469 -0.107980594 -0.035343837 0.09820938 0.16659492
0.13658267 -0.133352 -0.08172989 0.05232662 -0.0794452 0.1698136 0.13554037 0.25722447
-0.1247292 0.018764086 -0.23171657 -0.24138872 0.08223645 0.009996494 -0.079447344 -0.12099956
-0.056307886 0.05968632 0.09098909 -0.100394174 -0.20544404 -0.20507641 0.045274567 0.052427284
0.2310869 -0.24072716 0.20300151 -0.062471125 -0.1385728 -0.15725456 0.17598888 0.17143282
0.19516993 0.14598235 -0.04137224 -0.050541334 -0.24461861 0.042353503 0.089968584 -0.05467399
-0.20258753 0.18742593 0.018895853 -0.16209172 0.178488 -0.24199057 0.11335263 0.1984742
-0.004607578 -0.1961794 -0.025072403 0.116680875 -0.13433181 0.26001644 0.22819237 -0.0339416
-0.0943907 0.18334803 -0.018989874 0.15681241 -0.17459096 -0.01012275 -0.062098507 0.15813595
-0.16954875 0.016536718 0.17981979 -0.032512236 0.12688631 0.0015778093 0.18141069 -0.17381757
0.17870061 -0.0918833 0.20063439 0.059179693 -0.17546338 0.14407401 -0.019101823 -0.067865685
-0.26967216 0.06996556 -0.01780382 -0.1936621 0.11075593 0.12077197 -0.07766707 -0.19245261
-0.018856045 -0.13236229 -0.14300244 0.089601934 -0.11328962 -0.069395944 -0.02114277 -0.0030807415
-0.05378781 -0.121323004 -0.03618467 -0.17408197 0.2084744 -0.16130275 -0.24719009 -0.08497493
0.10902885 0.051476758 -0.18151851 0.21187091 -0.12710685 0.048207052 0.12439433 -0.21170557
-0.1296001 0.12005105 0.17971683 0.1316049 0.18513739 0.09979828 0.12503763 0.07189906
-0.10240625 0.10938082 -0.06702712 0.011116597 0.17727673 0.02359205 0.19965656 0.11068592
-0.018677494 0.08164186 0.19067726 0.15559596 -0.23944122 0.07207834 -0.19364591 -0.067637645
-0.04906056 -0.06954489 -0.008775964 -0.12716687 -0.18021627 -0.006292394 -0.23711836 -0.049703725
0.12888591 0.24110493 0.22533439 0.09125372 0.00365276 -0.2430145 0.2863932 -0.12973006
-0.14971925 0.09029656 -0.11552151 -0.059791386 0.090985306 0.1526308 -0.1781734 0.18348826
0.049576327 0.0696307 -0.097045995 -0.20528671 0.034669746 -0.21196851 -0.03139707 -0.015558654
0.036935627 -0.09519561 0.10416074 0.022665698 -0.12235055 0.083801135 0.15406978 -0.06444969
0.053404834 -0.2036017 -0.016249377 0.22656752 -0.15539294 -0.2714524 0.21808486 0.17697951
-0.14758031 -0.093927704 -0.068667345 -0.055037223 0.0049850787 -0.109780096 -0.021037344 0.21680148
-0.0074189985 -0.02950015 0.25204453 -0.23873354 0.19965424 -0.04188562 -0.055870216 0.08500226
-0.11041561 0.24175419 -0.0017500013 0.12387287 0.09935398 -0.052463114 0.023179729 0.23155004
-0.18200225 0.027391613 -0.027001193 0.14828564 -0.014208844 0.12581837 -0.2316833 0.053402197
0.09323659 -0.13121022 0.062067986 0.12857811 -0.16399029 0.078576595 0.12474675 0.10164336
00000000: 06b1 0ebd c512 4abe ef8e 09be fbbf 74be
00000010: 7264 833e 8534 833e 2f75 3a3e c522 dcbd
00000020: 254b 35be 469b 21be 5909 6ebe 6ae2 4abd
00000030: aac4 463e 8030 933d dbc3 683e 845c 333e
00000040: f749 673d 4bec 383d d098 2a3d 5ae1 bb3d
00000050: a86b c7bd 1d73 e7bc 59fb 63be 54cc 2a3e
00000060: c077 03be aa41 313e 8126 ebbd b047 5fbe
00000070: ee24 ddbd b3c4 10bd 0022 c93d dc97 2a3e
00000080: 54dc 0b3e 6d8d 08be 0062 a7bd 7054 563d
00000090: 2ab4 a2bd 9ee3 2d3e 18cb 0a3e edb2 833e
000000a0: 0672 ffbd 24b7 993c 1c47 6dbe 9b2e 77be
000000b0: 956b a83d 56c8 233c 4ab5 a2bd 9ece f7bd
000000c0: 19a3 66bd a579 743d 7d58 ba3d 769b cdbd
000000d0: ec5f 52be 8dff 51be d371 393d febd 563d
000000e0: 0ba2 6c3e 2e81 76be a1df 4f3e b9e1 7fbd
000000f0: 07e6 0dbe 5707 21be 6e36 343e 168c 2f3e
00000100: a0da 473e 667c 153e f075 29bd 6e04 4fbd
00000110: 4d7d 7abe de7a 2d3d 7341 b83d d5f1 5fbd
00000120: 1b73 4fbe 95ec 3f3e 7acb 9a3c 5ffb 25be
00000130: 8fc5 363e 60cc 77be 6c25 e83d d23c 4b3e
00000140: 2afb 96bb 41e3 48be a464 cdbc 62f6 ee3d
00000150: 478e 09be e020 853e 43ab 693e 5906 0bbd
00000160: e94f c1bd 96bf 3b3e a790 9bbc 6f93 203e
00000170: f9c7 32be e4d9 25bc 015b 7ebd 64ee 213e
00000180: 309e 2dbe 0378 873c ae22 383e 8d2b 05bd
00000190: 7cee 013e 7fce ce3a b9c3 393e 3cfd 31be
000001a0: 4bfd 363e 502d bcbd 1a73 4d3e 6866 723d
000001b0: acac 33be 2388 133e 6d7b 9cbc 2afd 8abd
000001c0: 7812 8abe 1b4a 8f3d 51d9 91bc 5c4f 46be
000001d0: 01d4 e23d 4b57 f73d ea0f 9fbd 4c12 45be
000001e0: fe77 9abc fb89 07be 3b6f 12be 3881 b73d
000001f0: 6304 e8bd 761f 8ebd 9a33 adbc 44e6 49bb
00000200: 9b50 5cbd 3278 f8bd 6036 14bd 8b42 32be
00000210: 507a 553e 8c2c 25be 661f 7dbe 5607 aebd
00000220: 854a df3d 4bd9 523d fddf 39be b0f4 583e
00000230: 4c28 02be c274 453d 74c2 fe3d 58c9 58be
00000240: e3b5 04be 53dd f53d b007 383e 6fc3 063e
00000250: a894 3d3e 0a63 cc3d dd09 003e d03f 933d
00000260: 5eba d1bd 0d03 e03d 8445 89bd 6322 363c
00000270: 0888 353e 1d44 c13c c572 4c3e 4daf e23d
00000280: 8b01 99bc d933 a73d e640 433e 8c54 1f3e
00000290: 1430 75be cf9d 933d 1d4b 46be 9b85 8abd
000002a0: baf3 48bd 8d6d 8ebd 10c9 0fbc 0838 02be
000002b0: 9d8a 38be 6d30 cebb 28cf 72be 2296 4bbd
000002c0: abfa 033e 36e4 763e 0fbe 663e 3be3 ba3d
000002d0: 2563 6f3b cbd8 78be 21a2 923e f5d7 04be
000002e0: 0150 19be 67ed b83d 8b96 ecbd d0e7 74bd
000002f0: 8156 ba3d 404b 1c3e 1673 36be 59e4 3b3e
00000300: 8c10 4b3d 8a9a 8e3d 0dc0 c6bd ae36 52be
00000310: dd01 0e3d 460e 59be 379a 00bd bae9 7ebc
00000320: d049 173d eaf5 c2bd 3a52 d53d 6aad b93c
00000330: ed92 fabd ee9f ab3d 78c4 1d3e 33fe 83bd
00000340: 07bf 5a3d f77c 50be 6a1d 85bc 5101 683e
00000350: 541f 1fbe cffb 8abe a351 5f3e 1e3a 353e
00000360: 4b1f 17be 2b5d c0bd 77a1 8cbd b66e 61bd
00000370: df59 a33b 63d4 e0bd 8256 acbc 3501 5e3e
00000380: 121b f3bb 4caa f1bc fb0b 813e 9176 74be
00000390: 2972 4c3e 4290 2bbd 2bd8 64bd aa15 ae3d
000003a0: 9421 e2bd 698e 773e 4d60 e5ba 0fb1 fd3d
000003b0: 197a cb3d 90e3 56bd 6ae3 bd3c 741b 6d3e
000003c0: cc5e 3abe 6064 e03c 9b31 ddbc 31d8 173e
000003d0: 36cc 68bc 88d6 003e 633e 6dbe 43bc 5a3d
000003e0: d3f2 be3d f95b 06be 003b 7e3d fba9 033e
000003f0: 12ed 27be c4ec a03d 397b ff3d 652a d03d

sentiment_branch.lstm_layers.0.weight_hh_l0 f4 [64, 16]
0.030035038 0.21618941 -0.18478625 -0.12558961 0.10663038 -0.26747426 -0.09673673 -0.10034898
-0.0045808563 0.031083627 0.066703096 -0.079620294 0.14199853 -0.22906819 -0.008401441 0.11032245
0.15364599 0.24362174 0.035746384 -0.21438943 0.21424359 -0.18339567 -0.04376461 0.21070844
0.076703094 0.21691178 0.050641574 -0.06887392 -0.15894538 0.13658996 0.04861439 -0.21718822
-0.20724706 -0.18326809 -0.07127659 -0.0055082208 0.0011713534 0.15510118 -0.21763632 0.20556423
-0.07781452 0.1296763 -0.08364965 -0.104465246 -0.14201455 -0.011984925 0.16075756 -0.23538038
-0.09547441 0.14959219 -0.23959787 0.19626155 -0.09094694 0.095252834 0.11511085 -0.07377829
0.14798023 -0.13508217 -0.10721628 0.08040411 0.15641132 -0.036070842 -0.20681897 0.15682226
-0.08570441 0.051257994 0.085028656 -0.25474873 0.079994276 -0.08762155 0.22908987 0.07982639
-0.13173467 -0.023694329 0.09891236 -0.22090147 0.04842005 0.0926582 -0.22106944 0.2147033
-0.12170259 -0.071043625 0.12337364 0.09673888 -0.08302236 -0.075722225 0.016160045 0.03110187
-0.16389468 -0.24573204 -0.039750207 -0.13165888 -0.14246811 0.0013505982 -0.208675 0.2372126
-0.014320529 0.08910505 -0.034059677 0.29060403 0.15294755 -0.04049234 -0.09956585 0.09989702
-0.15121883 0.028140074 0.07374964 0.10988496 0.15413903 -0.10905415 -0.21301737 -0.12204175
-0.07412428 -0.24630192 0.12009438 -0.22212538 0.19458893 -0.100002825 -0.14554588 0.17596203
0.09016325 0.111867994 -0.20721632 -0.15547396 -0.05503388 0.0338772 -0.1010342 0.093185745
0.26496902 -0.07492584 -0.07080561 -0.22659464 -0.078581445 0.007665986 -0.17123076 0.11666085
-0.06145402 -0.08055955 0.213439 0.09259896 0.07417198 0.24248801 0.15409033 0.20226179
-0.26009378 -0.04248872 -0.08919762 0.16949113 0.20829743 0.06205885 -0.18248801 0.15922219
0.05438989 0.072932936 0.11871828 0.07701591 0.18820375 0.054452185 0.05587057 0.23400205
0.051594295 -0.09916482 0.08684989 0.2560974 0.04557947 -0.03796202 -0.20555389 -0.10402316
0.0350123 -0.12509267 -0.01909047 -0.1747099 0.22504722 0.2263639 0.03920994 -0.21386485
-0.036458872 0.008053023 -0.046229385 -0.20836125 0.044385184 0.20580854 0.2151131 -0.22281523
-0.23778227 -0.17146711 -0.15282905 -0.26501772 -0.21827385 0.04094972 -0.10020772 0.19289717
0.06633038 -0.16659805 -0.06751556 -0.14138159 0.047792837 -0.022550674 -0.09819803 0.048100866
0.05940276 -0.12721717 0.15457657 -0.22748466 -0.20907682 0.23227945 -0.16736989 0.038138114
0.18633255 -0.08880238 -0.075534694 0.02222139 0.2443152 0.109535486 -0.18576658 0.08174967
0.18034336 0.073793225 -0.14225677 -0.21512191 0.107589036 -0.18263276 -0.21551892 -0.049819168
-0.19927286 0.23158132 -0.11926821 0.17658436 -0.2252058 0.14467914 -0.04727093 0.12526268
0.19912931 -0.233883 -0.07863895 -0.20942809 0.1352286 0.2234958 -0.041316994 -0.12428332
0.2526258 0.0070276046 -0.0719652 -0.107041344 -0.2300607 -0.16794813 -0.18098313 -0.154042
-0.13083813 -0.012962585 0.093801975 0.16080756 -0.16609254 -0.119322956 -0.17704281 -0.18016772
00000000: 0a0c f63c c260 5d3e 9b38 3dbe 909a 00be
00000010: 0761 da3d 63f2 88be e81d c6bd c483 cdbd
00000020: 021b 96bb 17a3 fe3c a29b 883d f70f a3bd
00000030: 1068 113e da90 6abe 33a6 09bc bdf0 e13d
00000040: 6055 1d3e fa77 793e cd6a 123d e788 5bbe
00000050: ac62 5b3e 13cc 3bbe 8542 33bd f4c3 573e
00000060: 8316 9d3d 1f1e 5e3e 8a6d 4f3d c50d 8dbd
00000070: 94c2 22be 3dde 0b3e e21f 473d 9766 5ebe
00000080: 9338 54be a1aa 3bbe 76f9 91bd 4e7e b4bb
00000090: 1988 993a d8d2 1e3e 0edc 5ebe 6e7f 523e
000000a0: 385d 9fbd ddc9 043e 8250 abbd e0f1 d5bd
000000b0: 436c 11be 6b5c 44bc a19d 243e 8e07 71be
000000c0: 1688 c3bd b22e 193e 2559 75be caf8 483e
000000d0: 6442 babd eb13 c33d 3dbf eb3d 1219 97bd
000000e0: 2188 173e fb52 0abe 3694 dbbd e9aa a43d
000000f0: 4a2a 203e 05bf 13bd 5ac8 53be 0496 203e
00000100: cb85 afbd e7f3 513d 8123 ae3d 6d6e 82be
00000110: 0ad4 a33d ed72 b3bd 8996 6a3e 057c a33d
00000120: 74e5 06be 9c1a c2bc 9092 ca3d ff33 62be
00000130: 1a54 463d 95c3 bd3d 0760 62be 2fdb 5b3e
00000140: 353f f9bd 527f 91bd 52ab fc3d 091f c63d
00000150: a107 aabd 4114 9bbd 1262 843c 59c9 fe3c
00000160: 02d4 27be 2ea1 7bbe 1dd1 22bd 96d1 06be
00000170: 29e3 11be 8e06 b13a e6ae 55be dce7 723e
00000180: a7a0 6abc b57c b63d 2982 0bbd 0dca 943e
00000190: 489e 1c3e 4cdb 25bd 2ee9 cbbd cf96 cc3d
000001a0: 1cd9 1abe 0386 e63c 0d0a 973d 5e0b e13d
000001b0: 9fd6 1d3e c857 dfbd 3a21 5abe 06f1 f9bd
000001c0: 78ce 97bd 9236 7cbe 0bf4 f53d d674 63be
000001d0: 5242 473e 48ce ccbd fb09 15be 642f 343e
000001e0: 83a7 b83d 0c1b e53d 8430 54be 9134 1fbe
000001f0: 356b 61bd d2c2 0a3d 05eb cebd 2bd8 be3d
00000200: 05aa 873e b872 99bd 8802 91bd 6d08 68be
00000210: 4fef a0bd f432 fb3b 1e57 2fbe e2eb ee3d
00000220: 36b7 7bbd 68fc a4bd c18f 5a3e 86a4 bd3d
00000230: 7be7 973d c74e 783e dbc9 1d3e b71d 4f3e
00000240: 032b 85be a708 2ebd 3ead b6bd 158f 2d3e
00000250: ec4b 553e 6c31 7e3d 23de 3abe 240b 233e
00000260: efc7 5e3d dd5d 953d 9222 f33d 84ba 9d3d
00000270: 7cb8 403e 4109 5f3d 8ad8 643d 3c9e 6f3e
00000280: 8a54 533d ed16 cbbd 5bde b13d 331f 833e
00000290: 8ab1 3a3d 107e 1bbd b87c 52be 180a d5bd
000002a0: 0f69 0f3d 4b18 00be 9e63 9cbc 27e7 32be
000002b0: c772 663e f0cb 673e 9a9a 203d 63ff 5abe
000002c0: e655 15bd d4f0 033c 065b 3dbd a75c 55be
000002d0: 3dcd 353d 79bf 523e 9c46 5c3e ad29 64be
000002e0: 327d 73be 1395 2fbe 387f 1cbe 67b0 87be
000002f0: 2e83 5fbe e5ba 273d b539 cdbd d686 453e
00000300: 39d8 873d ae98 2abe 9945 8abd 56c6 10be
00000310: 6cc2 433d 31bc b8bc 0c1c c9bd 6a05 453d
00000320: 4f50 733d 3845 02be 5249 1e3e bdf1 68be
00000330: 3c18 56be aada 6d3e 0363 2bbe b636 1c3d
00000340: f6cd 3e3e 06de b5bd efb1 9abd a209 b63c
00000350: c42d 7a3e 2454 e03d 9839 3ebe 5f6c a73d
00000360: eeab 383e e720 973d c2ab 11be eb48 5cbe
00000370: a457 dc3d 1504 3bbe feb0 5cbe 2f0f 4cbd
00000380: 2f0e 4cbe a723 6d3e e442 f4bd 88d2 343e
00000390: 599c 66be c526 143e 2a9f 41bd dc44 003e
000003a0: 8ee8 4b3e 067f 6fbe 750d a1bd 5174 56be
000003b0: 5e79 0a3e 15dc 643e 023c 29bd 4188 febd
000003c0: 2b58 813e d247 e63b 7e62 93bd 7e38 dbbd
000003d0: 0895 6bbe 98fa 2bbe a453 39be 30bd 1dbe
000003e0: 6efa 05be 0661 54bc 401b c03d bdaa 243e
000003f0: 2a14 2abe 985f f4bd b64a 35be e37d 38be

sentiment_branch.lstm_layers.0.bias_ih_l0 f4 [64]
0.2805172 0.0076183574 0.13665642 0.066151656 0.07313052 -0.098523535 0.21453021 -0.11768295
-0.2381877 -0.21804641 -0.066975534 0.15366746 -0.18450278 -0.2237844 0.13939558 0.19094108
0.24079162 0.19811721 -0.013177605 -0.16882771 -0.07970341 -0.10972458 -0.13971227 -0.18374239
0.15143572 -0.2554825 -0.10347123 0.15552661 0.21572068 0.013426475 0.21284144 0.048019312
-0.047734305 0.12504557 0.14041975 0.008740427 -0.17642227 -0.16626349 0.03474702 0.25015852
-0.085727364 0.23755473 -0.230201 -0.17626145 0.10652234 0.0014044335 -0.15761049 -0.053253144
-0.12544453 -0.04345186 -0.103985466 -0.1791376 -0.1600151 -0.14154044 -0.0313713 0.028144341
-0.2752931 -0.10359008 -0.1815883 0.15375635 -0.22847198 -0.031011011 0.14313935 0.01951411
00000000: f39f 8f3e 6aa3 f93b a9ef 0b3e 857a 873d
00000010: 74c5 953d b5c6 c9bd cfad 5b3e c203 f1bd
00000020: 7ae7 73be 8f47 5fbe 782a 89bd 015b 1d3e
00000030: 4cee 3cbe bd27 65be b7bd 0e3e 0f86 433e
00000040: 1492 763e 3ddf 4a3e e2e6 57bc 2ce1 2cbe
00000050: 8b3b a3bd 48b7 e0bd bc10 0fbe f726 3cbe
00000060: f711 1b3e 9ace 82be b9e8 d3bd 5e42 1f3e
00000070: e2e5 5c3e b8fa 5b3c 1bf3 593e e6af 443d
00000080: 0c85 43bd f20b 003e 32ca 0f3e 0234 0f3c
00000090: 0aa8 34be fa40 2abe e452 0e3d c714 803e
000000a0: d491 afbd 8c41 733e d0b9 6bbe e27d 34be
000000b0: 6228 da3d f814 b83a a564 21be f81f 5abd
000000c0: 8874 00be 94fa 31bd 55f6 d4bd d96f 37be
000000d0: 00db 23be faef 10be 317f 00bd f68e e63c
000000e0: 38f3 8cbe 0927 d4bd 49f2 39be 4e72 1d3e
000000f0: 8ff4 69be ce0a febc 1f93 123e 0edc 9f3c

sentiment_branch.lstm_layers.0.bias_hh_l0 f4 [64]
0.08271652 -0.11954665 0.17930946 0.23821592 -0.05369301 -0.12676863 0.18551019 0.043694638
-0.20235483 -0.030097054 0.022748966 -0.22719489 0.11715883 0.108033076 -0.12854971 0.09972735
-0.13235849 0.253858 0.18926923 0.19561283 -0.10957686 0.037994765 -0.012234054 0.20265488
-0.21745344 -0.2289253 -0.06613356 0.08233222 -0.14592677 -0.17798546 -0.049043614 0.08594848
0.010400654 -0.033313856 -0.059817776 -0.053194594 0.16703261 -0.19141118 0.11807403 0.03292545
-0.052766733 0.0895771 -0.17624776 -0.05799483 0.170582 -0.113225326 -0.14408763 -0.18554679
0.14305449 0.18319322 -0.13765949 -0.045650695 0.21604103 0.18207458 -0.0046271803 -0.18106802
0.049882352 -0.20742601 -0.1203155 0.24989496 0.20043854 -0.033133395 0.058118317 -0.11199029
00000000: 4767 a93d e0d4 f4bd e69c 373e e0ee 733e
00000010: 34ed 5bbd a3cf 01be 62f6 3d3e 26f9 323d
00000020: 1b36 4fbe 198e f6bc 0a5c ba3c c7a5 68be
00000030: f8f0 ef3d 7240 dd3d 89a2 03be da3d cc3d
00000040: fc88 07be adf9 813e cbcf 413e bb4e 483e
00000050: d569 e0bd 66a0 1b3d 5771 48bc c384 4f3e
00000060: 1dac 5ebe 656b 6abe 0871 87bd cc9d a83d
00000070: d46d 15be d241 36be f5e1 48bd c205 b03d
00000080: 8167 2a3c 1c74 08bd 7c03 75bd 93e2 59bd
00000090: 990a 2b3e 4b01 44be ccd0 f13d d6dc 063d
000000a0: ee21 58bd 3374 b73d 4b7a 34be fd8b 6dbd
000000b0: 0cad 2e3e aee2 e7bd b58b 13be faff 3dbe
000000c0: e07c 123e 0197 3b3e 9cf6 0cbe 39fc 3abd
000000d0: dc39 5d3e c271 3a3e 9a9f 97bb e569 39be
000000e0: 7051 4c3d 7c67 54be f967 f6bd 77e4 7f3e
000000f0: c33f 4d3e e2b6 07bd 790d 6e3d 2a5b e5bd

sentiment_branch.fc.weight f4 [32, 16]
-0.14041938 -0.23290919 0.22998717 0.0910987 0.0014355704 -0.13617888 -0.23913775 0.038889885
0.07285579 -0.013024858 -0.015493956 -0.07174578 -0.025862591 -0.0073064542 -0.074561596 0.2357409
0.11742999 0.0011805485 -0.12070685 0.24786592 0.18311976 -0.07134877 -0.14976613 -0.24403553
0.024066767 0.21484746 -0.061958592 0.023956742 0.09950663 0.061824195 0.09762022 -0.22920331
-0.07899449 -0.25719675 0.17842671 0.17335767 -0.048081256 0.16062774 0.21218011 0.067544006
-0.21628714 0.1499588 -0.26335707 -0.07939442 -0.18678327 0.008488393 -0.07359233 0.07553171
0.21001182 -0.10113668 0.00875151 -0.016324684 -0.17756486 0.17778526 -0.09559536 0.17744876
-0.1899418 0.08872768 -0.13664055 0.02733994 0.020235552 -0.17080334 -0.11999748 -0.055253834
-0.10087701 0.11131428 0.14213341 0.16244051 -0.19142528 -0.0064471327 -0.0420814 -0.004182416
0.23233965 0.047646217 0.16503608 0.033785112 0.14203846 -0.014617294 -0.1253121 -0.18550488
-0.0056894827 -0.11116373 0.23826972 0.24699937 -0.030188575 -0.042069163 0.23549764 -0.12509942
0.2190412 -0.06863894 -0.19987708 0.18924867 -0.033238012 -0.07260039 0.24261749 -0.21111989
-0.07962983 -0.15985382 0.050484307 -0.13730279 -0.22948457 0.19641107 0.21177123 -0.14249851
-0.13453189 -0.031859845 0.10625843 0.20248124 -0.16225435 -0.23265095 -0.07542744 -0.15052448
0.16955702 -0.21481816 0.17605355 -0.14202492 0.25418088 0.25845605 0.1656841 -0.21330807
0.13838625 -0.02760889 -0.21626224 0.25770566 -0.10451741 -0.13551116 -0.1824026 -0.10856864
-0.15357926 0.19233298 0.13470559 0.050403252 -0.045581214 -0.17123717 0.025391044 -0.011384205
-0.11735884 -0.10018225 0.22449441 -0.08739023 0.04593749 -0.14035887 0.219763 -0.23394151
0.035887282 0.18251441 -0.13893357 -0.09516735 -0.23331161 0.1769025 0.046994563 -0.15435106
-0.07525471 0.14547245 0.10019392 0.198817 0.21485229 0.17289712 -0.04130959 0.2645159
-0.19597058 -0.10809769 0.13614295 0.20381773 -0.02081061 0.21334946 0.20193917 0.1308049
0.12216382 -0.09191224 0.26506966 0.19102928 0.028815523 0.21365856 0.24382333 0.2533701
-0.02161008 0.22928205 0.19845816 0.2200133 -0.09120673 0.19780171 -0.2783509 -0.010225869
-0.015681557 0.22649413 -0.20380053 -0.20824315 0.24138182 0.07622306 -0.06373135 0.1458149
-0.2385446 0.09709577 0.1071034 -0.083098106 -0.040851943 -0.006190598 -0.22622871 -0.17843312
-0.023913221 -0.029438503 0.17553242 0.2340861 0.035998587 0.14881493 0.1543752 0.16204579
0.22410226 0.17696902 0.240101 -0.04291892 -0.13054314 -0.19493867 -0.029857002 0.12498696
-0.09986419 0.22790162 0.06852641 -0.01884566 -0.13073601 -0.25831792 -0.050592497 0.109845966
-0.23739596 -0.15659666 -0.21897256 0.19007628 0.15473874 0.13113968 -0.0003037172 0.05181298
0.125572 0.019942338 0.08854581 -0.18898486 0.06891869 0.11154459 0.13717633 0.035722606
0.17395326 -0.13078828 -0.07508317 -0.042445745 -0.2248483 -0.08616293 0.21254313 0.21901226
-0.06499118 0.03456379 0.1314571 -0.043501005 -0.20679672 0.06122316 0.14594455 0.11463838
00000000: 19ca 0fbe bf7f 6ebe c281 6b3e f591 ba3d
00000010: c029 bc3a 7a72 0bbe 87e0 74be 004b 1f3d
00000020: 6b35 953d 3766 55bc 5dda 7dbc 74ef 92bd
00000030: c9dd d3bc fb6a efbb c0b3 98bd 1066 713e
00000040: 227f f03d a2bc 9a3a 2735 f7bd 90d0 7d3e
00000050: bf83 3b3e 4e1f 92bd 4b5c 19be 73e4 79be
00000060: ab27 c53c f900 5c3e 4bc8 7dbd ee40 c43c
00000070: 22ca cb3d 5e3b 7d3d 1ced c73d 46b4 6abe
00000080: ddc7 a1bd 4baf 83be 7eb5 363e ac84 313e
00000090: daf0 44bd 997b 243e be45 593e 8354 8a3d
000000a0: 607a 5dbe cd8e 193e bdd6 86be 8b99 a2bd
000000b0: 1d44 3fbe e712 0b3c 93b7 96bd 5fb0 9a3d
000000c0: 570d 573e bf20 cfbd 7e62 0f3c 58bb 85bc
000000d0: 90d3 35be 570d 363e 80c7 c3bd 21b5 353e
000000e0: 1a80 42be dcb6 b53d 80eb 0bbe 03f8 df3c
000000f0: 07c5 a53c 12e7 2ebe 3dc1 f5bd d851 62bd
00000100: 9b98 cebd bef8 e33d 6c8b 113e ce56 263e
00000110: fd04 44be 7842 d3bb 8c5d 2cbd a60c 89bb
00000120: 72ea 6d3e ae28 433d 38ff 283e 4262 0a3d
00000130: 8872 113e 607d 6fbc d151 00be fef4 3dbe
00000140: d76e babb cfa9 e3bd fafc 733e 67ed 7c3e
00000150: 084e f7bc b750 2cbd 4b26 713e 101a 00be
00000160: 564c 603e 9392 8cbd 94ac 4cbe 67ca 413e
00000170: 9524 08bd 83af 94bd b870 783e d02f 58be
00000180: f714 a3bd b8b0 23be a2c8 4e3d 1a99 0cbe
00000190: 01fe 6abe fc1f 493e 8fda 583e 21eb 11be
000001a0: bac2 09be 787f 02bd 059e d93d 3e57 4f3e
000001b0: 0126 26be 0d3c 6ebe b479 9abd 1723 1abe
000001c0: 5ba0 2d3e 4bf9 5bbe 6247 343e fb6e 11be
000001d0: ff23 823e 5a54 843e 18a9 293e 6e6d 5abe
000001e0: 20b5 0d3e 0a2c e2bc d973 5dbe fff1 833e
000001f0: 390d d6bd 70c3 0abe bfc7 3abe 3c59 debd
00000200: e243 1dbe f0f2 443e 43f0 093e a473 4e3d
00000210: 5eb3 3abd cc58 2fbe e100 d03c d184 3abc
00000220: d559 f0bd 5a2c cdbd dde1 653e a6f9 b2bd
00000230: f328 3c3d 3cba 0fbe 8d09 613e 5d8e 6fbe
00000240: 8bfe 123d 0fe5 3a3e 9a44 0ebe 19e7 c2bd
00000250: 3de9 6ebe ee25 353e 5f7d 403d 340e 1ebe
00000260: 241f 9abd bbf6 143e 7832 cd3d af96 4b3e
00000270: 3d02 5c3e f10b 313e 3f34 29bd a16e 873e
00000280: 83ac 48be 5262 ddbd 0f69 0b3e 98b5 503e
00000290: 037b aabc 4878 5a3e 24c9 4e3e b8f1 053e
000002a0: 0631 fa3d 7c3c bcbd 36b7 873e 2e9d 433e
000002b0: 880e ec3c 4fc9 5a3e d3ac 793e bab9 813e
000002c0: 9f07 b1bc eac8 6a3e 9e38 4b3e 2b4b 613e
000002d0: 98ca babd 888c 4a3e 0284 8ebe 678a 27bc
000002e0: 9c76 80bc 14ee 673e 16b1 50be b13d 55be
000002f0: cc2c 773e d61a 9c3d 9585 82bd 8050 153e
00000300: 0945 74be 26da c63d 0759 db3d 572f aabd
00000310: 5e54 27bd 80da cabb 80a8 67be 2cb7 36be
00000320: a9e5 c3bc 0429 f1bc c5be 333e 44b4 6f3e
00000330: 4173 133d f162 183e 8814 1e3e 55ef 253e
00000340: 107b 653e 5e37 353e 09dd 753e c0cb 2fbd
00000350: 1aad 05be 019e 47be ac96 f4bc 2af9 ff3d
00000360: 9985 ccbd 0b5f 693e 9357 8c3d 3762 9abc
00000370: a9df 05be 3f42 84be 143a 4fbd ecf6 e03d
00000380: ed17 73be e05a 20be 583a 60be 5ba3 423e
00000390: d573 1e3e 7b49 063e 3c3c 9fb9 d939 543d
000003a0: f295 003e 1d5e a33c 8157 b53d 3f85 41be
000003b0: 3e25 8d3d 7d71 e43d f477 0c3e de51 123d
000003c0: ce20 323e 5ded 05be 34c5 99bd 97db 2dbd
000003d0: a23e 66be 3176 b0bd e8a4 593e c044 603e
000003e0: 191a 85bd c392 0d3d b19c 063e 1c2e 32bd
000003f0: 85c2 53be 23c5 7a3d 7d72 153e 87c7 ea3d

sentiment_branch.fc.bias f4 [32]
0.17856811 0.23647162 -0.004101137 0.09213759 0.19080538 0.1084123 -0.2161486 -0.04019216
-0.07717359 -0.13345426 0.034994364 -0.12819806 -0.08705157 0.1516444 0.060687788 -0.026615134
-0.084913455 -0.036484744 -0.013948583 -0.19602823 -0.0017436359 -0.14954786 0.069187425 0.08379354
-0.07824601 0.085032456 0.06328882 0.016253257 0.22236957 0.18945119 0.16471486 -0.14075536
00000000: 8fda 363e 9e25 723e d562 86bb a2b2 bc3d
00000010: 7c62 433e 4507 de3d 0f56 5dbe 89a0 24bd
00000020: 300d 9ebd 3ca8 08be 4056 0f3d 5a46 03be
00000030: 1848 b2bd ab48 1b3e c293 783d fb07 dabc
00000040: 1be7 adbd 0771 15bd 9988 64bc a0bb 48be
00000050: b68a e4ba 1323 19be 23b2 8d3d f39b ab3d
00000060: 723f a0bd 7f25 ae3d 929d 813d 8d25 853c
00000070: d9b4 633e 7eff 413e 03ab 283e 2c22 10be

price_branch.lstm.weight_ih_l0 f4 [64, 5]
0.11151666 0.19008091 0.093907684 0.20534927 0.20399874 0.27074343 0.16706601 -0.21245499
-0.0050096405 -0.0059706126 0.118784055 0.01405026 6.0088852e-05 0.032956112 -0.27524048 -0.23892921
-0.142587 0.08689321 0.17728105 0.024088 0.06312613 -0.098265536 0.14560352 -0.01567737
-0.020346839 -0.20453219 0.20670892 -0.06462112 0.107315354 -0.24306463 0.171853 0.19398277
0.03532964 0.10402576 0.25376418 0.1519685 0.10272595 0.20367754 0.0040096743 0.17878787
0.23792472 0.23815808 0.01971863 0.1537909 -0.19819193 0.05474645 -0.10616474 -0.23444332
0.03810475 -0.265664 -0.07644196 0.056508686 0.16058102 -0.084347904 -0.07182012 -0.0834804
-0.036304336 -0.050895866 0.13939512 -0.12079333 0.17548366 -0.254851 -0.08186338 0.20662627
0.24738193 -0.11307299 -0.09021805 -0.15264745 0.10726011 0.15447676 0.19275329 0.1333712
0.073882096 0.19201183 0.20204307 -0.23358151 -0.021879077 -0.15837404 0.07026264 -0.068003505
-0.008762892 -0.19289309 0.15828823 -0.19920892 -0.17923382 -0.1603884 -0.22898029 0.10651446
-0.06887275 0.19812098 -0.11987832 0.18687038 -0.2464028 0.019097593 0.07981366 -0.048917666
-0.10135132 0.094437264 -0.20376547 0.14357662 -0.14496326 0.07176537 0.079265326 -0.030624202
0.11625063 -0.030588094 0.15328756 0.118020475 0.23761389 0.046108823 -0.077729605 -0.23594235
-0.114580914 0.03681872 0.2018713 -0.100850284 -0.22117391 0.1470611 0.0062871645 0.11143594
0.040811215 -0.09580224 -0.08921923 0.087675 0.23637004 0.12428834 -0.11465215 -0.11629826
0.045209303 0.03388934 -0.17901587 -0.04869075 0.004852147 -0.09653597 -0.13320613 -0.16855526
0.16488838 0.12596518 -0.17678852 0.1402821 -0.18109797 0.1833473 0.005458624 0.25195357
-0.21790703 -0.15345632 -0.15889658 -0.15627876 0.17275462 0.1335154 -0.04880018 0.18828328
-0.2140707 -0.21782713 0.06936607 -0.072301865 0.050567057 0.13557573 -0.084421284 -0.06694738
0.01892865 0.048073195 0.06189203 -0.15240599 0.254096 0.103001565 0.0126709 0.05646069
0.15378864 0.03520664 -0.00455569 -0.1817917 0.19402121 -0.17810227 -0.17068763 -0.19895649
-0.22513187 0.07993178 0.22059205 -0.12283081 0.1342202 -0.13263042 0.26707548 0.16025066
0.11128503 0.033727113 -0.13590254 0.033064857 -0.024733363 -0.22656521 0.1932035 -0.2638172
-0.13528256 -0.22043163 0.22760266 -0.13728066 -0.08846371 -0.17584075 -0.20070127 0.02094782
-0.21044588 -0.20577398 0.038926423 -0.051079012 0.061432656 0.19748078 -0.10902254 0.0133237485
0.04832735 -0.20905142 0.12579419 0.25820643 -0.1149265 0.19999118 -0.13415493 0.1002209
0.20712966 0.07486601 -0.17235759 -0.10755657 0.06678477 -0.12918374 -0.053928073 -0.055539276
0.18895233 -0.13955756 -0.2535513 0.029324748 0.21439822 -0.0030232621 0.1691342 -0.1654343
0.058427755 -0.015777662 0.1598703 -0.20420478 0.10129312 0.043184623 0.039112784 0.014850266
-0.026365427 -0.216547 0.05295483 -0.15485384 0.14206272 -0.1457046 -0.13357887 0.060063902
-0.111478105 0.10148259 -0.04841152 0.19781296 -0.14067526 0.014733807 0.018136268 -0.17862032
00000000: d962 e43d 92a4 423e ac52 c03d 1447 523e
00000010: 0ce5 503e e29e 8a3e 5a13 2b3e cd8d 59be
00000020: e927 a4bb 21a5 c3bb 0e45 f33d 1033 663c
00000030: ea07 7c38 fdfc 063d 52ec 8cbe dca9 74be
00000040: 5402 12be 11f5 b13d 2a89 353e 3354 c53c
00000050: 4648 813d 713f c9bd 1719 153e d46d 80bc
00000060: 6aae a6bc e370 51be 81ab 533e 1458 84bd
00000070: 27c8 db3d efe5 78be 3cfa 2f3e 6ba3 463e
00000080: d0b5 103d 750b d53d 61ed 813e a19d 1b3e
00000090: fc61 d23d d890 503e 9663 833b 2b14 373e
000000a0: 8aa2 733e b6df 733e f788 a13c 5d7b 1d3e
000000b0: d3f2 4abe d03d 603d e66c d9bd e911 70be
000000c0: ba13 1c3d 1d05 88be 9a8d 9cbd a775 673d
000000d0: 5a6f 243e 98be acbd 6d16 93bd c6f7 aabd
000000e0: dbb3 14bd 2f78 50bd 98bd 0e3e 7e62 f7bd
000000f0: fdb1 333e d57b 82be fda7 a7bd d695 533e
00000100: b051 7d3e d092 e7bd 3ec4 b8bd 9d4f 1cbe
00000110: 30ab db3d 282f 1e3e 1e61 453e 7692 083e
00000120: 7f4f 973d c09e 443e 61e4 4e3e fe2f 6fbe
00000130: c03b b3bc ce2c 22be dce5 8f3d 6c45 8bbd
00000140: 3c92 0fbc c485 45be 4f16 223e 6cfd 4bbe
00000150: 1289 37be db3c 24be cf79 6abe 4124 da3d
00000160: 280d 8dbd 3ae0 4a3e c482 f5bd f35a 3f3e
00000170: 0451 7cbe 8e72 9c3c 5875 a33d e45d 48bd
00000180: 4891 cfbd 5368 c13d e5a7 50be c005 133e
00000190: 4071 14be b9f9 923d dc55 a23d 9bdf fabc
000001a0: cf14 ee3d e293 fabc 6af7 1c3e b8b4 f13d
000001b0: 0e51 733e 9bdc 3c3d b330 9fbd df9a 71be
000001c0: 66a9 eabd 3acf 163d 5ab7 4e3e 988a cebd
000001d0: 6a7b 62be 2f97 163e 8f04 ce3b 8738 e43d
000001e0: a929 273d f733 c4bd 92b8 b6bd f38e b33d
000001f0: fd0a 723e e38a fe3d bfce eabd c82d eebd
00000200: 642d 393d 8ccf 0a3d f04f 37be f46f 47bd
00000210: c2fe 9e3b a7b4 c5bd 3067 08be c099 2cbe
00000220: 80d8 283e 04fd 003e 0d08 35be 1ca6 0f3e
00000230: bf71 39be 65bf 3b3e 42de b23b 0f00 813e
00000240: 0523 5fbe a723 1dbe c9b5 22be 8a07 20be
00000250: 96e6 303e 43b8 083e b3e2 47bd 55cd 403e
00000260: 5935 5bbe 130e 5fbe cc0f 8e3d 0013 94bd
00000270: 671f 4f3d 5dd4 0a3e 11e5 acbd b51b 89bd
00000280: 4210 9b3c 66e8 443d 7f82 7d3d 5110 1cbe
00000290: df18 823e 7cf2 d23d 9b99 4f3c 5343 673d
000002a0: c57a 1d3e d634 103d e647 95bb 9a27 3abe
000002b0: 7fad 463e 7160 36be bdc8 2ebe 40bb 4bbe
000002c0: f888 66be 46b3 a33d e2e2 613e b88e fbbd
000002d0: 0571 093e 45d0 07be 1ebe 883e c018 243e
000002e0: 68e9 e33d 7125 0a3d 092a 0bbe 046f 073d
000002f0: 9f9d cabc b600 68be 23d7 453e 0c13 87be
00000300: 8387 0abe d4b8 61be ac10 693e 4d93 0cbe
00000310: 762c b5bd 990f 34be a284 4dbe c39a ab3c
00000320: 207f 57be 6ab6 52be 5071 1f3d 3a38 51bd
00000330: cfa0 7b3d 6738 4a3e 3647 dfbd da4b 5a3c
00000340: e6f2 453d 9311 56be 31d0 003e a233 843e
00000350: 965e ebbd 7dca 4c3e e95f 09be 9d40 cd3d
00000360: cc19 543e 5a53 993d 827e 30be 9e46 dcbd
00000370: 74c6 883d be48 04be afe3 5cbd 277d 63bd
00000380: b87c 413e 2de8 0ebe 7ad1 81be 743a f03c
00000390: 358b 5b3e ec21 46bb 8431 2d3e 9c67 29be
000003a0: f151 6f3d 2840 81bc 0ab5 233e 0f1b 51be
000003b0: c472 cf3d 5ce2 303d ba34 203d 884e 733c
000003c0: 4ffc d7bc 7fbe 5dbe 2ae7 583d 0192 1ebe
000003d0: e478 113e 9633 15be e6c8 08be 9105 763d
000003e0: a24e e4bd 1bd6 cf3d 284b 46bd 7b8f 4a3e
000003f0: 2d0d 10be 1166 713c 8392 943c 3fe8 36be

price_branch.lstm.weight_hh_l0 f4 [64, 16]
-0.06598978 -0.23851126 0.18553981 0.092965476 -0.1896454 -0.12959729 -0.25568095 0.23402502
0.23847555 -0.010454102 0.056540683 -0.07630835 -0.22104713 -0.04185546 0.13398445 -0.14316155
-0.19320908 -0.21904486 -0.07301288 0.26802543 0.20379494 0.018217254 -0.16964182 0.032591585
0.14424844 0.033848528 -0.05002815 -0.18219598 0.21172097 -0.043136876 0.13884246 0.04653936
-0.21976368 0.075651176 0.15145329 0.21505424 0.17661633 -0.011756036 -0.24360432 -0.16393644
0.26462176 0.23645557 0.088244505 0.24884868 0.17871517 0.021711748 0.011666909 -0.25701794
0.058741577 -0.20744275 -0.14357264 0.10295733 -0.17124225 0.063573524 0.10879212 -0.12641197
-0.24981037 0.22486511 0.18228292 0.07690181 0.030055145 -0.09394909 0.06350232 -0.2541017
-0.2087268 0.19658789 0.13328537 0.27614608 -0.07044139 -0.17772633 -0.21957865 -0.12077353
-0.14713936 -0.17830133 0.082443915 -0.20751916 0.018334225 -0.13158047 0.2035207 -0.108853035
-0.0785491 0.022637114 -0.24030237 0.017015705 -0.09642708 -0.15139173 0.15286514 -0.23838285
-0.26832095 0.12932579 0.11598671 0.10039565 0.23935053 -0.13457412 0.011539301 0.074821204
-0.23454435 -0.17770332 0.19975911 -0.24544044 -0.09653772 -0.017077051 -0.06790747 0.05638066
0.115679875 -0.06595072 0.14600386 0.08988013 0.067107685 0.05404257 -0.02289242 -0.16209845
0.23774122 0.20291637 -0.13271993 0.18943834 0.19568697 -0.032155152 -0.114678435 0.15090796
-0.121724725 -0.050230738 0.016778592 0.0043254797 0.20097497 -0.0017456433 0.07596032 0.23036623
-0.017620722 0.25094205 -0.13498615 -0.21860684 -0.07773272 0.21720274 -0.14157133 -0.05013095
0.20577995 -0.006345262 0.2002902 0.19211972 0.091796 -0.11052529 0.09535476 0.008256583
-0.23208497 -0.00016346388 0.06594427 0.16246338 0.22054154 -0.101207994 0.047986284 0.062217396
-0.06408233 0.15614147 0.020487206 -0.0034216444 -0.24940303 0.21399684 0.22632323 -0.1777412
0.1325399 0.1431377 0.18272516 -0.14813359 0.061629094 0.06259803 -0.17869031 0.25047114
0.18254595 -0.0017235447 -0.25207207 -0.21151046 0.24445736 0.13704635 0.090358935 0.064066
-0.05632434 -0.07710783 0.17934585 0.08548977 -0.00035349463 0.2113454 0.2344862 -0.043944854
0.06760223 0.1523068 0.07236051 -0.20856164 0.15105896 0.098197475 0.2294808 0.10676476
-0.09229198 -0.022390667 -0.27597493 0.13508591 0.21172193 -0.19618829 -0.15588641 -0.10344673
0.18698706 -0.2702054 -0.14692938 -0.22799155 0.09711301 -0.00739684 -0.14701846 0.02118429
-0.047058146 0.09492849 0.24084373 0.0055786106 -0.09676882 0.18544318 0.028901286 0.025792534
-0.20209041 0.19877851 -0.24278483 -0.24418484 -0.23466359 -0.039982144 -0.017565658 0.049465586
0.012453586 -0.055256367 -0.04926136 0.20156437 -0.086386845 -0.26201755 0.101292156 -0.24390937
-0.18332885 0.20316899 0.21663326 0.012837335 0.14689396 -0.08566159 0.13553007 0.052423604
-0.21090795 -0.08817047 0.13785757 0.07092166 -0.162303 0.15550162 0.14130366 -0.19291142
0.20249058 -0.10454305 0.14645122 0.020873632 0.20357667 0.120708965 -0.094524994 -0.19959255
00000000: a625 87bd 4c3c 74be 26fe 3d3e af64 be3d
00000010: 6732 42be 27b5 04be 9de8 82be 41a4 6f3e
00000020: ef32 743e af47 2bbc 3497 673d 8d47 9cbd
00000030: 2e5a 62be a170 2bbd 3833 093e f198 12be
00000040: 9ad8 45be 4c4d 60be c787 95bd a13a 893e
00000050: 9faf 503e 5a3c 953c 96b6 2dbe c17e 053d
00000060: ddb5 133e c1a4 0a3d 51ea 4cbd 9591 3abe
00000070: 62cd 583e 4bb0 30bd b82c 0e3e 0ea0 3e3d
00000080: bb09 61be 01ef 9a3d 9216 1b3e 2e37 5c3e
00000090: e9da 343e 649c 40bc 6973 79be f4de 27be
000000a0: 817c 873e 6921 723e 89b9 b43d 30d2 7e3e
000000b0: 1c01 373e d6dc b13c 9026 3f3c db97 83be
000000c0: 029b 703d df6b 54be b504 13be 4bdb d23d
000000d0: 215a 2fbe d632 823d 67ce de3d 2472 01be
000000e0: 4ace 7fbe 0a43 663e 60a8 3a3e b27e 9d3d
000000f0: 3536 f63c 6168 c0bd 810d 823d 9e19 82be
00000100: 7abc 55be 564e 493e f67b 083e 0563 8d3e
00000110: 9343 90bd e4fd 35be 3ad9 60be 1d58 f7bd
00000120: b3ab 16be a094 36be 5bd8 a83d e77f 54be
00000130: a831 963c 08bd 06be bb67 503e 57ee debd
00000140: 5ade a0bd 7871 b93c d311 76be 8564 8b3c
00000150: 907b c5bd 6f06 1bbe ae88 1c3e a21a 74be
00000160: 5d61 89be fb6d 043e 718a ed3d 3c9c cd3d
00000170: 4e18 753e cccd 09be 560f 3d3c dc3b 993d
00000180: 652c 70be dcf7 35be a78d 4c3e bd54 7bbe
00000190: 91b5 c5bd 2ce5 8bbc 1213 8bbd 68ef 663d
000001a0: 92e9 ec3d 2c11 87bd 0982 153e 1313 b83d
000001b0: c16f 893d be5b 5d3d e288 bbbc 23fd 25be
000001c0: 6f72 733e 4fc9 4f3e bce7 07be 20fc 413e
000001d0: 2a62 483e 1fb5 03bd 87dc eabd 9e87 1a3e
000001e0: d04a f9bd bfbe 4dbd 4273 893c c1bc 8d3b
000001f0: 62cc 4d3e 12ce e4ba 1691 9b3d 20e5 6b3e
00000200: 5559 90bc 7a7b 803e cf39 0abe 79da 5fbe
00000210: 5532 9fbd 656a 5e3e 13f8 10be 1c56 4dbd
00000220: fbb7 523e eaeb cfbb e018 4d3e 08bb 443e
00000230: 8bff bb3d 155b e2bd 5b49 c33d 9e46 073c
00000240: afa7 6dbe 8067 2bb9 ca0d 873d cd5c 263e
00000250: a4d5 613e 2346 cfbd 448d 443d abd7 7e3d
00000260: 993d 83bd 8de3 1f3e c9d4 a73c ab3d 60bb
00000270: 8263 7fbe fd21 5b3e 47c1 673e ca01 36be
00000280: 8ab8 073e b092 123e 4e1c 3b3e 55b0 17be
00000290: ca6e 7c3d 6533 803d 98fa 36be c13d 803e
000002a0: 53ed 3a3e 90e8 e1ba 970f 81be 3396 58be
000002b0: 0853 7a3e e155 0c3e 1b0e b93d 0935 833d
000002c0: 5ab4 66bd b6ea 9dbd 70a6 373e 4315 af3d
000002d0: 3f55 b9b9 ee6a 583e 271d 703e 85ff 33bd
000002e0: 0a73 8a3d 50f6 1b3e bf31 943d 2f91 55be
000002f0: 33af 1a3e c21b c93d 04fd 6a3e 7ca7 da3d
00000300: 9403 bdbd a26c b7bc 964c 8dbe f653 0a3e
00000310: a2cd 583e 95e5 48be b0a0 1fbe e1db d3bd
00000320: 8979 3f3e 5d58 8abe a874 16be 9e76 69be
00000330: 30e3 c63d 3161 f2bb 028c 16be ad8a ad3c
00000340: 0bc0 40bd de69 c23d bd9f 763e c7cc b63b
00000350: bb2e c6bd d1e4 3d3e 64c2 ec3c dd4a d33c
00000360: caf0 4ebe 988c 4b3e 969c 78be 970b 7abe
00000370: a74b 70be 51c4 23bd dbe5 8fbc 6d9c 4a3d
00000380: 200a 4c3c 8054 62bd 48c6 49bd e466 4e3e
00000390: 96eb b0bd 2a27 86be 4372 cf3d 61c3 79be
000003a0: 8fba 3bbe 880b 503e 1cd5 5d3e af53 523c
000003b0: 5f6b 163e 586f afbd 65c8 0a3e 22ba 563d
000003c0: 41f8 57be b892 b4bd 892a 0d3e 603f 913d
000003d0: c232 26be d13b 1f3e e8b1 103e 928a 45be
000003e0: b159 4f3e ab1a d6bd 4ff7 153e 2eff aa3c
000003f0: 6776 503e 4336 f73d 5296 c1bd fd61 4cbe

price_branch.lstm.bias_ih_l0 f4 [64]
-0.044321105 -0.22071196 -0.02172046 0.110910885 -0.067492746 0.10948923 0.25979012 0.22575335
0.01980076 -0.06605152 0.09347486 -0.0057680747 -0.240482 0.16694556 -0.054569427 0.10036154
-0.041496452 -0.085392155 -0.17463611 -0.12652908 -0.11908408 0.23171149 -0.19165303 0.21938767
-0.15201114 -0.031205362 0.24964245 0.2879669 -0.20210095 0.029169587 -0.1874184 -0.058095597
0.047971264 -0.14251418 0.13595694 0.06311219 0.10493441 0.014489892 0.09601449 0.11922793
0.24263401 0.18598564 0.044495907 0.103324324 -0.18333253 0.02707458 0.113594025 0.04220321
-0.09803002 0.12898076 -0.20179263 0.14482985 0.27225557 -0.2434251 0.12507176 -0.20322123
-0.15046777 0.24245301 -0.016552705 -0.16754681 0.0050333403 0.2032219 -0.05190722 -0.018370394
00000000: 0c8a 35bd 5102 62be 1bef b1bc 3f25 e33d
00000010: a339 8abd e43b e03d 3603 853e e32b 673e
00000020: 3435 a23c 0546 87bd bf6f bf3d 1e02 bdbb
00000030: ea40 76be c7f3 2a3e 3184 5fbd 5a8a cd3d
00000040: 2ff8 29bd 15e2 aebd cfd3 32be d790 01be
00000050: 5be2 f3bd c745 6d3e b140 44be 29a7 603e
00000060: cfa8 1bbe 63a2 ffbc 45a2 7f3e 6670 933e
00000070: 8df3 4ebe 0ff5 ee3c 9cea 3fbe a6f5 6dbd
00000080: 847d 443d 3def 11be 4c38 0b3e f740 813d
00000090: dae7 d63d 0367 6d3c 3fa3 c43d c62d f43d
000000a0: 0d75 783e 0573 3e3e 5741 363d b49b d33d
000000b0: 86bb 3bbe 82cb dd3c fca3 e83d 46dd 2c3d
000000c0: f7c3 c8bd 8813 043e baa2 4ebe 474e 143e
000000d0: 1565 8b3e 6e44 79be d012 003e 3a19 50be
000000e0: 3914 1abe 9a45 783e 8a99 87bc 6491 2bbe
000000f0: b8ee a43b 6719 503e aa9c 54bd 827d 96bc

price_branch.lstm.bias_hh_l0 f4 [64]
-0.17973956 0.20468119 -0.0021160953 -0.014329049 0.049036205 0.21820262 0.03170059 -0.1719821
0.12182032 -0.19906223 -0.008506921 -0.12525482 0.060569346 0.12376399 0.1675833 0.11343974
-0.030464277 -0.08912025 -0.08830703 0.13589641 0.039798453 -0.22347344 -0.009698067 0.15395023
-0.19371317 0.0499383 -0.17847595 0.30476356 -0.011753922 -0.012775459 -0.17608391 0.24575691
0.12209284 0.06252868 0.22526029 -0.07929115 0.028372006 0.1568454 0.040567484 -0.18678024
-0.093359455 -0.06808188 -0.17449462 0.047436427 0.19806372 0.052380588 0.0670511 0.17184244
0.21462756 0.036861457 -0.12863666 0.08559117 -0.038590558 0.14437428 0.2695057 0.17013045
-0.09654223 -0.10271733 0.012850735 -0.20656784 -0.0077784057 -0.22720428 0.15067229 0.22940801
00000000: a60d 38be f297 513e 30ae 0abb 63c4 6abc
00000010: 30da 483d 8270 5f3e 7ad8 013d 131c 30be
00000020: ef7c f93d f8d6 4bbe 9d60 0bbc cd42 00be
00000030: 9017 783d fa77 fd3d f59a 2b3e 1853 e83d
00000040: 3890 f9bc ad84 b6bd 51da b4bd 6e28 0b3e
00000050: b403 233d 39d6 64be a4e4 1ebc 21a5 1d3e
00000060: bf5c 46be 1a8c 4c3d 66c2 36be f809 9c3e
00000070: 8693 40bc 2950 51bc 574f 34be b3a7 7b3e
00000080: d00b fa3d 090f 803d a2aa 663e 6663 a2bd
00000090: 696c e83c 159c 203e 172a 263d 5243 3fbe
000000a0: 3e33 bfbd 836e 8bbd b8ae 32be b34c 423d
000000b0: 37d1 4a3e 078d 563d 1652 893d 77f7 2f3e
000000c0: 54c7 5b3e 0afc 163d 54b9 03be 6c4a af3d
000000d0: 2211 1ebd dad6 133e a7fc 893e ad36 2e3e
000000e0: efb7 c5bd 775d d2bd e48b 523c 8586 53be
000000f0: ffe1 febb 3da8 68be d649 1a3e efe9 6a3e

price_branch.fc.weight f4 [16, 16]
-0.14933433 -0.16041683 0.14777625 -0.13759805 0.2089141 -0.05654949 -0.1871074 -0.15022802
0.16838889 0.15538104 -0.03211968 0.11158718 -0.049907282 -0.034624673 0.20751998 -0.0891744
-0.17473777 0.1325859 -0.158495 -0.023762725 0.19847925 0.116675265 0.06946886 0.19435297
0.053710263 0.13158847 -0.15834162 0.0012894734 -0.05605979 0.21008123 0.022934206 -0.14504284
0.02557027 0.25935188 -0.09391031 -0.04142267 0.13509396 -0.12627327 -0.24040274 -0.21320198
-0.08201015 -0.02810909 0.15155545 0.15929614 0.20785975 -0.18095888 -0.23917754 -0.09984015
0.04502649 0.27305388 -0.21273452 0.09999175 0.04293621 0.15586369 0.10329461 0.013207272
-0.08111975 -0.028763112 0.16346021 0.00061291934 -0.10591293 -0.21491253 -0.094846115 0.19485462
-0.15579498 0.011117565 -0.25311056 -0.105910674 -0.09819976 -0.11438907 -0.10449967 -0.120938204
-0.062436674 -0.04126292 -0.056509767 0.13138783 0.1465774 -0.16221108 0.22262955 -0.054487575
-0.02052482 0.18068665 0.1661272 0.10990847 -0.1462312 -0.07270149 0.13703395 -0.26450557
-0.1894343 -0.24816597 -0.13749424 0.1331308 -0.17041892 -0.10616881 0.20724398 -0.22834444
0.12943508 -0.15268995 -0.15688808 0.26955485 0.2361298 0.17980932 -0.24695948 -0.27768075
0.01459329 -0.17948821 -0.13207969 0.09633434 -0.21880019 0.053692333 0.24258474 -0.20537554
0.22658226 0.23273197 -0.17750725 0.048870344 0.21454532 -0.10816175 -0.05778649 -0.2468398
0.21152084 -0.1828942 0.035370007 -0.02298944 0.12048687 0.13727613 0.18018481 -0.10778987
0.167193 -0.2172763 -0.22947231 0.18314607 -0.115420975 0.17203918 0.2304925 -0.05177181
0.19530603 -0.20169559 -0.15528432 0.18838425 0.043204397 -0.05604236 -0.21589056 0.030304093
-0.17934652 -0.14982085 -0.11902746 -0.11003934 0.0903318 0.08298886 0.007064348 -0.16580302
0.100664586 -0.10243954 0.055033803 -0.20677951 0.012429128 -0.24290311 0.050397594 -0.2015673
-0.13823798 -0.040282924 -0.1930034 -0.14174818 0.08657156 0.24056362 -0.1353284 -0.19068217
0.1636536 0.08262763 -0.1856807 0.24405901 0.012561055 -0.04319528 -0.18079501 0.08556588
0.16077958 -0.010645914 0.16110356 -0.15281074 0.2546458 -0.13557845 0.21052247 0.19875747
0.113482766 -0.22525431 0.09191356 -0.043071795 -0.23912671 0.18136847 -0.0969978 0.11676269
-0.15752417 -0.063115425 -0.21456349 -0.07713823 -0.024213068 -0.14797877 0.09804056 -0.020542573
0.12613454 0.14758639 -0.22483826 0.15861152 0.13253018 0.15049066 0.15235874 -0.23187937
0.023464939 0.025897605 0.1691284 -0.18437256 -0.1713079 -0.0038657528 -0.0033010247 0.098052636
0.10966852 -0.03309724 0.10939104 -0.07544047 -0.17585559 -0.05722272 0.15726414 0.12179344
-0.069080144 -0.10642269 0.1559732 -0.20337102 0.20088677 -0.07034903 0.13172945 -0.21554828
0.21270812 -0.14246474 0.18394528 -0.1939499 0.04148265 0.24208905 -0.00041500796 -0.086558096
0.028199323 -0.17461194 0.14754356 0.20328672 0.13900547 0.049211077 0.10827847 0.08515317
0.12000797 0.15927406 0.02920303 0.19813244 0.2515997 -0.046261277 -0.115994856 -0.04203519
00000000: 19eb 18be 4f44 24be a852 173e 81e6 0cbe
00000010: 94ed 553e 70a0 67bd 1599 3fbe 60d5 19be
00000020: 236e 2c3e 351c 1f3e ed8f 03bd d287 e43d
00000030: 946b 4cbd 9ad2 0dbd 1e80 543e 11a1 b6bd
00000040: 75ee 32be 99c4 073e 834c 22be 0caa c2bc
00000050: 253e 4b3e 71f3 ee3d b145 8e3d 7704 473e
00000060: 4bff 5b3d 21bf 063e 4e24 22be 8c03 a93a
00000070: f39e 65bd 891f 573e 84e0 bb3c 1c86 14be
00000080: be78 d13c c5c9 843e 0c54 c0bd d1aa 29bd
00000090: 1256 0a3e c84d 01be 232c 76be 9f51 5abe
000000a0: f0f4 a7bd 0945 e6bc 5a31 1b3e 871e 233e
000000b0: 30d9 543e 494d 39be f5ea 74be fe78 ccbd
000000c0: b26d 383d b8cd 8b3e 14d7 59be 7ac8 cc3d
000000d0: e1dd 2f3d bb9a 1f3e 208c d33d 5063 583c
000000e0: 1d22 a6bd 9ea0 ebbc 1d62 273e 52ac 203a
000000f0: e1e8 d8bd 0812 5cbe ae3e c2bd f887 473e
00000100: b888 1fbe 7326 363c b597 81be b2e7 d8bd
00000110: f51c c9bd d144 eabd ec03 d6bd 73ae f7bd
00000120: 99bd 7fbd 4f03 29bd c976 67bd 888a 063e
00000130: 6318 163e a91a 26be 00f9 633e 5d2e 5fbd
00000140: ab23 a8bc ec05 393e 401d 2a3e b117 e13d
00000150: a2bd 15be 85e4 94bd a152 0c3e 466d 87be
00000160: 11fb 41be 381f 7ebe 4acb 0cbe 7153 083e
00000170: 4c82 2ebe 086f d9bd c437 543e 20d3 69be
00000180: a18a 043e c15a 1cbe 45a7 20be 1803 8a3e
00000190: 03cc 713e ef1f 383e f2e2 7cbe 2c2c 8ebe
000001a0: b218 6f3c c2cb 37be e63f 07be f04a c53d
000001b0: 280d 60be 7eec 5b3d 2268 783e f74d 52be
000001c0: 2e05 683e 4a51 6e3e 76c4 35be 452c 483d
000001d0: c5b1 5b3e e883 ddbd 87b1 6cbd 93c3 7cbe
000001e0: eb98 583e 9e48 3bbe 24e0 103d 5a54 bcbc
000001f0: d2c1 f63d 1d92 0c3e 5e82 383e efc0 dcbd
00000200: a434 2b3e ae7d 5ebe cafa 6abe a58a 3b3e
00000210: d561 ecbd 0a2b 303e 3a06 6c3e ad0e 54bd
00000220: 4efe 473e 4a89 4ebe da02 1fbe cde7 403e
00000230: 18f7 303d ac8c 65bd 6a12 5dbe 4a40 f83c
00000240: 9da6 37be a36a 19be abc4 f3bd 4e5c e1bd
00000250: e1ff b83d 10f6 a93d 0c7c e73b 44c8 29be
00000260: 3c29 ce3d d2cb d1bd 206b 613d 02be 53be
00000270: 8ba3 4b3c 98bb 78be b56d 4e3d a967 4ebe
00000280: 428e 0dbe b5ff 24bd afa2 45be 6f26 11be
00000290: 6e4c b13d 4f56 763e 8793 0abe 3042 43be
000002a0: cf94 273e ad38 a93d 1523 3ebe 9bea 793e
000002b0: e2cc 4d3c 89ed 30bd 5422 39be 2a3d af3d
000002c0: 67a3 243e 336c 2ebc 55f8 243e 6b7a 1cbe
000002d0: ef60 823e 14d5 0abe 3493 573e 1487 4b3e
000002e0: a769 e83d 11a9 66be 2d3d bc3d 0d6c 30bd
000002f0: a2dd 74be a8b8 393e c8a6 c6bd 4721 ef3d
00000300: 044e 21be a942 81bd 88b6 5bbe a6fa 9dbd
00000310: 7c5a c6bc bf87 17be 7dc9 c83d e648 a8bc
00000320: 6a29 013e e320 173e 003c 66be 0f6b 223e
00000330: feb5 073e 391a 1a3e ee03 1c3e c971 6dbe
00000340: 8b39 c03c 3727 d43c ff2f 2d3e 29cc 3cbe
00000350: 576b 2fbe 9258 7dbb 0156 58bb d2cf c83d
00000360: e499 e03d f990 07bd 6908 e03d 8880 9abd
00000370: 7d13 34be 5f62 6abd da09 213e d76e f93d
00000380: e479 8dbd 24f4 d9bd 70b7 1f3e 7e40 50be
00000390: 43b5 4d3e 2713 90bd 16e4 063e b0b8 5cbe
000003a0: 28d0 593e 47e2 11be 275c 3c3e cd9a 46be
000003b0: b6e9 293d 31e6 773e 6d95 d9b9 5f45 b1bd
000003c0: 4402 e73c 79cd 32be a915 173e 652a 503e
000003d0: 7357 0e3e 8e91 493d 1ac1 dd3d c964 ae3d
000003e0: bdc6 f53d bd18 233e 313b ef3c 3be3 4a3e
000003f0: add1 803e 777c 3dbd b68e edbd 172d 2cbd

price_branch.fc.bias f4 [16]
-0.05218942 -0.139053 0.18300065 0.08092675 0.10893417 0.16728513 0.061110068 -0.20755571
0.13289075 0.07918779 0.24004 -0.013588657 0.011032739 -0.06765495 -0.14672638 0.17159376
00000000: 93c4 55bd e963 0ebe 8664 3b3e edbc a53d
00000010: e118 df3d cb4c 2b3e 8d4e 7a3d 7c89 54be
00000020: 8314 083e 352d a23d 0ccd 753e f5a2 5ebc
00000030: a9c2 343c ae8e 8abd 713f 16be 46b6 2f3e
