models/checkpoints/news_lstm/news_lstm_v7.pt (torch, 49874 bytes, 19 tensors)

sentiment_branch.lstm_layers.0.weight_ih_l0 f4 [128, 11]
000000 bd 58 81 be 92 5d 8a bd db 08 c4 bd f8 a0 be bd
       -0.25263014 -0.06756128 -0.095720015 -0.09308046
000010 5e 20 11 be 8e 95 12 be a0 d7 f2 bd 3e aa 82 be
       -0.14172503 -0.14314863 -0.118575335 -0.2552051
000020 38 48 b8 3e 03 60 a3 bd 32 48 8a 3d dc f8 2f 3e
       0.359926 -0.07977297 0.067520514 0.17184776
000030 f9 5b ef bd 51 99 5b bc 3e d7 86 be 0a c7 b9 3c
       -0.11687464 -0.013403253 -0.26336092 0.022677917
000040 45 f2 01 3d 12 e1 ba 3d ee f2 a6 3e 79 26 90 be
       0.031725187 0.0912496 0.32607216 -0.28154352
000050 05 6f 3c be 6a 9f ba 3e fe 8e c9 3c 76 6a c6 3e
       -0.18401726 0.36449748 0.024604317 0.38753098
000060 c6 56 23 3e af a2 91 be 86 34 04 3e 31 fe 81 3e
       0.1595107 -0.2844443 0.12910661 0.25389245
000070 fc ad 0d be 7b 57 8a 3e 16 c6 9f be 63 ab 3a 3e
       -0.13835901 0.27019867 -0.31205815 0.18229441
000080 e8 ab ec 3d ec 92 1e be fb 59 da be 60 4d 64 3d
       0.11556226 -0.15485734 -0.42646775 0.055737853
000090 81 23 9e bd ba b3 af be c6 11 a7 bd 06 07 88 be
       -0.077216156 -0.34316808 -0.08157687 -0.26567858
0000a0 2a 56 18 be 61 33 b3 be f1 82 41 bd 33 bd 28 be
       -0.14876619 -0.35000136 -0.047244016 -0.16478424
0000b0 ce fc 74 3e ef d4 22 3e 88 00 6b bb 86 2f bc bc
       0.23924562 0.1590154 -0.003585847 -0.02297188
0000c0 7f d6 13 3e 82 7c cc 3e 44 2e 4d be 3c c5 99 be
       0.14437293 0.39938742 -0.2003718 -0.3003329
0000d0 b8 5e 21 be 1a 0b ba bd 0e d8 58 3c 3b 28 8b be
       -0.15758789 -0.09084149 0.013235105 -0.2717913
0000e0 3f c1 a5 be d0 94 31 bd 1e 12 ba be c6 37 9f be
       -0.32373998 -0.04335481 -0.36341947 -0.3109724
0000f0 0b d1 15 be 6f 3e ba 3d bc 40 af 3e 8a e7 4b be
       -0.14630525 0.090939395 0.34229076 -0.19912544
000100 55 ee 07 be 45 80 dd 3e b0 aa 44 3d 31 cd d8 3d
       -0.1327451 0.43261924 0.048014343 0.10586012
000110 a9 9e 79 be cc 30 71 be 8e d2 83 be 49 c6 2f 3e
       -0.2437693 -0.23553771 -0.25746578 0.17165484
000120 e9 43 78 bd d9 df 14 3e 25 1f 0b 3e b7 c0 a4 bd
       -0.06061164 0.14538516 0.135861 -0.0804457
000130 4c 8f ca bd 27 c6 cc be d6 86 0e be 9f 32 95 3c
       -0.09890613 -0.39994928 -0.13918623 0.018212615
000140 7d 6b e4 bb 57 14 55 3e a3 23 36 be c4 04 eb 3d
       -0.0069708214 0.2080854 -0.17787032 0.11475518
000150 10 5a eb 3b 55 7d aa 3e 0f df 1e be 89 b8 34 3e
       0.007182367 0.33298746 -0.15514778 0.1764852
000160 5e 95 22 3d 7a 86 18 3d d5 8d 8f 3d a2 71 26 bd
       0.03969323 0.03723762 0.07009474 -0.040635712
000170 a7 25 2c bd 81 f7 ce 3c 45 3c 92 be b7 c0 e5 bc
       -0.042028096 0.025264503 -0.28561607 -0.028045995
000180 d1 66 10 be 0f 19 94 3e 71 bb 7a be 3a 96 6d be
       -0.14101721 0.28925368 -0.24485566 -0.23201838
000190 1b e3 7f be c8 f2 94 3d 55 48 7b bc 48 62 b1 3e
       -0.24988978 0.07272869 -0.0153370695 0.34645295
0001a0 2b 1d 37 3e c0 b2 58 3e 66 b4 15 be 49 42 9a 3e
       0.1788222 0.21161938 -0.14619598 0.30128697
0001b0 1a e8 39 3e 64 04 8d 3e 18 14 88 be 88 d0 a4 be
       0.18154946 0.27542412 -0.2657783 -0.32190347
0001c0 fa 42 58 bd 6c 48 eb bc dc ba 83 bd 56 ee 94 be
       -0.05279825 -0.028721057 -0.06432125 -0.29088086
0001d0 a0 85 78 3c 88 13 52 be 4e 5f 07 3e 14 4b 20 be
       0.015168577 -0.20515263 0.1321995 -0.1565364
0001e0 2b 8d 92 3e f6 fb f7 bd 6d 31 08 3e 97 81 1a 3e
       0.28623328 -0.121086046 0.13300104 0.15088497
0001f0 ed 99 03 3e b0 c1 57 3e 24 3e f8 bc 66 09 10 be
       0.12851687 0.2106998 -0.030303068 -0.14066085
000200 0d 03 82 3d ee 8a 78 be e9 38 63 3e ae 68 93 be
       0.06348238 -0.24271747 0.22189678 -0.28790802
000210 ad 5a 33 3e bb c7 69 3e d8 49 ad be f2 75 81 be
       0.17515059 0.22830097 -0.338454 -0.25285298
000220 82 12 67 3e 68 48 00 3e 74 24 75 be 1d d0 77 3e
       0.22565654 0.12527621 -0.23939687 0.24200483
000230 d2 7b 2c be dc ce ca be 2d e2 c1 3e 87 91 52 be
       -0.16844109 -0.39610946 0.3786787 -0.20563327
000240 64 8a c3 be 6b b9 7d 3c 5c bc b6 bd 02 04 de bd
       -0.3819152 0.015486102 -0.089226454 -0.10840608
000250 2c c2 fe bd 15 25 7c be 7e ab 26 3c 88 57 e6 3a
       -0.12439379 -0.2462352 0.010172723 0.0017573694
000260 61 46 a9 bd 92 70 d5 bc 85 bb 2d 3e 98 34 c3 bc
       -0.08265377 -0.026054654 0.16966064 -0.02382879
000270 47 80 43 3e d7 71 6c 3d 8b bc 50 be 0c 66 ba 3d
       0.19091903 0.057725754 -0.20384423 0.09101495
000280 7d b1 9c bc 9a ec 4e be 67 60 42 3e bd 8f 32 3c
       -0.019127602 -0.20207444 0.18982087 0.010898528
000290 e6 4a 40 3e 7b 81 a6 bd 78 e0 c9 3d be 3c 94 3e
       0.18778571 -0.08130165 0.09857267 0.28952593
0002a0 50 e7 05 be 06 44 21 3e 43 81 18 be cd 8a 32 3e
       -0.1307652 0.15748605 -0.1489306 0.17435761
0002b0 9a 58 85 3c 32 4c c6 3e 1b 0a 87 3e 98 c6 bd bd
       0.0162776 0.38730007 0.26374897 -0.092663944
0002c0 2d db dd 3b 38 53 21 3d a3 5d ad 3c 92 ee 25 3e
       0.0067705126 0.039386004 0.021162814 0.16204289
0002d0 55 1c e7 3e 54 60 13 3e e9 ac 55 3e bf c8 8c bc
       0.45138803 0.14392215 0.20866741 -0.017185567
0002e0 90 1a 2e 3e cf 1e 31 3e 93 5d 2c 3e 5b eb bc be
       0.1700232 0.17296909 0.1683257 -0.36898312
0002f0 89 99 e7 bd f7 81 ec bd 73 03 ce 3d 69 20 8e be
       -0.113085814 -0.11548226 0.10059252 -0.27759102
000300 43 90 d1 be 1a 91 ce bd 99 89 7b bc bb 3b f3 bd
       -0.40930375 -0.1008627 -0.01535263 -0.11876627
000310 56 6e 69 3e 48 11 8f bd fc ef bd bd fb f0 60 be
       0.22795996 -0.06985718 -0.09274289 -0.21966927
000320 25 b6 cf bc 3c 29 54 be 3d 68 3d be f8 03 d3 bd
       -0.025355408 -0.20718855 -0.18496795 -0.10303491
000330 e9 a9 e4 bd fb 54 63 be 34 c3 82 3e ca c0 21 3e
       -0.1116522 -0.22200386 0.25539553 0.157962
000340 62 3a 43 be 86 ca a3 be e7 09 c5 be 22 fc a4 3c
       -0.1906524 -0.3199045 -0.38484117 0.020139758
000350 39 8c 18 be 7d ec 2d 3e 32 c3 52 be ca 5b 6e be
       -0.1489724 0.16984744 -0.20582274 -0.23277202
000360 3f 68 57 be 8c 0f 3c be b7 fb f1 bd 0d 82 0d 3d
       -0.2103586 -0.18365306 -0.11815589 0.034547854
000370 0e a5 ce bd ee 4d e8 bd 4f 24 21 be 3e 87 ef 3d
       -0.100900754 -0.11342989 -0.15736507 0.11695717
000380 3c b5 03 bf d8 e6 da bd 68 d0 aa bd 97 d7 aa 3d
       -0.51448417 -0.10688561 -0.083405316 0.08341902
000390 93 67 a6 be 0d 36 20 be 04 39 c6 bd aa 0e af be
       -0.32500896 -0.15645619 -0.096788436 -0.34190875
0003a0 d0 1f e6 3c 06 82 09 3d 55 0d 38 be bb 9f d6 be
       0.028091341 0.033571266 -0.17973836 -0.4191874
0003b0 77 ff b3 be 59 9d 69 be 31 9d 07 bc 89 a6 86 be
       -0.35155842 -0.2281393 -0.008277223 -0.2629893
0003c0 d3 5a 4e 3d eb 79 af 3d cd ac cb bd 8d 56 d7 bd
       0.050379585 0.08568176 -0.099450685 -0.10514555
0003d0 ad c2 2c 3e 71 aa 7a be 21 3a 07 be 75 31 58 be
       0.16871138 -0.2447908 -0.13205768 -0.21112616
0003e0 d3 16 26 be 38 cd bd 3e ee 95 79 be 00 cc 31 bd
       -0.16219644 0.37070632 -0.243736 -0.04340744
0003f0 67 5b 94 bd 8e e1 0c 3d 7c 97 11 be 3b fa 47 bd
       -0.07243996 0.034394793 -0.14217943 -0.048822623

sentiment_branch.lstm_layers.0.weight_hh_l0 f4 [128, 32]
000000 83 90 a0 3e 39 88 57 3d 9d 7b 8c 3d 45 5b 8a be
       0.31360254 0.052620146 0.06859515 -0.27022758
000010 a4 3d ef bd dd 12 35 be fb 44 cc be b5 34 d8 3d
       -0.11681679 -0.17682977 -0.39896378 0.10556928
000020 91 b6 4f 3e db 76 f6 ba cc c8 b6 be 18 6e 09 bd
       0.20284487 -0.0018803732 -0.3570007 -0.03355226
000030 13 0f 77 3e cd 06 de 3e ee 40 9e bd 19 9c dd 3d
       0.24126844 0.43364564 -0.07727228 0.10820789
000040 78 99 08 3e d1 77 83 3e 5b 0f 29 be 77 53 13 be
       0.13339794 0.2567735 -0.16509764 -0.14387308
000050 96 47 8f bd 73 36 12 3d 1e e2 07 3e e0 59 87 3e
       -0.06996076 0.035696458 0.1326985 0.26435757
000060 22 76 db 3d 46 36 b7 3e cf e5 bb 3e 45 b7 92 3e
       0.107158914 0.35783595 0.36698768 0.2865545
000070 8a 4c b0 bc b5 7e 61 3e 65 fb 19 3e 57 7a d9 be
       -0.021520872 0.22020991 0.15037306 -0.4247615
000080 2a 8f 85 be b9 99 70 bd 68 5f 87 be 05 af c8 3d
       -0.26085788 -0.05874035 -0.26439977 0.09799007
000090 30 92 c5 3b 0b 0b fa bd e4 cf d1 3e 2b 1c bb be
       0.00602939 -0.122091375 0.4097892 -0.36544928
0000a0 01 f1 6b be 0a 92 d9 be 98 c6 9a 3e 0d 55 3d 3e
       -0.23041154 -0.4249423 0.3022964 0.18489476
0000b0 c3 75 e2 be 86 96 3e 3e 42 cf cb bd 32 ce 34 3c
       -0.4423047 0.18612108 -0.09951641 0.011035489
0000c0 89 48 28 3c d1 8e f1 be 40 9a c7 bc 3d d6 0a bd
       0.0102712 -0.47179273 -0.024365544 -0.03389572
0000d0 90 bd 8a be a1 a9 89 be c1 e8 f6 3c f9 ec 50 3e
       -0.2709775 -0.2688723 0.030140283 0.20402898
0000e0 06 bc b1 3a 23 17 c0 bd a8 78 2e be 0b d3 b1 be
       0.0013560064 -0.09379413 -0.17038214 -0.34731326
0000f0 e2 3a 84 3e 97 95 b7 bd 7c 79 55 3e c7 1f e7 be
       0.25826174 -0.08964079 0.20847124 -0.45141432
000100 bc bf 58 be 3e b9 b4 be 11 16 af 3d 4f 97 47 3e
       -0.21166891 -0.3529758 0.08549131 0.19491313
000110 39 12 84 be a8 01 8b 3e bf d4 40 be a0 44 56 3e
       -0.25795153 0.271497 -0.18831156 0.20924616
000120 6c 19 22 be 14 00 97 3e 80 b0 00 3e 74 9a 3e be
       -0.1583001 0.29492247 0.1256733 -0.18613607
000130 d7 dd 16 be 1a 53 8f be 76 f4 0d bd 39 93 86 3d
       -0.14733063 -0.2799309 -0.034656964 0.06571049
000140 3c da 08 be de 99 bf 3c af 6d 91 bd 6b 0a 7e bc
       -0.133645 0.0233888 -0.071009986 -0.0155054135
000150 0d 10 db 3e dd 3e 24 3b c9 2c b7 3b 90 f7 53 be
       0.42785683 0.0025061883 0.0055900556 -0.20699906
000160 fc a6 14 be 93 2d 94 be 36 5d f8 bd 8b 84 2c 3e
       -0.14516824 -0.2894102 -0.121271536 0.16847436
000170 16 1b 0b 3e 35 e8 85 3e 09 a5 84 bd 40 3f 05 bd
       0.13584551 0.26153722 -0.064767905 -0.032531023
000180 bc a7 37 bd 4a a5 cb 3e a4 e1 a3 bc 3e 97 91 bd
       -0.0448377 0.39774543 -0.020005055 -0.07108925
000190 5f 32 0f 3e f6 62 e1 3d b0 d4 2b 3e 8a 9f c7 3d
       0.13984059 0.110052034 0.16780353 0.097472265
0001a0 0f da 93 3d ad e6 b0 bd 2f 58 c5 3c d6 5f 58 be
       0.07219326 -0.08637748 0.0240899 -0.21130309
0001b0 3c 24 8e bd 31 86 6f be 4d 2c df 3d 2e b4 2b be
       -0.06940505 -0.23391034 0.108971216 -0.16767952
0001c0 8d 50 d2 be 2a 21 1e be d3 12 2f be a5 49 46 3e
       -0.4107708 -0.15442339 -0.17097025 0.1936403
0001d0 0e 4d a4 bd 5f 19 19 3d 12 2b 4c be 6d 89 7f 3d
       -0.080225095 0.03737771 -0.19938305 0.06238692
0001e0 3b 7c 9c 3e 0e d7 b2 3d 85 e6 ba 3d 52 97 89 3d
       0.3056353 0.08732425 0.09125999 0.06718315
0001f0 74 b2 9a 3d 5c 8f db be 47 00 ac 3e 15 5c f5 bd
       0.075535685 -0.42882812 0.33593962 -0.11980454
000200 ef b7 ca bd 4f fa 8f 3d a9 27 2d be 17 06 a5 3e
       -0.09898364 0.070301645 -0.1690966 0.3223121
000210 d1 4a 95 3d e2 98 bc bd 2a 9b b7 3e 43 f8 1e 3e
       0.07289661 -0.092088476 0.35860568 0.15524392
000220 4d 4c 59 be e6 ba 3c 3e e2 f7 6f 3d f1 eb 8d be
       -0.21220513 0.18430671 0.05858601 -0.27719072
000230 b2 f7 b4 bc f7 62 a4 bd b5 3d af 3c ab 6e f1 be
       -0.022090767 -0.080266885 0.021391729 -0.47154745
000240 63 66 83 be 32 93 8e be 5d 5e 8c be 61 48 32 be
       -0.25664052 -0.27846676 -0.27415743 -0.17410423
000250 d4 b1 33 be b4 ea 9a 3e 72 fc 0d be 90 a5 97 3d
       -0.17548305 0.3025719 -0.13865831 0.074046254
000260 58 36 3b 3e d1 2c 17 3a 60 e9 3d be 74 dc 0e bf
       0.18282449 0.0005766871 -0.18546057 -0.55805135
000270 04 05 c6 3d ae d3 c4 bd ce d5 71 bd af 58 33 3e
       0.096689254 -0.09610687 -0.05904179 0.17514299
000280 5f b2 3e 3e 6f ba 99 3e a5 38 32 3e bd 9b d7 be
       0.1862273 0.3002505 0.1740442 -0.42111006
000290 df 5b 55 be e5 32 8d 3c ae eb bb 3c 9c ce c5 be
       -0.20835827 0.017236182 0.02293953 -0.38634193
0002a0 d5 7e 19 3e 45 21 5b 3e c8 0f fc 3d 58 ca 60 bd
       0.14989789 0.2139941 0.123076975 -0.05488047
0002b0 4e 3b 15 3f ce 0a 02 3d 6f da 15 be 62 90 18 3e
       0.58293617 0.031748585 -0.14634107 0.14898828
0002c0 29 72 4d 3e 15 6a 09 3f ab f6 32 be a9 83 33 be
       0.2006308 0.53677493 -0.17476909 -0.17530693
0002d0 92 37 d1 be de 37 45 be 04 36 a7 3e 86 bc 43 3e
       -0.4086271 -0.19259593 0.32658398 0.19114885
0002e0 79 8e 7b be 1c b6 e0 3d f3 fd 12 3d 3e e7 28 3c
       -0.24566068 0.109722346 0.035886716 0.010309039
0002f0 24 ff 1b be 5b 1e fe be 04 04 9c bd 63 10 b6 be
       -0.15234047 -0.49632534 -0.076179534 -0.35559377
000300 a7 b1 98 3e fc e7 01 bd d1 07 27 3e e8 e2 fe 3d
       0.29823038 -0.03171538 0.16311575 0.12445623
000310 3d ba 9a 3d 83 1e 68 3d 0a 01 5d 3e 07 c2 eb be
       0.075550534 0.056669723 0.21582428 -0.4604647
000320 e5 a6 e6 3d 74 36 a9 3e b7 21 c5 bc eb 83 e2 bd
       0.11262301 0.33049357 -0.024063928 -0.110603176
000330 83 2f 9e 3e 42 51 3d be 1b 2a 2d 3e 41 64 ad be
       0.30895624 -0.18488029 0.16910593 -0.3386555
000340 41 04 b7 be 6f ca 74 3d 30 03 92 bd 2c ca 6b be
       -0.35745433 0.05976337 -0.07129514 -0.23026341
000350 7c 22 98 bc e9 90 44 bc 1e f7 c1 bd da e9 fd 3d
       -0.018571131 -0.01199744 -0.09470962 0.12398119
000360 22 7a 90 3c 10 4a 1f be f6 34 40 be ea dd f3 3d
       0.017636362 -0.15555596 -0.18770203 0.11907561
000370 95 a5 5b 3e aa 08 48 be d3 4c 52 be 27 0c 53 be
       0.21449883 -0.19534555 -0.20537119 -0.20610105
000380 23 18 90 3d d8 0e ba 3d 0f e5 0a bc 90 f0 32 be
       0.07035854 0.090848625 -0.008477463 -0.1747458
000390 36 2e 9e be 5a 5e b2 3e 56 64 25 be 68 24 00 3d
       -0.3089463 0.3483761 -0.16151556 0.03128472
0003a0 8e 57 46 be 97 73 a7 3e 66 27 14 3c 86 32 99 bc
       -0.19369337 0.32705376 0.009042596 -0.01870085
0003b0 48 88 86 be a9 58 40 3d b8 5f 8d be c4 d0 2b 3d
       -0.2627585 0.046959553 -0.2761209 0.04194714
0003c0 90 9f 64 be 5b c7 f5 bc 8f e9 e0 bc cd 4e bf be
       -0.22326493 -0.030002287 -0.02745512 -0.37364808
0003d0 db 79 be bd 4a 1a f8 3c 44 24 b0 be d2 cd 06 3d
       -0.09300586 0.030285973 -0.34402668 0.03291113
0003e0 e8 24 35 3e 9c d0 1e be 45 a1 b3 3b 8f 0e f7 3d
       0.1768986 -0.15509266 0.0054818713 0.12063324
0003f0 3a 4d b9 bc 8f ba 29 3e 8a f2 c3 bd 60 30 21 bd
       -0.022619832 0.16575073 -0.09567745 -0.039352775

sentiment_branch.lstm_layers.0.bias_ih_l0 f4 [128]
000000 80 4f b5 3d b4 ef 2f 3e 5d 08 89 3d f6 17 5d 3e
       0.08853054 0.17181283 0.06691048 0.21591172
000010 c0 1f 35 3e 45 21 23 3d 13 24 df bd 00 93 32 3d
       0.17687893 0.03982665 -0.108955525 0.04359722
000020 75 8c 94 be cd 6f a6 bd 04 4f 93 3e c0 70 9f ba
       -0.2901341 -0.08126793 0.28771222 -0.001216434
000030 6f ed 75 bd a0 f3 f8 3d cc 4e 33 3e 43 81 96 be
       -0.060040887 0.12155843 0.17510527 -0.29395494
000040 8c f2 82 bd cb a0 f6 3d 25 24 45 3e 66 eb 81 bc
       -0.063939184 0.120423876 0.1925207 -0.015859317
000050 6c ef c1 bd 21 53 88 be 5d 4d fa 3d 25 8f 67 bd
       -0.09469494 -0.26625922 0.12221787 -0.056532998
000060 65 71 31 3e 79 96 2b 3e 9b 15 03 be 11 bd 35 be
       0.17328413 0.1675662 -0.1280121 -0.17747904
000070 3b 1d 48 3d 30 e8 31 3d 97 5b 88 bd 45 79 00 3e
       0.048856 0.043434322 -0.066580944 0.1254626
000080 de 85 5d be eb ca 03 be 3f 59 2c 3e ec c5 b4 bd
       -0.21633098 -0.12870376 0.1683092 -0.08826813
000090 4c dd 13 be 64 9e 98 3d 75 e3 34 be c8 ea 98 3d
       -0.14439887 0.074520856 -0.17664893 0.07466656
0000a0 c2 7c f3 ba cb e9 9e 3c 3d e7 88 be 32 a6 db 3d
       -0.001857661 0.01939859 -0.2673892 0.107250586
0000b0 d6 1c 15 be e0 d8 7c bd 17 b7 b8 3e 25 31 84 3d
       -0.14561781 -0.061730266 0.36077186 0.06454686
0000c0 eb a0 5d bc 19 69 5f bd 05 1c ad 3e 5b 99 3d be
       -0.013527135 -0.05454359 0.3381044 -0.18515532
0000d0 20 db 94 bd 63 4b cf bb 34 72 32 bd e5 88 10 3e
       -0.07268357 -0.0063261255 -0.043565944 0.14114721
0000e0 c5 2d 26 3e 16 3d 09 be 83 15 7b 3d 5e fc 7b 3d
       0.16228397 -0.13402209 0.061299812 0.061519973
0000f0 b2 23 dc bd 42 d7 4e be 59 69 87 3c 4e d8 1f 3e
       -0.10748996 -0.20199302 0.016529726 0.15609857
000100 ae 04 24 be dc 34 47 bc 86 7e 04 be 0a 06 32 3c
       -0.1601741 -0.012158599 -0.1293889 0.010865698
000110 05 30 31 be ce e7 92 3d c0 ef 24 3e 4a d8 a5 bd
       -0.17303474 0.071731195 0.16107082 -0.080978945
000120 fd 7b 28 3d 28 8d b2 3d 63 f4 11 bd d9 37 26 be
       0.04113387 0.0871833 -0.035633456 -0.16232242
000130 04 7c e8 3b 0b a4 b7 3d 23 f7 24 3e 78 39 c4 bd
       0.007094862 0.089668356 0.161099 -0.09581274
000140 c7 f4 d8 3c 25 47 d6 3d b9 8b bf 3b 9f 64 af 3d
       0.026483906 0.104627885 0.0058455137 0.08564114
000150 b9 00 9d 3d dc bf 56 bc 8f e5 08 3d 29 dd 05 3e
       0.076661535 -0.013107266 0.03342205 0.13072647
000160 57 ed 12 3e 28 08 07 be a8 a0 bc 3d 3a 2b 04 be
       0.1434835 -0.13186705 0.0921033 -0.12907115
000170 a2 1d 0b be 99 b6 a1 bd 9f 74 00 3d ab 41 e3 3d
       -0.13585523 -0.07896156 0.03136122 0.110965095
000180 f1 59 2c bd 88 c7 91 3d 57 a0 48 3d ee f6 55 3e
       -0.042077962 0.07118136 0.048981037 0.20894977
000190 ee fa 07 be c0 40 69 3e 7c 87 f9 bd 1f 5f b6 3d
       -0.13279316 0.22778606 -0.12184045 0.08904862
0001a0 53 e4 1e 3d 90 1b b5 3d 0f 16 f1 3c 0a 77 cc bc
       0.038791966 0.08843148 0.029429464 -0.024959106
0001b0 e7 84 94 3e f4 60 89 bd b8 2f 47 3c 64 f3 cc bc
       0.29007646 -0.067079455 0.012157373 -0.025018401
0001c0 b2 34 05 3c 56 71 04 3e 32 14 4f bd 34 76 9f bd
       0.008130239 0.12933859 -0.05055637 -0.07786217
0001d0 1d 5a 5b 3d 7d 88 4e bd 6d 68 5f 3e 0f f4 c1 bd
       0.053552736 -0.050423134 0.21817179 -0.094703786
0001e0 e5 25 85 bd 57 d1 89 3e b2 b4 12 3c 47 95 ee 3d
       -0.065013684 0.26917526 0.008954214 0.11649566
0001f0 13 94 6f 3d d4 6e ea 3c 2a e5 2e 3e 66 ab 94 3d
       0.058490824 0.0286173 0.17079607 0.07259254

sentiment_branch.lstm_layers.0.bias_hh_l0 f4 [128]
000000 9b c9 85 bd 6b 44 29 3e ed 17 ac 3c a4 a2 8a 3d
       -0.06532594 0.16530006 0.021007502 0.067693025
000010 fc 90 4a 3e ac 2e 33 3e 8d 89 dc bd 8f dd 34 3e
       0.1978187 0.17498273 -0.10768423 0.17662643
000020 63 9a 44 be f7 6a 3b bd 7a 86 af 3e 9b cd 16 be
       -0.19199519 -0.045756306 0.34282285 -0.1472687
000030 a5 a8 f6 bc d6 c4 1e bd b5 71 48 bc 92 ef 48 be
       -0.030109713 -0.038761936 -0.012234141 -0.19622639
000040 2f 45 f7 3d 51 a1 54 3d 06 0c 38 3e 7f b3 cf bc
       0.120737426 0.051911656 0.17973337 -0.025354145
000050 38 77 69 3d 60 2c 85 be d0 a6 ec bd 65 87 28 be
       0.05699846 -0.26010418 -0.115552545 -0.16457899
000060 23 80 df 3c 3b 29 78 bd 6a 4b 9f 3d 76 18 c9 3d
       0.02728278 -0.060586195 0.07778056 0.09819119
000070 7d 0a e9 3d 0b d9 ee bd a8 44 b9 bc 71 07 c1 bd
       0.113789536 -0.116624914 -0.022615746 -0.094252475
000080 a1 9c 77 be a5 a4 6d bd 12 c2 c1 bd 8b 0d 69 bd
       -0.24180843 -0.058018345 -0.09460844 -0.05689768
000090 b3 51 a4 bd 94 dc 1f 3e 0d 10 13 bd 86 6c 1b be
       -0.080233954 0.15611488 -0.03590398 -0.15178117
0000a0 4f ac 92 be 49 7c 32 be f8 e1 b8 be 2c b3 39 be
       -0.28647086 -0.17430224 -0.361099 -0.18134755
0000b0 95 4e aa bd b0 fb c3 bc 6e 9d 01 3d 6f 13 45 3e
       -0.083157696 -0.023923725 0.031644277 0.19245695
0000c0 f8 7a 20 be 47 06 05 be 06 c9 5a 3e 28 2a 78 be
       -0.15671909 -0.12990676 0.21365747 -0.24234831
0000d0 43 80 32 be 28 b4 b1 bd ec d1 bc 3c 12 d4 cd 3d
       -0.1743174 -0.0867694 0.023049317 0.10050215
0000e0 7a 89 2a 3e 94 40 f7 bd f6 83 86 3d d0 c1 6c 3d
       0.16654006 -0.12072864 0.06568138 0.05780202
0000f0 17 83 6e bd 6b a5 71 3d 52 4f 57 3e 09 c6 8f bd
       -0.058230486 0.058995645 0.21026352 -0.07020194
000100 5e d6 90 bd 7e a2 01 be ca 48 83 bd 5c 3d 51 bd
       -0.07072137 -0.12659642 -0.06410368 -0.051083907
000110 db a0 ce 3c e5 78 24 3e 4d 0f 9e bd 98 7a c5 3d
       0.025223186 0.16061743 -0.07717762 0.096425235
000120 05 87 02 3e f0 0d 99 3c a8 67 68 3c cd 36 98 3d
       0.12746818 0.018683404 0.01418487 0.074323274
000130 e0 35 00 be af 6c c1 ba b9 f5 cd bd b3 ed 2d 3e
       -0.12520552 -0.0014757122 -0.100566335 0.16985206
000140 c7 c9 de bd c4 61 06 3c ed be e3 3b f8 85 01 be
       -0.1087833 0.00820202 0.0069502504 -0.12648761
000150 a7 ab 70 bd 2d 2f 25 be 27 4f 25 be f4 b6 41 3d
       -0.05875745 -0.16131277 -0.16143475 0.04729362
000160 50 df 66 bd f5 61 b8 3a 05 5b d7 bd 3a 83 b5 bb
       -0.05636531 0.0014067279 -0.105154075 -0.005539325
000170 16 ac f3 3b 57 92 d2 bd 8d 1a fc bd e3 92 f8 3d
       0.0074362857 -0.10281818 -0.12309752 0.121373914
000180 c1 5a cc bd 60 0d 78 be 70 24 a6 3d db 32 80 bd
       -0.099782474 -0.24223852 0.08112419 -0.062597
000190 d6 be 84 3d 9d 7d f9 3d 89 ca 1b 3e b8 3e aa bc
       0.064817116 0.12182162 0.1521398 -0.02078186
0001a0 8d 92 92 bc 87 c4 5c 3e 15 20 80 3e f4 d5 76 bd
       -0.017892146 0.21559344 0.25024477 -0.060262635
0001b0 69 40 04 3e 60 89 0b be 24 bf 97 be 01 35 bb 3d
       0.12915196 -0.13626623 -0.29638016 0.09140969
0001c0 01 48 f3 bd a3 b0 35 3e df 0e 4b be 89 cf 16 be
       -0.11878968 0.17743163 -0.19829892 -0.14727606
0001d0 c2 0d e6 bd 21 11 cc bd 82 9a 50 3e c5 d2 ed 3d
       -0.11233093 -0.099642046 0.2037144 0.11612467
0001e0 0b f0 77 be 32 54 83 3e 22 38 fe bd 48 95 81 bd
       -0.24212663 0.25650173 -0.1241305 -0.06327301
0001f0 08 a4 bf 3e d1 6b 94 bd 78 c0 2d 3e 92 79 91 3d
       0.37429833 -0.07247127 0.16967952 0.07103266

sentiment_branch.fc.weight f4 [32, 32]
000000 9e 29 98 bd 09 2f 56 3e 9c 8a a4 3d 9a db 7e 3e
       -0.07429813 0.2091638 0.0803425 0.24888459
000010 e4 7a 87 3b fd 64 b1 be 88 0d b3 3d ba df 1e be
       0.0041345228 -0.3464736 0.08742815 -0.15515032
000020 fc 9c 65 be 40 79 8e be 67 9f 25 bd 23 24 38 be
       -0.22423166 -0.2782688 -0.04043522 -0.17982535
000030 9a 42 5f 3e 44 6e 00 3e 6e 31 fd 3d 5d 8e cd 3c
       0.2180275 0.12542063 0.123629436 0.025092298
000040 c4 d9 a2 3e f0 db ca 3c e9 c8 35 be 34 1d a2 be
       0.31806767 0.024763077 -0.17752422 -0.31662905
000050 f9 b9 85 3d 65 f7 49 bd 1a b3 3c 3e d0 a2 82 3c
       0.06529612 -0.0493082 0.18427697 0.015946776
000060 66 6b bd be a4 b6 c1 3d 8a 35 4e 3e 13 fb 81 3e
       -0.36996 0.09458664 0.20137611 0.25386867
000070 b9 a5 2b be ef 67 04 be 60 86 ce 3e b5 55 ba be
       -0.16762437 -0.12930273 0.40336895 -0.36393514
000080 c3 48 55 3d 14 ab ce 3d 87 4d 92 3e ee dd 19 3e
       0.052071344 0.10091224 0.28574774 0.15026066
000090 9a f5 a0 3e cf c9 46 3e 57 2d 1d 3e 0a 40 c0 3c
       0.3143738 0.19412921 0.15349327 0.023468036
0000a0 83 45 18 3d 02 cf 13 be 8a 55 ce bd 5d a9 b8 3c
       0.037175667 -0.14434436 -0.10074909 0.022541696
0000b0 56 a4 c2 3c 20 17 7c be 53 55 2b 3e 23 08 95 bb
       0.023760002 -0.24618196 0.16731767 -0.004548089
0000c0 ee 1a 96 be a9 c8 ca bc d6 72 7c 3e b7 bc de 3b
       -0.2931742 -0.024753885 0.24653181 0.006797399
0000d0 01 13 c8 bc 9a b3 ab 3d 2c d8 68 be 00 f7 49 bd
       -0.024423124 0.08383866 -0.22738713 -0.049307823
0000e0 9b 1d 40 be 07 01 b2 bd c8 3b c7 bd ca d8 a6 3d
       -0.18761294 -0.08691602 -0.09728199 0.08146818
0000f0 37 e3 56 3d 23 62 dc 3e 12 51 8c 3c e0 ee 03 3c
       0.052462783 0.43043622 0.017128501 0.008052558
000100 d6 76 f4 3d 8e 73 ed 3e ea ca ca 3d 57 4b 50 be
       0.11936729 0.46377224 0.09901984 -0.2034124
000110 5c f9 16 be e0 b4 d2 be d8 ed 77 be 56 71 8a 3e
       -0.1474356 -0.41153622 -0.24211824 0.27039593
000120 54 e4 f0 bd 42 96 6b bd b1 8e fa 3d 2e 96 aa bd
       -0.117623 -0.057516344 0.122342475 -0.08329426
000130 ed 18 f4 bc ac 59 a8 3e 7a 4d 49 3e aa e5 54 3b
       -0.029797042 0.32880914 0.19658461 0.0032485523
000140 ff b1 b3 3e c4 03 b1 bd 2f 74 91 be 93 31 11 bf
       0.35096738 -0.08643296 -0.28408954 -0.5671627
000150 19 bb b2 3d 1c a3 b2 3d ae 67 4e 3d da ae 0a bd
       0.08727092 0.08722517 0.050391845 -0.033858158
000160 88 d3 47 be 71 ab 13 bd e1 6b 94 3e e2 57 2c 3e
       -0.19514287 -0.03605217 0.28988555 0.168304
000170 6b 9a 1f be 3c e0 16 be 4d 1d 2b 3e dc b7 16 be
       -0.1558625 -0.14733976 0.16710396 -0.14718574
000180 45 9a c5 bd 64 41 6b 3e e3 82 1a be 20 e8 a5 3e
       -0.09648565 0.22974163 -0.15088992 0.3240366
000190 c3 16 5a be e9 7e 3b 3e 28 6b 0e bd 7c 24 00 3e
       -0.21297745 0.18310131 -0.03477016 0.12513918
0001a0 07 7c dd 3d 3e 93 ef 3d 0b b5 45 bc 73 c8 7a be
       0.10814672 0.11698006 -0.01206709 -0.24490528
0001b0 49 1d e8 3d eb 9e 33 3d ea bd 7b 3e d3 e9 a5 3e
       0.11333711 0.043852728 0.24584165 0.32404956
0001c0 70 e4 28 be a4 0f ab 3d b7 cc 8b 3e a2 0b de 3d
       -0.16493392 0.083525926 0.27304623 0.108420625
0001d0 ed 18 80 3e f5 a7 0f 3e 26 21 07 3e e3 ad 00 3e
       0.25019017 0.14028914 0.13196239 0.12566333
0001e0 f0 07 ff bd 8f 56 c2 3e ab 02 cb 3d b2 7e 2e 3e
       -0.12452686 0.37956664 0.09912618 0.17040518
0001f0 14 bb 44 be 29 10 8a bd 4d 51 77 3e 5b 78 bd be
       -0.1921199 -0.067413636 0.24152108 -0.37005886
000200 bd f5 44 bd cd 3f 1b 3d 67 6d 96 3e 3d 1a be 3d
       -0.048085917 0.037902642 0.29380342 0.09282348
000210 2e a5 e7 3d b4 59 bf 3d 6b 40 77 be c0 2d a7 bc
       0.113108024 0.093432814 -0.24145667 -0.020407557
000220 74 6c 66 3d f4 de 48 be f6 c3 44 3e 8a b8 e0 3d
       0.056255773 -0.196163 0.19215378 0.10972698
000230 c5 37 12 3e 8b 34 8b bd 2c 3f 04 3e f1 50 9b 3e
       0.14279087 -0.06797131 0.12914723 0.3033519
000240 18 0f c3 3d 7a fc ba bd 53 e2 fa 3d a3 64 8f be
       0.09524363 -0.09130187 0.12250199 -0.28006467
000250 0c 39 cb bc 59 86 68 3e 9f 00 17 3e 41 b7 dd bd
       -0.024807476 0.227075 0.1474633 -0.108259685
000260 75 00 5a 3d 2d f4 31 be 27 ad b1 be 05 fc b0 bd
       0.053223092 -0.17378302 -0.34702417 -0.08641819
000270 47 8d a9 3e 27 d3 ab 3d ec 89 ce 3d 9f df 11 3e
       0.331156 0.083898835 0.100849 0.14245461
000280 42 eb a5 be d3 a1 06 bd 68 c0 33 3d 85 a1 78 be
       -0.3240605 -0.03286917 0.043884665 -0.24280365
000290 6b cb bd 3d 60 3b 8f 3e 48 c2 e8 3d 3a 3f 1f be
       0.092673145 0.27974987 0.11365181 -0.15551463
0002a0 13 a3 45 be 68 bf 07 3b fe 17 a0 3e c7 28 6c be
       -0.19300489 0.0020713452 0.31268305 -0.2306243
0002b0 48 dd ff bd 26 aa 39 be 69 05 38 be f6 54 66 3e
       -0.12493378 -0.18131313 -0.17970814 0.22493348
0002c0 b4 88 94 3d 83 b9 22 3e be a5 da bd 3f 4f 91 3e
       0.072526366 0.1589108 -0.10676144 0.28380772
0002d0 9f 69 de 3d d2 3e 83 3e 30 79 8a 3e 7e be 3c be
       0.108599894 0.25633866 0.27045584 -0.18432042
0002e0 80 4b f6 3d b7 56 94 3e 19 74 21 3e 41 13 35 bc
       0.12026119 0.28972408 0.15766944 -0.011051954
0002f0 3d fa 6b be bc 05 0d bd b5 fb dc 3d ef ae 3e be
       -0.23044677 -0.034429297 0.10790197 -0.1862142
000300 d3 48 da 3e 3c 5c 28 be ff 3c a5 3e 41 46 45 3e
       0.42633685 -0.16441435 0.322731 0.19265081
000310 89 10 94 3e a7 be 1d 3e 9c a6 31 be 24 be 9e be
       0.28918865 0.1540476 -0.17348713 -0.3100444
000320 a3 4b 33 be cb 41 68 be f2 d4 5d 3e 10 ac 94 3e
       -0.17509322 -0.22681348 0.21663263 0.29037523
000330 2a f0 c2 3e 12 3a 15 3c 82 7c 05 3e 83 2c 84 be
       0.38073856 0.009108083 0.13035777 -0.2581521
000340 a8 fc d0 bb 01 a2 e0 be c9 b4 12 3e bb e8 12 bd
       -0.006377775 -0.438736 0.14326777 -0.03586648
000350 76 06 ab bc 46 4a 88 3e e1 86 01 be 5e a2 68 be
       -0.020877104 0.26619166 -0.12649108 -0.22718188
000360 a7 6a 52 3d 2c 8c 1d be cf de d8 be e9 51 fc 3c
       0.051371243 -0.15385503 -0.4235749 0.030800777
000370 0a fe d4 3e cc 87 bd bd 6d 67 35 3e 2b 7b 90 3d
       0.41600066 -0.09254417 0.17715235 0.070547424
000380 ec 30 01 3e 61 28 33 3e 23 e8 2e be d1 18 fc bd
       0.12616318 0.17495872 -0.1708074 -0.12309421
000390 16 9b 62 3e aa da 11 3e ef f3 38 be 2e cc 69 3e
       0.22129473 0.1424357 -0.18061803 0.22831795
0003a0 96 af 9f bd d8 84 68 3c c1 90 7a be a9 3f 3b 3e
       -0.07797162 0.014191829 -0.24469282 0.18286003
0003b0 a6 57 25 bd 0b b3 28 bd b4 4d 36 3e b6 63 02 3e
       -0.04036679 -0.041186374 0.17803079 0.12733349
0003c0 a9 7f e4 bd d0 6a 21 be 23 39 80 3e 09 a8 4a 3e
       -0.11157162 -0.15763402 0.25043592 0.19790663
0003d0 f4 34 81 bc c4 15 ba bd a5 65 83 bd cf 73 b7 3d
       -0.01577232 -0.09086183 -0.064158715 0.089576356
0003e0 ae f4 a6 bc 96 90 ca 3e a0 4d 8b be 7b 14 82 bd
       -0.020380344 0.39563435 -0.2720766 -0.063515626
0003f0 f9 22 8c be b0 c0 92 3e a4 21 7c 3e 52 9f 6c be
       -0.27370432 0.28662634 0.24622208 -0.23107651

sentiment_branch.fc.bias f4 [32]
000000 91 1c 55 be 79 ff 64 3d ae c3 5a bc 76 31 01 bc
       -0.20811678 0.0559077 -0.013352318 -0.007885328
000010 ef e2 55 bd 06 5c 5f bc ab bb 3d bd 14 86 5d 3c
       -0.052218374 -0.01363278 -0.046321552 0.013520736
000020 7d ff ad bd 9e 59 3c be 34 8f a3 bb 29 6b bf bd
       -0.08495996 -0.18393561 -0.0049914364 -0.09346611
000030 cf f0 e8 3d d4 11 ca bd eb 72 87 bc 38 0b 36 be
       0.113740556 -0.09866682 -0.01653429 -0.17777717
000040 54 0f 47 be e7 14 29 be 76 77 02 3d 12 ca 1e bd
       -0.19439441 -0.1651188 0.031852208 -0.038766928
000050 64 01 5b be 05 d9 4b 3c 1a 12 da bd e7 87 81 3b
       -0.21387249 0.012441878 -0.10647984 0.0039529684
000060 23 32 4b be 36 e8 92 3d d0 48 0e be 52 2f 55 bd
       -0.19843344 0.07173197 -0.13894963 -0.05204708
000070 99 2e 29 bc 1e 85 80 bc 30 3d 16 3d 7f 44 d7 bd
       -0.010326051 -0.015688475 0.036679447 -0.105111115

price_branch.lstm.weight_ih_l0 f4 [64, 5]
000000 13 4d 3b be 7c 96 37 be 69 08 1e 3d 87 76 d0 3d
       -0.1829112 -0.17928499 0.03858224 0.10178857
000010 83 b6 3f bd 2b ae 81 3e d7 dc ce 3e 80 85 66 3e
       -0.046804916 0.25328192 0.40402862 0.22511864
000020 a1 af eb bd 0d 2a e3 3d 16 15 49 3c aa 5b bd bc
       -0.11508108 0.11092005 0.012273094 -0.023114998
000030 ee 31 53 be 59 52 73 be 41 88 99 be b2 a2 53 3e
       -0.20624515 -0.23761882 -0.29986766 0.20667532
000040 14 60 4b 3e a1 89 52 be 5e 7b 81 3e 59 d4 59 3e
       0.1986087 -0.20560314 0.25289434 0.2127241
000050 8f 85 31 be 3c 54 1a 3e 4c ee 79 be d7 bb 6f be
       -0.17336105 0.15071195 -0.2440731 -0.23411499
000060 cb ac 6e be a0 be 53 be d2 d9 a4 bc a0 0b cb 3e
       -0.23308103 -0.20678186 -0.020123396 0.39657307
000070 13 8e 49 bd 18 45 d0 bd ba 6d 7c be d7 99 81 be
       -0.04920776 -0.101694286 -0.24651232 -0.25312683
000080 2f 56 ef bd c9 88 89 3d 5c 66 40 be 6e 7a 37 be
       -0.1168636 0.06715543 -0.18789047 -0.17917797
000090 bc 85 47 3d c3 5a ad be 06 1c 47 be 51 77 a4 3d
       0.048711523 -0.33858308 -0.19444284 0.0803057
0000a0 ae 3e d0 bd 32 4a 86 be 03 ac 0f be 61 57 ae 3e
       -0.10168205 -0.26228482 -0.14030461 0.3405104
0000b0 44 9a 33 be ab 19 52 3e d3 94 85 be 7b 5a 1a 3e
       -0.17539316 0.20517604 -0.26090106 0.15073578
0000c0 cf 47 d3 be e1 31 43 3d 9e 86 dd 3d ea 7a 3e 3e
       -0.41265723 0.04765499 0.10816692 0.18601575
0000d0 4f c1 21 be cb 8b 2b 3e 9a 58 7e be 8a 69 13 bc
       -0.15796398 0.16752546 -0.24838486 -0.00899733
0000e0 f7 35 01 3e f2 6a 2b bd 25 b3 5d bd 6c ee b7 be
       0.12618242 -0.041850038 -0.054125924 -0.3592409
0000f0 87 54 d0 bd 72 0f 53 be 40 c5 3a be 85 51 a3 3d
       -0.10172372 -0.2061136 -0.18239307 0.07974533
000100 d7 99 24 3e 43 88 17 3e 1f 7b 40 3e 8d d5 68 bd
       0.1607431 0.14798073 0.18796967 -0.056844283
000110 61 ef 2f be 6b a8 09 be 4a 50 64 3e ec fa 3e 3e
       -0.1718116 -0.13443153 0.22296253 0.18650407
000120 a5 0a 97 3d ce 16 82 be cb 78 b7 bb 73 fd 31 be
       0.07375077 -0.25408024 -0.0055991164 -0.1738184
000130 11 4c 59 be a5 e8 27 3e d7 23 f3 3d d6 3c 47 be
       -0.21220423 0.1639734 0.1187207 -0.19456801
000140 b1 f9 0b be d7 52 5c 3e 61 77 c0 3e 20 ec 3d 3e
       -0.13669468 0.21515976 0.3759108 0.18547106
000150 c1 61 c5 bd db 70 40 3e 36 30 e2 bc d2 fb 37 3e
       -0.09637786 0.18793051 -0.02761088 0.17967156
000160 8b 04 cf 3e 4b f8 f0 bd 5c 82 30 3d 4c 71 2f 3e
       0.40433154 -0.11766108 0.04309307 0.17133063
000170 be 62 b7 be 41 a5 86 3e 65 3a 34 3e 53 4e c7 3e
       -0.35817522 0.26297954 0.17600401 0.38926944
000180 bf d6 3b 3e 82 d2 bb bd b1 12 81 3e b4 98 a7 3e
       0.18343638 -0.091710106 0.25209573 0.3273369
000190 92 8e d2 bd 22 6b 00 3e d1 f6 5e be dd 4b 17 3e
       -0.102810994 0.12540868 -0.2177384 0.14775033
0001a0 90 e6 f8 bc 11 28 03 3e ad 3d 9b 3e 81 d4 53 3d
       -0.030383378 0.12808253 0.30320492 0.05171633
0001b0 b0 85 84 be e8 e8 4c be 3b d5 9e be c2 05 11 bf
       -0.25883245 -0.20010722 -0.31022057 -0.5664941
0001c0 cc 43 8f be da f0 8e bd c0 e2 6e bd 70 28 75 3e
       -0.27981412 -0.069795325 -0.058321714 0.23941207
0001d0 a4 75 8f 3d 23 ef bf bd 57 b1 1d be d6 a1 80 bd
       0.0700486 -0.093717836 -0.15399681 -0.06280868
0001e0 bc d9 7a 3e bf 03 2f 3f 52 c3 2f 3e 87 43 36 3e
       0.24497122 0.6836509 0.17164353 0.17799197
0001f0 30 c6 f2 3c d4 b5 92 3d 5c d0 2d be 80 ef da 3e
       0.029635519 0.07163587 -0.16974014 0.4276085
000200 26 82 25 3c e1 3e af bd 2f e5 32 3e b7 c6 95 3e
       0.010101831 -0.08556915 0.17470239 0.2925317
000210 e2 e6 8e be ce c6 5f 3e 69 8b 00 3e 94 31 2d 3d
       -0.27910525 0.21853182 0.12553181 0.04228361
000220 82 34 1c 3e d6 e0 b8 bd 63 16 1b bd 0f c0 29 be
       0.15254405 -0.09027259 -0.037863147 -0.16577171
000230 ae a4 94 3e 0d b4 c9 3e c5 51 36 be 19 6e 89 3e
       0.2903189 0.3939518 -0.1780463 0.2684181
000240 1e a3 4a 3e b3 7e 71 be 31 54 17 be 3a 41 4a be
       0.19788787 -0.23583488 -0.1477821 -0.19751444
000250 bf 2d 00 be b4 76 3e bd 9a 6d c2 3c 9f d8 3c 3e
       -0.12517451 -0.046499923 0.023733903 0.1844201
000260 7b 3b 1d 3e 71 45 3c be 0a 15 d2 be b5 33 24 bd
       0.15354721 -0.18385865 -0.41031677 -0.040088374
000270 b4 0b c3 3d e2 99 b5 3d 22 ce 25 3d 83 c3 d8 bd
       0.095237166 0.088672414 0.040479787 -0.10584166
000280 d8 7e 1a be 7f 10 f3 be 83 ec 93 3e 4b 8c 6d 3c
       -0.1508745 -0.47473523 0.28891382 0.0144987805
000290 9c 0a 9b 3e 0b b5 b7 bc d2 2c cf bd 25 0d 2a be
       0.30281532 -0.022425195 -0.10115971 -0.16606577
0002a0 6a 0b 2a be e2 1c 99 bd ce 15 c5 be 49 f5 de bd
       -0.16605917 -0.07476212 -0.38493198 -0.10886628
0002b0 a2 48 45 3e d8 e1 80 bd 1e 4a bb be 99 81 03 3e
       0.19265988 -0.06293076 -0.36579984 0.12842406
0002c0 5d d4 06 3d 47 ac 84 3e 2e a7 3d 3e a1 ee b5 3e
       0.03291737 0.25912687 0.18520805 0.35533622
0002d0 c6 6b 86 be 96 b2 49 be 2c 52 65 3e 80 83 7b 3d
       -0.262541 -0.19697031 0.22394627 0.061404705
0002e0 e4 44 b1 3e b6 5e 2c be 09 a9 6a be ac 29 c7 3e
       0.34622872 -0.16833004 -0.22916044 0.3889898
0002f0 1c 30 70 3e 85 f2 91 bd 45 23 05 bd ed 86 3d be
       0.23455852 -0.07126335 -0.03250434 -0.18508501
000300 f8 54 b3 3d 3c 96 f9 bc 64 bb 65 be bd 5f 9a 3e
       0.08756441 -0.030467145 -0.22434765 0.30151168
000310 10 0c c4 3e 78 99 aa be c9 ad b7 3e 82 c3 ee bc
       0.38290453 -0.33320212 0.35874775 -0.02914596
000320 8a 82 ca be ea f2 04 bf af 24 fb bd c1 d8 25 be
       -0.39552718 -0.5193316 -0.12262856 -0.16195966
000330 dc c2 bb 3d 14 db 43 be 56 64 6e be 64 fb 8c bd
       0.09168026 -0.1912654 -0.23280463 -0.068838865
000340 18 33 eb bd 84 d5 8d 3d f0 8b a6 3d 43 02 7a 3e
       -0.11484355 0.069254905 0.0813216 0.24414925
000350 27 bf 9d 3e b2 cb 43 3e 7e 01 c1 bd 56 63 b2 3e
       0.308099 0.19120672 -0.09424113 0.34841412
000360 d9 ef 23 3d a3 ff dc be b6 96 05 3d 19 ed 58 3e
       0.04002366 -0.43163785 0.032614432 0.21184196
000370 88 45 96 3e d3 46 5d 3e f5 34 4b be a6 03 ab bc
       0.29349923 0.21609049 -0.1984442 -0.020875763
000380 6a f3 94 be 60 d7 2a 3e 08 4b 27 bd 10 26 cb 3e
       -0.2909196 0.16683722 -0.04084304 0.39677477
000390 6b 2d 2d be a3 97 43 3e e5 77 e4 bd 06 cf 93 be
       -0.16911857 0.19100814 -0.111556806 -0.28868884
0003a0 b7 f9 c2 3e 73 07 7f be 18 05 74 be 0e 3d 25 bc
       0.38081142 -0.24905185 -0.23830068 -0.010085357
0003b0 3e b4 9d 3e 36 35 cd 3b 3a a5 df bc 49 29 a7 3d
       0.30801576 0.0062624468 -0.027300466 0.081621714
0003c0 ed 3e a7 3e 7b a6 99 3e d5 84 bc 3d c6 87 5c 3d
       0.32665196 0.30009827 0.09205023 0.05384042
0003d0 bb 46 10 3e ab 90 b7 3b 44 ab a3 3e 21 b4 9b 3e
       0.14089482 0.0056019626 0.31966603 0.30410865
0003e0 41 5e b4 3e 37 35 3b bd 35 b3 59 be f8 07 9b be
       0.3522816 -0.045705047 -0.21259768 -0.30279517
0003f0 6d 12 93 be 10 31 0e be 03 13 49 be e6 1f 5d 3e
       -0.28724995 -0.13885903 -0.19636159 0.215942

price_branch.lstm.weight_hh_l0 f4 [64, 16]
000000 f7 79 72 3e a5 88 d7 bd 69 21 d6 bd ab 34 94 3e
       0.23679338 -0.1052411 -0.10455591 0.28946432
000010 70 a7 03 be cb 6d 78 3e 89 0b 4a 3d 75 78 0d 3e
       -0.12856841 0.24260633 0.049327407 0.13815482
000020 5b 4a 09 bf f7 82 71 bd 60 b0 9d bd 4a 50 cc 3d
       -0.5362908 -0.05896279 -0.076996565 0.099762514
000030 de bd 89 be 32 d9 66 3e 7e fd 67 be 46 18 e8 bd
       -0.2690267 0.22543791 -0.22655293 -0.11332755
000040 19 05 13 3e 42 19 23 be b3 ab fa 3d 6b 64 8f 3e
       0.14357413 -0.15927604 0.1223978 0.280063
000050 0c 25 04 be f2 4c 3b 3c 72 1e 0b 3d 94 e7 13 3c
       -0.12904757 0.011431919 0.03396458 0.0090273805
000060 e3 63 43 bd 04 68 38 be 39 59 1b be ee f7 23 3b
       -0.04770268 -0.18008429 -0.15170754 0.0025019604
000070 21 ef 17 bd df 7e 26 bd b0 50 2d be fc 47 45 3c
       -0.037093285 -0.040648337 -0.16925311 0.012041088
000080 8d 98 95 3d 17 25 46 3d 1a 48 93 be 5a 99 65 be
       0.073044874 0.048375215 -0.28765947 -0.2242178
000090 77 b5 a0 be dd 3b b4 bd 11 71 b2 3e ea 4e 39 3e
       -0.31388447 -0.088004805 0.34851888 0.1809651
0000a0 ef 7e 8e 3e 21 bc 7a bd a8 17 5d be 6b 20 cd 3e
       0.27831218 -0.06121457 -0.21591055 0.40063795
0000b0 44 7e d8 3d 5f b7 a8 bc 34 ac d2 be c5 bf 21 3e
       0.10570958 -0.02059525 -0.41147006 0.1579581
0000c0 f0 80 98 be 92 14 06 be 06 8b 41 be 4b 8c 5f be
       -0.29785872 -0.13093784 -0.1890069 -0.21830861
0000d0 c6 a5 b3 be 3a 22 9b be cc 6e 10 3e aa eb 92 3c
       -0.35087413 -0.3029955 0.14104766 0.017934639
0000e0 5f 6f b0 3d 6e 2a 9b 3d c4 d5 2e be 0c 03 8d 3e
       0.08614992 0.07576452 -0.17073733 0.27541387
0000f0 c8 92 90 3e 7b 17 0d be 48 cc 70 3d 8b a7 9b 3e
       0.28236985 -0.13778488 0.058788568 0.30401263
000100 26 f2 79 bd 70 f7 cc 3d 3f 10 3c be 58 57 68 be
       -0.061021946 0.100081325 -0.18365572 -0.22689569
000110 ff 2f 4f be a8 7f 86 bd 44 77 69 be 0b 5a 56 3d
       -0.20233153 -0.06567317 -0.22799402 0.052331965
000120 5b 1e 01 3e 79 db a0 3d 83 32 41 be d7 9e ad 3c
       0.12609236 0.07854361 -0.18866925 0.021193905
000130 ea 43 14 3e 08 5b a4 be df c4 3d 3d 77 55 81 bc
       0.14479032 -0.321007 0.04633033 -0.015787823
000140 61 8a 48 3e 7e af 9b bd 7c 1b b5 3d 9d 89 26 3e
       0.19584037 -0.07601832 0.08843133 0.16263433
000150 a6 cc c9 3e 7e 45 43 3e b8 ec 84 bd 3d b8 c6 bd
       0.39413947 0.19069478 -0.06490463 -0.097031094
000160 8e b1 8a be 07 08 8e be ed 39 c6 3e 08 a7 5f be
       -0.27088588 -0.277405 0.3871607 -0.21841061
000170 37 41 0d be 9b 6b 24 bd 5b 95 f4 bd 92 7e ad 3c
       -0.13794409 -0.040141683 -0.1194255 0.021178517
000180 2e c8 50 3e 2b 56 a2 bd e2 13 46 3e 16 78 e2 bd
       0.20388862 -0.079265915 0.19343522 -0.11058061
000190 1c 3b 64 3d 88 5b 4c be aa 39 1e 3e e4 cb 94 be
       0.055720434 -0.19956791 0.15451685 -0.29061806
0001a0 a9 56 14 3e ee 79 c8 bb 8e 7c ec 3c fe c8 67 be
       0.14486183 -0.006118051 0.028867986 -0.22635266
0001b0 bc 9f 48 3e f6 74 81 be c3 18 a1 bd bb 49 0c bd
       0.19592184 -0.25284547 -0.07866051 -0.034250002
0001c0 3c 1f 89 be 9a ca 8b 3c b5 a7 e5 be b6 09 89 be
       -0.26781642 0.017064381 -0.44854513 -0.2676522
0001d0 6b 3b 20 bd 91 e1 6e 3d f6 9e 7f be 79 7d ce 3e
       -0.039119165 0.058320586 -0.24962983 0.40330103
0001e0 e8 0e 56 3d 7b 38 d9 bc fd 27 08 be 47 a9 c7 3d
       0.05226031 -0.02651619 -0.13296504 0.09749084
0001f0 28 b0 ce 3c ff e3 48 be 6a a7 0f bd 86 ab 1c 3e
       0.025230482 -0.19618224 -0.035071768 0.15299806
000200 f8 3f 50 be f4 fd 25 3e 58 9d 65 3e 85 3c 61 be
       -0.20336902 0.16210157 0.22423303 -0.21995743
000210 59 8a 56 3e 5f 57 ac 3e 28 fa b0 3d c8 2a c5 bd
       0.20951213 0.3366041 0.086414635 -0.096273005
000220 71 c3 1c be 56 b3 de be ec d7 12 3d 73 9d 1b 3e
       -0.1530893 -0.43496197 0.03585045 0.15196781
000230 c1 6d 63 3e 95 25 6c bd 9f d7 a7 3d c3 d5 85 3e
       0.22209837 -0.05765303 0.08195423 0.2613965
000240 f5 5a 08 bf bc e7 83 3d f2 69 c6 be 7e 6f 81 be
       -0.5326379 0.06440684 -0.38752705 -0.25280374
000250 05 10 d5 be 85 ef f8 be 54 26 bd bd a3 8e 24 3e
       -0.41613784 -0.4862024 -0.09235826 0.16070037
000260 11 74 7d bb 81 ad 09 be 67 8e 57 be 05 f2 17 3c
       -0.0038673917 -0.13445093 -0.21050416 0.009274011
000270 42 e4 f4 3d 66 62 bb 3d 5e 86 5c 3c 90 17 a4 3d
       0.11957599 0.091496274 0.01345977 0.08012307
000280 d0 02 57 3d 83 de 70 be af 15 85 3e 35 90 0b be
       0.052492917 -0.23522381 0.25993106 -0.1362923
000290 c2 4d 0b be 2b 0b 66 3c dc ea 08 3e 79 7d 99 3d
       -0.13603881 0.014040749 0.13370842 0.07494635
0002a0 a9 67 d0 be f1 6b 47 3e f1 02 3a be 45 23 a7 3d
       -0.40704086 0.1947477 -0.18165185 0.08161024
0002b0 72 7c a9 3e 61 db aa be 07 69 eb bd d1 e6 06 be
       0.33102757 -0.33370498 -0.11494642 -0.13173987
0002c0 a8 a5 ef 3c 04 77 a3 3e 42 c6 58 be 50 2d ee be
       0.029253796 0.3192674 -0.2116938 -0.46518946
0002d0 92 56 bc be e4 bb 5c 3d 3c 2d a6 3e 3f 83 d4 3c
       -0.36784798 0.053890124 0.32456386 0.02594149
0002e0 d2 f8 5b be 81 e7 83 3d 3d ec 0f be 58 4b ec bd
       -0.21481636 0.0644064 -0.14054962 -0.11537808
0002f0 86 cd 82 3e de 10 b2 3d e3 e9 0b 3e 44 5b 93 3d
       0.25547427 0.086946234 0.1366344 0.07195142
000300 f3 8b 36 be d7 d0 a2 bd 6f 63 ce 3c 2d fc ef bd
       -0.17826824 -0.07949989 0.025193898 -0.117180206
000310 54 e4 cd bd 72 e1 60 3e b8 77 3a be 6c 61 b6 3c
       -0.10053316 0.21961 -0.18209732 0.022263251
000320 92 3e ac bd 69 c6 77 3e d9 0e 2f be b1 f7 0a 3e
       -0.08410372 0.24196781 -0.17095508 0.1357105
000330 65 b8 92 3e 19 8e 45 be 7b c2 68 3e f0 9f 09 3e
       0.28656307 -0.19292487 0.22730438 0.13439918
000340 d5 44 b2 3d f4 bc 29 3e 64 57 c2 bc 44 93 6c bd
       0.08704535 0.16575986 -0.023723312 -0.05775763
000350 03 e4 63 be 6c 0d 2f 3e 16 35 92 be 07 f7 1f 3e
       -0.22254948 0.17094964 -0.28556126 0.15621577
000360 e0 3e dc bd a6 c7 8f bc 22 32 6a be 0f 23 06 3e
       -0.1075418 -0.017551254 -0.22870687 0.13099311
000370 1f f0 74 3e 92 75 0c 3e c0 2b e8 3d 2b b7 98 be
       0.23919724 0.13716725 0.1133647 -0.29827246
000380 9e 02 c3 3d ce db 04 3e d4 cc a7 bd 3e 00 c6 bd
       0.095219836 0.12974474 -0.08193365 -0.09668015
000390 3a 16 59 be 35 88 4f 3e 85 e8 fe bd 3f df 9e 3d
       -0.21199885 0.20266803 -0.12446693 0.077574246
0003a0 3f 32 7b 3e 19 8a 20 bd 46 0b 0d 3d 19 2a 86 bd
       0.24530886 -0.0391942 0.03443458 -0.06550998
0003b0 72 a7 97 3e 1f f9 a7 3b 3c 8f 8f bd 45 80 67 be
       0.29619938 0.005126133 -0.07009742 -0.22607525
0003c0 8a 8a 90 be 47 ec 73 be fc be 4b be 44 3d cd bd
       -0.28230697 -0.23820601 -0.19897074 -0.10021451
0003d0 eb 50 30 3e 09 76 b2 be 2e dd ae be a2 72 4d bb
       0.17218368 -0.3485568 -0.34153122 -0.0031348844
0003e0 f5 db c2 3e fd 3c 1f 3e 3c 46 ea 3d e3 e9 93 bd
       0.3805844 0.15550609 0.114391774 -0.07222345
0003f0 08 14 82 be 50 ba 10 3e 90 15 5c bd 25 5e 09 3e
       -0.25405908 0.14133573 -0.0537315 0.1341482

price_branch.lstm.bias_ih_l0 f4 [64]
000000 44 40 98 bd e5 43 bc bd 46 6e 0d 3e f4 f6 ee 3d
       -0.07434133 -0.09192637 0.13811597 0.11668196
000010 5f 14 81 3d 99 af 3b be 8d 87 9a bd c5 7a 45 3e
       0.063027136 -0.18328704 -0.075453855 0.19285114
000020 07 37 13 be 05 5d 9e be df 6f ad bb 74 16 b8 bb
       -0.1437646 -0.30930343 -0.005292877 -0.005617911
000030 d5 13 c8 bd 58 01 93 3d d3 2b 75 3e ee 3c ff bc
       -0.09769408 0.07177991 0.23942499 -0.031156983
000040 b3 2d 34 3e e1 b0 0d bd 90 69 4f 3d eb 7f 06 3e
       0.17595558 -0.034592513 0.05063778 0.13134734
000050 09 66 88 bd 79 28 fb bd b7 03 c5 3d 84 a5 90 3d
       -0.06660087 -0.12263579 0.09619849 0.070628196
000060 d4 af 1c be 58 cd 32 3e 8d d9 53 be c4 18 97 bd
       -0.15301448 0.17461145 -0.20688458 -0.073777705
000070 a3 27 80 bc ff 75 58 3e 00 ad 5c 3e e7 af 55 3d
       -0.0156439 0.21138762 0.2155037 0.052169707
000080 09 86 b8 3c f9 8d 90 3e a6 2c f7 bd 5b 83 0a be
       0.02252485 0.28233317 -0.12069063 -0.1352667
000090 f6 9d f3 3d 97 18 19 3d 22 00 90 bd ca f5 0c 3e
       0.11895363 0.037376966 -0.07031275 0.13765636
0000a0 9a 5f 1f 3d ad b7 b7 3d 2d f7 1d be bf 9c c6 3d
       0.038909532 0.0897058 -0.15426321 0.09697866
0000b0 fa 06 20 be 4a e5 f9 3d 0a 45 83 bd 5d 9b a9 bd
       -0.15627661 0.122019365 -0.064096525 -0.08281586
0000c0 c7 76 8c 3e a1 ba a3 be 6b b4 87 bd 2b 5e c1 bd
       0.2743437 -0.31978324 -0.06626209 -0.09441789
0000d0 cb 42 15 3d 57 92 b6 bc 10 5d 16 3e f5 01 e7 3d
       0.036440652 -0.022286577 0.14683938 0.1127967
0000e0 85 3a 24 be 69 ee b4 bd 7f f1 27 3d 05 15 e1 3d
       -0.16037948 -0.08834536 0.041001793 0.10990337
0000f0 28 bf 28 3e e4 ae c5 3d c4 d1 14 bd 1c 94 ff bc
       0.1647917 0.09652498 -0.03633286 -0.031198554

price_branch.lstm.bias_hh_l0 f4 [64]
000000 fc d3 16 3c a7 46 1f be c6 19 07 3d f3 2f 24 3e
       0.009205814 -0.15554295 0.032983564 0.16033916
000010 2e 43 55 be 8b 37 c5 3d a0 be f0 3d 58 d3 c3 3e
       -0.20826408 0.096297346 0.11755109 0.3824718
000020 7e 54 e9 3d 41 42 8c be 02 30 05 bd 8a f9 07 be
       0.11393069 -0.27394298 -0.032516487 -0.13278785
000030 f1 6c 96 bc 57 cc 1a bd 51 9c 88 3e bb 08 6a bd
       -0.018362494 -0.03779253 0.2668176 -0.057137232
000040 05 43 54 be 46 e5 57 3d be d2 40 3e 3b 4b 9f 3d
       -0.20728691 0.052708887 0.18830392 0.07778021
000050 2a 45 b0 3d 92 03 34 3e 7c 7a aa be 51 64 d5 3c
       0.08606942 0.17579487 -0.33296573 0.026048811
000060 08 27 03 3e f6 14 77 bd 59 20 06 3e 93 7f 49 3e
       0.12807858 -0.060322724 0.13098277 0.19677572
000070 cb c9 6d 3e d9 8e 9c 3e 77 73 94 bc ba 0b 3b be
       0.23221509 0.30577734 -0.018121464 -0.18266192
000080 74 0e 3d be cd 84 82 3e 51 b8 d0 3d b1 90 b6 bd
       -0.18462545 0.25491944 0.101914056 -0.089143164
000090 5c 8e 46 bd 17 11 ce 3b b3 ba 0b bd 68 eb 37 be
       -0.04847561 0.0062886584 -0.034113597 -0.17960894
0000a0 0f 6a 4e bd d6 e3 85 be 2c ac ae bd ad 09 07 be
       -0.050394114 -0.26150388 -0.08528933 -0.13187285
0000b0 e8 5a 08 3e ca cd f9 3d 1d f0 52 3e b3 08 fb 3c
       0.13315928 0.12197454 0.20599408 0.030643797
0000c0 8d eb bb bd 3d 72 9b be 8e 9a 56 be 92 4a 70 3e
       -0.09175787 -0.30360594 -0.20957395 0.23465946
0000d0 45 24 5e bb c2 ea 6a 3c 4b f8 04 3e 18 2d 14 3e
       -0.003389613 0.014338197 0.12985341 0.14470327
0000e0 ea 49 3c 3e 4c dc 00 be 7f 9d ea 3d 46 a4 f8 bd
       0.18387571 -0.12584037 0.11455821 -0.12140708
0000f0 d4 b3 04 3e 4d 31 74 3e 20 a9 3c 3e e3 d4 b1 bc
       0.12959224 0.23846932 0.18423891 -0.021707958
