models/checkpoints/news_lstm/news_lstm_v14_real_multi.pt (torch, 52722 bytes, 19 tensors)

sentiment_branch.lstm_layers.0.weight_ih_l0 f4 [128, 16]
000000 5e 3f 7b 3c 71 c6 f9 bd dc 55 5e bd ed ff cf bd
       0.015334932 -0.12196053 -0.0542811 -0.10156236
000010 df bd 82 3d d1 47 55 3c 12 04 d6 3d 3d ca 8a ba
       0.06383871 0.013017611 0.10449995 -0.0010588836
000020 7a ee 8f bd bb ff e7 3d 89 db 0a be 9c a1 a1 3d
       -0.07027908 0.113280736 -0.13560309 0.07892153
000030 60 4d b9 bd 94 e2 ab bd 38 cb f5 bc 34 3d af 3d
       -0.09047961 -0.08392826 -0.030004129 0.085565954
000040 d3 d2 2e bd 06 f3 fc 3d b0 55 d7 3d e5 7f 21 be
       -0.042681526 0.123510405 0.105143905 -0.15771444
000050 52 3c d9 3b 3a ca 9c bd 5b 99 c5 3c ff 73 36 3d
       0.006629505 -0.07655759 0.024120977 0.044544216
000060 29 65 07 be f8 76 51 be 40 98 0b 3d 34 a0 31 bc
       -0.13222183 -0.20455539 0.034080744 -0.010841418
000070 e0 e8 22 be ab e2 33 be d1 10 38 3e 07 2c ef bd
       -0.15909147 -0.17566936 0.17975165 -0.116783194
000080 ae 9d eb bc 3f e7 22 3d af 23 ce bd 2a 46 12 be
       -0.028761711 0.039771315 -0.100654 -0.14284578
000090 2b 18 8a bc 56 cb 71 bd 7f 33 2e 3e d4 50 d3 3d
       -0.016857227 -0.059031807 0.17011832 0.10318151
0000a0 18 60 93 3d 9a c1 cb 3d 8c 52 35 3e cc 36 81 bd
       0.07196063 0.09949036 0.1770727 -0.0630928
0000b0 17 ea 2c be d0 ae c1 bd 17 03 5d 3e f6 cf d0 bd
       -0.16886173 -0.09457171 0.2158321 -0.101959154
0000c0 12 05 ae 3d f9 a6 89 bd 5f 18 84 3d 10 3c 52 3d
       0.08497061 -0.06721301 0.06449961 0.05132681
0000d0 95 a4 ee 3c 5f 65 2f 3e 05 0c 00 be d2 1d 94 bd
       0.029131213 0.17128514 -0.12504585 -0.0723225
0000e0 35 69 62 3e 69 31 05 be 5b 65 a5 3d b0 9a 1f 3e
       0.22110446 -0.1300713 0.08075973 0.15586352
0000f0 3a cd 17 3d 05 07 37 be 91 9f 4c bd 73 38 0e 3d
       0.037060954 -0.17873771 -0.049956862 0.034721803
000100 76 11 1a be b0 5f a4 bd c3 cd 0b 3d 2a 96 3c bd
       -0.15045723 -0.080260634 0.034131777 -0.046041645
000110 f6 c2 1e be 46 d5 f1 bd c4 d8 67 bb 03 49 e3 bc
       -0.15504059 -0.11808257 -0.0035377005 -0.027744776
000120 0d 37 cb 3b 7a de 1a bd 64 b1 e9 bc 6a 0c 91 be
       0.006201631 -0.037809826 -0.02852697 -0.28329784
000130 c5 e8 9a 3c 8f a1 72 be 5b b2 a6 bc 5a 9f 95 3c
       0.018909821 -0.23694442 -0.020348718 0.018264461
000140 73 3c 8e 3c 49 21 16 3e 6b 3c 92 bd b7 eb ad bb
       0.017362809 0.14661135 -0.0714043 -0.0053076404
000150 2b 32 10 bd eb c4 21 bd 96 1c c5 bd d4 a1 e6 bd
       -0.035204094 -0.039494436 -0.09624593 -0.11261335
000160 2c a2 41 be 3d 4c 96 3c 27 15 0e 3d fa 36 07 3e
       -0.1890952 0.0183469 0.03468814 0.13204566
000170 a1 ee 4c 3e 34 9b e0 3d cf 5d c6 3d 5d 5e cc bc
       0.20012905 0.10967103 0.09685861 -0.02494734
000180 e6 cf 64 bd 07 f1 04 be 37 50 bb 3d 36 a1 61 3c
       -0.05586233 -0.1298257 0.09146159 0.013771346
000190 df a1 97 bd cc e7 eb 3c ac c7 5f 3d 14 a4 ea bd
       -0.07403921 0.028797053 0.05463378 -0.11457077
0001a0 dc e0 1a be ba 92 d2 3c 12 57 27 3e be 82 85 bd
       -0.1512484 0.02570473 0.16341808 -0.06519078
0001b0 30 0e 33 3c b1 80 47 3e 9d ab 5d bd 47 1a 6a bd
       0.0109286755 0.19482686 -0.05411874 -0.057153966
0001c0 19 ea e2 bd 8f 38 67 3c 0a 1b 02 bd d3 5f dd 3d
       -0.11079807 0.014112606 -0.031764068 0.10809293
0001d0 3b b5 e2 3d e2 da 12 3b d7 06 1f be ac 1d 1a 3d
       0.11069723 0.0022408296 -0.15529953 0.037625954
0001e0 6b 10 97 bd 44 10 3b be 73 84 4d be 5f c1 b9 3d
       -0.07376178 -0.18267924 -0.20070057 0.09070086
0001f0 59 8f 4e 3e f7 fe e1 bb 44 48 33 3d 56 f0 9d bc
       0.2017187 -0.0068968493 0.04377009 -0.01927964
000200 8d ff 99 bd 92 dc 02 be 9a 8a b4 3d 25 e8 0b 3d
       -0.075194456 -0.12779453 0.08815499 0.034156937
000210 09 16 17 be f9 91 6c 3d f8 54 6a 3e b2 f2 4b 3d
       -0.147545 0.057756398 0.22883976 0.049792
000220 43 34 dd 3d 5e 50 0e 3d 68 6e fa bc b6 2d 92 3d
       0.10800984 0.034744613 -0.030570224 0.07137625
000230 6d 9c ea 3c ab 49 d1 bd fb 75 3c bd 46 6a dd 3d
       0.028639043 -0.10219129 -0.046010952 0.10811286
000240 2e 52 54 be 2e 89 20 3e d4 29 80 3d 4a a0 80 3d
       -0.20734474 0.1567733 0.06257978 0.06280573
000250 af a7 e9 bd 30 c3 d0 b8 46 64 04 3d 36 9d fe 3c
       -0.11408936 -9.9545694e-05 0.03232219 0.031080823
000260 85 b3 25 bd 5a 76 61 be 8c 92 74 be f0 f9 12 be
       -0.040454406 -0.22017804 -0.23884028 -0.14353156
000270 47 d7 f0 bd 38 86 4c bd f0 1e 03 3e 27 ac a0 3d
       -0.11759811 -0.04993269 0.1280477 0.078453355
000280 8a e1 8f bc a4 8a 23 be ad 1b 32 bd f0 a2 ae 3d
       -0.0175636 -0.15970856 -0.043483425 0.085271716
000290 28 a9 9f bb 23 49 20 be ee a5 a6 3d 5e 0a d7 bd
       -0.00487246 -0.156529 0.08137117 -0.10500024
0002a0 57 6f 16 bd 8a 46 78 3d 27 05 80 bd 44 0d d5 3d
       -0.036727276 0.060614146 -0.06250983 0.10402921
0002b0 7a b2 a7 3d b4 13 db bd f1 bc f5 bd fa 11 a4 3a
       0.081883386 -0.106971174 -0.11998928 0.0012517564
0002c0 5c dc 34 3e cf 01 d0 bd ce ac e7 bd 7b 53 b9 bd
       0.17662185 -0.10156595 -0.11312257 -0.09049126
0002d0 40 59 cf 3d 9a 56 2e 3e ee b8 11 be b5 46 11 be
       0.10124445 0.17025223 -0.14230701 -0.14187129
0002e0 16 01 54 3e 5f 04 04 3e 22 32 e2 bc 50 6d 85 3d
       0.20703539 0.12892292 -0.027611796 0.0651499
0002f0 65 21 0b be c1 bd 82 3c 48 e0 69 3d 2a 7b c2 3d
       -0.13586958 0.015959622 0.057098657 0.09496148
000300 0e 63 ea bd 22 17 bb bd 77 d8 1c be b8 a9 0b be
       -0.114446744 -0.091352716 -0.1531695 -0.13638961
000310 bb 00 d2 bd 2d 6e 28 3e 12 a8 59 3d 0d 02 52 be
       -0.102540456 0.16448279 0.0531388 -0.20508595
000320 93 30 ee bd 3b 34 5f bc e4 2b 58 be ef 15 22 3e
       -0.116303585 -0.013623293 -0.21110493 0.1582868
000330 2d 30 fd bd 54 d2 e7 bd a7 19 f3 3d f3 04 50 be
       -0.123627044 -0.11319414 0.11870127 -0.20314388
000340 aa 42 00 bd a0 1c 13 bd d0 fe 87 3d e7 c0 a7 bd
       -0.031313576 -0.03591597 0.066403985 -0.0819109
000350 4c 6d e9 3d 61 ca 0e 3e ba 48 3f 3d 01 23 db bc
       0.113978 0.13944389 0.046700217 -0.02675009
000360 6c bb 71 be bb 2a d9 3d 6f 2b 1a 3d ff 7a f1 bd
       -0.23606652 0.10603853 0.037639078 -0.11791038
000370 d4 cd e7 bd 99 17 bf 3d 12 ad eb bd f0 91 61 3d
       -0.113185555 0.09330673 -0.1150762 0.055070817
000380 c5 34 a7 bd 70 f9 96 3d 05 0b 68 3d 9d db 33 be
       -0.08164362 0.07371795 0.056651134 -0.17564245
000390 1c 91 a3 bb f2 31 09 be 87 23 39 bd b4 84 a9 3d
       -0.0049916636 -0.13397959 -0.045199897 0.08277264
0003a0 2f ec 25 be 39 ba 1e be ac 6e 0b 3e c5 4d 92 bd
       -0.16203378 -0.15500726 0.13616437 -0.071437396
0003b0 e6 2e 59 bd 9a 48 ae bd 9b 8c a4 3c 36 a3 0c 3e
       -0.05302324 -0.085099414 0.020086577 0.13734135
0003c0 0e c2 d3 bd 69 65 44 bd 83 17 09 be 12 a0 e8 3d
       -0.10339747 -0.047948275 -0.13387875 0.11358656
0003d0 c9 2c b0 3d 62 b9 8e 3d 72 86 10 bc 73 be 96 3d
       0.08602292 0.06968953 -0.008821117 0.07360544
0003e0 f0 38 01 3c 98 a6 f0 bd 57 da 19 be 18 9d e2 bd
       0.00788711 -0.11750525 -0.15024696 -0.110651195
0003f0 75 76 8a 3d 57 a0 03 3e 16 8a 2a 3e 67 d8 ba bc
       0.06760875 0.12854134 0.16654238 -0.022808267

sentiment_branch.lstm_layers.0.weight_hh_l0 f4 [128, 32]
000000 a9 1d 41 3e c4 2f 6d 3e 04 8f 2f be 28 7a 28 3e
       0.1885897 0.23162752 -0.171444 0.16452849
000010 b7 c7 32 3e dc fb d7 bd 2f 8c 8f bd 52 66 d9 bd
       0.17458998 -0.10546085 -0.0700916 -0.10615219
000020 bb 2b 71 bd df 99 62 3d ae e7 13 be 03 1f 39 3e
       -0.058879595 0.055322524 -0.14443848 0.18078236
000030 11 58 da 3d 78 83 d1 3d a8 02 2f be b3 6c 6b bd
       0.106613286 0.10230154 -0.17090857 -0.05747671
000040 95 3f 0c be ea ca 15 be bb 7b 92 bd 66 67 f9 bd
       -0.1369613 -0.14628187 -0.07152506 -0.12177925
000050 19 8c db 3d 1e 40 b2 bd b8 63 c7 3d 03 1d d2 3d
       0.10720081 -0.08703636 0.09735817 0.1025944
000060 4f da ea bd fe 0f 45 3d ea b0 a3 3b 39 5e 5f bd
       -0.1146742 0.048110954 0.004995455 -0.054533217
000070 a2 43 d4 bd 7b 06 fb bd f7 49 41 3e 9a 7b e8 bd
       -0.103644624 -0.122570954 0.18875872 -0.113517
000080 6f b5 b3 bc fd 3a 1b bd 4b 20 8d be 55 0e cb bd
       -0.0219371 -0.037898052 -0.275637 -0.09914843
000090 bb ce 1f be 63 29 6e bd 41 3b ff bd dd 69 42 be
       -0.15606205 -0.05814494 -0.12462474 -0.18985696
0000a0 d9 b3 9a 3e f0 06 78 3d 2c dd 79 bc c9 5e b0 bd
       0.30215338 0.06055349 -0.015250485 -0.08611829
0000b0 d6 b1 98 3d 44 0a 16 be 51 e0 3f 3d 3f ef 42 be
       0.074557945 -0.14652354 0.046844784 -0.19036578
0000c0 10 94 13 bc cc 6c 48 be 4a 91 0e be 71 84 47 bd
       -0.009007469 -0.19572753 -0.13922611 -0.04871029
0000d0 82 47 d0 bd 72 e2 b1 bb 05 ef 64 be 68 74 d9 bd
       -0.10169889 -0.0054286057 -0.22356804 -0.10617906
0000e0 50 c8 a3 3d 3e d0 27 be 25 0f 14 3e 7e a4 0d be
       0.07997191 -0.16388032 0.14458902 -0.1383228
0000f0 31 40 0b 3e e4 38 02 be 71 33 b0 bc a7 42 1f be
       0.13598706 -0.12717015 -0.021508904 -0.1555277
000100 2e 12 15 bd e6 15 2a 3e 36 4b 07 3e 01 1b 07 3e
       -0.03639429 0.16609916 0.13212284 0.13193895
000110 07 51 1f 3d 7b dd e1 bd 01 38 88 be 82 37 19 bd
       0.038895633 -0.11028572 -0.26605228 -0.037406452
000120 cf a4 f0 3d 4b b4 27 be c1 2b a1 3d b9 fd 23 3d
       0.11750185 -0.1637737 0.078696735 0.04003689
000130 ed 82 98 bd de 8b 06 3d c1 50 2f 3e 90 1c e2 bd
       -0.07446847 0.03284823 0.17120649 -0.11040604
000140 e3 e4 be 3b d4 4e 3b 3b e7 ac 3b 3e 14 a7 ef bd
       0.0058256253 0.002858092 0.18327676 -0.117017895
000150 76 70 56 be e9 ea 76 3d 99 63 5a be 6d 6e c9 3d
       -0.20941338 0.06028262 -0.21327056 0.09835515
000160 95 c4 38 be 56 2d b8 bc f0 f0 0d be 83 c9 19 be
       -0.1804374 -0.022482555 -0.13861442 -0.15018277
000170 70 02 2a bd 25 5b 01 be 88 e6 1e 3e 32 23 3c 3c
       -0.04150623 -0.12632425 0.15517628 0.011483001
000180 92 58 0e be d3 49 06 3e 47 1c 86 bd 6c 5d ac 3d
       -0.13900974 0.13114099 -0.06548362 0.08416256
000190 25 55 6a 3e be 7d f6 3d 98 43 ba 3c 60 79 29 bd
       0.22884043 0.12035702 0.02273731 -0.041375518
0001a0 03 0a 81 bd ec e8 ca bb c2 a9 4b ba cc e7 0f 3e
       -0.06300738 -0.006192317 -0.00077691313 0.14053267
0001b0 63 e8 1e bd 7b 58 8d 3d a4 f3 32 be 8a b6 0b be
       -0.03879584 0.06901642 -0.17475754 -0.13643852
0001c0 5c bb d3 bc d9 4c 81 bd 42 5a ad bd 94 65 68 3e
       -0.025846176 -0.06313486 -0.08464481 0.22694999
0001d0 1d f5 0d 3e 64 dd a8 bd 86 d5 fd 3d f0 cb 0a be
       0.13863035 -0.08245352 0.12394242 -0.13554358
0001e0 ad cd 2f 3d 23 ef 20 bd 01 91 e5 3d e7 4a 50 be
       0.042920757 -0.03929056 0.11209298 -0.20341073
0001f0 40 9c f8 bc b3 ff 16 3e 38 ad 82 bc 74 a5 4e bd
       -0.030347943 0.14745979 -0.015951738 -0.050450757
000200 98 0f ec bc ad 5d d7 3d df 43 b3 bd d2 58 78 3d
       -0.02881603 0.10515914 -0.0875318 0.06063158
000210 a8 66 cd bc af 45 99 bd 4a 36 0f bd e7 ff c8 bd
       -0.025073364 -0.07483994 -0.034963883 -0.098144345
000220 1e 6f 2f 3e cc 0d 8a bc b9 7f 1c bd a0 6b 08 3d
       0.17132232 -0.016852282 -0.038207743 0.033305764
000230 66 21 96 be c8 76 ab bd 8d d7 15 3e ed 12 31 3b
       -0.29322356 -0.08372265 0.14633007 0.0027019337
000240 41 cc ba bc 1a 7d 8b bd f3 2f 99 3d d4 bb a4 be
       -0.022802474 -0.068109706 0.07479849 -0.3217455
000250 06 87 0e be 02 96 3f 3e 3f e3 32 be 5d 61 85 bd
       -0.13918695 0.18709567 -0.174695 -0.06512711
000260 d4 86 a1 bb 63 24 0e 3e 4b 3c 4c 3e a1 81 0b bd
       -0.004929403 0.13881068 0.19944875 -0.03405917
000270 4e dc 2f 3d 6a e5 03 3d 96 8d 3d ba 13 dc ad bd
       0.04293471 0.03220121 -0.0007230876 -0.084892415
000280 4d e0 af bb fc ce 90 bd aa b4 0f 3e 22 8c 86 bd
       -0.005367315 -0.07070729 0.14033762 -0.06569697
000290 94 a5 1a 3e 0a 0d 21 3e 8f 8b ff bd 27 41 2b 3d
       0.15102226 0.1572763 -0.124777906 0.04181018
0002a0 2b 47 64 3d 59 aa 3f 3d b0 65 c4 bc 0e 13 db 3c
       0.055731934 0.046793316 -0.02397427 0.026742484
0002b0 a2 0d 8b 3d f2 a0 83 bc 26 26 e8 bd 60 1a 9d 3c
       0.0678971 -0.016067956 -0.11335401 0.019177616
0002c0 20 c7 d5 3c e0 45 7c 3e 2a df 61 3e 90 16 c9 3d
       0.026095927 0.2463603 0.22057787 0.098187566
0002d0 c3 28 11 3e 70 5a aa 3d cb fc 6e 3d cd 5a d9 bd
       0.14175706 0.08318031 0.05834655 -0.10613022
0002e0 e4 b6 f4 3b 9b 68 24 3b 9e e6 31 be d2 f4 84 bc
       0.0074680913 0.0025086764 -0.1737313 -0.01623002
0002f0 ae 11 f1 3c e7 41 fb bd 5e 21 04 bc c9 0f 70 bd
       0.029427376 -0.12268429 -0.008064596 -0.058608804
000300 c4 ac ab bd 08 3e ec 3d fb 60 8c be 34 be a9 bd
       -0.08382562 0.11535269 -0.2741774 -0.082882315
000310 e6 53 68 be be 98 a3 bd 1a 2f e9 3d 32 09 b7 3d
       -0.22688255 -0.07988118 0.11385937 0.08937301
000320 2a 36 2d ba 17 22 b2 bc 00 f3 fb bd 51 79 bc 3d
       -0.00066074973 -0.02174477 -0.12302208 0.09202827
000330 ee 1d 16 3d 0a 91 99 3e 77 03 98 3e e9 ea 86 39
       0.036649637 0.2999347 0.29690143 0.00025733493
000340 25 95 af 3c 42 ac d0 bc 56 b3 c3 3c 66 48 ea bd
       0.021433422 -0.025472764 0.023889225 -0.1143959
000350 6b 07 23 3e f1 25 df bd df fd 79 3d fc e2 2c 3d
       0.15920798 -0.108959086 0.061033126 0.042208657
000360 a1 e9 2a be 06 cf e0 3d 14 b9 14 3e ef 71 af bd
       -0.16690685 0.109769866 0.14523727 -0.08566653
000370 d9 33 74 3d 5a 6d 78 bd 03 fa 8c bc f0 93 7e bd
       0.05961976 -0.06065116 -0.017209059 -0.062152803
000380 2f f9 49 3d 3d a6 07 be e7 4b 7d bd 70 af 4e 3d
       0.049309906 -0.13247009 -0.061839964 0.05046028
000390 86 c6 6d 3e 0b 18 5c 3c f5 09 90 3d 3b bc 45 3e
       0.23220262 0.013433467 0.07033149 0.19310085
0003a0 0c 93 b1 3d 54 00 5a 3d 73 92 b7 3d 07 d2 9d bd
       0.08670625 0.05322297 0.0896348 -0.07706075
0003b0 a7 a2 0a 3e 3d bb 4b 3c f6 28 e0 3d 2f 0c 1a 3e
       0.1353861 0.012434778 0.10945313 0.1504371
0003c0 d3 ef 28 bc 4f ab 99 bd c7 1d f4 bc 78 16 67 3e
       -0.010311085 -0.07503378 -0.029799355 0.22567165
0003d0 17 be 0e 3e 9d e6 2e 3e ba b6 21 bc 21 16 10 be
       0.13939701 0.1708016 -0.009870226 -0.14070942
0003e0 1e bd 1d be 2f 71 2c be a9 af c8 bd f6 f3 61 bc
       -0.15404174 -0.16840051 -0.097991295 -0.013791075
0003f0 a0 8e 0b 3e 3e 1e f0 3d fc 13 65 bd 31 b2 56 3e
       0.13628626 0.11724518 -0.05592726 0.20966412

sentiment_branch.lstm_layers.0.bias_ih_l0 f4 [128]
000000 66 7e cd bd 6d d1 b5 bc 4c e9 8d bc ea 42 60 3d
       -0.10033874 -0.022194589 -0.017323159 0.054751314
000010 b0 13 9b bd 72 ba 07 be c8 64 b9 3c d0 9f bc 3d
       -0.075721145 -0.13254717 0.022631064 0.09210169
000020 f8 f4 2c 3e 76 cf 51 bc 89 1b d8 3d 48 e8 86 3e
       0.16890323 -0.01280581 0.10552127 0.26349092
000030 38 20 75 bd e7 01 6c 3e 5c 42 3c 3e 32 bc 3b 3e
       -0.05984518 0.230476 0.18384689 0.1833351
000040 e9 b1 44 bd 33 3b 00 3e e0 21 e3 bd ea 68 11 bd
       -0.04802123 0.12522583 -0.110904455 -0.035500444
000050 22 95 02 3e 5e 46 83 bd 95 25 6b bd 2a 41 3b 3e
       0.12752202 -0.06409906 -0.057408888 0.18286577
000060 4f 94 5d 3d fd 16 82 3d 68 eb 0c be 7d 41 1e bc
       0.054096516 0.06352041 -0.13761675 -0.009659168
000070 ad 93 dc 3c de 6e 7b bd ba e4 a6 bd 85 98 42 bc
       0.026925886 -0.061385028 -0.08149095 -0.011877184
000080 ce 16 16 3d 09 3e 41 bc 66 e1 69 bd d5 09 de bd
       0.036642842 -0.0117945755 -0.057099722 -0.10841719
000090 cb e1 ce 3d 58 e6 7d 3d 06 20 74 3e 89 d6 49 3e
       0.1010166 0.06198725 0.23840341 0.19710745
0000a0 d6 62 2f be 9a ab 52 bd 75 10 fd bc d2 f9 a2 bd
       -0.17127547 -0.051433183 -0.030891636 -0.07957806
0000b0 93 97 ed 3d 5c cc 71 bb c3 b6 53 3e b7 e9 d4 bc
       0.11601176 -0.003689549 0.20675187 -0.02599035
0000c0 e7 0d c7 3d c9 62 17 3e fc 84 52 3c 9e b5 5c 3e
       0.097194485 0.14783777 0.012849089 0.21553656
0000d0 1e 3f e3 bd 8f b3 0a 3d c4 7e ec bd fa b2 ac bc
       -0.11096023 0.033862647 -0.11547616 -0.021081436
0000e0 78 90 0c 3e 93 ea fb bd b6 7d b8 3d 1c b8 00 be
       0.13726985 -0.12300601 0.090083525 -0.12570232
0000f0 a1 22 be bd e7 fa 28 bd 11 8e b3 bd 69 6c f1 3d
       -0.09283949 -0.041254904 -0.087673314 0.11788256
000100 74 60 7f bd 36 db dd 3c e9 63 d5 bd fe 6e ef 3d
       -0.062347844 0.027082067 -0.10419447 0.11691092
000110 46 4d 97 3d 8c f8 44 3e 91 2e ef bd a0 7f 25 3e
       0.073877856 0.19235438 -0.11678804 0.16161966
000120 78 1e 8b bd c1 62 7c bc 9a 7e 29 be c2 a2 19 bd
       -0.06792921 -0.015404404 -0.16552201 -0.037508734
000130 ba 32 8a 3b a8 4e 22 3e b7 fe 12 3e e4 87 1a be
       0.004217473 0.15850317 0.14354979 -0.150909
000140 4c 90 48 bd 41 88 6f 3d d2 1a a6 3c a6 a4 6f 3b
       -0.048965737 0.05847955 0.02027646 0.0036566644
000150 27 d6 d6 bc 58 30 a6 3a de 9e 5a 3d 0c bc fb bb
       -0.026225163 0.0012679202 0.053374164 -0.007682329
000160 0d ac de bd 44 f7 cb bd b0 5e f0 3c 8a a6 a6 3d
       -0.1087266 -0.099592716 0.029342026 0.081372336
000170 76 8f 1a 3a 19 1d 32 bd 0e 2b ff 3d 3c f1 ee bc
       0.0005896011 -0.04348478 0.12459384 -0.029167764
000180 5b 97 5b bd 34 6e 1e 3e 38 65 68 3d a9 db 0c be
       -0.05361114 0.15471727 0.056737155 -0.13755669
000190 95 80 58 3e 1c d8 c5 bd 98 d5 91 3c 6a dc 1b be
       0.211428 -0.0966036 0.017802045 -0.152208
0001a0 60 21 f5 3b d9 7a 02 3e 08 d5 12 be fe b0 16 3e
       0.0074807853 0.12742175 -0.14339077 0.14715955
0001b0 bb ce 06 be 80 d2 d5 3d cd 22 58 3c d8 2e 98 bd
       -0.13164799 0.1044054 0.013191891 -0.0743081
0001c0 3d df d3 3d 40 4e ae bd 07 da bd 3b 87 24 21 bd
       0.10345314 -0.08511019 0.005793813 -0.039341476
0001d0 21 f3 ca bd 04 c1 02 3e b8 ac 80 bd d6 88 c1 bd
       -0.099096544 0.12768942 -0.062829435 -0.094499275
0001e0 07 32 bb bb a5 a7 46 3e 7f b1 4a 3e 99 3c 3b 3e
       -0.005712751 0.19399889 0.19794272 0.18284835
0001f0 0a cb 80 3d 23 96 ff bc f5 44 2e bd 9b 39 d3 3d
       0.06288727 -0.03119952 -0.04254623 0.10313722

sentiment_branch.lstm_layers.0.bias_hh_l0 f4 [128]
000000 58 6c 04 3e e6 13 84 bc ae e4 11 3e 00 be 93 3c
       0.12931955 -0.01612277 0.1424739 0.018034935
000010 3a 67 b8 3d fa 1e 54 3e 03 01 22 3e f4 59 35 3e
       0.09004064 0.20714942 0.15820698 0.17710096
000020 37 c2 50 3e 31 b5 cc bd 46 3e 0b 3e ed 41 15 3e
       0.20386587 -0.09995497 0.13597974 0.1457593
000030 32 09 aa 3d 93 b7 3a 3e 96 69 e1 3d a0 40 bd bd
       0.08302535 0.1823409 0.11006467 -0.09240842
000040 65 2e 2f 3e a2 0a 0f 3d b7 50 cf bc 15 c3 1f 3d
       0.17107542 0.03492225 -0.025307043 0.039004404
000050 2f 53 c9 3c c1 05 9a 3c fa 4a f1 bc fb 56 37 bd
       0.024575798 0.018801572 -0.029454697 -0.044760685
000060 19 1b 3e 3e e5 07 12 3e 18 43 45 3d 61 ad 30 3e
       0.18565024 0.14260824 0.04815969 0.17253639
000070 e4 6a e9 bd b1 8e cb bd f5 47 c2 3d 75 5f 02 be
       -0.11397341 -0.099393256 0.09486381 -0.12731726
000080 21 67 10 3e b7 93 6e 3e de d0 3a 3e c7 53 0a bd
       0.1410184 0.23298536 0.18243739 -0.033771303
000090 2e 4c 25 3e cf f1 a8 3d 96 d9 ac bd e7 b9 47 3e
       0.16142341 0.08249246 -0.08439939 0.1950451
0000a0 64 9a 1f be e1 52 a2 bd c3 76 18 3e 1a de 4d 3e
       -0.15586239 -0.07925964 0.14889054 0.20104256
0000b0 e2 59 3b 3e 0f 37 19 3e 89 ef 9f 3d d1 f3 34 3e
       0.18296006 0.1496241 0.078093596 0.17671134
0000c0 6a 84 37 3e b0 a3 2a 3e ed 84 cb bd 87 a0 68 3e
       0.17921606 0.16664004 -0.09937463 0.22717486
0000d0 12 46 89 bb 19 5c 8f 3a 2e be af 3d d0 28 0d 3e
       -0.0041892612 0.0010937481 0.08581196 0.137851
0000e0 45 98 0f 3e 22 2c 33 3e 4c 79 80 bc b6 ce 77 3d
       0.1402293 0.17497304 -0.015682839 0.06049987
0000f0 a0 a9 13 bd 90 29 19 be 35 81 d3 3b f0 d0 08 bc
       -0.03605044 -0.14957261 0.0064546117 -0.008350596
000100 7c b1 65 be f6 0a 48 bd 4e 4f 1d 3d 38 6e 07 bd
       -0.22430986 -0.04883858 0.03840571 -0.033064097
000110 97 59 a5 bc 3d ae a6 3d de 63 5d bd 60 59 a7 b8
       -0.020184321 0.08138702 -0.05405032 -7.979828e-05
000120 9d 05 5c 3d 78 a1 76 3d 14 4f 69 3c 27 e6 1b be
       0.05371629 0.060212582 0.014240045 -0.15224515
000130 cd 08 05 be 9b 75 05 be e8 a1 54 bd ef fc 60 be
       -0.12991638 -0.13033144 -0.05191222 -0.21971487
000140 9d eb 12 be 3a a5 72 3d 9e 34 38 bd ff d1 c7 3d
       -0.14347692 0.059239604 -0.044972055 0.097568505
000150 34 a2 a5 3d 47 0e c1 3d 51 9d 03 be 2c 0e 6f bd
       0.080875784 0.09426551 -0.1285298 -0.058363125
000160 ec a0 fe 3c 03 4f db bd ad f0 0d be 07 9e 26 3e
       0.031082593 -0.1070843 -0.13861342 0.1627122
000170 45 81 ad 3d 7d f8 99 bd a9 aa 36 3e 7c aa 5e bc
       0.08471922 -0.075180985 0.17838539 -0.013590451
000180 7b 39 08 3d e7 d6 0f 3e c4 82 c0 3d 10 f9 22 3e
       0.033257943 0.14046822 0.093999416 0.15915322
000190 ed 44 b9 3d 8a a2 ea 3c 88 76 33 3d e2 cb 91 3d
       0.0904635 0.028641958 0.043814212 0.07118966
0001a0 c5 8d 60 3e 25 4a 2d 3e b3 b5 03 be 38 aa a5 bd
       0.21929081 0.16922815 -0.12862282 -0.08089107
0001b0 11 e8 50 3a fe c9 62 3d 26 79 ac 3d a3 91 3a bd
       0.0007969151 0.055368416 0.08421545 -0.045549046
0001c0 b9 4c 4f 3c 2f 14 03 3e e5 a5 1c bd ba 3d d9 3d
       0.012652569 0.12800668 -0.038244147 0.106074765
0001d0 35 a9 d0 3d d2 ec 93 bd 06 24 81 bd 27 9d 7f 3e
       0.10188524 -0.07222904 -0.06305699 0.24962293
0001e0 c5 60 53 3e 3f d6 8b 3b 62 a2 8b ba 9b 84 c6 bd
       0.20642383 0.0042674835 -0.0010653252 -0.09693261
0001f0 57 93 f5 3d 1a af dd bd 9e f9 60 bc d1 5d e4 bd
       0.119909935 -0.108244136 -0.013731388 -0.111507066

sentiment_branch.fc.weight f4 [32, 32]
000000 a2 60 ad bd 1b a8 aa bd a7 e2 6c bd 00 4a b6 bd
       -0.08465697 -0.08332845 -0.05783334 -0.08900833
000010 b7 0e 3b be 01 cf 36 3d e5 56 fe bd a5 39 50 bd
       -0.18267332 0.044631008 -0.124189176 -0.050836224
000020 ff b4 b8 3d 89 83 f7 3c 3f 59 18 be 3a 8f 8e bd
       0.09018897 0.030214088 -0.14877795 -0.06960912
000030 65 83 83 bd 8a 2d 2b bd bb 64 2a 3e 8f af e5 3d
       -0.06421546 -0.041791476 0.16639988 0.11215126
000040 34 5b c9 bd 49 1a 21 be e3 61 ff 3d 6b 5b 10 3d
       -0.09831849 -0.15732683 0.12469842 0.035243433
000050 64 4c df bc 41 e5 f5 3c 85 c3 24 3d 7c 13 86 bc
       -0.027258106 0.030016543 0.040225524 -0.016366713
000060 64 d4 1c be f9 b5 1d bd 04 61 5c bc 0d ba ed bd
       -0.15315396 -0.03850362 -0.013450865 -0.11607752
000070 fe 40 3f 3e 6b 56 30 bd c2 e6 15 3d 4b 51 97 bd
       0.18677136 -0.043051165 0.03659702 -0.07388552
000080 22 3e e5 3d 04 f9 35 3e f0 22 97 bd 11 0b 4a 3c
       0.111934915 0.17770773 -0.07379711 0.01233174
000090 62 f8 a0 3d d9 16 f8 3c bd 18 25 3d 27 63 5c 3d
       0.07859875 0.030284332 0.040306795 0.053805497
0000a0 40 43 67 3d af 33 dc bd 9a cb 07 be b7 a9 9e bd
       0.05646062 -0.10752045 -0.13261262 -0.07747214
0000b0 08 f5 f3 ba 53 00 aa 3d cf 22 d9 bd 8a 6b b1 bd
       -0.0018612454 0.08300843 -0.10602342 -0.086630896
0000c0 9d 5e 41 be f2 10 25 3e eb 2b da 3b 32 01 ca bc
       -0.18883748 0.16119745 0.0066580675 -0.024658773
0000d0 99 20 52 3e fd f3 af 3c bf 9f 49 bb 9d 56 1e bc
       0.20520248 0.021478647 -0.0030765382 -0.009664205
0000e0 fb 9f 04 be a2 63 1a 3c 21 18 b0 3c 36 3f 29 3e
       -0.12951653 0.009423168 0.02149588 0.1652802
0000f0 b8 6a b8 bd 43 55 f4 bd ba 2e 97 3d ad 84 af bd
       -0.0900473 -0.11930325 0.07381959 -0.08570228
000100 81 b8 7e 3d b0 87 2a 3e ef 60 cd 3d 4b da 2d bd
       0.062187675 0.16653323 0.10028254 -0.04244451
000110 4e 7a 62 3e 14 c7 19 3e c1 ee 00 3e 47 a6 a3 bd
       0.22116968 0.15017349 0.12591077 -0.07990699
000120 af ea d9 3d 6a 0d 47 be 43 47 fb 3d ed ee 66 bc
       0.106404655 -0.19438711 0.122694515 -0.01409505
000130 0a 50 d7 bc 08 e3 06 be 00 ea 8d bd d5 0a ab 3d
       -0.026283283 -0.13172543 -0.069293976 0.083516754
000140 9c ae 03 be b7 88 30 3e 88 47 2b be c8 33 44 be
       -0.12859577 0.17239653 -0.16726506 -0.19160378
000150 07 ce c2 bc e3 3d 70 be 68 5a 67 3d 52 b4 fc bd
       -0.023779882 -0.23461108 0.056482702 -0.12339081
000160 00 e7 d4 3d 20 e1 29 bd 2c 56 8a 3d ec e9 e3 bd
       0.10395622 -0.04147446 0.06754717 -0.111286014
000170 23 21 3d 3d c4 14 4f be 45 eb c3 bd 52 26 12 3d
       0.04617418 -0.20222765 -0.095663585 0.035681076
000180 3e b3 8c bd ec 8d d9 3d 16 f1 94 3d bd 18 61 3e
       -0.06870125 0.106227726 0.07272546 0.21982093
000190 02 df 6b 3e a0 39 c4 bc 3c 5d e7 bd 8d d8 a2 bd
       0.2303429 -0.023953259 -0.1129708 -0.0795146
0001a0 b1 d7 8d bc 67 15 d1 bd 2e f0 c4 3d ca 5b 1d 3e
       -0.017314764 -0.1020916 0.09616123 0.15367046
0001b0 1f 88 a2 bd 37 41 f2 bd a0 3e 11 be f0 5e 25 3e
       -0.07936119 -0.11828845 -0.14184046 0.16149497
0001c0 be d4 64 bd d2 e3 59 bc 5a ec 30 bc e0 5b 30 be
       -0.05586695 -0.0132989455 -0.010798538 -0.17222548
0001d0 72 75 16 be d4 4e 82 be 50 b6 40 3e ef 9a 96 ba
       -0.1469324 -0.25450766 0.18819547 -0.0011490266
0001e0 eb 7b 7e 3d e9 6a 89 bd ff b4 e5 3d 11 ef 5d bd
       0.062129896 -0.067098446 0.11216163 -0.05418307
0001f0 21 40 30 3e 0f ff b6 bd 69 9c 9f 3d 43 7c f8 3d
       0.17211963 -0.08935367 0.07793505 0.12133076
000200 9a 50 10 be 1d 95 d5 bd 70 b2 1d 3e e3 39 92 bd
       -0.14093247 -0.10428832 0.154001 -0.07139947
000210 69 fe 1d bd f9 9b 3e be c8 9d a3 bd 7e e9 0e 3e
       -0.038572703 -0.18614186 -0.07989079 0.13956258
000220 8f d6 90 3d 12 06 69 bc 2e 52 62 bd 8c 9e 5b bd
       0.07072174 -0.014222639 -0.055254154 -0.053618
000230 9b b6 3f 3c 0a cc 6a bc 67 bb 33 bd bd c7 7a bd
       0.011701251 -0.014330873 -0.043879893 -0.06122564
000240 02 89 56 3e 43 f9 61 be 05 b6 8f bd 77 d7 8a bd
       0.20950702 -0.22067742 -0.07017139 -0.06779378
000250 1f 35 67 bd dc 75 61 bd 00 bb 69 bd fd 3f 08 3e
       -0.056447145 -0.05504404 -0.057063103 0.1330566
000260 30 30 ab bd f5 04 4a 3e 03 83 a5 bb fa 21 1f be
       -0.083588004 0.19728453 -0.005051018 -0.15540305
000270 f4 b6 56 3c 7d 80 a6 bc 70 ba 8e bd a9 2b ee bd
       0.013105143 -0.02032494 -0.06969154 -0.11629421
000280 d5 d1 6b 3d 64 a9 d4 3c 44 b4 b2 bd 42 ee bc bd
       0.05757316 0.025959678 -0.08725789 -0.092251316
000290 ba 61 23 3e 5e a5 cf 3d 17 71 bf 3d e4 4c 25 be
       0.15955248 0.10138963 0.09347742 -0.16142613
0002a0 57 87 ed bc 13 59 26 3c 96 51 85 3d bc c2 cc bb
       -0.0289952 0.010153073 0.06509702 -0.0062488
0002b0 a2 7a ed bc 2f 12 b7 3d 85 38 41 be fd 76 30 3d
       -0.02898914 0.08939015 -0.18869217 0.043082226
0002c0 d3 4b e8 3c 7b 06 3f bd 1d d9 93 3d 32 9f 82 3d
       0.028356468 -0.04663704 0.072191454 0.0637802
0002d0 ae ac 2a 3b 11 d4 90 bd 90 fa 1c 3d ab 4c 32 3d
       0.0026042867 -0.070716985 0.038324893 0.043530148
0002e0 58 96 31 be 8c 84 20 3e 29 a3 78 bd 38 89 8e bd
       -0.17342508 0.15675563 -0.060702477 -0.06959766
0002f0 67 1d 04 bd 0b 55 2c 3e fc 1f ca bd 1c ec 41 3d
       -0.032254603 0.16829316 -0.09869382 0.047344312
000300 f9 fb 53 3c a6 9b 2d be 17 8b 00 3e fb 94 a4 3d
       0.012938493 -0.16953906 0.12553059 0.08036228
000310 f4 f4 20 3e 0f 77 d2 3d 1a a6 d5 3c 16 a3 d8 3d
       0.15718442 0.10276615 0.02608018 0.10577981
000320 c4 3f 95 bd 72 4e 1a 3e 98 84 44 3e 0f a0 34 be
       -0.07287553 0.15068987 0.19191206 -0.17639183
000330 ac 36 08 be d2 9d 55 3e 3a d8 a7 3c 6c cd 94 bb
       -0.13302106 0.20860985 0.020488847 -0.0045410898
000340 5a 8a 05 3e 97 33 80 bd 59 05 47 3e f2 5c 4e 3e
       0.13041058 -0.0625984 0.19435634 0.20152643
000350 2b 58 77 3e 38 9d 4d 3d c8 7c 43 3d 0b 77 11 be
       0.24154727 0.050198764 0.047726423 -0.14205568
000360 16 43 ef 3d 00 4d f7 3d 1d f1 69 be 0d 80 a4 3d
       0.116827175 0.120752335 -0.22845884 0.08032236
000370 08 33 ec 3c 02 3e ba bd 89 e5 90 3d 5f b5 84 bd
       0.028832927 -0.09093858 0.0707503 -0.06479906
000380 44 c6 87 bd ab cd 4f 3d 81 c5 70 3a 12 ca d1 bd
       -0.06629613 0.05073325 0.0009184704 -0.1024362
000390 6a 54 7f bd f5 8d c4 3a 42 a3 98 bd ba 13 62 3c
       -0.062336363 0.001499592 -0.07453014 0.0137986485
0003a0 cb a4 a7 bd ae dd ef bd 97 f1 49 bc 11 ca 07 be
       -0.08185729 -0.11712204 -0.012325666 -0.13260676
0003b0 98 11 49 bd 81 4d 03 3e 9d 1f 4e 3e 1e 78 b1 bd
       -0.049089044 0.12822534 0.20129247 -0.08665489
0003c0 9e cd 56 be ae 93 10 be 20 a0 c6 3d 87 e9 96 3d
       -0.20976874 -0.14118835 0.0969851 0.073687606
0003d0 42 14 a7 3d a5 60 b6 3d 65 32 23 3d 5d b9 48 be
       0.08158161 0.08905152 0.03984298 -0.1960196
0003e0 c7 f0 2d be 3c f9 0e bd 95 36 de bd 2c 39 a9 3d
       -0.1698638 -0.034905657 -0.108502544 0.08262858
0003f0 ac d9 d9 bd 3b 7b 91 3d 46 59 84 bc 54 85 01 bd
       -0.10637221 0.071035825 -0.01615585 -0.031621292

sentiment_branch.fc.bias f4 [32]
000000 74 65 e2 bd 3e ec ac 3d 90 e7 4a bb 0b 94 71 3d
       -0.11054507 0.08443497 -0.0030960776 0.058979075
000010 24 05 82 3c 16 95 5b bd db d3 87 3c d3 21 c6 3c
       0.015871592 -0.053608976 0.016580513 0.02418605
000020 e5 2a 83 3d a9 88 b5 bd 84 60 c3 bc 7c 94 5b bb
       0.06404666 -0.088639565 -0.023849733 -0.0033505252
000030 69 46 3b be 92 15 b2 bd ce 55 0c 3e 85 6b e1 3c
       -0.18288578 -0.086955205 0.13704607 0.02751709
000040 29 a3 4c bd 74 6d 49 3e 27 f0 2d 3e ff 52 57 3d
       -0.04996029 0.1967066 0.16986142 0.052569386
000050 0f f6 f9 bd ee 0b 6b bc 9f c2 d7 bc 85 01 73 3d
       -0.12205135 -0.014346106 -0.02633792 0.05932762
000060 09 b4 9f 3c 04 45 21 3e a5 a1 a2 bc cf 2c 28 be
       0.019495027 0.15748984 -0.019852469 -0.16423343
000070 30 ef 2b be 2f 3d 10 be d5 63 bf 3d 15 a2 4b bd
       -0.16790462 -0.1408584 0.09345213 -0.04971512

price_branch.lstm.weight_ih_l0 f4 [64, 5]
000000 88 24 57 be af 3d ac be 5d b9 85 3e 39 da 88 3d
       -0.2101003 -0.3364081 0.26117983 0.06682248
000010 16 34 18 3d 19 3e b0 bd 58 f5 86 3c 46 29 03 be
       0.037159048 -0.08605594 0.01647441 -0.12808713
000020 72 1d 3d 3e 1b cd 82 be e5 71 f9 bd 53 29 59 be
       0.18468264 -0.25547108 -0.12179927 -0.2120717
000030 c9 ca cd bd 57 26 83 3e df 71 4b be ac 77 d5 bd
       -0.10048444 0.25615188 -0.19867657 -0.10423216
000040 0e 97 92 3c ae a4 20 be 57 64 76 3d 6b bc e7 3c
       0.017894294 -0.1568782 0.060154285 0.028288087
000050 f0 93 b9 bb b1 e3 8c be ed ba 1f 3e 27 88 0f bd
       -0.0056633875 -0.27517465 0.1559865 -0.035041954
000060 59 ed 0b 3e ca be 77 be 2e ef 17 3e 89 40 85 3d
       0.1366476 -0.24193874 0.14837334 0.0650645
000070 00 b5 69 be 58 ac 1c 3d 8a a3 1e be f0 00 90 bb
       -0.22822952 0.038250297 -0.15492073 -0.004394643
000080 ef f3 b1 be 0e 11 00 ba 19 9e 73 be c9 71 ef 3d
       -0.3475642 -0.0004885354 -0.23790778 0.11691625
000090 85 8c 2a bd 25 60 3b 3d 48 fb 67 bd 41 b1 4e 3e
       -0.041637916 0.045745987 -0.056636125 0.20184804
0000a0 14 23 d0 3d 88 86 ad 3d b3 17 8a 3e 45 86 39 3d
       0.101629406 0.084729254 0.26971206 0.045294065
0000b0 4c 81 a2 3d 04 0a e3 3d 07 3b 13 be 4c 60 40 3c
       0.07934818 0.11085895 -0.14377986 0.011741709
0000c0 3c 89 27 3e 28 31 0a 3d cd a1 98 be bb ec a6 bd
       0.16360945 0.033738285 -0.29810944 -0.081506215
0000d0 be f9 b7 bd bf 87 2f be 19 02 97 bc cf 42 dd 3c
       -0.089831814 -0.17141627 -0.018433617 0.027009396
0000e0 44 4d 2f bd 21 d7 ed 3d fb 0d 3a 3e 9f 69 07 be
       -0.042798296 0.11613298 0.18169396 -0.13223885
0000f0 b0 ee 98 bd 09 f9 22 be d8 b8 5c bd cb ee 45 3d
       -0.07467401 -0.15915312 -0.05388722 0.048323434
000100 72 ea 80 be f7 6a 3b be a4 d0 96 be a2 a9 ab bd
       -0.25178868 -0.18302523 -0.29456055 -0.08381964
000110 db 5f 20 3e 77 37 da 3d 04 54 9d be 94 8e 79 be
       0.15661566 0.1065511 -0.3072816 -0.24370795
000120 9d c8 2c bd 21 5e c3 3d 97 38 c0 bd e9 96 c2 3d
       -0.042183507 0.09539438 -0.09385794 0.0950144
000130 57 5e 43 bd 51 26 9a bd 66 5f e6 3d af 83 a8 bd
       -0.04769739 -0.075268395 0.112486646 -0.08228242
000140 be 8c e6 3d 46 e1 cf 3d 3b ef 9f 3d d4 73 6e 3e
       0.11257313 0.101503894 0.078093015 0.23286372
000150 74 c5 34 3e 94 ad ff bd d0 7d 8a 3e d7 e4 8c bd
       0.17653447 -0.12484279 0.27049112 -0.06879585
000160 4e 6c d3 bd 83 90 8e be 40 03 8a 3e a1 3e 81 3e
       -0.10323392 -0.2784463 0.26955605 0.25243095
000170 11 89 7c 3e d5 8d 46 3e d1 2b f2 bc bb 95 8e 3d
       0.24661662 0.19390042 -0.029561909 0.069621526
000180 aa 71 03 bd e0 a8 d8 3d 27 51 8c bb 65 fc 76 bd
       -0.03209082 0.10579085 -0.004282135 -0.060299296
000190 9d 7c 1a 3e 43 c7 de 3c 6c a4 c9 bd f7 25 75 3e
       0.15086599 0.027194625 -0.09845814 0.23940264
0001a0 79 29 b8 3e 3e 61 0d be be ad 44 3e 33 0f 37 3e
       0.3596914 -0.13806626 0.19206902 0.17876892
0001b0 6c 75 a1 bd dc 2c 17 be 80 c7 9c bd e1 5f 63 bd
       -0.078837246 -0.14763206 -0.07655239 -0.05551136
0001c0 81 a3 a4 be ab a2 a8 3d 47 da fd 3d 08 3b d9 3d
       -0.32155994 0.082341515 0.12395149 0.106069624
0001d0 45 4a a1 3d 42 09 1d 3e 9a 57 32 3e 78 95 71 be
       0.07875494 0.15335563 0.1741623 -0.23592174
0001e0 a2 d0 0a be 91 1d f1 3d eb 5e 91 3e c8 d6 3b be
       -0.1355615 0.117732175 0.2839273 -0.18343651
0001f0 cc 7d 1e 3e ee 86 92 be d3 e3 b0 bd 4e c0 81 3d
       0.15477675 -0.28618568 -0.08637204 0.06335507
000200 e0 42 05 be 24 a5 12 be 6a 1b 3e be e5 ee 3e 3e
       -0.13013792 -0.14320809 -0.18565145 0.18645819
000210 e4 33 82 3d a6 02 51 bc d5 59 19 3d 02 e4 32 3d
       0.063575536 -0.012756979 0.037439186 0.043674476
000220 cd 22 d7 bd c4 17 d3 3d bc c1 8b bc ec 23 dd 3d
       -0.105046846 0.10307267 -0.017060153 0.10797867
000230 8f 11 80 3e 3e 5b 09 bd 7b 9c 17 be 90 4e 87 bd
       0.25013396 -0.03353428 -0.14805786 -0.066067815
000240 4a a5 7d be 6f 7d d1 bd 90 3d d1 bd e3 42 a6 3d
       -0.24770084 -0.10229003 -0.1021682 0.081182264
000250 62 d5 55 bd 6d 48 b0 bc ab 79 1a 3d a2 f4 28 be
       -0.05220545 -0.02151891 0.037713688 -0.1649957
000260 b0 00 17 bd bd 01 60 3d 09 70 95 be 76 bc b8 bd
       -0.03686589 0.054689158 -0.2918704 -0.09020321
000270 9b 51 46 3d f5 ef bd 3c 17 c5 9c bd 64 66 37 be
       0.04841767 0.02318571 -0.076547794 -0.17910153
000280 3a 1a 23 bd e9 b7 7f be d8 a1 2d 3e f3 9c 08 3e
       -0.039819933 -0.249725 0.1695627 0.13341121
000290 6c 75 63 be 0d d5 6f 3e 0b 4f 91 3e d7 14 18 3d
       -0.22212762 0.23421116 0.28380617 0.03712925
0002a0 50 b1 b5 3b af 26 55 3d 22 df 28 3d 9a 51 c2 bd
       0.005544819 0.052038845 0.04122842 -0.094882205
0002b0 7f 5f db bd 43 7e 56 be 61 18 81 3d 82 e8 af 3e
       -0.10711574 -0.20946603 0.06303478 0.34357077
0002c0 67 b0 ac 3e 83 ce 0e be ec d0 0f 3e 7b 06 9a be
       0.33728334 -0.13945965 0.14044541 -0.3008307
0002d0 b7 a0 dd 3d 4b 69 16 3e 30 6b cc 3b 15 89 a6 3d
       0.108216695 0.14688604 0.0062383637 0.08131615
0002e0 ce e1 7a 3e 99 4d 41 be 6f 46 29 3e 33 60 f8 bd
       0.245002 -0.18877257 0.16530775 -0.121277235
0002f0 57 6e 90 be e6 22 1e 3e 6e 49 b2 be 43 25 a9 be
       -0.28209183 0.15443 -0.34821647 -0.3303624
000300 04 a9 60 3d cb 7c 50 be bb 49 9d 3e 77 a0 14 3e
       0.054848686 -0.20360105 0.30720314 0.14514337
000310 66 9c db 39 ee 15 27 3e 1f a3 30 3e 55 88 7a be
       0.0004188746 0.1631696 0.17249726 -0.24466069
000320 00 5e 28 be 0e 8a 3d 3e 74 7a 4f 3e f6 70 a5 3e
       -0.16442108 0.18509695 0.20261556 0.32312745
000330 73 4f 41 be a0 46 7f bd b4 b9 99 ba 99 5f 33 3e
       -0.18877964 -0.062323213 -0.0011728317 0.17516936
000340 e2 a4 78 bd 0e 15 cf bb 43 73 1e 3e 9b 40 ef 3d
       -0.06070412 -0.0063196486 0.15473656 0.116822444
000350 70 d7 30 be 3a 9d 27 be 92 f0 f8 bb 53 20 80 bd
       -0.17269683 -0.16368571 -0.0075970376 -0.06256165
000360 72 18 20 3e cb 03 91 be 2e 32 14 be 46 73 84 bd
       0.15634325 -0.28323206 -0.14472267 -0.06467299
000370 5b 84 3e be c0 38 ed bd f3 4b d6 bd 20 9e 1b 3d
       -0.18605177 -0.1158309 -0.10463705 0.037992597
000380 31 dc 98 bd 39 55 69 bd da ea 84 bd d6 5e 52 3e
       -0.07463873 -0.05696604 -0.06490107 0.2054399
000390 19 6a 63 3e f6 c1 a7 3d 38 f5 73 3e 35 bd 3a 3e
       0.22208442 0.08191292 0.23824012 0.18236239
0003a0 35 87 1a 3e 23 89 07 be c4 90 6e 3d 01 84 86 3e
       0.1509064 -0.13235907 0.058243528 0.26272586
0003b0 f4 10 78 3d 3d 43 2c be ac 3f 23 3e 78 ad 38 be
       0.060563043 -0.16822524 0.15942258 -0.18034923
0003c0 58 a3 8a be b7 ff 61 be 19 00 4e 3e fe f0 a5 3c
       -0.27077746 -0.22070204 0.20117225 0.020256516
0003d0 ba be a2 bd 24 04 05 be 9d bd bc bc 5e 54 a3 bd
       -0.079465345 -0.12989861 -0.023039633 -0.07975076
0003e0 13 84 6b be 2f 3c bf bc 2c f9 92 3e f4 cf 6a 3e
       -0.22999601 -0.023344127 0.28705728 0.2293089
0003f0 86 e3 31 3e bf 69 e4 bd c0 06 ff 3b ec 24 c8 bd
       0.1737195 -0.11152982 0.007782787 -0.09772667

price_branch.lstm.weight_hh_l0 f4 [64, 16]
000000 44 a8 83 bd f6 d8 1b 3e 3b 06 8d 3d 17 61 c7 3d
       -0.064285785 0.15219483 0.06885954 0.09735315
000010 f0 35 a2 bd 83 42 f5 3d cc 9d 30 3e a9 dd 4c be
       -0.07920444 0.11975577 0.17247695 -0.20006432
000020 f3 d3 b6 bd d4 c8 4e bb d0 fa 41 be 15 78 e3 3d
       -0.08927145 -0.0031552808 -0.18943334 0.11106888
000030 55 ce 1c be 4e 2e 02 bc b3 dd 0f 3e 53 08 f6 3d
       -0.15313084 -0.00794561 0.14049415 0.120133065
000040 cb e8 52 be c6 01 f7 3d ba 3c 0c 3a 25 a1 3e bd
       -0.20596616 0.12060885 0.0005349625 -0.0465404
000050 72 36 43 be 18 d0 b1 3d 1b 5f 46 be 3a 1a be 3d
       -0.19063738 0.08682269 -0.19372217 0.09282346
000060 05 27 06 3e c3 b9 1d bd f8 7c 09 3d d8 ea a8 3e
       0.13100822 -0.038507234 0.033566445 0.32991672
000070 4b 4e 44 3e b0 0f 84 bd 88 9c f0 3d 90 4d 13 be
       0.19170491 -0.06448305 0.11748606 -0.14385056
000080 87 e5 16 be 08 50 5c 3e 09 b7 1d be f5 dc b0 3c
       -0.14735995 0.21514904 -0.15401854 0.021589736
000090 3c b5 ad 3d 0a 94 06 be 5d 50 8c bd 27 55 07 3e
       0.08481833 -0.1314241 -0.068512656 0.13216077
0000a0 f7 45 d9 bd 45 46 22 be 98 5a 0d be e4 cf 5c be
       -0.10609048 -0.15847118 -0.1380409 -0.21563679
0000b0 b3 54 45 be f2 65 0a 3e ea 0e b2 3d ad 34 c6 3d
       -0.19270591 0.13515452 0.08694251 0.09678016
0000c0 8b 54 38 bd bf 7d 3a 3d 90 d5 24 3d 1c 9b 70 bd
       -0.0450025 0.045530077 0.04024273 -0.058741674
0000d0 c4 90 26 bd df 5d 80 be 58 31 bd be 0c 47 3b 3e
       -0.040665403 -0.25071618 -0.3695171 0.18288821
0000e0 6a ae d0 3c 6b a1 9b bd 2e 54 e7 3b 63 a7 07 be
       0.025473792 -0.075991474 0.0070595955 -0.13247447
0000f0 12 f2 bf 3d 39 8b a9 bd 85 c5 92 3e fd 1c 7d be
       0.09372343 -0.08278508 0.2866632 -0.2471809
000100 b1 f1 4a be fb b2 a2 3c 31 9f fd 3d d5 ed 6d 3e
       -0.1981876 0.019860735 0.12383879 0.23235257
000110 17 fc e0 3c 06 cf c3 bd 46 1a f1 3d da 6d a4 be
       0.027463956 -0.09560971 0.117725894 -0.3211506
000120 1d 6f 83 bd fd 78 f8 3d 49 25 1a 3e 6f 75 38 3e
       -0.064176776 0.12132452 0.15053286 0.18013547
000130 7b 55 58 bd 39 e0 3c be d5 4a 39 3e 7b 86 5e 3e
       -0.052815896 -0.18444909 0.18094952 0.21730988
000140 73 70 7a bd 7b bd 85 3e 3e b5 21 3e 65 cb 85 be
       -0.061142396 0.26121125 0.15791795 -0.2613174
000150 51 4a 37 bd b6 02 3e be 24 e6 06 3e 9a e5 18 3e
       -0.044748608 -0.18555722 0.13173729 0.14931336
000160 fd e4 3e 3d 14 0f 43 bc 7b eb 34 be 2f c8 bc bd
       0.0466051 -0.01190545 -0.17667954 -0.092178695
000170 a6 40 ef 3d db 2c 25 3e fa 07 41 3d a3 8e ad be
       0.116822526 0.16130392 0.047126748 -0.33897886
000180 a9 20 80 3e 85 34 82 3e ca c3 b9 bd 60 9a 94 bc
       0.25024918 0.25430694 -0.09070547 -0.018140018
000190 84 c3 a9 bd e4 b3 4c be e3 8f 01 be 10 1b d5 3e
       -0.08289245 -0.19990498 -0.12652545 0.4162221
0001a0 ae cf 90 3e 65 aa 01 3d f7 e7 aa be 30 09 d5 3c
       0.28283447 0.03165664 -0.333801 0.026005358
0001b0 a0 33 b5 3d 48 5e f2 3d d0 43 46 3d fa b4 d4 bd
       0.08847737 0.11834389 0.048404515 -0.10386081
0001c0 bc fa a9 bd 9f d0 4c 3e 16 26 7c 3e 7c 76 71 3e
       -0.08299777 0.20001458 0.24623904 0.23580354
0001d0 ca 1d 8d 3e a5 74 50 3e 78 f1 be be 82 1e 1c be
       0.2756179 0.20356996 -0.372936 -0.15246013
0001e0 99 a0 80 3e 10 ce 23 3e 39 57 62 bd 47 9c 31 3e
       0.25122526 0.15996575 -0.055258963 0.17344771
0001f0 04 b4 f8 bd 7c d8 9d 3c d4 97 c6 bc bd 90 37 3d
       -0.1214371 0.019268267 -0.02424232 0.044815768
000200 ed aa 75 3e d5 41 80 3d 4d ae e7 bc 5d 84 70 3e
       0.23990984 0.062625565 -0.028281355 0.23487993
000210 36 7c 39 3e 00 a3 b2 bd 15 51 6f 3d 9c 8a 09 3c
       0.18113789 -0.08722496 0.058426935 0.008394863
000220 22 a2 d2 bd 84 bb f9 3d dd 5b 95 be 6c 23 9c 3d
       -0.10284831 0.12193969 -0.2917165 0.07623944
000230 a5 80 ef bc 22 9d 9a bd 00 44 95 3d ec 8c bd 3d
       -0.029236147 -0.07549502 0.072883606 0.09255394
000240 ad 75 89 be 67 3c 50 3e ac d1 8b bd 5c 88 0a 3e
       -0.26847592 0.20335542 -0.06827101 0.1352858
000250 02 0c 68 3d 92 97 95 3d b5 c7 38 be 8f 74 78 3d
       0.056652077 0.073043 -0.18044932 0.060658034
000260 59 8e 88 bd 99 c4 12 3d ee c0 e5 bd 97 83 25 3e
       -0.06667776 0.03583202 -0.11218439 0.16163479
000270 3b 2c 26 be 0d c4 a9 be a0 7d d0 3c ac f0 7d bd
       -0.1622781 -0.33157387 0.025450528 -0.0619971
000280 71 0c f0 3d cb 7c 0c be e6 59 6f be ad 94 8f 3d
       0.11721123 -0.1371948 -0.23374137 0.070107795
000290 3a b7 0a 3e 28 4c 24 bd 1b e5 5b bd f2 92 ad bd
       0.13546458 -0.04011169 -0.05368529 -0.08475293
0002a0 81 0c 06 3e e1 ce 50 3e c6 b6 5c 3e c1 0b 96 bc
       0.13090707 0.20391418 0.21554098 -0.018316152
0002b0 78 c9 75 be 45 2b 2d 3d 0c 1a da bd 39 81 5c bd
       -0.24002635 0.042277593 -0.10649499 -0.053834174
0002c0 97 f2 9b 3e c8 db ae bc 98 3d cf 3d 8c 2b 8b 3d
       0.3045852 -0.021345034 0.1011917 0.06795415
0002d0 f9 11 93 3d 9a 56 a0 3d 98 a9 8e 3e 5f 4f 62 be
       0.071811624 0.07829018 0.27863765 -0.2210059
0002e0 8b c7 07 3e 74 42 c7 bc c2 0d 8a be 2a 80 16 3d
       0.13259713 -0.02432368 -0.2696362 0.03674332
0002f0 d4 1f 79 3d 16 aa 26 ba 09 7f 64 3e fb e5 91 bc
       0.06082137 -0.0006357742 0.22314085 -0.017809859
000300 16 c5 43 be fa 1c 11 3d 35 0a 77 3d 68 aa 31 3d
       -0.19118151 0.035428025 0.06031247 0.043375403
000310 76 e9 b4 bb 57 71 b3 bb 82 47 62 be 62 a0 29 3e
       -0.005520995 -0.0054761576 -0.2209759 0.16565087
000320 e5 cd 8b 3e f9 7f 64 bd ca eb 3e 3c 9e 51 4e bd
       0.27305523 -0.055786107 0.011652896 -0.050370805
000330 0a f3 03 bd d9 d6 b4 bc 1c 34 98 3d 4c 56 73 be
       -0.032214202 -0.022075104 0.07431814 -0.23763388
000340 99 e2 a1 3e 67 c6 04 be b4 82 4a 3d 8f b6 17 be
       0.31618193 -0.1296631 0.049441054 -0.14815734
000350 8f 1f cb 3d 41 43 42 bd d7 b8 c0 3d 1f ea 44 be
       0.09918129 -0.04742742 0.094102554 -0.19229935
000360 46 86 a3 3d 7d 3f af 3d c8 9f 1e be 41 54 f6 bd
       0.07984595 0.08557031 -0.15490639 -0.12027789
000370 fa cc 22 3e 16 f1 4b 3e b7 2c f2 bd bb fb 03 3e
       0.15898505 0.19916186 -0.11824935 0.12888996
000380 9f 24 da bc 18 c4 45 bc a2 6a e2 bd 7f 6a 46 3c
       -0.02662879 -0.012070678 -0.11055495 0.012110352
000390 72 8b b2 bb 00 58 b8 3d 3d 3e 00 be 0e 15 d5 bd
       -0.005448752 0.0900116 -0.12523742 -0.104044065
0003a0 02 c0 79 be bd 09 03 bd 80 dc a7 bd 32 2c 71 3c
       -0.24389651 -0.03199171 -0.08196354 0.01472001
0003b0 c0 68 a6 bd 76 db 01 3d 27 6e 7d bd 14 1a f5 bd
       -0.08125448 0.031703435 -0.061872628 -0.11967865
0003c0 64 d6 e2 3d 11 aa 12 be 69 ca 66 bc 55 16 65 be
       0.11076048 -0.14322688 -0.014086344 -0.223718
0003d0 7e c4 57 be 05 eb e8 bc 39 92 48 3e b3 57 14 3e
       -0.2107105 -0.028432379 0.1958703 0.1448658
0003e0 8e 7a 24 3e c0 87 32 be 72 48 1b bd 92 14 a4 3d
       0.16062376 -0.17434597 -0.037910886 0.08011736
0003f0 40 39 69 bd 99 15 4f be 60 0c 16 be 43 96 41 3e
       -0.056939363 -0.20223083 -0.14653158 0.18904977

price_branch.lstm.bias_ih_l0 f4 [64]
000000 7b f4 8c 3d ae 2f 93 bc 6d 55 ea bd 21 a8 90 3e
       0.068825684 -0.017967071 -0.11442075 0.28253272
000010 74 6c 13 be d0 1c 97 3e d6 e5 25 3e b6 7d 60 bb
       -0.1439684 0.2951417 0.16200957 -0.0034254617
000020 61 ca 38 3e 0e 5f 3f ba 40 bb 0a bb fa 61 85 3d
       0.18045951 -0.0007300236 -0.0021168739 0.06512828
000030 6f 81 62 3e c2 b9 a0 3d 75 80 1e bd 35 ed 8d bc
       0.22119687 0.078479305 -0.038696725 -0.017325023
000040 24 01 f1 bd a5 0e 37 be 12 9f 86 be c8 d8 46 3e
       -0.11767796 -0.1787668 -0.26293236 0.19418633
000050 33 02 a5 3d 30 f2 e3 3d d1 f7 b3 3e 3a 03 36 be
       0.0805706 0.11130178 0.35150006 -0.17774668
000060 e5 94 99 bd 7d 96 95 bd 1c ff 88 3e 30 aa 7f 3e
       -0.074991025 -0.07304094 0.26757133 0.24967265
000070 60 92 72 3e 79 32 cb 3d 09 39 4b be f1 35 7d 3d
       0.2368865 0.09921736 -0.19845976 0.06181902
000080 4e 3c 1b be 60 ef 47 bc b8 a6 8e bd f4 e5 88 3d
       -0.15159723 -0.012203068 -0.06965393 0.06684485
000090 63 74 d5 3d c6 2d d6 3d 7a b3 2d be 37 e5 3b 3e
       0.1042259 0.10457949 -0.16962996 0.18349157
0000a0 97 4f 20 3e 85 5a da 3d e5 71 8e be f4 ad 85 3c
       0.15655361 0.106617965 -0.2782127 0.016318299
0000b0 0f 36 02 3d df 7f c7 bd 92 96 18 bd 65 e1 61 bd
       0.031789836 -0.09741186 -0.03725297 -0.055146594
0000c0 97 0f 28 3e ff 65 1a 3e 84 5a 8c be 69 9c 28 3e
       0.16412197 0.15077971 -0.27412808 0.16465916
0000d0 d6 6a 17 be a0 75 85 3e 09 bd 85 bd 02 5a 14 be
       -0.14786848 0.26066303 -0.06530196 -0.1448746
0000e0 d7 e0 40 3e 7d 14 5c be ca 12 18 bd da f2 e7 bd
       0.1883577 -0.2149219 -0.037127294 -0.11325617
0000f0 0d 92 1a 3e 86 a6 4a 3e 78 2a 8f 3e 01 fe ff bd
       0.15094776 0.19790086 0.2796209 -0.12499619

price_branch.lstm.bias_hh_l0 f4 [64]
000000 26 f4 a3 3d 77 38 40 3e 7b 45 9c be ae c7 89 3c
       0.08005552 0.1877154 -0.3052176 0.016818848
000010 90 ca 2b be ae ed 51 3d 3c 6b c5 3e 2b 47 44 3e
       -0.1677649 0.05125206 0.38558376 0.19167773
000020 00 e5 1c bd 57 3b 97 bd 4a dc 77 3e 96 7f cf 3d
       -0.03830433 -0.07384365 0.24205127 0.10131757
000030 52 ac 08 3e 98 7a 1c be 7d 22 89 bd e7 0b d9 3c
       0.13346985 -0.15281141 -0.06696031 0.026494933
000040 e9 37 6b 3e 89 55 6e 3e 00 82 35 be 20 fd 11 3e
       0.22970547 0.23274817 -0.17725372 0.14256716
000050 f5 aa c2 3d d6 8c 41 3d 42 ef 45 3e 23 a3 4a 3c
       0.09505264 0.047253452 0.19329551 0.012367996
000060 d8 e9 34 3e 75 79 cf bd 18 6f 00 be 79 17 a5 3c
       0.1766733 -0.10130588 -0.12542379 0.020152794
000070 f2 7e 2a 3e 9b 8d 22 3e 13 73 3d be c0 ad 76 3d
       0.16649988 0.1587433 -0.18500929 0.060224295
000080 b6 f3 55 3e ae df d2 3d b4 49 66 3e 5a 23 31 be
       0.2089375 0.1029657 0.22489053 -0.17298642
000090 57 6c 45 3d 77 18 35 be 57 72 53 3e 00 55 dd 3c
       0.048199024 -0.17685114 0.20649086 0.02701807
0000a0 f8 9d 03 bc 65 8d ed 3d 8b c5 25 be 77 8b dc 3d
       -0.008033268 0.115992345 -0.16188638 0.10768788
0000b0 69 b2 2f be 96 11 d9 3d a3 cb 29 3e 79 94 d3 bd
       -0.17157902 0.105990574 0.16581587 -0.10331053
0000c0 18 00 d2 bc f2 83 1b be ce 64 aa bd f0 63 56 bd
       -0.02563481 -0.15187052 -0.08320008 -0.0523414
0000d0 8e 1c b4 3c 29 9c 7b 3e 2d 70 bb 3d 63 38 3c 3d
       0.021986272 0.24571289 0.09152255 0.045952212
0000e0 cd ba 69 bd b4 f7 3d 3e 0f 85 c2 bd cb 7b 1b be
       -0.057062913 0.18551522 -0.09498035 -0.15183942
0000f0 09 4e 9a bd 3a ac 77 3e 06 06 f7 3d 99 b9 ce bd
       -0.07534415 0.24186793 0.12061696 -0.10093994
