models/checkpoints/news_lstm/news_lstm_v10_binary_5d_chrono.pt (torch, 52930 bytes, 19 tensors)

sentiment_branch.lstm_layers.0.weight_ih_l0 f4 [128, 16]
00000000: 7d70 3a3d 156c 77bd 1f58 3f3e ec14 463b
00000010: dc2c c5bd 340a 083e e274 043e 1912 1dbe
00000020: a29f cebd 985c 163e 2d03 96bd 3f0b 20be
00000030: d18d b63d dd75 86bd a07c c5bd 5ae7 74bd
00000040: cf79 8f3d c331 95bd 90b7 91bc 549d 07be
00000050: 4062 c1bc 31c6 e63b a77a ac3d f992 8abc
00000060: cb87 533e 76e7 873d 09f8 53bd 14cf f23d
00000070: 169c e33d 7a90 ca3d 3ebd 2cbe 4ad0 4abe
00000080: d52f 47bd 0b66 78bd 4150 06be c3ee 1abe
00000090: 1f8d 5bbe e81e 61be bda7 54be 4906 2d3e
000000a0: 0d2f 0f3d 83f9 73bd eeb4 213e f012 11be
000000b0: cc83 c83c 1065 1f3e 306d c33d 9fb4 003c
000000c0: db5c e73d 7155 13be e536 73bd 905c 21be
000000d0: 35dd 71be 2590 bfbd f0bc 263e 0c48 823d
000000e0: 611f eebb 015c f2bd c21f e1bd 62ab 9dbc
000000f0: 5720 2c3e 5047 2c3e b4db 2a3e ebdd 783d
00000100: 38b8 ab3d 5e7e 5c3b 10ca 613d bba9 ffbd
00000110: bb36 8ebd 8f34 18be 87e1 b83d f954 3fbe
00000120: 3cca 0bbe 6352 ed3b 29d2 37be b3a0 3fbd
00000130: 898a 8dbd 5e28 583d 92e5 f13d 9a8f 80bd
00000140: d713 43be 3e81 1dbe 95e2 b2bd 88c6 173d
00000150: 5419 c73a 51d0 4cbe c05b a93d 4d56 9e3d
00000160: 7197 03be e765 a03a 439f 9a3c 144f e93d
00000170: 8c56 603d 3236 ec3d f878 51bb 422a ae3d
00000180: 0277 febb 0ea1 bc3d a2ce 693e e6e6 56bd
00000190: bace ecbd 44f1 ed3c bd4c 85bd cc09 50be
000001a0: e3dd a9bd cc78 77bd 96a7 bdbd dbbb 3abe
000001b0: 4d76 503e 63d3 35be 7d7c 0dbe 935f 44be
000001c0: 12b7 d13d 08f8 8a3d 7c8a 013e a4eb 693e
000001d0: c2e4 e33d b9e6 b8bd 645e 663d 3043 04ba
000001e0: b138 073d f2fb 15bd 028f 8ebd 3432 63bd
000001f0: 1113 063e 05a6 853d e918 37bd 29bb c93d
00000200: e8a9 343e 4b3e 93bd 37bc 2abe 10dd 4f3c
00000210: 8d5f 3bbd 84e7 2f3e 0e22 f53d 1511 0c3e
00000220: 0d80 01be 9081 04bc 9510 e0bd a3c1 42bd
00000230: b61c 03bd e3b2 933d d18a f93c c315 763d
00000240: 8ec5 3a3d 3bf8 73bc fc30 1fbe d7f0 c4bc
00000250: 7dfe 64bc a702 fe3c 7547 593e 3bda 9cbd
00000260: ca1b 11bd 0f25 32bd e3f3 a03c 7f44 3a3e
00000270: 29da 243d 7a24 60bd 8e12 d4bd f94f 043b
00000280: b4a2 07be e86d 9cbd 0b65 8cbc 1971 b1bc
00000290: 7f9e 36be 658f 3bbd 9a73 a9bc a6c7 01be
000002a0: cfcf a83d 0f49 53bc b7b6 1e3e 4062 023e
000002b0: 2e61 98bb 44cb 313d 0ca4 c33c 95c5 1fbd
000002c0: 41aa 593c 45cf 7a3d d60c e4bd 75ea a83d
000002d0: aa2b d7bd c85e 22be cded c43d f554 e0bd
000002e0: e352 85bb dff9 ab3c a3bd 533d 17d0 3e3d
000002f0: 5906 bdbd 382d 823d 4982 04be cd20 bb3d
00000300: aa73 52be c136 a2bd 26fc 77be 5279 36bc
00000310: 94b9 9c3d 8db8 74be eef6 04be 88e5 47bd
00000320: 21f6 19be 0b65 8ebd ab56 413d ac0a 12bd
00000330: 1d4a f7bd 128e f23b 26dc 1abd 557a febd
00000340: 4640 0fbe 46d0 13bb 7e51 59be d8b4 0ebe
00000350: 8632 01bd fa1f 81bc 8cf9 23bd 10c0 c33d
00000360: c226 5bbd 5664 64be e7a1 0fbe 09e6 193e
00000370: 288a f2bd c6cc 46be cd9a aabc 7078 0fbe
00000380: 98df ac3d 8bb1 9abd ca2e f5bd ee5b 063e
00000390: 68d0 fc3d 3b51 3abe c256 f5bc ee7c b1bc
000003a0: b74d 27be 0be8 efbd 6f66 fd3d a44e 33bd
000003b0: 1b77 2bbd a5aa 463e ba76 173e ee99 05be
000003c0: 14a7 fbba b1f9 8abc 7d0f 7e3d aac7 3ebe
000003d0: a3eb 213d a35d e93d f56c adbd 6ca4 aabd
000003e0: b385 e63d 3e80 db3d 5803 c2bd 98fa 173d
000003f0: 92bb 523e 0e38 e23d 5c31 f8bd 4141 abbd
0.045517433 -0.06040581 0.1868596 0.0030224873 -0.09627697 0.13285142 0.12935212 -0.15338935
-0.10089041 0.14683759 -0.073248245 -0.1562929 0.08913768 -0.065654494 -0.09642911 -0.059790947
0.07005655 -0.07284882 -0.017787725 -0.1324361 -0.02360642 0.007042669 0.084218316 -0.016915785
0.2065727 0.066359445 -0.051750217 0.11855903 0.111137554 0.09890838 -0.16869065 -0.19806018
-0.0486296 -0.06064419 -0.13116552 -0.15130143 -0.21440552 -0.21984446 -0.20767112 0.16896929
0.03495698 -0.059564125 0.15791675 -0.1416738 0.024476908 0.15565896 0.0954231 0.007855563
0.11297008 -0.14388062 -0.059378523 -0.15757966 -0.2361954 -0.09353665 0.16283011 0.06361398
-0.0072669243 -0.118339546 -0.109923854 -0.01924676 0.16809212 0.16824079 0.16685373 0.060758512
0.08384746 0.0033644657 0.055124342 -0.124835454 -0.06944033 -0.148638 0.09027391 -0.18684758
-0.13651365 0.0072424873 -0.17951263 -0.046784114 -0.06911189 0.052772872 0.11811365 -0.0627739
-0.19050537 -0.15381333 -0.08734623 0.03705457 0.0015190043 -0.20001341 0.08269453 0.07731304
-0.12850739 0.00122374 0.01887477 0.11392036 0.054770038 0.115337744 -0.0031962972 0.08504154
-0.0077656517 0.09210406 0.2283273 -0.052466296 -0.115628675 0.029045708 -0.06508777 -0.20316237
-0.08294275 -0.060417935 -0.0926048 -0.18235724 0.20357628 -0.17756419 -0.1381702 -0.19177084
0.10239996 0.067855895 0.12650484 0.22843796 0.111276165 -0.09028382 0.05624236 -0.0005045412
0.03301305 -0.036617227 -0.0696087 -0.0554678 0.13093211 0.06525806 -0.04470149 0.09850151
0.17642939 -0.07189616 -0.16673361 0.012686983 -0.04574542 0.1717816 0.11969386 0.13678391
-0.12646504 -0.008087531 -0.10940663 -0.047547948 -0.032009803 0.07211854 0.0304617 0.060079347
0.04559856 -0.014890726 -0.1554603 -0.024040623 -0.01397669 0.031007124 0.21218665 -0.07658812
-0.035426892 -0.043492373 0.019647544 0.18190192 0.040247116 -0.054722287 -0.103551015 0.002018927
-0.1324566 -0.076381505 -0.017138025 -0.021660374 -0.17833899 -0.04579105 -0.020685006 -0.12673816
0.08242761 -0.0128958365 0.15499388 0.12732792 -0.0046502566 0.04340674 0.023881935 -0.03900679
0.013285221 0.061232824 -0.11135261 0.08247844 -0.10506375 -0.15856469 0.096156694 -0.10953704
-0.0040687188 0.020993171 0.051694524 0.04658517 -0.09229726 0.06356281 -0.12940325 0.09137116
-0.20551935 -0.079206 -0.24217281 -0.011137323 0.07652584 -0.23898526 -0.12984821 -0.048802882
-0.15035297 -0.06952866 0.047201794 -0.03565471 -0.12074683 0.00740219 -0.037807606 -0.12425677
-0.13989362 -0.002255456 -0.21222493 -0.13936174 -0.031542324 -0.015762318 -0.04003291 0.095581174
-0.05350376 -0.223039 -0.14026605 0.15029158 -0.118427575 -0.19414052 -0.020825768 -0.14010787
0.084410846 -0.07553395 -0.11971815 0.13121006 0.12344438 -0.1819505 -0.029948596 -0.021666016
-0.1633824 -0.117141806 0.12373053 -0.04377617 -0.041861635 0.19401033 0.14791384 -0.13047001
-0.0019199573 -0.016964765 0.06202649 -0.18630853 0.03953136 0.11394813 -0.084680475 -0.08332142
0.1125597 0.1071782 -0.09473294 0.03710422 0.20579365 0.11045848 -0.121187896 -0.083620556

sentiment_branch.lstm_layers.0.weight_hh_l0 f4 [128, 32]
00000000: c7b5 22be a533 c5bd 8310 ddbd 8a92 f13d
00000010: c9b8 11be ad97 b1bc 2ac0 6dbd b1ba 013d
00000020: 631a aebb 1fb0 7d3c 7188 ab3c 33ec 58bc
00000030: faba 4dbd c51e f2bc 3ed1 f23d 02f2 04bd
00000040: 7f43 143e 4eb2 283e e728 753e e61e 103d
00000050: 3363 31bd 0c73 cd3d 790d fbbd ed81 20be
00000060: 931f 48bc 3fcf 823d 6a38 12be c87e 1abd
00000070: 069b f1bd 4024 5bbe 6299 403c 291b bc3d
00000080: 4dbd c73d f361 4fbe e5d5 2bbe 389e 223d
00000090: 9885 c43d 1dfa 4ebd ee96 883a 8d39 b1bd
000000a0: 882a a53c 210f dcbd 99d8 833c 9e5a d3bc
000000b0: 9873 7abe e85f d7bd 2c82 46be 3c9e b4bc
000000c0: effa f63d 75ca c73d 5a2c 8f3e 67bb 833c
000000d0: 0fe0 2d3d e74f 5abe f487 28be 6b70 b53d
000000e0: 2c1b f8bd 82f5 f33c 608c 7ebe 9fcb 8c3d
000000f0: 83ad 20be 6f41 bdbd bb0f 83bd 9e54 513d
00000100: 9eec fb3d 4caa 543d 9c03 e1bc 56c2 bc3d
00000110: 930a c7bd c0bb 1f3e 87f1 34be 49bf 8c3c
00000120: b8d4 713d 9262 efbc 883b cebd b9ed 873c
00000130: f081 72bd cb6b b7bd c2ae 03be 2141 ffbd
00000140: c225 1fbe 5140 ab3c 5a5a aabd de87 8dbd
00000150: 9d8b e5bd aafa 993d 9eaf b8bb 6358 663e
00000160: 1b54 b43d b640 d73d 9d43 e5bd 0f1d 053d
00000170: fb9e 2f3e d22d 9a3a bfc3 50be 26fd 92bd
00000180: a0bc f9bd d4db adbd 0815 28bd 68d6 893d
00000190: 0709 20be 310d d4bd 54aa 4dbe 5f65 493e
000001a0: ae58 cabd aef9 0e3b 734f c0bd 7a77 2fbe
000001b0: 3260 f6bd 3879 773d 464b 2ebd 45ca 14bd
000001c0: 8745 323e e015 a33d f84c 00be 4c19 8fbd
000001d0: 7e53 b4bd b05b 4abd 6fe4 13be cfdf cfbd
000001e0: eadc e3bd 3601 bb3d de35 f63d 8d5b b23b
000001f0: 556e 45bd b49d 373c 588c 05be d4f7 873d
00000200: 1c08 16be bd6c d3bd 8fc7 a7bd 5cc0 3f3e
00000210: f656 04bd 668e 1f3e 8078 683c 77cf c73d
00000220: 7028 2dbe 2766 0ebd 6009 803d 3668 dd3d
00000230: 61e8 d43d 9417 01be 968a f23d 67f1 843d
00000240: 54df 113e 5cab bebd f662 783e a6c4 bf3d
00000250: 0cdf 4abd 03d7 65bd 5d03 ebbc e231 02be
00000260: 8946 15be 4fda 0abe 7b26 5c3d 4aaf c93c
00000270: b7d1 423e 5cf8 e93d 11e6 a3bd 833d 183d
00000280: 66ad 273d 8886 143e 111a 0f3e a559 253e
00000290: 081f e1bd c02e 183e 89d0 ac3d 133f fe3d
000002a0: bcb2 fbbc 8339 dd3d 9704 cc3b 71ba 85bd
000002b0: 4246 adba a2d5 093c 46ff 493d 1d10 37bd
000002c0: a12e 8dbd a9fa 003e d973 243e d3c6 00be
000002d0: 3a7f 193e 2b7e 253d 1743 883d 5da2 04bd
000002e0: 0eba d23d 1513 27be 8943 aebd fe9b e73d
000002f0: ed83 2f3e dd47 9bbd 2d75 c9bd 233d 03be
00000300: d609 8abd 4344 143e cfda ba3c c763 173e
00000310: ed1c 4f3e 4ecb 4dbe e44a 1abe 4dfc 50bd
00000320: e22c 22bd 451d 5cbd 6226 363d cd76 c5bd
00000330: 52c6 1d3c e9c4 133e 5170 84bd bda4 533d
00000340: d94a 143e 39ed ebbd bf58 c83d 6f72 15be
00000350: 3139 183d ea2d 22be 19af f5bd e87b a53b
00000360: 1c67 62be 835f cabc f7b4 dabd 3c97 843d
00000370: 891c f3bd 019b 1a3e 2b74 183e b3e1 76bc
00000380: 920c a43d 26e8 7a3d 162e cdbc b256 813d
00000390: 87b2 2abe 7cab 5cbc 42ce 1dbe 9e18 9d3c
000003a0: aff5 dfbd 4d18 d0bd 0a23 dabc 6674 d3bd
000003b0: a4de 093e b560 0ebd 1f96 47bc 90e9 e0bd
000003c0: 6929 5eba a00e 1fbe 3d46 153d 5e96 a83d
000003d0: cd6d 18be 201e 083e 3624 86bc bf37 623d
000003e0: 344c 09be d13e 82bd aa33 03be 0f51 f7bd
000003f0: 92a0 da3d a700 dcbd 72d9 0d3d 73d1 c9bd
-0.15889655 -0.09628991 -0.10794165 0.11795528 -0.14230646 -0.02167877 -0.05804459 0.031672183
-0.005313204 0.015483885 0.020939084 -0.013239908 -0.050227143 -0.029555688 0.11856316 -0.03245736
0.14478873 0.16474268 0.23941384 0.035185717 -0.043307494 0.10031709 -0.12258429 -0.15674563
-0.012214559 0.06387185 -0.14279333 -0.037718564 -0.117971465 -0.21400547 0.011755319 0.09184868
0.09752903 -0.20252208 -0.16780813 0.03970167 0.095957935 -0.050531495 0.0010420957 -0.08653555
0.020161882 -0.10745073 0.016094493 -0.025800046 -0.24458158 -0.105163395 -0.19385594 -0.022048108
0.120595805 0.097554125 0.27963525 0.016080571 0.042450007 -0.21319543 -0.16458112 0.08859333
-0.121145576 0.029780153 -0.24858236 0.06874775 -0.1569119 -0.09240996 -0.06399485 0.051106088
0.123009905 0.05192022 -0.027467541 0.09216754 -0.09718814 0.15598965 -0.1767026 0.017181056
0.059040755 -0.029221807 -0.100699484 0.016592847 -0.05920595 -0.08956107 -0.12859634 -0.12463594
-0.15541747 0.020904692 -0.083180144 -0.0691068 -0.1120827 0.075185135 -0.0056361696 0.22494654
0.08805104 0.105103895 -0.11194537 0.032498416 0.1715049 0.0011762923 -0.20387171 -0.071771905
-0.121941805 -0.084891945 -0.041035682 0.06730348 -0.15628444 -0.103540786 -0.20084506 0.19667576
-0.098801956 0.00218163 -0.09390154 -0.1713542 -0.120300665 0.060418338 -0.042552255 -0.03632571
0.17409335 0.07963157 -0.12529361 -0.06987247 -0.08804987 -0.049403846 -0.14442609 -0.1015011
-0.111261204 0.0913109 0.12021993 0.0054430426 -0.048200924 0.011207033 -0.13041818 0.06639066
-0.14651531 -0.103234746 -0.0819236 0.18725723 -0.032309495 0.15581664 0.014188886 0.09756368
-0.16909957 -0.03476539 0.06251788 0.10810892 0.10395885 -0.1260665 0.118428394 0.06491356
0.14245349 -0.09310028 0.242565 0.093636796 -0.04952912 -0.056113254 -0.028688127 -0.12714341
-0.14577688 -0.1355984 0.053747635 0.024619717 0.19025312 0.11424324 -0.08002866 0.037168037
0.04093685 0.14504445 0.13974787 0.16147478 -0.10992247 0.14861584 0.084382124 0.12414374
-0.030724876 0.10801985 0.006226133 -0.065297015 -0.0013219791 0.00841275 0.049315713 -0.0446931
-0.068936594 0.1259562 0.16059817 -0.12575845 0.1498994 0.040403526 0.06653421 -0.032381404
0.10289393 -0.16315873 -0.08508975 0.1130905 0.1714017 -0.07582066 -0.09836803 -0.1281629
-0.06740157 0.14479165 0.022809414 0.14784156 0.20225878 -0.20097086 -0.15067631 -0.051021863
-0.039593585 -0.05373885 0.0444702 -0.096418 0.009629803 0.14430584 -0.06466735 0.05167078
0.14481677 -0.11519856 0.09782552 -0.14594434 0.037163917 -0.15837827 -0.11996288 0.005050171
-0.22109646 -0.024703747 -0.106790476 0.06474158 -0.11870677 0.15098192 0.14888065 -0.015068459
0.0801021 0.06125655 -0.02504639 0.06315364 -0.16669665 -0.013468619 -0.15410712 0.019176777
-0.10935532 -0.10160885 -0.026628036 -0.103249356 0.13463837 -0.034760196 -0.012181788 -0.109820485
-0.00084747985 -0.15532923 0.036443938 0.08231805 -0.14885636 0.13292742 -0.016374689 0.055228945
-0.13407975 -0.063596375 -0.12812677 -0.120760076 0.106751576 -0.10742312 0.0346312 -0.098544024

sentiment_branch.lstm_layers.0.bias_ih_l0 f4 [128]
00000000: c469 193a 5f68 15be 2c75 913d 7b04 a23d
00000010: 28d4 8cbd e6f3 b0bd ced9 b53c ed6b c0bd
00000020: 5389 dc3d c471 e53d b330 a9bd 5622 87bc
00000030: cdcb 0bbe 8c04 073e 7899 e0bd 9690 1fbd
00000040: 71ce acbc 8393 debd 9167 bfbd c3b4 d33d
00000050: 9132 1e3e df62 f43d 047f 0c3d 56c0 8abd
00000060: 582e 703e d160 8dbd 65bb 833c 4ebb 403e
00000070: b62c 9b3d cce8 833d e858 28be e3e7 2abd
00000080: 13d8 1fbd c3be 21bd b3c1 343e 6199 b43d
00000090: 34ba 4d3e 4e76 3a3e 63f8 8bbd e2c6 b7bd
000000a0: 6d0a e2bd 2890 22bd 6c63 55bd 11de 783d
000000b0: b07b b3bd 83f2 8bbd 05a8 a13d 1a0c 453e
000000c0: eec9 ef3b 178e c4bd fb86 86bd 7c38 2f3e
000000d0: 1bad 3a3d a064 013e 31fc 51bb f644 90bc
000000e0: 60f0 273e 0eff 77bd be64 29be 6433 29bd
000000f0: ebe3 773d 1519 683e 8c29 173e 6bb3 d63d
00000100: 4621 973d 8b33 763c 0e5c 003e e003 b8bd
00000110: 5eae f5bd c14f 3e3e 53bd 87bc ef82 2a3c
00000120: 883d 813d 7316 90bd 2255 3abe a997 cb3d
00000130: 4c21 19bd 35e7 993d e924 13be 0b67 ef3b
00000140: 43aa 1b3d fe61 a93d 5bac b4bd 7ef8 f93d
00000150: 8ef8 c8bc 1061 7c3d 7bf6 393e b8fc 163e
00000160: 7970 0fbe 7464 4ebe 458e 0ebe ea70 4d3e
00000170: 49ae e63d 15ce 043e 6091 1fbe b6ff ccbd
00000180: 5b86 1a3e 6168 eabd e2d6 57bd abbe 1abe
00000190: 6af2 17be 1e63 143e 6537 1dbe c5fa e93c
000001a0: 06ec 14be ffb3 4d3b 732c 233b f36a 3abe
000001b0: b40d 623d 046d e63c 3213 063e 12cd 25be
000001c0: 15d1 05be 3e82 d6bd afb7 123e 2d61 0abe
000001d0: b9dc 8ebd e375 683d c27b 223e 40dc a53d
000001e0: e1c4 843e 27d9 ac3d 1f7b f9bd fc39 243d
000001f0: ff36 01be 4d38 d0bc 7372 3d3e 1b7f b33d
0.0005852247 -0.14590596 0.07102427 0.07911011 -0.06876403 -0.0864027 0.022198584 -0.09395585
0.1076838 0.1120334 -0.08261242 -0.016495865 -0.13651963 0.13185328 -0.10966772 -0.038956247
-0.021094533 -0.108679794 -0.093459256 0.10337212 0.15448977 0.11932921 0.03430082 -0.067749664
0.23455179 -0.06903232 0.016080568 0.18821451 0.07576887 0.06440887 -0.16440165 -0.04172505
-0.039024424 -0.039488565 0.17652015 0.08818317 0.20090562 0.18209192 -0.068344854 -0.08973481
-0.11037145 -0.03968826 -0.05209677 0.060758654 -0.08763826 -0.06833365 0.07893375 0.19242898
0.007317773 -0.09597414 -0.06568714 0.17111391 0.045575242 0.12636042 -0.0032041187 -0.017611008
0.1640029 -0.060545973 -0.16542336 -0.041308776 0.060520094 0.22665818 0.14761943 0.1048344
0.07379393 0.015026937 0.12535116 -0.08985114 -0.119961485 0.18585111 -0.016569769 0.010407194
0.06310564 -0.07035532 -0.18196538 0.09941036 -0.03738527 0.07514802 -0.14369549 0.007305985
0.03800417 0.08270644 -0.08821937 0.12205599 -0.024532583 0.061616004 0.18160431 0.14744842
-0.14007749 -0.20155507 -0.13921459 0.20062605 0.11263711 0.12969239 -0.155828 -0.100097105
0.15090315 -0.1144569 -0.052695163 -0.15111797 -0.14838567 0.14490935 -0.15353163 0.028561959
-0.14543161 0.0031387804 0.002489832 -0.1820486 0.05518885 0.028128155 0.1309326 -0.1619151
-0.1306804 -0.104740605 0.14327882 -0.13513632 -0.06975693 0.05675305 0.15867522 0.0809865
0.25931457 0.08439856 -0.121816866 0.04009436 -0.12618636 -0.025417471 0.1850069 0.08764478

sentiment_branch.lstm_layers.0.bias_hh_l0 f4 [128]
00000000: 9ae5 b53d 17ec 7abb ac10 51bd 750c 22bd
00000010: 1002 4fbd 56df 1a3e 875b 33be 7034 393d
00000020: 93d8 f5bd f5a5 0dbe 766a 023d 906b 8ebc
00000030: f9b0 19be 0c57 053e fd8d 273e 0373 e73d
00000040: c583 43be 390a 1fbe 31f8 91bb fba5 c8bd
00000050: f890 f03d 2b7f 273e 582d 9dbd 60f0 88b8
00000060: 42ce 093e cfe8 cb3d 274b 1cbe b72f 8e3d
00000070: 4253 05bd 4bb6 193e aebe e5bd bda0 cf3d
00000080: 21ed 133e 611e a0bd 70ea 223c 6788 c93d
00000090: 18fd 1f3e 582d af3d f955 92bd b892 ccbd
000000a0: e5b5 36be bdad 963d e50b 3d3e ab95 d83d
000000b0: d855 a83d 2d75 0dbe 2246 d5bc 7498 21bd
000000c0: 86d8 7fbd bce6 053e 32fe 013d f182 81bc
000000d0: 3cbb 713d 2616 e0bd 0592 1b3e 43fb 5a3d
000000e0: eef3 1bbd a239 2bbe 7463 4b3d 185c d0bd
000000f0: 511f 5d3d 9bd2 313e f118 a03c b410 2c3d
00000100: 02e5 ec3b 33e0 0dbe 51bf bc3d d4c0 04bd
00000110: 95b9 23be fcc1 b7bd 762d 253e 40e0 233e
00000120: ac3d 11bd 11b3 123e 1e21 c93d 6f7f 883d
00000130: 7493 293e 6479 bc3d f0d4 a73d 97f1 78bd
00000140: 045c 213c 9f9e e23d 73f2 c53d c12a 91bc
00000150: 0c75 853d ba86 91bc ceb1 debd dc39 1dbe
00000160: f0eb 8b3d 76e0 e1bd f139 fb3c e51f 2a3b
00000170: 652b 7f3d d175 18be 686f 34be 7036 a7bd
00000180: d052 893c 9c3a ac3d 6acb 413e d174 9c3d
00000190: 26d3 e43d e800 423c 7746 023e 1638 dd3c
000001a0: d1e9 d83d 23f2 f6bd 23a6 f43c ea75 8ebe
000001b0: 7cc9 883d de1e 9ebd fe65 14be fe41 233e
000001c0: 3e14 73bd f825 8dbd 23a8 46bd 75f5 953d
000001d0: d8a9 5d3d aaf6 2fbe 6324 ccbd c9c9 c23d
000001e0: 9108 903d 3e22 153e 4279 04be ee66 efbd
000001f0: 356c 403e 0f46 f23c 0e6c 6abd fafe e63d
0.08881684 -0.0038287693 -0.05104129 -0.03956266 -0.050539076 0.15124258 -0.17515384 0.045216024
-0.12004199 -0.13832839 0.03183981 -0.017385274 -0.15008916 0.13021487 0.16362758 0.113012336
-0.19093235 -0.15531243 -0.0044546355 -0.09797283 0.117464006 0.16357104 -0.07674664 -6.529759e-05
0.13457587 0.09956514 -0.15263043 0.06942695 -0.032550104 0.15010945 -0.1121801 0.1013808
0.14445926 -0.07818294 0.00994359 0.0984047 0.15623891 0.085535705 -0.07145304 -0.09988922
-0.17842825 0.07357357 0.18461569 0.10575422 0.082194984 -0.1381423 -0.026034418 -0.03945203
-0.062462352 0.130763 0.03173656 -0.015809508 0.05901645 -0.109417245 0.15192421 0.053462278
-0.038074426 -0.16721204 0.049655393 -0.101738155 0.053984944 0.17365496 0.019543143 0.042008117
0.0072294483 -0.13855056 0.09216178 -0.032410458 -0.15988763 -0.089725465 0.16130623 0.16003513
-0.035459206 0.14326121 0.0982077 0.06664931 0.16560155 0.09202841 0.081949115 -0.060777273
0.009848598 0.11065411 0.09665384 -0.017720582 0.065164655 -0.017764438 -0.10873757 -0.15354103
0.06832111 -0.11029141 0.030667277 0.0025958952 0.062297244 -0.14888693 -0.17620623 -0.0816468
0.01676312 0.08409616 0.18925253 0.076394685 0.11173086 0.011841036 0.12722193 0.027004283
0.10591472 -0.12057903 0.029864376 -0.27824336 0.06679055 -0.07720731 -0.14492032 0.15943143
-0.059345476 -0.068920076 -0.04850019 0.07322208 0.054117054 -0.17183939 -0.09967878 0.09511144
0.07032884 0.14563844 -0.12936881 -0.11689554 0.18791278 0.029574422 -0.057231955 0.11279102

sentiment_branch.fc.weight f4 [32, 32]
00000000: e0d2 5a3c be81 293d 4e11 d53d 48da 38be
00000010: 6de7 d0bd 46c4 8dbd 41e8 99bd 1fe1 003e
00000020: 141d 8f3d e884 70bd 6bf1 abbd 7cc0 973d
00000030: 5f25 163d a482 21bd 8eff a73d d120 093e
00000040: 0a8d f93d fd1b 213e 51d6 053d 2e54 503c
00000050: 736c 483e 4661 fa3d db97 ac3d 0e9e c63c
00000060: 1e49 253d 51c1 96bc 772c 34be 5fbe d83b
00000070: 2fdd d03d c960 af3c 85da cbbc e242 f3bd
00000080: e64b b4bb ec42 aa3d 4091 273d de96 4a3e
00000090: 6ecd 2f3d 3e9d 3d3c 7b51 a03d 6a86 b3bd
000000a0: 1e1a 00bd be59 9abd 0df7 0fbe fe90 013c
000000b0: d9b7 bd3d 2096 0e3e 15db 7abd 20e0 893d
000000c0: 8ff3 b23d 83dc 8d3d 9781 203e edad 35be
000000d0: 013b e53d da65 bc3d 2a82 2cbe dc27 26bd
000000e0: 0912 6c3d 2c43 08bd fa72 cd3b 8ad9 c33c
000000f0: 03a5 a4bd 8eaf 013d 0267 f33d a0fa f23c
00000100: 137c 523d 91cb dc3c efe3 bdbd e081 57bc
00000110: a416 61bd 2402 3fbe 8146 213d d1cd b23d
00000120: a4fa 2fbe 9ae5 2f3d ff6d 20bd 61ef 9d3d
00000130: 8af9 6bbd c1de 9b3d 787b 57be 567d 53be
00000140: eaf9 f43c 28e2 0b3e 0248 1c3e 92a0 a9bd
00000150: 1a6b 15be 4197 b7bd 9ca3 5cbb 0d93 15be
00000160: e939 f33c 820b bcbd 853a 4c3e 41ab 1fbe
00000170: 3b6c 04bd 5c3f 5b3c 671e 4e3c 1822 29be
00000180: 8159 a93b 8865 08bd d5cd 383e 8912 b6bd
00000190: 1b8e ec3c 366e 133e 05b0 7bbd 626e da3d
000001a0: ffaf 57be 7b71 0a3e e2da 47be 07d9 a8bd
000001b0: f26a 913d 68e2 143a bb05 06be 9799 0e3e
000001c0: 2158 b3bd 71aa 013e ac94 ceb8 26cb ebbd
000001d0: edff 13bd 5aca d13d 84bd b0bd a994 163e
000001e0: 4a30 eb3c 5ad9 b0bd 6f09 0dbd c1ab 16bd
000001f0: fe8d 0fbe 2da8 ec3c 6f42 f6bd 606b 5f3d
00000200: 2398 373d f34b 49bd 7937 0abe 153c c5bd
00000210: 119a 8cbd 553c 82bd 2077 f33d 4543 e43d
00000220: ce34 05be 10a3 bcbd 4a23 0bbb a919 823d
00000230: 47ca efbd 4ab7 113e 152c e2bd a321 e33d
00000240: 9d73 233d 4a2c e73d 335e 273e 65e5 25be
00000250: 1b09 ef3d 459e c9bc 402a 5bbe 4d19 f7bd
00000260: abe9 65be e275 5ebd 7e80 49be f02e 813d
00000270: 02fc 0cbe 5387 c6bd ce3d e9bd 75a1 293e
00000280: 5fbd 4fbd 4c1a dfbd 9905 9b3d 5242 08bd
00000290: 13e8 92bc feea f9bd 490c 1c3c 022e ee3d
000002a0: b66c 6fbd bfa1 b03d 04b8 c4bd 9b1a 95bd
000002b0: 669b 093d 3725 d03c a636 c8bd f2d9 23bd
000002c0: f597 de3d 812a 0cbe 90ae 423e 8458 04bc
000002d0: 37a2 233e b470 07bb 4f52 8e3d 8176 073d
000002e0: d962 293e b282 bbbd de95 303e 1c06 313d
000002f0: ab43 ccbd 3962 4a3e 7df2 a0bd d5de 1bbe
00000300: d5be 58bd fef4 8c3a 6fa3 093e 9f17 10be
00000310: 2985 253d bfcb b9bc 356d b4bd 6025 283d
00000320: 94a2 53be 9c87 273d 5002 10be 28f0 96bd
00000330: cb30 083e 7fee 38be ff03 15be 98ee 07be
00000340: fa3e e6bd 2b94 33be 25f9 1ebe ce5a 203e
00000350: 7622 50be fee2 05bd ca99 05bd 33f5 4e3e
00000360: 332d 663e 6bb9 cebd fca9 133e d3a3 733c
00000370: 1d35 c33c 4c4c cb3d c4ab 5bbd 1a5f ed3d
00000380: 75f9 86bd 3b41 f8bc 1902 eebd 716c a5bd
00000390: 2c4f f73d 1d6b 38be 8e8e babd b847 acbd
000003a0: a34b 0c3e 874e 51bb 7fc6 e63d 4ff5 903d
000003b0: 0cc6 a7bd 6fe4 0fbe 4f5d 323e 7a6a cb3d
000003c0: e812 1ebe 8d26 5cbd 3068 88bb 2769 b33b
000003d0: cc97 fb3d a1b9 24be 990f 02be d7ea 52bd
000003e0: 8c95 a13d 5255 393e 4a3e bcbd 06d6 c0bd
000003f0: eeca 2bbd b7cd 4d3e fc41 a23d 0cc6 e3bc
0.013355941 0.041383497 0.10403691 -0.18052018 -0.10200391 -0.06922202 -0.07515002 0.12585877
0.06987968 -0.0587205 -0.08395656 0.0740976 0.036656734 -0.03943123 0.0820304 0.13391425
0.12185104 0.15733333 0.03267509 0.0127153825 0.1957262 0.12225585 0.08427402 0.024245288
0.040352933 -0.018402727 -0.17595087 0.006614491 0.101984374 0.021408455 -0.024884472 -0.11877991
-0.005502212 0.083135456 0.040910006 0.19784114 0.042920522 0.011573134 0.07828041 -0.08765872
-0.031274907 -0.07536648 -0.14059086 0.007908104 0.09263582 0.13924456 -0.06124409 0.067322016
0.08737861 0.06926825 0.15674435 -0.17742129 0.11192895 0.09199114 -0.16846529 -0.040565357
0.057634387 -0.033267185 0.00626981 0.023907442 -0.08039286 0.031661563 0.118848816 0.029660523
0.051387858 0.026952537 -0.092719905 -0.013153523 -0.054953232 -0.1865316 0.03937388 0.087306626
-0.17185456 0.042943574 -0.0391674 0.077116735 -0.057611026 0.07610846 -0.21043193 -0.2065328
0.029904325 0.1366049 0.15261844 -0.082825795 -0.14591637 -0.08964396 -0.0033666855 -0.14606877
0.0296907 -0.091818824 0.19944198 -0.15592672 -0.03232978 0.013381805 0.012580491 -0.16516912
0.0051681404 -0.033299953 0.18047269 -0.08890254 0.028876355 0.14397511 -0.061447162 0.10665585
-0.21063231 0.13519852 -0.19517091 -0.0824452 0.07100476 0.0005679489 -0.13088124 0.13925777
-0.08757044 0.12662674 -9.850538e-05 -0.11513357 -0.03613274 0.102436736 -0.08629897 0.14705147
0.02870955 -0.086352065 -0.034432825 -0.03678489 -0.1401901 0.028888786 -0.1202439 0.05454576
0.044822823 -0.049144696 -0.13497724 -0.096306 -0.06865323 -0.06359164 0.11887956 0.11145643
-0.13008425 -0.09210789 -0.002123075 0.063525505 -0.11708503 0.14230075 -0.11043564 0.110904
0.03990518 0.11287744 0.16344528 -0.16200788 0.116716586 -0.024611602 -0.21402836 -0.120653726
-0.22452419 -0.05431164 -0.19677922 0.06307781 -0.13768008 -0.0969378 -0.113887414 0.16565497
-0.050717708 -0.108936876 0.07569427 -0.033266373 -0.017932927 -0.12203024 0.009524413 0.11629869
-0.058453284 0.086246006 -0.09605411 -0.07280465 0.033595465 0.02540837 -0.09776048 -0.04000277
0.10868827 -0.13688089 0.19011903 -0.008077744 0.15979849 -0.0020666542 0.06949293 0.033072
0.16541614 -0.091557875 0.1724467 0.043218717 -0.09973844 0.19764031 -0.07858751 -0.15221722
-0.052916367 0.0010754166 0.13441251 -0.1407151 0.040410195 -0.022680162 -0.08809892 0.04105127
-0.20667487 0.04090081 -0.14063382 -0.07370025 0.13299863 -0.18059729 -0.14552306 -0.1327461
-0.112424806 -0.1753699 -0.15524729 0.15659639 -0.20325646 -0.03268718 -0.032617368 0.20210724
0.2247818 -0.100939594 0.14420313 0.014870602 0.023829037 0.09926662 -0.053630605 0.11590405
-0.06590549 -0.030304542 -0.11621494 -0.08077324 0.12075648 -0.1800961 -0.091092214 -0.08412117
0.13700728 -0.0031937675 0.11268329 0.07078039 -0.08192071 -0.14051984 0.17418407 0.09932418
-0.154369 -0.053747702 -0.0041628107 0.0054751816 0.12284812 -0.16086437 -0.12701263 -0.051493492
0.07889852 0.18098953 -0.09191568 -0.09415822 -0.041941576 0.20098005 0.07922742 -0.027804397

sentiment_branch.fc.bias f4 [32]
00000000: db85 a03c b71f 3cbe c5b4 9fbd 5735 133e
00000010: be74 3dbd c32e eabd 11b7 49bd db27 b63c
00000020: 13fc 283d 0c9e db3d 8430 cebc 04a0 91bd
00000030: 8e66 b8bd d30d 513c 05b0 003e 92e8 04bc
00000040: fb96 973d c7a8 493d 4195 233e b9ff 4abd
00000050: 84b7 353d 18e0 ee3d 5d4f 85bc 75c2 3fbd
00000060: 7900 723c fae4 13be 70ee 93bc 7937 d9bd
00000070: 53a4 93bd 2a42 f03d 49ba 493d 1136 c2bd
0.019595077 -0.18371473 -0.07798151 0.14375816 -0.046253912 -0.114347 -0.04924685 0.022235801
0.04125602 0.107235044 -0.025169618 -0.07110599 -0.09003936 0.012759644 0.12567146 -0.00811209
0.07401844 0.049233224 0.15974905 -0.049560282 0.044364467 0.11663836 -0.016273195 -0.046816308
0.0147706205 -0.14442816 -0.018058032 -0.10606284 -0.07209077 0.1173137 0.04924992 -0.094829686

price_branch.lstm.weight_ih_l0 f4 [64, 5]
00000000: 584a 253e f6b2 943d 28b7 5bbe 0408 853d
00000010: e436 56be 5b8e 6bbe 64f3 5a3d a45f ca3d
00000020: 9a48 9b3c 32f6 713d c65f 963d 3862 26be
00000030: fec1 2dbd 465e 053d 819a 55be 89f0 0d3e
00000040: 8ff9 943d 8cfc 993d 4c9e c5bd 706c 1c3d
00000050: 145d 803c ba97 d8bc a7b7 d83d 6c76 6e3e
00000060: a314 593e a533 adbd aa80 6c3d 3309 3dbc
00000070: 6b7e 6ebe 516f 243d 2e7a 003d 11ed 82bd
00000080: 98ca 8ebe 92c8 30be 7000 90be 6fb9 883e
00000090: b471 95bd 9dcb 903d 9a46 6d3e cfa1 203e
000000a0: b50c 7dbd e22d 2d3e 0bee 79bd c79a 03be
000000b0: c8c3 9bbd 4f27 c4bd 268d b83d 6da3 29be
000000c0: cf91 ad3c f4f5 f1bd d076 42be e628 173e
000000d0: 1b96 2d3e 2072 b53d 37af 9fbe 114c 1a3e
000000e0: 803b 67be 1d7e 403d 3665 25bd f214 b4be
000000f0: ab8e 6fbe ac55 8e3d cbbc ee3d 14fe 0c3e
00000100: 054a 15be 19c9 c5bd 6c0d 46be 3c19 2abe
00000110: 1130 afbd 2ff8 0bbd bc91 0fbe 777d 173d
00000120: 5637 57bc 4599 7bbd 3fbd f53d c8c7 65bd
00000130: c7ee 2abe 697e b0bb 1e24 48be 7f5a 793e
00000140: 089b 17be 48a7 1fbc f6d9 11b9 7e4e 973d
00000150: 893e 133d 236f 4a3e d55e 12bd 8422 be3d
00000160: c411 823d 6959 a93d 4c21 9839 b5eb 713e
00000170: e8de 3a3e f9ef 163e 2a69 923d 1f2c 3dbc
00000180: 92da 2d3d 547d f03d 9cf7 3b3d 2fbf 5bbe
00000190: 254c 073e 9c6b 803e c067 ea3d 3003 98bd
000001a0: 049f 3ebe 3320 d53d e50c c23d 3a17 033e
000001b0: d8d3 50be f6ba 093e b7cd dbbd 9e1c 863d
000001c0: f3cb 12be f005 7fbd 7ea5 513d f32c 8d3e
000001d0: 745c a33e 5d9d f03d 2d8c ac3e c9a6 68bd
000001e0: 44bb a23c e5ca c5bc 909a 95bb e9df 2cbe
000001f0: 9c24 1abe 7b82 4abc 9e0d 9c3d 34cf 683e
00000200: 5943 bc3c 8fbd 5e3e 2631 443e 0c0f 6ebd
00000210: ba13 99bb cfe8 c63d 1609 6fbe 7e08 483c
00000220: 8ebc 793e 03f7 b73c 17c7 7bbe 5458 97be
00000230: cdb8 613e ae2c 6bbd b289 15be 02f0 0fbd
00000240: b5f2 96bc e264 0f3e a24a 68bd 3032 5abe
00000250: 0fa9 5dbe adca 443e f3ab 99be 6c34 f53c
00000260: 3ba0 623e 4bdc 183e d121 82bd 14b9 553e
00000270: 6d4d 98bd d049 483e c716 893e 8822 3e3e
00000280: 4397 c93d 5708 55bc 07c5 863d fb82 4fbd
00000290: fe50 393e fb7c ff3d 3225 d8bd 717b aebd
000002a0: b340 75be 1d61 243e 35e9 88be 6fae 13be
000002b0: 56ab 2bbe b639 ac3d 3bad 86be 1261 963e
000002c0: 475a 54bc 38d7 1ebd 2ad7 323c 88f9 c53d
000002d0: d908 123d 3ecb fabc ebc5 19be 855f 823e
000002e0: da8a 643e 664c 643e 9664 2a3e 61fb 96be
000002f0: 0d4c 493e f6d5 a4bc 0ee1 993c 0909 4b3e
00000300: c9aa 69be 6d0d 443e 05c3 9bbd b0ce 0bbe
00000310: 231f 0b3e ff1b 94be dcc3 81be 1628 60be
00000320: ebfb ae3d 7cc2 9a3d fd92 70be 0630 2dbb
00000330: 88a0 83bd e95e 3b3e 6d9a 1bbe 1e12 2c3d
00000340: 2171 063c 3bb0 7d3e de35 a5bb addb 6abe
00000350: 3043 b03d 5b65 88be 8f03 43bd 9315 ae3e
00000360: 1fb4 893e 8593 96bd 12fc 05be fd87 903e
00000370: a771 3c3e d92a 703e 0b0b 83be 07b3 863e
00000380: 2f73 903e 5a95 c2bd 9aed 2cbe 724c 8d3e
00000390: 6e06 2f3e 45ed 6ebd e6e6 113e 643c c13c
000003a0: f2a2 253e 01b3 a43b 8940 62be bad4 1abe
000003b0: 143b 39bd 0a38 cfbd 3580 463e 2ac1 8a3d
000003c0: e292 963c a5a6 883e 4c25 d43d 2531 4f3a
000003d0: c4cd bcbd f778 593e f9a7 ffbd 0c4d a4be
000003e0: f2d8 e13d 613c 3ebb f47f 97bd 8f27 93bc
000003f0: f2de c5bd 7e09 9abd 4f07 4fbe 9593 f7bd
0.16141641 0.072606966 -0.21456587 0.064956695 -0.20919377 -0.23003523 0.05345477 0.09881523
0.018955518 0.05907268 0.07342486 -0.16248405 -0.042421333 0.03256061 -0.2085972 0.13861288
0.07274162 0.075188726 -0.09649333 0.03818935 0.015669383 -0.026439536 0.10581904 0.23287362
0.21199279 -0.08457116 0.05773989 -0.011537838 -0.23290412 0.040145222 0.03136652 -0.06392873
-0.27888942 -0.17264012 -0.28125334 0.26703975 -0.07297078 0.07070086 0.23171464 0.15686725
-0.061779696 0.16912034 -0.06101803 -0.12852012 -0.07605702 -0.0957781 0.09011297 -0.16566248
0.021187691 -0.1181449 -0.18990636 0.14761695 0.16951792 0.08859658 -0.31188366 0.1506808
-0.22581291 0.04699527 -0.040379725 -0.3517223 -0.23394267 0.06949934 0.11657103 0.13768798
-0.14579017 -0.09657497 -0.19341058 -0.16611189 -0.0855409 -0.034172233 -0.14020437 0.036984887
-0.013135752 -0.061425466 0.119989865 -0.05609873 -0.16692649 -0.005386163 -0.19545028 0.24350928
-0.14805233 -0.009744473 -0.00013909474 0.07388018 0.03594831 0.19768958 -0.03573497 0.09283927
0.06351045 0.08269007 0.00029016507 0.23625071 0.18249094 0.1473998 0.07148965 -0.011546164
0.042444773 0.117426544 0.045890436 -0.2145965 0.1321264 0.250821 0.1144557 -0.07422483
-0.18615347 0.10406532 0.09475116 0.12801829 -0.20393312 0.13450226 -0.10732596 0.06548427
-0.14335613 -0.06226152 0.051183216 0.27573356 0.31906474 0.11748765 0.33700696 -0.056799684
0.019864686 -0.0241446 -0.0045655444 -0.1688229 -0.15053028 -0.0123602105 0.07619785 0.22735292
0.022981333 0.21751998 0.19159374 -0.05811982 -0.004671541 0.097123735 -0.2334331 0.012209056
0.24388334 0.022456652 -0.24587665 -0.29559577 0.22043152 -0.057415657 -0.14603308 -0.035141
-0.018426279 0.14003327 -0.0567118 -0.21308208 -0.21646522 0.1921794 -0.30014 0.029932223
0.22131436 0.14927785 -0.06354106 0.20871383 -0.07436643 0.19559407 0.2677519 0.1856786
0.09843304 -0.013002477 0.06580549 -0.050662022 0.18097302 0.1247501 -0.105539694 -0.08519638
-0.23950462 0.16052671 -0.26740423 -0.1442201 -0.16764578 0.08409445 -0.2630404 0.29370934
-0.012960977 -0.038779467 0.010915557 0.09666735 0.03565297 -0.030614492 -0.15016906 0.254635
0.22318593 0.22294769 0.16639933 -0.29488662 0.19657917 -0.020121556 0.018784072 0.19827665
-0.22819056 0.19145747 -0.076055564 -0.13653064 0.13586096 -0.2892761 -0.2534474 -0.21890292
0.08544143 0.07556626 -0.23493572 -0.002642633 -0.06427103 0.18297924 -0.15195628 0.042009465
0.008205683 0.24774258 -0.005041822 -0.22935362 0.08606565 -0.26639828 -0.047610816 0.34000835
0.26895234 -0.07352356 -0.13084438 0.2822875 0.1840273 0.23453845 -0.25594363 0.26308462
0.28212878 -0.09501143 -0.16887513 0.27597386 0.17092296 -0.058331747 0.14248237 0.023588367
0.1617544 0.0050262217 -0.2209493 -0.15120211 -0.045222357 -0.101181105 0.19384845 0.06775124
0.018380586 0.2668964 0.10358676 0.00079037464 -0.09218934 0.2123755 -0.1248321 -0.32090032
0.11027707 -0.0029027688 -0.07397452 -0.017963199 -0.09661664 -0.07521342 -0.20217632 -0.12088696

price_branch.lstm.weight_hh_l0 f4 [64, 16]
00000000: 4ffc 8abe 6e79 3b3e 049e e93d faf1 2c3e
00000010: 1469 b13c 93b3 aebd a87f b5bd b66c 08be
00000020: 624f 3abe effb b63d a665 4d3e 0e32 5f3e
00000030: c39e 45be 97c8 553c 45b5 103e d2f8 3abe
00000040: 802c 663e 62e0 243c 2865 363d 390b 8ebe
00000050: 51d5 013e 2da3 403e b82a aabd 79ff 723e
00000060: 1ebf 9f3e b0b5 be3d 4bc0 683e 9644 6bbe
00000070: ca2a 26be 24ff d83d eaea bc3d de55 51be
00000080: d875 69be bda4 48be 5ef8 4a3e 6c1b f53d
00000090: f6bd bbbd da4a a53d d521 29bd e373 49be
000000a0: f49e 0dbd ddfa 0ebe 07d5 9c3e eef3 2bbc
000000b0: 73fc 83be e195 9f3d fd28 66be 1acf 3dbd
000000c0: cf8e 0e3e 4b46 523d 3fd7 31be 0dc6 88bd
000000d0: 42ee 4f3d 51d7 3bbe 23bc 913e 6abe 813e
000000e0: e11b 8c3d d115 a3bc 2d3a 1dbe a405 53bd
000000f0: e1e6 bd3c 886e 6fbe 31ac 343e 0992 81be
00000100: f48b 1a3a 5d42 723e 75ef b33a 71b0 713e
00000110: 9f4f 10be a04b 28be 9038 21bd 6722 21be
00000120: 93c1 d1bc 942e 81be f886 043e 7a4f cb3d
00000130: cfe1 4c3e 9614 43be 6a70 2c3d 8ef5 603e
00000140: bc0b 643e f64d c73d a953 823e b0b4 5b3e
00000150: 02fc 85be 5eff adbd 1a08 86be a19b 6bbd
00000160: 0f0e d4bd 3ac6 88be 9c8e d4bb 184f cb3d
00000170: edc8 ab3d 1ff9 de3d 4ab9 45bc b8cc 313c
00000180: e19f 10be 5d02 b93c 51af a9bd 76fb 1cbe
00000190: 2289 263e 7c5f 24be 82b4 f5bd e995 8d3e
000001a0: a3b6 013d 48ef 89be 39c7 1b3d 0b85 563e
000001b0: 6338 afbd 44ed 11be d7c8 893e ec1f 313e
000001c0: 3a1a 9cbd abe1 a13d 715b 4fbe 3613 243d
000001d0: e96b 5d3c 48bd 813e 5d20 993e 60c7 81be
000001e0: dcf4 1f3e 77cd 543e c3e6 10be 78f6 243e
000001f0: 4d2d 0ebe ab3c e23d 5050 1abe 108a 8e3e
00000200: fa4a d9bd 9813 12be 9fce 93bd b4ea 2c3e
00000210: ec14 873e b607 a9bd 9c87 8bbd d625 35bd
00000220: 95a1 79be d3e4 2c3e 8c2f 97be 6e1d f3bd
00000230: 1882 703e b9fd 123e 53c3 29bd fe61 3ebd
00000240: 0e36 893d d994 58be b011 303e 12f9 9abd
00000250: 277f 9dbd 82e5 2cbe 366d b6bd b9da e13d
00000260: c674 8d3d a918 e83d 0e93 363d 110d 523e
00000270: 5f70 0c3e 446f 2bbe e348 4ebe 364c eabd
00000280: 3268 433d bc35 87ba 3d12 34be cc08 5bbd
00000290: 7140 263e 03f5 11be 1054 1abc 5ed3 e23c
000002a0: 437d 00bc bc0c 0fbc d153 893d 69b5 d93d
000002b0: 74dd 12be 183e a0be 3462 513d a088 18be
000002c0: 4712 b6be 4e61 9fbb 5be0 ca3b 6af8 373d
000002d0: 62af fa3d f1b9 02be 9d45 4c3e 1532 913c
000002e0: bf80 92bd 7685 66be 332f 1fbd a559 d13d
000002f0: 202c aabd 7603 92bb cde7 b63d b7ff f53d
00000300: b0ba f63d bebc 6fbc 6148 19be 9a32 e83c
00000310: 9a37 48be 39a1 f23c d217 7d3d c296 82bd
00000320: e5f5 313e 02f5 0d3e dd8f 323d 8235 003e
00000330: 1e62 373d 8b13 eb3d cf89 233e 347e 403e
00000340: 940a 4fbe 7353 14bd 5e3c 94be d815 9cbd
00000350: 631b 363e 0347 56bd 3bad 3f3e c17c 10be
00000360: 9652 ed3d 2dc5 7ebe d03f a93d ce17 debc
00000370: 95e1 9bbd 70c1 5bbe 098a 69bd ddf6 953d
00000380: 64dc 303e 122d 843d 78ba e73d 3eda 56bd
00000390: 9264 053e 9952 5e3e fe70 a9bd 2518 723e
000003a0: eca6 2ebe fd4f f2bd eecf 71be ec70 c9bd
000003b0: 5ecb 2fbe f9c1 f23c a930 4c3e 7075 86be
000003c0: a3f5 dd3c 577d c7bd d2f9 00be 32b6 013e
000003d0: 8d87 1d3e 6731 1bbe 6e8f 443e 1614 503e
000003e0: 0ca4 05be 59be d63d d0c0 20be 1671 6ebe
000003f0: f5d2 1fbe a947 57be 1a64 30be 6ca5 aabd
-0.2714562 0.1830804 0.11407092 0.16889182 0.02165655 -0.08530345 -0.08862239 -0.1332272
-0.18194345 0.08934771 0.20058307 0.21796438 -0.19298844 0.013048313 0.14131649 -0.1825898
0.22477913 0.010063263 0.044530064 -0.27742937 0.1267903 0.18812247 -0.08308929 0.23730268
0.31200498 0.09311998 0.22729604 -0.22975382 -0.1622726 0.10595539 0.09224494 -0.20442912
-0.2279886 -0.19594093 0.19821307 0.11968121 -0.091670915 0.080709174 -0.04129203 -0.19673114
-0.034575418 -0.13962884 0.30631277 -0.010495169 -0.2577854 0.07792259 -0.22476573 -0.046340086
0.13921665 0.051336568 -0.17367266 -0.066784 0.05076433 -0.18343855 0.2846385 0.25340587
0.06841255 -0.019907864 -0.15354224 -0.05151905 0.02318138 -0.23382008 0.17643811 -0.25306728
0.00058954884 0.23658128 0.001372798 0.23602463 -0.14092873 -0.16435099 -0.039360583 -0.1573578
-0.025604999 -0.2523085 0.12942111 0.09927268 0.20008014 -0.19050822 0.042099394 0.21968672
0.22270101 0.09731667 0.25454453 0.21455646 -0.2616883 -0.08495973 -0.26178056 -0.057521466
-0.10354244 -0.26713735 -0.006486727 0.09927195 0.08387933 0.1088736 -0.012068102 0.010852031
-0.14123489 0.022584135 -0.08285392 -0.153303 0.1626325 -0.1605205 -0.1199732 0.27653435
0.031668317 -0.2694037 0.03803179 0.2094919 -0.08555677 -0.14250666 0.2691104 0.17297333
-0.0762219 0.07904371 -0.20249726 0.040057383 0.013514497 0.25339723 0.29907504 -0.25347424
0.1562075 0.20781504 -0.14150529 0.16109645 -0.13884468 0.11046728 -0.150697 0.27839708
-0.10610004 -0.14265287 -0.07217144 0.16886407 0.2638315 -0.08253424 -0.06812975 -0.044225536
-0.24378045 0.16884165 -0.29528463 -0.11870848 0.23487127 0.143546 -0.04144604 -0.04648017
0.06699763 -0.21150531 0.17194247 -0.07567038 -0.07690268 -0.16884425 -0.08907549 0.11028046
0.069070384 0.113328286 0.044573836 0.20512797 0.13714741 -0.16741663 -0.20144992 -0.11440317
0.04770679 -0.0010315697 -0.17585082 -0.053475186 0.1623552 -0.14253621 -0.009419456 0.027688678
-0.007842365 -0.008731063 0.0670544 0.10630304 -0.1434229 -0.31297374 0.051119044 -0.14895868
-0.3556082 -0.0048638945 0.006191296 0.04491464 0.12240483 -0.12766244 0.1994843 0.017724076
-0.071534626 -0.22511849 -0.038863372 0.102221765 -0.083091974 -0.004455979 0.08930931 0.12011664
0.120473266 -0.014632402 -0.14969017 0.028344441 -0.1955246 0.029617893 0.061790295 -0.06376411
0.17378958 0.13862994 0.04359423 0.12520412 0.044771306 0.11478337 0.15970539 0.18798143
-0.20218879 -0.036212396 -0.28952307 -0.07621354 0.17783885 -0.052313816 0.18718426 -0.1411009
0.11588018 -0.24879904 0.082641244 -0.02711096 -0.07611386 -0.2146051 -0.057016406 0.07322476
0.17271572 0.06453909 0.11314863 -0.052454226 0.13026646 0.21711196 -0.08273505 0.23642023
-0.17055863 -0.11831663 -0.23614475 -0.09835991 -0.17167422 0.029633509 0.19940437 -0.26261473
0.027094668 -0.097407036 -0.12595299 0.12667158 0.1538374 -0.15155564 0.19195339 0.20320162
-0.1305086 0.10485525 -0.15698552 -0.23285326 -0.15607817 -0.2102343 -0.17225686 -0.08332333

price_branch.lstm.bias_ih_l0 f4 [64]
00000000: 67aa 91bc 9c0f 2bbe 6332 443e 68a9 febb
00000010: 464c 01bc 244e 95ba 0a6d 7d3d 6e66 43bd
00000020: 9624 e63d b0ea 03be c955 813e 8a85 3c3d
00000030: 5c4b f4bd 8116 a13e e90b acbb 3e05 363e
00000040: 050f dfbc 4a17 5ebe 3bb4 213d 9506 6fbe
00000050: ff60 283e 6810 423e c97d 34bd 66aa ccbc
00000060: 20a5 eb3d 4e7a cbbd 070d 43be 5aea 103e
00000070: 33d2 2abd 4dc8 1bbc 64a5 3bbe ee38 e5bd
00000080: 4584 7bbd 33df 903c facd 0cbe 7eda c73d
00000090: 6e13 233e 4cb8 0dbe 930a 833c 38fc a0bd
000000a0: e0cf 5fbe f59f 48be 286d 3ebe a11a 81bd
000000b0: acc7 66be 06f4 25bd 11b4 0dbd 8592 563e
000000c0: 7d40 033d 7cda e23d 8482 4ebe 072b 903c
000000d0: 0503 18be 6845 cd3d 58ea 373e a778 333e
000000e0: 81ec e2bd 4638 d4bd db0e 993e 8caa 0dbd
000000f0: 12e4 75bd 52c5 703e 04b9 f83d 851d 433e
-0.01778145 -0.16705173 0.19159846 -0.0077716596 -0.00789172 -0.0011391086 0.061871566 -0.047705106
0.11237447 -0.12882495 0.2526076 0.04602579 -0.11928436 0.31462482 -0.0052504432 0.17775437
-0.027228842 -0.21688572 0.03947852 -0.23342355 0.16443251 0.18951571 -0.04406527 -0.024983596
0.115061045 -0.09935437 -0.19047938 0.14151898 -0.041704368 -0.009508205 -0.1832481 -0.11192499
-0.06140544 0.017684555 -0.13750449 0.09758471 0.1592538 -0.13839835 0.015996253 -0.07860607
-0.21856642 -0.19592269 -0.18596327 -0.06303907 -0.22537106 -0.040515922 -0.034595553 0.2095433
0.032043923 0.11076829 -0.20166975 0.017598642 -0.14844902 0.10023004 0.17960489 0.17526494
-0.11080266 -0.10362296 0.29894146 -0.034586474 -0.060031958 0.23512772 0.12144664 0.1905423

price_branch.lstm.bias_hh_l0 f4 [64]
00000000: 919c 29bc 92e9 a4bd ae23 cbbc 2ff0 69be
00000010: c848 06be 8540 f6bd 3354 733e 4659 6d3e
00000020: dd61 953e 3ee2 533e 4a26 803e 73fd a63e
00000030: 786e 393c 4142 993e 0d2d 163e d5f5 603e
00000040: 7f66 5e3e a14c 94be 2890 85be 1e36 16be
00000050: 4f85 a8bd f17e 50bd 72f2 79bd 3e50 6bbd
00000060: 2865 5abe c1a7 373e cacb ad3d 1adb 6a3e
00000070: c4df 823e da69 d53d b5c3 e33d 7778 a23d
00000080: d56e 00bd 7d15 523e 475f 15be 52d9 f63d
00000090: 5bd5 8f3c dad3 9dbd be0f 683e 9241 123e
000000a0: c372 44be 3470 193e cb02 4c3e 667b 463e
000000b0: b3d4 56be 2fc3 f33c 0fdc d33d c9fe c73d
000000c0: 130f 013e 008f 26be 52f9 51be de1b 793e
000000d0: bc7a ddbd 418b 35be 2843 853e 8d60 16be
000000e0: b4a2 10be bd2f 5c3d 9a97 b33e 186b 623e
000000f0: a716 473e 0923 983e 9c09 883d fa4c 6dbe
-0.01035227 -0.080523625 -0.024797287 -0.22845529 -0.13113701 -0.12024025 0.23762588 0.23178586
0.29176226 0.20691773 0.25029212 0.3261524 0.011317842 0.2993336 0.14665623 0.21968777
0.21718787 -0.28964713 -0.26086545 -0.14669082 -0.082285516 -0.05090231 -0.06102223 -0.05744957
-0.2132765 0.17935087 0.08486135 0.22935143 0.25561345 0.1042058 0.111213125 0.07933133
-0.031355698 0.2051601 -0.14587127 0.12053169 0.01755779 -0.07706423 0.22662255 0.14282826
-0.19184403 0.14984208 0.1992294 0.1938301 -0.20979576 0.029756157 0.10344707 0.09765393
0.12603407 -0.16265488 -0.20505264 0.24327037 -0.10814425 -0.17728902 0.260278 -0.14685269
-0.14124566 0.053756464 0.350766 0.22111166 0.19442235 0.2971423 0.06642458 -0.23173895

price_branch.fc.weight f4 [16, 16]
00000000: eec2 73be 8fa7 e43d 820e 463e 678f 32be
00000010: 881e 6e3e 38a6 3ebe a8da 93be 1063 15be
00000020: 556f 83be d5c5 13be 2d74 8a3e fa9f 7bbe
00000030: 45bc d8bd 768f 223e 4aee 303e cbfb 2a3e
00000040: 6e46 e93b efb8 68bd 0da8 493e 5cab 2c3b
00000050: 1d1d ebbd 5154 8d3e f55d d03d eb44 743e
00000060: 7dc0 c83d 4e8d 213e 3a6b c7bd cc1b cfba
00000070: 92b8 b13d 6a34 533d 6e07 8c3d a626 083e
00000080: d71d 083e d071 66bd a836 8dbd a021 afbd
00000090: 7602 4f3e 8512 533e 6c15 383d 255e 8fbe
000000a0: 34fa 3c3e 5a20 3f3e 0fe1 4dbe 598f 97bc
000000b0: f316 673e a9bb 273e 4d9d 44be 4e3a dbbd
000000c0: 3a4e 55be d7f2 2c3e 957b 0c3e c119 9c3d
000000d0: 4c7a de3d 5a37 ae3c 4517 53be bde6 8a3d
000000e0: d239 5c3e f005 9e3d 2a58 c7bc 8786 383e
000000f0: 9188 cb3c a4ab 81bd ca01 203d e466 893d
00000100: 3a22 6bbe ed33 8dbd c1cf 123e b6ef b33d
00000110: 1de1 213e e575 ed3c dd03 1dbe 33e2 a0bc
00000120: 3672 e1bd 6628 d43d f3d9 22be 0e0e 973e
00000130: a4a2 3fbd 9488 2fbe 4818 77be 96b4 37be
00000140: 8b43 e8bd 9e6d 1ebd 73ae 273e f189 93be
00000150: a399 e7bd ec21 bbbd 1af3 2b3e ea4e 43be
00000160: 5200 473e d301 9cbd 99e1 c1bd 18e0 87bc
00000170: ed42 c0bd 75b2 a6bd 8202 eebc a609 80bd
00000180: 482a 10be 9d0c d83d 3b04 073e 9bac cb3c
00000190: 9a55 2cbd b656 a2be e55b 62be 8324 123e
000001a0: 22d6 14be 6088 183e 9723 a83e c71e dabe
000001b0: 127c 9ebd fb36 5f3e cf24 f13d 3b58 72be
000001c0: 8b7c ebbd 3936 55be f8bf e03d a723 4cbe
000001d0: 5ba9 763e f24f 5d3e 36a5 7a3e a44c f53d
000001e0: 4297 f1bc d075 1fbd 0c99 073d b3ea 973a
000001f0: 1d93 893e 6e18 bfbd 1810 673e 1e45 3cbe
00000200: bdd4 ccbd 95f7 4d3e 19b1 90bd 719d 683e
00000210: acaf 203c 7797 a73d 1284 bf3e 6f4e b13e
00000220: 0096 513e 5545 ca3d f98f 8fbe 41d3 b33e
00000230: 6fc4 473e 5c2d bdbe ddff 443e aebe 2a3e
00000240: 077e a93d db1e 613e 8af4 20bc 09d3 b2bd
00000250: 30b7 bcbc 0711 64be 63da 82be cb7a 2dbd
00000260: 1666 08be a84c 763e 77fd 61be 9373 2f3e
00000270: b3ae 6d3e 8111 2ebd b5ff a13c 039b 24be
00000280: 5515 453e f5d1 183e 5098 09be f062 06be
00000290: a8ba 8f3d a23f 3bbe d196 623e 2eaa 81bd
000002a0: 202a 15be 99b6 cc3d 3b42 05bd 0b1a c4bd
000002b0: 72f0 253e a919 be3c c749 2f3d cb55 b3bc
000002c0: 6e0f 2bbe fb4a 6f3c 7a5b b2bd 616f 6ebe
000002d0: a430 1d3e fb35 b9bd a339 cebc 3fd6 d73c
000002e0: f9c8 7a3e 305a 7c3e 28c5 d83c 5be7 22bd
000002f0: eab5 82be ee21 8fbd 1c71 653e e987 1ebe
00000300: 8e58 ffbd 6de4 973b 933d 383d 403e b53d
00000310: dfa9 2c3e 3fe3 c4bc bdaa 50be 746e d53d
00000320: f30a 51be 85a5 473e 3e66 26bd b2cc c63d
00000330: e49b 523d 2d8b 1bbd 0bdf 083e 101e a7bd
00000340: 6e1c ddbd c362 563c 1388 e73d 25cf 953e
00000350: f6cf bebd 63d4 893d 61a9 cc3e 5edc 033d
00000360: 07e1 003c 4251 a7bd bb06 60be d370 d03d
00000370: 3915 983e dcc3 28be 3950 0cbd 81fc 8dbd
00000380: db8a 7bbe 6019 313e 491d 75be ff37 c6bc
00000390: b11e 7f3e 2437 2fbd 2385 e63d 74cb 82bd
000003a0: a94e ff3d acad dd3d d6c3 82be 2a63 703d
000003b0: 7214 b1bd 32a4 83be 26db dcbd fc1e 7d3d
000003c0: 2aa0 eebd 4017 1cbd c4bb e9bd 4329 6a3d
000003d0: 8645 41be 06b9 fd3c 8222 3d3e 9513 43be
000003e0: 4008 643e 4d86 f93d bbb0 29be 40ec af3d
000003f0: 887f d93c 5eac 26be 58b7 273e 3c64 18be
-0.23804829 0.11164772 0.19341472 -0.17437516 0.23253834 -0.18618095 -0.2887776 -0.1458857
-0.25670877 -0.14430936 0.2704176 -0.24572745 -0.105827846 0.15875039 0.172784 0.16697614
0.0071189916 -0.05681699 0.19693013 0.0026347255 -0.11480162 0.2760339 0.10174171 0.23854415
0.09802339 0.1577656 -0.09737249 -0.0015801131 0.08677782 0.051563658 0.068373546 0.13295993
0.13292633 -0.056260884 -0.068951905 -0.08551335 0.20215783 0.20612533 0.044942304 -0.28001514
0.1845482 0.18664685 -0.20105384 -0.01850097 0.22567348 0.1638018 -0.1920063 -0.1070448
-0.20830622 0.16889511 0.13719018 0.076221 0.1086317 0.021266628 -0.20614345 0.06782291
0.21506432 0.07715976 -0.024334032 0.18020068 0.024845393 -0.06331566 0.039064206 0.06709078
-0.22962275 -0.0689467 0.14337064 0.087859556 0.1580853 0.02898688 -0.15333505 -0.01963911
-0.11008112 0.10359268 -0.15903454 0.2950291 -0.046785966 -0.17141944 -0.24130356 -0.17939982
-0.11341008 -0.038678758 0.16375141 -0.28816178 -0.11308601 -0.091373295 0.16791955 -0.19073072
0.19433716 -0.076175354 -0.094668575 -0.016586348 -0.09387765 -0.08139507 -0.02905393 -0.0625184
-0.14078629 0.10549281 0.13185208 0.024862578 -0.042073824 -0.3170678 -0.22105367 0.1427174
-0.1453481 0.14895773 0.32839653 -0.42601606 -0.07738508 0.21798317 0.11774599 -0.2366647
-0.11498364 -0.20821466 0.10974115 -0.19935475 0.24088041 0.21612528 0.24477085 0.11977509
-0.02949107 -0.038930714 0.03310494 0.0011590332 0.2687005 -0.093308315 0.22564733 -0.18385741
-0.10001514 0.20113976 -0.07065029 0.22716309 0.009807508 0.081831865 0.3740545 0.34630153
0.20467377 0.09876505 -0.2803953 0.3512211 0.19508527 -0.3694867 0.19238229 0.16674301
0.08275991 0.21984427 -0.009823928 -0.08731658 -0.02303657 -0.2227212 -0.2555724 -0.042353433
-0.13320193 0.2405268 -0.22069345 0.17133932 0.23211174 -0.04249716 0.01977525 -0.16074757
0.19246419 0.14923842 -0.13437009 -0.13123679 0.07018024 -0.18285993 0.22127844 -0.06331287
-0.1456685 0.09995765 -0.032533865 -0.0957528 0.16205004 0.023205595 0.04279497 -0.021891495
-0.16705105 0.014605279 -0.08708854 -0.23284675 0.15350586 -0.09043499 -0.025173968 0.026347278
0.24490727 0.24643779 0.026461199 -0.03977142 -0.25529414 -0.069888934 0.22406429 -0.15481533
-0.12468062 0.004635385 0.044980597 0.08849764 0.16861676 -0.02403414 -0.20377631 0.10421458
-0.20414333 0.19496734 -0.04062485 0.09707011 0.0514182 -0.037974525 0.13366334 -0.08160031
-0.10796438 0.01308507 0.11305251 0.292596 -0.09317009 0.06729963 0.39972976 0.03219258
0.007866151 -0.081697956 -0.21877567 0.101777695 0.29703692 -0.16480964 -0.034256194 -0.06932927
-0.24564688 0.17294836 -0.23936953 -0.024196623 0.24914052 -0.042777196 0.112558626 -0.06386462
0.12466175 0.10824141 -0.25540036 0.05868832 -0.08646478 -0.2571121 -0.10783987 0.061797127
-0.116516426 -0.03810811 -0.114127666 0.057168256 -0.18874177 0.030972015 0.18470195 -0.19050439
0.22268772 0.12183819 -0.16571324 0.08589983 0.02655007 -0.1627669 0.16378534 -0.14881986

price_branch.fc.bias f4 [16]
00000000: b2e0 b6bd a34f 583e c4ba 5cbd 783c fdbc
00000010: c084 843e 2f38 b9bd 761f 513e f5e1 763e
00000020: 67b3 cd3d 991d a93c 9151 3b3e 2538 83bd
00000030: ff3c 1fbe b913 0c3e a1e9 183e 00bd 673d
-0.08929576 0.21124129 -0.05388905 -0.030912623 0.2588253 -0.09043919 0.20422158 0.24109633
0.10043984 0.020643996 0.18292834 -0.06407193 -0.15550612 0.13679399 0.14932872 0.05657673
